PytorchFundamentals/CNN_StepByStep/model_mtl_mnist.pt (torch_old, 571714 bytes, 32 tensors)

conv1.0.weight f4 [32, 1, 3, 3]
0	0x3da5ea9d	0.081013896
1	0xbe5f2ec5	-0.21795185
2	0xbe4ec5dd	-0.20192666
3	0x3db35b2e	0.087576255
4	0xbe0eb8c7	-0.13937674
5	0xbde1b365	-0.11020545
6	0x3d89d16c	0.06729397
7	0x3e5641c8	0.20923531
8	0xbe503dd2	-0.20336083
9	0x3d152e7a	0.036421277
10	0x3e8044fc	0.2505263
11	0x3c3b04b4	0.0114146955
12	0xbe0cd4d2	-0.1375306
13	0xbe538e20	-0.20659685
14	0x3dfe60eb	0.124208294
15	0xbe8badfd	-0.2728118
16	0xbe2d3485	-0.16914566
17	0x3e82c018	0.2553718
18	0xbe3d197a	-0.1846675
19	0xbe42efaf	-0.19036745
20	0xbd74833f	-0.05969548
21	0xbe7fa6c1	-0.24965955
22	0x3e5dd6ab	0.2166392
23	0xbddb29cd	-0.10701332
24	0xbe0ea1ba	-0.13928881
25	0x3e0b82ff	0.1362419
26	0x3c02ebfb	0.007990832
27	0x3e342031	0.17590405
28	0xbd23ff39	-0.04003832
29	0x3e8543cf	0.26028296
30	0xbd22ee30	-0.039777935
31	0xbe956d04	-0.29184735
32	0xbc9fdb21	-0.019513668
33	0x3e2aad0c	0.16667575
34	0xbe7954bb	-0.24348728
35	0xbe67fc82	-0.22654918
36	0x3e1bd1d3	0.1521676
37	0xbe000677	-0.12502466
38	0xbd70f589	-0.05882791
39	0x3e71d384	0.23615843
40	0x3e8b5a87	0.27217504
41	0x3e60b7ad	0.21945067
42	0x3e98f646	0.29875392
43	0xbe92a47a	-0.2864111
44	0x3e3a5195	0.18195184
45	0xbea64d7c	-0.3248099
46	0xbd8fa5f4	-0.07014075
47	0xbe8fa59c	-0.28056037
48	0x3e91389c	0.28363502
49	0xbdcb3613	-0.09922423
50	0xbd95c88b	-0.07313641
51	0x3e9c1d2d	0.3049101
52	0xbe27e087	-0.16394244
53	0xbe2314bd	-0.1592588
54	0x3dc42b1f	0.09578537
55	0x3e513add	0.20432611
56	0xbea241da	-0.31690866
57	0xbe33c9b7	-0.17557417
58	0xbe96db02	-0.29463965
59	0xbe71542f	-0.2356727
60	0x3d80588b	0.06266888
61	0x3c6f9640	0.014623225
62	0xbe1b55cc	-0.15169448
63	0x3d2cbcfc	0.042172417
64	0xbe458023	-0.19287162
65	0x3deea9c4	0.11653474
66	0x3da21465	0.07914046
67	0x3dca717b	0.09884926
68	0x3e6d86eb	0.23195998
69	0x3e61dfee	0.22058079
70	0x3e57b064	0.21063381
71	0xbdc0ee63	-0.09420469
72	0xbe963087	-0.29333898
73	0xbe7be3d4	-0.24598628
74	0xbd5f5906	-0.05452826
75	0xbe4a6c93	-0.1976798
76	0xbe955a06	-0.29170245
77	0xbd68a16a	-0.05679456
78	0x3de2b283	0.11069205
79	0x3e851b6d	0.25997487
80	0x3c741caf	0.014899417
81	0xbd4c8049	-0.04992703
82	0xbeac4a2a	-0.33650333
83	0xbdbb2944	-0.0913873
84	0x3e3f6c3a	0.18693629
85	0x3d8a6654	0.06757799
86	0x3e94b613	0.29045162
87	0x3e9842b8	0.29738402
88	0x3d98f80d	0.07469187
89	0xbe9d779b	-0.30755314
90	0x3e1fe572	0.1561487
91	0xbc446fb1	-0.01198952
92	0xbdd32605	-0.10309986
93	0x3e1db079	0.1539935
94	0xbea11b1f	-0.31466004
95	0xbd6be2fa	-0.05758951
96	0xbdb43976	-0.08800022
97	0xbe926599	-0.28593138
98	0x3d37b16f	0.04484695
99	0xbe8e20f0	-0.27759504
100	0xbd599c3e	-0.05312752
101	0xbea32c49	-0.31869724
102	0xbe8221fe	-0.2541656
103	0xbe8199cb	-0.25312647
104	0x3e894704	0.26811993
105	0xbd866caa	-0.06563695
106	0x3e258724	0.16164833
107	0xbe0ec223	-0.13941245
108	0xbd548159	-0.051881168
109	0xbe499e3f	-0.19689272
110	0x3e94d0c8	0.29065537
111	0x3e7e1bba	0.24815264
112	0xbe44a3e2	-0.19203141
113	0xbe9e518d	-0.30921593
114	0xbdc0f274	-0.09421244
115	0xbda6b6b1	-0.08140314
116	0x3e2f5a4b	0.17124288
117	0xbe5fb71b	-0.21847193
118	0x3dd9053c	0.105967015
119	0xbde80852	-0.11329712
120	0x3e843020	0.25817966
121	0x3e3bee0c	0.18352526
122	0xbeafa4eb	-0.3430551
123	0xbe351d39	-0.17686929
124	0xbda845bd	-0.082164265
125	0xbe11af89	-0.14227118
126	0x3e776532	0.24159697
127	0xbc36bce2	-0.011153432
128	0xbdc9f2b1	-0.09860743
129	0xbe57c80b	-0.21072404
130	0xbe6e217e	-0.23254964
131	0xbde28ff0	-0.1106261
132	0x3d034a36	0.032053195
133	0x3ea7d026	0.32775992
134	0x3d8c91ff	0.06863784
135	0x3da6a4c1	0.08136893
136	0xbe56d636	-0.20980152
137	0x3e339b24	0.1753965
138	0x38aaaff8	8.1390084e-05
139	0xbdb294bc	-0.08719775
140	0xbd4392e7	-0.04774752
141	0x3dd62c62	0.10457684
142	0xbdcb8c8e	-0.09938918
143	0x3ea7c4a4	0.32767212
144	0xbc1795b4	-0.009252001
145	0xbe7b3fc6	-0.24536046
146	0x3d96c5b7	0.0736193
147	0xbe9dbb5c	-0.30807006
148	0xbda53147	-0.080660395
149	0xbe674ca3	-0.22587828
150	0x3e87e6eb	0.26543364
151	0xbd97a1fc	-0.07403943
152	0xbe3deb9b	-0.18546908
153	0xbd8a3d22	-0.067499414
154	0x3e7514d6	0.2393373
155	0xbe12159d	-0.14266057
156	0xbe61786b	-0.22018592
157	0xbe6936af	-0.22774766
158	0xbe51b5d2	-0.20479515
159	0xbe64a61d	-0.22328992
160	0xbe70cb22	-0.23514989
161	0xbb1edabb	-0.002423926
162	0x3e2ba361	0.16761543
163	0xbe935cd1	-0.2878175
164	0xbe55790f	-0.20846961
165	0x3e2e71f5	0.17035659
166	0xbdc3ebf6	-0.0956649
167	0x3e4cc8b9	0.19998445
168	0xbd8f22ad	-0.06989036
169	0x3e8eab23	0.27864942
170	0x3e6c83c3	0.23097138
171	0x3e0c2525	0.13686045
172	0x3e5fe654	0.21865207
173	0xbe9c1a16	-0.30488652
174	0x3e8a3b13	0.26998195
175	0x3d2c94e8	0.042134196
176	0xbe3c8c23	-0.18412833
177	0xbea1eaa3	-0.31624326
178	0x3e7a464e	0.24440882
179	0x3e600a35	0.21878894
180	0x3e421100	0.18951797
181	0x3e8e4418	0.27786326
182	0xbe65f7d9	-0.22457828
183	0x3e85b97a	0.2611807
184	0x3e716398	0.23573148
185	0x3dbd254e	0.09235631
186	0x3e5a1834	0.21298295
187	0xbe086b62	-0.13322213
188	0xbe996733	-0.29961547
189	0x3d4ecbf1	0.050487462
190	0xbe386bb6	-0.18009838
191	0x3e6cb258	0.23114908
192	0xbe60ead4	-0.2196458
193	0x3dedb5fc	0.116069764
194	0x3ea16746	0.31524104
195	0xbe9f2aac	-0.31087244
196	0xbdcf5ab0	-0.10124719
197	0x3e8f3de7	0.27976915
198	0xbe2d58a0	-0.16928339
199	0xbe8823f1	-0.2658992
200	0x3da9f397	0.08298414
201	0x3e9bf405	0.3045961
202	0x3e702399	0.2345108
203	0xbd9bbe2b	-0.07604631
204	0xbe33d09b	-0.17560045
205	0x3e008ac9	0.12552942
206	0x3d090c99	0.03345928
207	0xbd3ebf1d	-0.04656898
208	0xbe7e4c10	-0.24833703
209	0x3e1654ac	0.14680737
210	0x3e676615	0.22597535
211	0xbe25f3ec	-0.1620633
212	0x3e2ca846	0.16861066
213	0x3e29f2c2	0.16596511
214	0xbd4ebcf1	-0.050473157
215	0xbe358926	-0.17728099
216	0xbd97ea00	-0.07417679
217	0x3e9af4e2	0.30264956
218	0xbea3c8ab	-0.31989035
219	0xbcf226ef	-0.02955958
220	0xbe0e675d	-0.13906617
221	0xbe98a06d	-0.29809895
222	0x3e99cc9c	0.30038917
223	0x3e3bb0e0	0.18329191
224	0xbc57289f	-0.013132243
225	0x3e655a86	0.22397813
226	0x3ea07fba	0.31347448
227	0xbe97ca8d	-0.2964672
228	0x3cac2b09	0.021016615
229	0x3e4c84e9	0.19972576
230	0xbe18299c	-0.14859623
231	0x3e24bc88	0.16087544
232	0x3dc3df4e	0.09564076
233	0xbe886d24	-0.26645768
234	0x3c0baa33	0.008524465
235	0x3d84c031	0.0648197
236	0xbd267467	-0.040638354
237	0x3e478f7b	0.19488327
238	0x3b1a2d73	0.0023525625
239	0xbd9d7f23	-0.07690265
240	0xbe17b45e	-0.14814898
241	0xbe922c33	-0.28549346
242	0xbe9481fa	-0.29005414
243	0x3e03a9f6	0.12857804
244	0x3ea15dfe	0.31517023
245	0x3cc9118d	0.024544502
246	0xbe725790	-0.23666215
247	0x3ea54ab2	0.3228355
248	0xbe5bef48	-0.21477997
249	0xbe4c6eea	-0.19964185
250	0x3e9da165	0.30787197
251	0x3e564800	0.20925903
252	0xbe6dbe65	-0.23217161
253	0xbe1e911c	-0.15485042
254	0xbea18a87	-0.31551
255	0x3e83c6e8	0.2573769

conv1.0.bias f4 [32]
0	0x3e8301d6	0.25587338
1	0xbe10fdbf	-0.14159296
2	0xbe855e21	-0.26048377
3	0xbe569e8f	-0.20958923
4	0x3e7fc93c	0.24979109
5	0x3ea72328	0.3264401
6	0xbe90dab2	-0.2829185
7	0xbe9930c5	-0.2992002
8	0x3ddedd91	0.10882104
9	0xbe21c651	-0.15798308
10	0xbe0695d1	-0.13143088
11	0xbdf474b5	-0.119363226
12	0x3d539657	0.051657047
13	0xbe8e3d23	-0.2778102
14	0xbe8d3ad3	-0.27583942
15	0x3ea00f04	0.31261456
16	0xbe82191c	-0.25409782
17	0xbcc6406a	-0.024200637
18	0xbe7e07a9	-0.2480761
19	0x3d5946b2	0.053045936
20	0x3c9e7300	0.019341946
21	0xbda0e510	-0.0785619
22	0xbe46ad4a	-0.19402042
23	0x3c971c01	0.01844597
24	0x3b95175e	0.0045499047
25	0xbd4cda78	-0.050013036
26	0xbea67743	-0.32512864
27	0xbe5d9d43	-0.21642022
28	0x3d66618f	0.056245383
29	0xbe99d5c1	-0.30045894
30	0x3d748890	0.05970055
31	0xbe60655f	-0.2191367

conv1.2.weight f4 [32]
0	0x3f8027b7	1.001212
1	0x3f800ab8	1.0003271
2	0x3f803414	1.0015893
3	0x3f8050ff	1.0024718
4	0x3f8019d6	1.0007885
5	0x3f7fd50d	0.99934465
6	0x3f8035dc	1.0016437
7	0x3f7f98cf	0.9984254
8	0x3f804cad	1.00234
9	0x3f7f0091	0.9961024
10	0x3f7ff37e	0.99980915
11	0x3f806ce9	1.0033237
12	0x3f7eb0fa	0.99488795
13	0x3f7f9aaa	0.99845374
14	0x3f7da322	0.99077046
15	0x3f8010b1	1.0005094
16	0x3f8086bc	1.0041118
17	0x3f806e6a	1.0033696
18	0x3f801059	1.0004989
19	0x3f805be2	1.002804
20	0x3f8014f3	1.0006393
21	0x3f802b0f	1.001314
22	0x3f7f2fd5	0.9968236
23	0x3f7f5744	0.9974253
24	0x3f8045c7	1.0021294
25	0x3f804f37	1.0024174
26	0x3f801de4	1.0009122
27	0x3f804939	1.0022346
28	0x3f7fbdf2	0.9989921
29	0x3f7fc26a	0.9990603
30	0x3f7fe77c	0.9996259
31	0x3f7ebb9d	0.99505025

conv1.2.bias f4 [32]
0	0x3b0f3d91	0.0021856765
1	0x3a905518	0.0011011688
2	0x380be9a1	3.3357766e-05
3	0xba2d044b	-0.0006600066
4	0xbad24b2a	-0.0016044129
5	0xb5af98ef	-1.3083026e-06
6	0xba244753	-0.00062667317
7	0xbb0d9fba	-0.0021610097
8	0x3aa0cd73	0.001226826
9	0xbadef668	-0.0017010691
10	0x3b53d6ff	0.0032324193
11	0xbaedc81f	-0.0018141306
12	0x39bf09bb	0.0003643761
13	0x39c5a7fd	0.0003769993
14	0xb9b69746	-0.00034826453
15	0x3ade9b27	0.0016983495
16	0xbade63ca	-0.0016966995
17	0xba9566f3	-0.0011398479
18	0xbb17c158	-0.0023156013
19	0xbb336dbc	-0.002737864
20	0xbaeaabe5	-0.0017904012
21	0xba3f4e8f	-0.0007297778
22	0x3a934c9c	0.0011238041
23	0x39fe231a	0.00048472808
24	0x3b0246f7	0.0019878724
25	0x3ac1486d	0.0014746316
26	0xbb28d71e	-0.0025762985
27	0xb9928ce6	-0.00027952268
28	0xb9b9f6b8	-0.0003546977
29	0xbac3f254	-0.0014949539
30	0x3a3edef8	0.000728115
31	0xba683afb	-0.00088588864

conv1.2.running_mean f4 [32]
0	0x3f12f18e	0.57399833
1	0x3d7b2a25	0.06131949
2	0x3e603f4d	0.21899147
3	0x3dc0a0d8	0.094056785
4	0x3dc89e4c	0.09795818
5	0x3f3f2e0c	0.74679637
6	0x3eca0e74	0.39464152
7	0x3cbcf15c	0.023064308
8	0x3f348e93	0.7053005
9	0x3d1b75c6	0.037954114
10	0x3ea03e9d	0.3129777
11	0x3f19e9e0	0.6012249
12	0x3e7bd4bf	0.24592875
13	0x3e2a078c	0.16604441
14	0x3c574e4d	0.013141227
15	0x3e2f849e	0.17140433
16	0x3ecd61d4	0.401137
17	0x3f4f06d4	0.80869794
18	0x3ccc8e32	0.024970148
19	0x3d51eee1	0.051253203
20	0x3dbf92f0	0.09354198
21	0x3da90720	0.08253312
22	0x3c40cdb7	0.011767796
23	0x3d42bae5	0.047541518
24	0x3e0ef933	0.1396225
25	0x3d86c1e3	0.0657995
26	0x3e46b662	0.19405511
27	0x3cfcaeec	0.030845128
28	0x3f046f7b	0.51732606
29	0x3e99be34	0.30027926
30	0x3d8ce50e	0.06879626
31	0x3c9e15bf	0.019297479

conv1.2.running_var f4 [32]
0	0x3d8e4c3b	0.069481336
1	0x3cb2acb9	0.021810876
2	0x3c984639	0.018588172
3	0x3c979d2d	0.018507564
4	0x3d8a0986	0.06740098
5	0x3deb8d4d	0.1150156
6	0x3d368e9f	0.044569608
7	0x3bffeac2	0.0078099677
8	0x3df1757d	0.11789987
9	0x3c77be24	0.015121017
10	0x3cf776e5	0.03020806
11	0x3dcfadf9	0.101406045
12	0x3c5d6b44	0.013514344
13	0x3c61a2e0	0.013771743
14	0x3b46d35a	0.0030338378
15	0x3d066ace	0.0328167
16	0x3d3f10c6	0.046646856
17	0x3e1ac1bf	0.15112971
18	0x3c2d5ed2	0.010581689
19	0x3cce54d0	0.025186926
20	0x3d92572a	0.071455315
21	0x3d5c433b	0.053775053
22	0x3b7484b4	0.0037310543
23	0x3c45bbae	0.012068672
24	0x3d101bb8	0.035182685
25	0x3d344ed0	0.044020474
26	0x3c8241cc	0.015900515
27	0x3c795345	0.015217607
28	0x3d98d923	0.074632905
29	0x3d010531	0.03149909
30	0x3cf48c40	0.029852033
31	0x3b9b474e	0.004738725

conv1.3.weight f4 [32, 32, 3, 3]
0	0xbd6fa909	-0.058510814
1	0x3d128024	0.035766736
2	0xbce1cd0c	-0.027563594
3	0x3c1ebeac	0.009689014
4	0x3d5793e0	0.05263126
5	0x3d275c20	0.04085934
6	0xba1cb6cd	-0.0005978167
7	0x3cb93d79	0.02261232
8	0xbc96fae7	-0.018430186
9	0x3d0293f4	0.03187938
10	0x3d249450	0.040180504
11	0x3d5f9ce7	0.054592993
12	0x3d48f14b	0.04905824
13	0x3c0f4f13	0.00874688
14	0x3c325353	0.010884124
15	0x3b15bba6	0.0022847443
16	0x3c312384	0.01081169
17	0x3d30efc2	0.0431974
18	0xbc3d3e0c	-0.011550438
19	0xbd6c11a5	-0.057634015
20	0xbd238ffc	-0.039932236
21	0xbb1cb109	-0.0023909232
22	0x3ccb8828	0.024845198
23	0x3d402f38	0.04692003
24	0x3b55ab5f	0.0032603366
25	0xbd03986a	-0.032127775
26	0x3c2da166	0.010597562
27	0x3c390a76	0.011293998
28	0xbd3ad1a2	-0.045610078
29	0x3cfe531b	0.031045487
30	0x3cb94426	0.022615504
31	0x3d496aab	0.049173992
32	0xbd574ba1	-0.05256236
33	0xbc7fa679	-0.015603655
34	0x3d2df927	0.04247394
35	0x3d2c93a2	0.04213298
36	0xbc8dd5aa	-0.017313797
37	0xbb8d676b	-0.004315307
38	0xbd0cfe2c	-0.034422085
39	0x3d43a300	0.04776287
40	0xbccc16e9	-0.024913268
41	0x3ce221a5	0.027603934
42	0xbcfb3186	-0.030663263
43	0xbcbe45b3	-0.023226595
44	0xbc27d75c	-0.010244217
45	0xbd4ca2f2	-0.049960084
46	0x3d38c855	0.045112927
47	0x3d00b2b8	0.03142044
48	0x3d6bcc1b	0.057567697
49	0xbd295cdb	-0.04134832
50	0xbcb8e7f4	-0.022571541
51	0x3d0a2a48	0.03373173
52	0xbb6863e6	-0.0035459935
53	0xbd353320	-0.04423821
54	0x3d26370c	0.04057984
55	0xbd1aab4f	-0.03776103
56	0x3cd4a951	0.025959643
57	0x3d529178	0.05140826
58	0x3ca33d22	0.019926611
59	0xbd220d60	-0.039563537
60	0x3c89fd7f	0.01684451
61	0xbc5632a1	-0.013073594
62	0x3bae9bd4	0.0053286348
63	0xbab2ca23	-0.0013640564
64	0x3d429775	0.047507722
65	0xbc80c16e	-0.015717234
66	0xbd30ec71	-0.043194238
67	0x39aa2b4c	0.00032457185
68	0xbd1d4e42	-0.03840471
69	0x3c8a170b	0.01685669
70	0x3d5b1d5a	0.05349479
71	0xb8c17db4	-9.226371e-05
72	0x3d33dea5	0.043913502
73	0x3cd8324a	0.026391167
74	0xbc526934	-0.012842465
75	0xbd6c64d4	-0.057713345
76	0xbd1fe7b7	-0.03903934
77	0x3d51b563	0.051198374
78	0x3d52ffb3	0.051513385
79	0x3ca37d65	0.019957254
80	0x3c9abc45	0.018888602
81	0xbd004b3b	-0.031321745
82	0x3d527ccc	0.051388547
83	0xbd0a3ec0	-0.03375125
84	0x3cee7da5	0.029112646
85	0xbb82e11e	-0.003994121
86	0x3cbfadf6	0.02339838
87	0xba8b2ead	-0.0010618769
88	0xbc808be9	-0.015691714
89	0xbc8242e0	-0.01590103
90	0xbcacb1fb	-0.021080961
91	0x3ced2d44	0.028952248
92	0x3d42ab1c	0.047526464
93	0x3c5b4b2c	0.013384622
94	0x3a835df2	0.0010022505
95	0x3ce7f7a1	0.02831632
96	0x3ca8a0b2	0.020584438
97	0xbaaba138	-0.0013094312
98	0x3d428709	0.04749206
99	0xbba1eb52	-0.0049413824
100	0xbcbdc87c	-0.023166887
101	0x3c11dd12	0.008902805
102	0xbcbc2c24	-0.022970267
103	0x3cbefec9	0.02331485
104	0xbd65d7b1	-0.056113902
105	0x3c89209d	0.016739184
106	0x3c2c1d13	0.010504979
107	0xbc7f2133	-0.01557188
108	0x3cb145cf	0.021639733
109	0x3cd1e292	0.025620732
110	0xbc2272eb	-0.009915094
111	0x3c42b48f	0.011883869
112	0xbd033b30	-0.032038867
113	0xbc381215	-0.01123478
114	0xbceaea84	-0.028676279
115	0xbd2ad3bb	-0.04170583
116	0x3cb377f4	0.021907784
117	0xbd38b74e	-0.045096688
118	0x3b993990	0.0046760514
119	0xbd4fddb7	-0.050748553
120	0x3d663743	0.056205045
121	0xbb019eee	-0.0019778567
122	0xbbdaa4b0	-0.0066724643
123	0xbd08b498	-0.033375353
124	0xbd640a26	-0.05567374
125	0x3cde01d8	0.027100489
126	0x3b8a87d2	0.004227617
127	0x3d484a10	0.048898757
128	0xbce19794	-0.027538098
129	0x3b0ba2de	0.0021306793
130	0x3b44aa49	0.0030008724
131	0x3d286a2c	0.04111688
132	0xbccb1efd	-0.02479505
133	0xbcdde5f8	-0.027087197
134	0xbcd1d562	-0.025614444
135	0x3d3065e8	0.043065935
136	0x3c0f0ad7	0.008730612
137	0xbc735d8e	-0.014853848
138	0xbb8689f8	-0.0041058026
139	0xbcdf27d3	-0.02724067
140	0xbaf906ec	-0.0018999255
141	0xbd0f7918	-0.035027593
142	0xbd210ef3	-0.039320897
143	0xbce7bc5e	-0.028288063
144	0x3cb3bcfe	0.021940704
145	0x3c1f63ab	0.009728353
146	0xbd2c6304	-0.042086616
147	0x3cb6809e	0.022278126
148	0xbc8cd8ef	-0.017193286
149	0xbd219d42	-0.039456613
150	0xbd3e80a0	-0.046509385
151	0x3d120e22	0.03565801
152	0xbc98acb9	-0.018637048
153	0xbccc5fa6	-0.024947952
154	0xbc82a0e4	-0.01594586
155	0x3d0acdb5	0.033887584
156	0x3d60a514	0.05484493
157	0x3d3cebb7	0.046123233
158	0x3be5f425	0.0070176297
159	0xbb99e818	-0.004696857
160	0x3d12954e	0.03578692
161	0xbd1f88af	-0.03894871
162	0x3ceb1795	0.028697768
163	0xba1e179e	-0.0006030741
164	0xbd2d3d1e	-0.042294614
165	0x3c921bc3	0.017835503
166	0xbc782d88	-0.015147574
167	0xbd301dda	-0.04299722
168	0xbcbf62d3	-0.023362553
169	0x3bb87058	0.005628627
170	0x3ced6f7f	0.02898383
171	0xbca04024	-0.019561835
172	0x3b5751f3	0.0032855242
173	0x3cc0cd4a	0.02353539
174	0x3c40f1a2	0.01177636
175	0xbd0c41fe	-0.034242623
176	0xbc968f5e	-0.01837891
177	0xbc223f1b	-0.009902741
178	0x3d2d503d	0.04231285
179	0xbd41f30f	-0.04735094
180	0x3c5452d5	0.012959202
181	0xbd5afa60	-0.053461432
182	0x3cbbbc7e	0.022917029
183	0x3c2ab071	0.0104180435
184	0xbd1b344d	-0.037891675
185	0xbcfe79d7	-0.031063957
186	0xbcb14767	-0.021640493
187	0xbcd09614	-0.025462188
188	0xbcaa12ba	-0.020760883
189	0xbc7f1742	-0.01556951
190	0xbcaf92be	-0.021432277
191	0x3d6cafa0	0.057784677
192	0xbce91ec9	-0.028457062
193	0xbd1a0cd4	-0.03760989
194	0x3cb30807	0.021854414
195	0x3d64862e	0.055792026
196	0xbcf35750	-0.02970472
197	0x3d1a50a1	0.03767455
198	0xbd38abc0	-0.04508567
199	0x3d44265b	0.04788814
200	0xbd1ed03f	-0.038772818
201	0x3cf1be50	0.029509693
202	0xbc95f94f	-0.018307356
203	0xbd0d01ba	-0.034425475
204	0x3d2cdd63	0.04220332
205	0xbcb30d55	-0.021856943
206	0x3c1ed226	0.009693658
207	0x3d0b9613	0.03407867
208	0xbd274d86	-0.040845416
209	0x3d412ee7	0.04716387
210	0xbbcc3e92	-0.006233045
211	0x3ccbf5cb	0.024897477
212	0x3d22e527	0.039769318
213	0xbc9eab3c	-0.01936876
214	0x3d664911	0.056222025
215	0xba4aeb21	-0.00077407254
216	0x3d02f48d	0.031971503
217	0x3ca16584	0.019701727
218	0xbc88985e	-0.016674217
219	0x3caefc1a	0.021360446
220	0x3d622c6d	0.05521815
221	0xbd5d90de	-0.054093234
222	0x3bfb7e01	0.007674933
223	0x3d504d10	0.050854743
224	0x3d00fb26	0.031489514
225	0x3d520c5c	0.051281318
226	0x3d11e1ae	0.035615616
227	0x3d6d5dbd	0.057950724
228	0x3d553f56	0.052062355
229	0xbca6ab3e	-0.020345327
230	0x3d3884c8	0.045048505
231	0xbd60fed0	-0.054930508
232	0xbbbfc57d	-0.0058524
233	0xbce1354f	-0.02749124
234	0x3c856586	0.016283762
235	0xbc6e705f	-0.014553159
236	0xbd35db00	-0.044398308
237	0xbd25f3ce	-0.040515713
238	0x3d50dca8	0.050991684
239	0x3c2eb15f	0.010662406
240	0xbb5c9337	-0.0033657083
241	0xbd09da19	-0.03365526
242	0xbd6923ab	-0.05691878
243	0x3d50353b	0.050832015
244	0x38e11467	0.00010732636
245	0x3cf498e8	0.029858068
246	0x3c53d16d	0.012928349
247	0xbcfe5cca	-0.031050105
248	0x3d6e27c4	0.058143392
249	0x3c8861f7	0.016648276
250	0x3d5c58e2	0.053795703
251	0x3d649a62	0.055811293
252	0xbd156685	-0.036474723
253	0x3c6a378b	0.014295469
254	0xbc0d775a	-0.008634413
255	0xbac5ad86	-0.0015081621

conv1.3.bias f4 [32]
0	0x3c0735b7	0.008252553
1	0xba06cd7b	-0.00051423133
2	0xbd416072	-0.047211118
3	0x3ca89699	0.020579623
4	0x3c00bcf8	0.007857554
5	0x3c2d4ca4	0.010577355
6	0xbd4382f6	-0.047732316
7	0x3c675870	0.014120206
8	0x3c0be65d	0.00853881
9	0xbd5cff3e	-0.053954355
10	0x3d2af2a4	0.041735306
11	0x3b6f48aa	0.0036511817
12	0x3beb236a	0.0071758525
13	0x3d399d23	0.045315873
14	0x3d458444	0.04822184
15	0xbc6af018	-0.014339469
16	0x3c451e8b	0.012031208
17	0x3d1d6e2e	0.038435154
18	0xbb0d0bfe	-0.002152204
19	0xbc80a8b3	-0.015705442
20	0x3bdeeacb	0.006802892
21	0x3d6c7150	0.05772525
22	0x3be322f1	0.0069316556
23	0xbc15f64b	-0.009152959
24	0xbbad7e97	-0.0052946317
25	0xbc17a159	-0.009254777
26	0xbbd2b923	-0.0064307614
27	0xbb826f20	-0.0039805323
28	0xbd6b8fc3	-0.05751015
29	0xbd315466	-0.04329338
30	0xbc8358c8	-0.016033545
31	0xbc4bcca2	-0.012438925

conv1.5.weight f4 [32]
0	0x3f7e89dc	0.99429107
1	0x3f7f8e99	0.9982696
2	0x3f81752c	1.0113883
3	0x3f7ecf17	0.99534744
4	0x3f80652f	1.0030879
5	0x3f810c29	1.0081836
6	0x3f7f7a76	0.99796236
7	0x3f8024a9	1.0011188
8	0x3f7fcae2	0.9991895
9	0x3f80525e	1.0025136
10	0x3f7eec2e	0.9957913
11	0x3f802e79	1.0014182
12	0x3f7e1261	0.99246794
13	0x3f800894	1.0002618
14	0x3f7f4b72	0.99724495
15	0x3f7f4904	0.9972079
16	0x3f80135b	1.0005907
17	0x3f802ec0	1.0014267
18	0x3f7fff71	0.9999915
19	0x3f8062a4	1.0030103
20	0x3f815e9b	1.0106996
21	0x3f803cdc	1.0018573
22	0x3f805176	1.002486
23	0x3f8046eb	1.0021642
24	0x3f7f6969	0.9977022
25	0x3f80b285	1.005448
26	0x3f7e2cc0	0.99287033
27	0x3f7ed525	0.9954398
28	0x3f805f52	1.002909
29	0x3f7f6374	0.9976113
30	0x3f7f2c7d	0.9967726
31	0x3f7e24b0	0.9927473

conv1.5.bias f4 [32]
0	0xbb3dc529	-0.0028956628
1	0xba9e2dfa	-0.0012068145
2	0xba2389c2	-0.0006238484
3	0xbb80b4e6	-0.003927815
4	0xbabd28fe	-0.0014431772
5	0xbb0eeb06	-0.0021807565
6	0xbb812f04	-0.0039423723
7	0xbad94e72	-0.0016579165
8	0xbaec6cf9	-0.0018037847
9	0xbb448e2c	-0.0029991968
10	0xbb2a427b	-0.0025979567
11	0xbb0db712	-0.002162401
12	0xbb078cda	-0.002068332
13	0xbaece4f3	-0.0018073603
14	0xba8195b7	-0.0009886537
15	0xbadcfb6a	-0.0016859595
16	0xba8edf25	-0.0010900242
17	0xbb074bd7	-0.002064457
18	0xbadffbac	-0.0017088554
19	0xbae3d47f	-0.0017382054
20	0xbaf6bccc	-0.0018824576
21	0xba595923	-0.00082911755
22	0xba356b87	-0.0006920625
23	0xbac15adc	-0.001475181
24	0xbab175ef	-0.0013539175
25	0xbb2ff4be	-0.0026848759
26	0xbaf08103	-0.0018348995
27	0xbb47f770	-0.0030512474
28	0xbad782d2	-0.0016442186
29	0xba4e2803	-0.00078642386
30	0xbb3f3891	-0.0029178003
31	0xbb67965a	-0.003533742

conv1.5.running_mean f4 [32]
0	0x3e42f616	0.19039187
1	0x3e48c87b	0.19607727
2	0x3e268dc2	0.16265014
3	0x3e526b5c	0.20548767
4	0x3e8cd83c	0.27508724
5	0x3e08eb54	0.1337102
6	0x3e65ad43	0.22429375
7	0x3e7a68ac	0.24453992
8	0x3e47cda1	0.19512035
9	0x3e1dbd50	0.15404248
10	0x3e4542ac	0.19263715
11	0x3e6b5b3a	0.22984019
12	0x3e25639a	0.16151276
13	0x3ea9a809	0.33136013
14	0x3e59d19a	0.21271363
15	0x3e5eadb4	0.2174595
16	0x3e64485c	0.22293228
17	0x3e6552ef	0.22394918
18	0x3e303d58	0.17210901
19	0x3ea6d8c1	0.32587245
20	0x3e081d57	0.13292442
21	0x3e684e78	0.22686183
22	0x3e93ecc9	0.2889159
23	0x3eb32382	0.34988028
24	0x3e33b8a7	0.17550908
25	0x3e196286	0.1497899
26	0x3e85fd9c	0.2617005
27	0x3ea432af	0.3206992
28	0x3eab878d	0.33501855
29	0x3e4b196d	0.19833918
30	0x3ea47605	0.32121292
31	0x3e73e763	0.23818736

conv1.5.running_var f4 [32]
0	0x3db97d7b	0.090571366
1	0x3df25dee	0.11834322
2	0x3e3b8a10	0.18314385
3	0x3dfd22ee	0.12360178
4	0x3eda8101	0.42676547
5	0x3db3f5c1	0.08787108
6	0x3e2ab9a3	0.16672377
7	0x3d6f1500	0.058369637
8	0x3e4fdb74	0.20298558
9	0x3e08f6e5	0.13375433
10	0x3df61f98	0.12017745
11	0x3e474883	0.19461255
12	0x3dd15396	0.10221021
13	0x3dd2ec5b	0.102989875
14	0x3dbedeec	0.09319863
15	0x3e777ca0	0.24168634
16	0x3e933945	0.2875463
17	0x3e4385b6	0.19093975
18	0x3e4aec7d	0.19816776
19	0x3e96833d	0.29397002
20	0x3d8b1e51	0.06792892
21	0x3e42658c	0.1898405
22	0x3ec73532	0.38907772
23	0x3db40042	0.08789112
24	0x3decac3f	0.11556291
25	0x3defdddd	0.11712239
26	0x3e86297b	0.26203522
27	0x3ed73df4	0.42039454
28	0x3e020725	0.12698038
29	0x3d48aa8a	0.048990764
30	0x3ec02a97	0.37532493
31	0x3e02279e	0.12710425

conv2.0.weight f4 [64, 32, 3, 3]
0	0x3d42b45d	0.04753529
1	0x3d413b18	0.047175497
2	0x3d6a1912	0.057152815
3	0x3bd0de7c	0.0063741785
4	0xbd73d0da	-0.05952535
5	0xbb8b0260	-0.0042422265
6	0xbc6ac3ed	-0.014328939
7	0x3b792f8c	0.0038022725
8	0xbc7847fb	-0.01515388
9	0x3c9740fd	0.018463606
10	0xbd1c3194	-0.03813322
11	0xbd13105f	-0.035904285
12	0x3d5fc4eb	0.054631155
13	0xbcdd4f22	-0.027015273
14	0xbc8ff6f9	-0.01757382
15	0xbd2d2f8b	-0.04228167
16	0xbd014099	-0.031555746
17	0x3cc20914	0.02368597
18	0x3ca28248	0.019837514
19	0x3d459f59	0.04824767
20	0x3d5d790f	0.05407053
21	0x3bedc7f6	0.007256503
22	0x3cebc24f	0.028779177
23	0xbc610572	-0.013734208
24	0x3bede720	0.0072602183
25	0xbd06ad6f	-0.032880243
26	0x3d18a6c9	0.037268434
27	0xbcce7a2a	-0.025204737
28	0xbd6443b7	-0.05572864
29	0x3d1a92cc	0.037737653
30	0x3c3d555f	0.011555999
31	0x3c941240	0.018075109
32	0x3d67dfda	0.056609966
33	0xbcf78d2e	-0.030218687
34	0xbc17a6fb	-0.00925612
35	0x3c79f41c	0.015255954
36	0x3b25b7ce	0.0025286558
37	0xbc6bb458	-0.014386259
38	0xbd4906cc	-0.049078748
39	0xbce14562	-0.027498905
40	0x3cf77dc4	0.030211337
41	0xbd2d5c3b	-0.042324286
42	0xbd2580df	-0.040406104
43	0xbd2b7a43	-0.041864645
44	0xbd77a5e1	-0.06046093
45	0xbcc24a25	-0.023716995
46	0x3cb85b0b	0.02250435
47	0xbd6a1d6b	-0.05715696
48	0xbc172574	-0.009225238
49	0xbc278d36	-0.010226538
50	0x3d79a22d	0.06094568
51	0xbd6b039c	-0.05737649
52	0x3cb4f1aa	0.02208789
53	0xbd7509f0	-0.05982393
54	0x3d364cda	0.044506885
55	0x3c385f07	0.011253125
56	0xbd32db47	-0.04366615
57	0x3cf251d4	0.029580034
58	0x3d6ad4de	0.057331912
59	0xbd0cb8c3	-0.03435589
60	0x3cc3840d	0.023866678
61	0xbd71d7ad	-0.059043575
62	0x3d29a83a	0.0414202
63	0xbd3d3c64	-0.04620017
64	0xbd0631ec	-0.032762453
65	0xbcc04712	-0.023471389
66	0x3940b50a	0.00018377989
67	0x3a6ca782	0.0009027646
68	0xbd0d5b29	-0.034510765
69	0xbaa413ff	-0.0012518166
70	0xbc2dffd5	-0.010620077
71	0xbaa01bd6	-0.0012215327
72	0x3d1abb83	0.03777648
73	0xbd3c3ab1	-0.04595441
74	0xbb98d97d	-0.0046645985
75	0xbd519ab6	-0.051172934
76	0x3ba8319c	0.005132867
77	0x3b10ba52	0.0022083712
78	0xbd339f66	-0.043853186
79	0x3d160075	0.03662153
80	0x3ced0899	0.028934764
81	0x3cb2bf60	0.02181977
82	0x3d616c5a	0.055034973
83	0x3cd86fc8	0.026420489
84	0xbc9d140e	-0.019174602
85	0xbd3e20a5	-0.04641785
86	0x3cb910ff	0.022591112
87	0xbca323ae	-0.019914474
88	0xbd6134a0	-0.054981828
89	0x3ce3afa7	0.027793719
90	0x3d0bffa2	0.034179337
91	0x3ca98244	0.020691998
92	0xbbf871d4	-0.0075819287
93	0xbceb6bed	-0.028737986
94	0xbc859f92	-0.01631144
95	0x3cd9ea36	0.026600938
96	0xbcc021e1	-0.023453655
97	0xbb95cb10	-0.004571326
98	0x3d248798	0.040168375
99	0xbd0abf9a	-0.03387413
100	0xbc1380a4	-0.009002838
101	0xbc1ff183	-0.009762171
102	0xbc77841e	-0.015107183
103	0xbcb02bb0	-0.021505207
104	0xbccba45a	-0.024858642
105	0xbc69f3c9	-0.014279314
106	0xbd15c63a	-0.036565997
107	0xbcbcbad4	-0.023038305
108	0x3c8e00b9	0.017334329
109	0x3d315ab6	0.0432994
110	0xbbb5f895	-0.005553315
111	0xbb55e1a0	-0.0032635704
112	0x3ce09d8b	0.027418872
113	0xbc62f240	-0.013851702
114	0x3d517d88	0.051145107
115	0x3d2b6065	0.041839976
116	0xbd542157	-0.051789608
117	0xbd4cadec	-0.049970552
118	0x3ccf8a1d	0.025334412
119	0x3c123bd7	0.0089254
120	0x3d15e30b	0.03659348
121	0xbd014e99	-0.031569097
122	0x3cf83647	0.030299319
123	0x3d1d4c2e	0.03840273
124	0xbb2369bc	-0.0024934849
125	0x3c9a19a5	0.018811056
126	0xbd65d7fa	-0.056114174
127	0xbcf932d2	-0.03041974
128	0x3c436764	0.011926506
129	0x3caad71c	0.020854525
130	0x3d00be7d	0.031431664
131	0x3d53b4de	0.05168616
132	0x3d3543e2	0.04425419
133	0xbbf8c3c8	-0.0075916983
134	0xbd343999	-0.044000242
135	0xbaaa7057	-0.0013003451
136	0xbd36ee19	-0.04466066
137	0xbd2fc30a	-0.042910613
138	0x3b5f5fb4	0.0034084143
139	0x3c102ddc	0.008799996
140	0x3ce1520e	0.027504947
141	0x39156329	0.00014246687
142	0xbd60bd3d	-0.05486797
143	0x3c996457	0.018724604
144	0x3cb309c1	0.021855237
145	0x3ce7516c	0.028237067
146	0x3d066055	0.032806713
147	0x3d3e2f09	0.046431575
148	0x3d36890c	0.04456429
149	0xbcbb7491	-0.022882732
150	0xbd0cc206	-0.034364723
151	0x39065ba5	0.00012813376
152	0x3d1d840a	0.038456
153	0x3d261d3d	0.040555228
154	0x3d4310bf	0.047623392
155	0xbd7cae7e	-0.061689846
156	0x3cc92cc4	0.024557479
157	0xbc8a45a8	-0.016878918
158	0x3d2c6e66	0.04209747
159	0x3cb6e96d	0.022328103
160	0xbd3000ba	-0.042969443
161	0x3ccb07ea	0.024784047
162	0xbcd28aee	-0.025701012
163	0x3cc06de9	0.02348991
164	0xbb8569a2	-0.0040714303
165	0x3c6b8987	0.014376051
166	0xbd355500	-0.044270515
167	0xbd0bfda3	-0.034177434
168	0xbd06662a	-0.032812275
169	0xbc269316	-0.010166904
170	0xbd4d14ff	-0.05006885
171	0xbc87c479	-0.016573178
172	0xbaf7bc30	-0.0018900689
173	0xbd1f6f60	-0.038924575
174	0x3caeb9f9	0.021328913
175	0x3d40cc91	0.04707009
176	0xbcb1b747	-0.021693839
177	0x3ca67e14	0.02032379
178	0xbd1f93e2	-0.03895939
179	0x3d549c99	0.051907156
180	0x3b866cf8	0.0041023456
181	0x3d4492ea	0.04799167
182	0xbc3532c7	-0.01105947
183	0x3d50fc4c	0.05102186
184	0xbc1714e3	-0.009221288
185	0x3d2eb2df	0.042651054
186	0x3d4da704	0.050208107
187	0xbd4470a3	-0.04795898
188	0xbc829d06	-0.015944015
189	0x3cc78829	0.024356918
190	0xbd0ffaec	-0.035151407
191	0x3c3c70cd	0.011501503
192	0x3d2a61b6	0.04159709
193	0xbcbc03ef	-0.022951094
194	0xbd51ddae	-0.0512368
195	0xbd41f0ae	-0.04734867
196	0x3d04f7e9	0.032462988
197	0x3d27a9c3	0.04093338
198	0xbc9f6097	-0.019455237
199	0x3d36503a	0.044510104
200	0xbd0a283d	-0.03372978
201	0x3ccdccdb	0.025122097
202	0x3cd3657e	0.025805231
203	0x3d79b7e0	0.060966372
204	0x3c7bbc26	0.015364682
205	0x3d35975a	0.044333793
206	0x3c958b0b	0.018254777
207	0x3d2469c8	0.040139943
208	0x3d6a7ae2	0.057246096
209	0x3d7878fb	0.06066225
210	0xbc30aa9a	-0.010782862
211	0x3ceda698	0.029010102
212	0xbd51fcd7	-0.051266517
213	0x3cbcbc5a	0.023039032
214	0x3bb74042	0.005592377
215	0x3d35327a	0.04423759
216	0x3c8c226a	0.017106254
217	0x3d5246a3	0.051336896
218	0xbc5df887	-0.013548023
219	0xbc84f0ec	-0.016228162
220	0xbd2c6314	-0.042086676
221	0xbd1918b8	-0.03737709
222	0xbd264bc3	-0.040599596
223	0x3cfc2477	0.030779107
224	0xbd3bd6fa	-0.045859315
225	0xbc02bb35	-0.007979204
226	0xbd6e47ca	-0.058173932
227	0xbcfc4639	-0.030795204
228	0xbae3acf0	-0.0017370265
229	0xbd005d29	-0.031338844
230	0x3d4639e2	0.048395045
231	0x3d16189a	0.036644556
232	0x3d0112e3	0.031512152
233	0x393a8176	0.0001778657
234	0xbce7cf8a	-0.028297205
235	0xbd2522dc	-0.040316448
236	0xbd333a23	-0.043756615
237	0x3d22dd7e	0.039762013
238	0xbbfa4633	-0.007637763
239	0x3d284d39	0.04108927
240	0x3cb3b479	0.021936642
241	0xbca9a441	-0.020708205
242	0xbd2dc8b7	-0.042427745
243	0xbd03061d	-0.031988252
244	0xbd01397d	-0.031548966
245	0xbd54f3ef	-0.051990446
246	0x3c9fe078	0.019516215
247	0xbceae50b	-0.02867367
248	0xbd3580d9	-0.04431233
249	0x3d1c1af0	0.038111627
250	0xbb3714e5	-0.0027936038
251	0x3cf846d3	0.03030721
252	0x3c51ab28	0.0127971545
253	0x3c2adcb3	0.010428595
254	0x3d4b56f7	0.049643483
255	0x3b9dd1a0	0.004816249

conv2.0.bias f4 [64]
0	0xbb82d93d	-0.003993182
1	0xbd68a3c6	-0.05679681
2	0x3d0ef4bb	0.034901362
3	0x3d1ef9e4	0.038812533
4	0x3d4f73b0	0.050647438
5	0xbd067350	-0.032824814
6	0xbce0fa79	-0.027463185
7	0x3d22c1ba	0.039735533
8	0x3ce52d49	0.027975695
9	0x3c1a9a95	0.009436269
10	0x3d410ca9	0.047131214
11	0xbd2cc131	-0.04217643
12	0x3d2e3a25	0.04253592
13	0x3d5a2350	0.053256333
14	0x3c7d3c71	0.015456305
15	0xbc545891	-0.012960569
16	0x3c11af42	0.008891882
17	0x3d5e7140	0.054307222
18	0xbd6e60c3	-0.058197748
19	0xbd0d5611	-0.034505907
20	0xbd370def	-0.044691022
21	0x3ba6b8f3	0.0050879656
22	0xbc4112ae	-0.011784239
23	0xbd2e0949	-0.042489324
24	0xbd0661ce	-0.032808118
25	0xbcfac450	-0.030611187
26	0xbd1c7c85	-0.03820469
27	0x3d3ce29a	0.04611454
28	0x3d1bed57	0.03806814
29	0xbcabd375	-0.020974854
30	0xbc0a6cc6	-0.008448785
31	0xbd67886d	-0.05652659
32	0x3cb8d97f	0.022564648
33	0xbcd84c20	-0.026403487
34	0x3d5cb5dd	0.053884376
35	0x3ae2afa3	0.0017294775
36	0x3ce8057f	0.028322933
37	0xbd54880e	-0.051887564
38	0x3d4569fd	0.04819678
39	0xbd365d17	-0.04452237
40	0x3c10fecd	0.008849812
41	0x3cb0c1a0	0.021576703
42	0x3d433838	0.047661036
43	0x3d6ac4e4	0.057316676
44	0xbcaabd4e	-0.02084222
45	0xbd43088c	-0.047615573
46	0x3c1b0e2f	0.009463831
47	0xbd1379d1	-0.036004845
48	0xbd34f327	-0.0441772
49	0xbd49f8fc	-0.049309716
50	0x3d0df60e	0.034658484
51	0x3cf4476c	0.029819213
52	0x3d2857b3	0.04109926
53	0x3d18adf5	0.037275273
54	0xbd5b55fa	-0.05354879
55	0xbd3a2396	-0.045444094
56	0xbb9a7e1f	-0.004714742
57	0xbd55b39b	-0.05217324
58	0x3d518b27	0.051158097
59	0xbaff060f	-0.0019456762
60	0x3bcf92aa	0.0063346224
61	0xbd59c823	-0.05316938
62	0x3d0f16c4	0.03493382
63	0x3cb0299f	0.021504221

conv2.2.weight f4 [64]
0	0x3f7f9d93	0.99849814
1	0x3f7fd59b	0.9993531
2	0x3f80fa6f	1.0076426
3	0x3f7fa0ea	0.9985491
4	0x3f801c9d	1.0008732
5	0x3f7f5357	0.9973654
6	0x3f7fcac5	0.99918777
7	0x3f7f473b	0.99718064
8	0x3f7f8073	0.9980537
9	0x3f7f1b84	0.9965136
10	0x3f8053c4	1.0025563
11	0x3f804cbb	1.0023416
12	0x3f7feda7	0.99972004
13	0x3f802d79	1.0013877
14	0x3f7f2846	0.9967083
15	0x3f7e3fad	0.9931591
16	0x3f8017dd	1.0007282
17	0x3f8020ca	1.0010006
18	0x3f80459b	1.0021242
19	0x3f809944	1.0046773
20	0x3f8059a3	1.0027355
21	0x3f803aa5	1.0017897
22	0x3f7f146d	0.9964054
23	0x3f7f6531	0.9976378
24	0x3f806d6c	1.0033393
25	0x3f7f6c3a	0.99774516
26	0x3f7f2604	0.9966738
27	0x3f7fde17	0.9994826
28	0x3f8009e4	1.0003018
29	0x3f7eaa8e	0.99478996
30	0x3f80e9be	1.0071332
31	0x3f7f454b	0.9971511
32	0x3f7f7a6b	0.9979617
33	0x3f7f2e0c	0.99679637
34	0x3f7fdac0	0.9994316
35	0x3f8035c4	1.0016408
36	0x3f800dc5	1.0004202
37	0x3f8031c6	1.001519
38	0x3f7f5a9b	0.9974763
39	0x3f7e5613	0.9935009
40	0x3f7fc941	0.99916464
41	0x3f801910	1.0007648
42	0x3f809490	1.0045338
43	0x3f8074e5	1.0035673
44	0x3f806625	1.0031172
45	0x3f80b652	1.005564
46	0x3f802513	1.0011314
47	0x3f809a88	1.0047159
48	0x3f7f7704	0.9979098
49	0x3f804991	1.0022451
50	0x3f7fc454	0.9990895
51	0x3f7f1f54	0.9965718
52	0x3f804422	1.0020792
53	0x3f802630	1.0011654
54	0x3f7eeda3	0.99581355
55	0x3f802f26	1.0014389
56	0x3f7fd762	0.99938023
57	0x3f7fcb29	0.9991937
58	0x3f801506	1.0006416
59	0x3f803c79	1.0018455
60	0x3f7f514f	0.9973344
61	0x3f7f5f74	0.99755025
62	0x3f806c12	1.003298
63	0x3f7ff6ac	0.99985766

conv2.2.bias f4 [64]
0	0x3aab4b62	0.001306873
1	0x3a8ce46a	0.0010749225
2	0x3810e739	3.454762e-05
3	0xb9d068b2	-0.00039750856
4	0xba0ef4eb	-0.0005453366
5	0xb9e154fe	-0.00042978668
6	0x39762c37	0.0002347686
7	0xb9b34bb6	-0.0003419795
8	0x3aad3c8e	0.0013216899
9	0x3ac12b67	0.0014737666
10	0xba0f00a1	-0.0005455111
11	0x3aa2c716	0.0012418951
12	0xbae2533e	-0.001726724
13	0x38c70d91	9.4915864e-05
14	0xbaa59626	-0.0012633249
15	0x3af80cf9	0.0018924765
16	0xba102563	-0.0005498735
17	0xbacaec4b	-0.0015481798
18	0xbaff3906	-0.001947195
19	0xba5935cb	-0.0008285909
20	0x392d73ff	0.00016541778
21	0xba78f9f2	-0.0009497694
22	0xb9f1277e	-0.00045996526
23	0xba4607f1	-0.0007554284
24	0x3aab3ad0	0.0013063792
25	0xbb4dace6	-0.0031383573
26	0x3a6c27c4	0.0009008611
27	0xba29cc58	-0.0006477288
28	0xba3e92a5	-0.00072697765
29	0x38d31946	0.000100659716
30	0xba58973b	-0.0008262281
31	0x3a4c86ea	0.0007802086
32	0xbabbe2c8	-0.0014334554
33	0xba038eb6	-0.0005018519
34	0x3a9a632a	0.0011778821
35	0x3a6da4b1	0.00090653735
36	0xba73b6ee	-0.0009296973
37	0xbb0737a0	-0.002063252
38	0xba7c17dd	-0.0009616593
39	0xbae336ce	-0.0017335059
40	0x3a8e76de	0.0010869165
41	0x3ac31374	0.0014883117
42	0x3aacea9f	0.0013192481
43	0x393b8073	0.00017881561
44	0xba5ad6c1	-0.0008348041
45	0x3abdd72a	0.001448368
46	0xbad0bc52	-0.0015925264
47	0xba4550a5	-0.00075269706
48	0x3a73bdce	0.00092979975
49	0x38961bcb	7.157734e-05
50	0xb950a100	-0.00019896403
51	0x37ae7cc2	2.0800511e-05
52	0xbaa199bb	-0.001232914
53	0xbad7576a	-0.001642925
54	0x3a189bf5	0.0005821579
55	0xbb0a8831	-0.0021138305
56	0x391edd6e	0.00015150543
57	0xbaad7837	-0.0013234679
58	0xb98ea591	-0.00027207707
59	0xba825248	-0.0009942735
60	0x3a2e12b3	0.00066403596
61	0xbac22d29	-0.0014814484
62	0x3abe0fd2	0.0014500564
63	0x3a5596a4	0.00081477524

conv2.2.running_mean f4 [64]
0	0x3e78ca1a	0.24295846
1	0x3f34e47b	0.70661134
2	0x3e6b6618	0.22988164
3	0x3eac0052	0.33593994
4	0x3e3beb2a	0.18351427
5	0x3e964c7d	0.2935523
6	0x3f23ccbb	0.6398427
7	0x3e96a398	0.29421687
8	0x3e839e5b	0.25706753
9	0x3eec65cc	0.46171415
10	0x3ef10fd7	0.47082397
11	0x3ec6bc85	0.38815704
12	0x3f1463cb	0.5796477
13	0x3f087397	0.53301376
14	0x3e8b2779	0.27178553
15	0x3e5be74c	0.21474952
16	0x3e8a8ffd	0.2706298
17	0x3ef90291	0.4863477
18	0x3f6af300	0.9177704
19	0x3f10bad8	0.565351
20	0x3f20b7fb	0.6278073
21	0x3f4f54f1	0.80988985
22	0x3e8cc789	0.27495983
23	0x3e8eacf7	0.27866337
24	0x3ea5b32b	0.32363257
25	0x3e76a905	0.24087913
26	0x3e9de736	0.30840462
27	0x3f15a08b	0.58448094
28	0x3eab5b09	0.33467892
29	0x3e9d2ec5	0.30699745
30	0x3ef032f2	0.46913868
31	0x3e840fdf	0.2579336
32	0x3f0e1aed	0.55509835
33	0x3e381f48	0.17980683
34	0x3e8cd409	0.2750552
35	0x3ee16a84	0.44026577
36	0x3f45cd5e	0.7726649
37	0x3f25bbba	0.64739573
38	0x3e24d072	0.1609514
39	0x3eb7eb60	0.35921764
40	0x3ec965fb	0.39335617
41	0x3f134648	0.57529116
42	0x3eea42e6	0.45754164
43	0x3f491b66	0.7855743
44	0x3effb138	0.49939895
45	0x3ee89ccb	0.45432124
46	0x3f047089	0.51734215
47	0x3f3284f0	0.69734097
48	0x3e9ad89e	0.3024339
49	0x3f13a3b4	0.57671666
50	0x3e66d7a9	0.22543205
51	0x3e664c2e	0.22489998
52	0x3eb3f5b4	0.35148394
53	0x3f063641	0.52426535
54	0x3e317970	0.17331481
55	0x3f568e2d	0.83810693
56	0x3efbb1b5	0.49159017
57	0x3e52824c	0.20557517
58	0x3eeab093	0.4583784
59	0x3f240470	0.6406927
60	0x3e2568b3	0.16153221
61	0x3eeccd52	0.46250397
62	0x3f32a710	0.6978617
63	0x3e8ca664	0.27470696

conv2.2.running_var f4 [64]
0	0x3e41a9a6	0.18912372
1	0x3f70874b	0.9395644
2	0x3e77ebf6	0.24211106
3	0x3e6d061d	0.23146863
4	0x3dde7dbf	0.10863828
5	0x3e75d5a8	0.24007285
6	0x3f3f0c9e	0.7462863
7	0x3e17215a	0.14758816
8	0x3e59fa1e	0.21286818
9	0x3ee8ca9d	0.45467082
10	0x3f1e5fea	0.61865103
11	0x3ec7df46	0.39037532
12	0x3f11aa3f	0.569004
13	0x3f1645a2	0.587
14	0x3e796ad1	0.24357153
15	0x3e2de08e	0.16980192
16	0x3e715e8f	0.23571227
17	0x3efe77ca	0.49700767
18	0x3f8522fe	1.0401304
19	0x3f3edd28	0.7455621
20	0x3f679314	0.904588
21	0x3fa2b386	1.2711036
22	0x3e9bd8ba	0.30438787
23	0x3e584b7a	0.21122542
24	0x3eb0330a	0.3441394
25	0x3e5daf10	0.21648812
26	0x3e6c3219	0.23065986
27	0x3f170fd4	0.59008527
28	0x3ecbd520	0.3981104
29	0x3e80f55d	0.25187197
30	0x3f1b43ab	0.6065013
31	0x3e424529	0.18971695
32	0x3f0c1ffd	0.5473631
33	0x3deddc10	0.11614239
34	0x3e4784ad	0.19484206
35	0x3ecfc77e	0.40581888
36	0x3f60c028	0.8779321
37	0x3f384775	0.71984035
38	0x3dbc97fd	0.09208677
39	0x3ec0556c	0.37565172
40	0x3ed446ee	0.41460365
41	0x3f07d6b2	0.53061974
42	0x3f1dd768	0.6165681
43	0x3f6ee9e1	0.9332562
44	0x3f033ad5	0.51261646
45	0x3f06a374	0.5259316
46	0x3f17ee81	0.59348303
47	0x3f752822	0.9576436
48	0x3ea6c059	0.32568625
49	0x3f5289a3	0.82241267
50	0x3e37cd86	0.17949495
51	0x3e3715f9	0.17879476
52	0x3ef10422	0.47073466
53	0x3f2cde44	0.6752665
54	0x3e05d080	0.13067818
55	0x3f773a98	0.9657378
56	0x3f1909c3	0.5978052
57	0x3e766c80	0.24064827
58	0x3f08b41b	0.5339982
59	0x3f2cde3c	0.675266
60	0x3dcdfd29	0.10058052
61	0x3efe1d86	0.496319
62	0x3f49b3ef	0.7879018
63	0x3e7b5c07	0.24546824

conv2.3.weight f4 [64, 64, 3, 3]
0	0xbcd7376a	-0.02627154
1	0xbce3bde1	-0.027800502
2	0xbcf9c4ab	-0.030489286
3	0xbc968f26	-0.018378805
4	0x3c93f55a	0.018061329
5	0x3c0493cc	0.008091878
6	0x3d29fdbe	0.041501753
7	0xbba110d9	-0.0049153385
8	0x3aeb8a79	0.0017970345
9	0x3cb0e09e	0.02159148
10	0x3d1202a9	0.03564707
11	0x3c609f21	0.013709814
12	0x3ac018be	0.0014655811
13	0xbccebb78	-0.025235876
14	0xbce13b21	-0.027494015
15	0x3c5deae3	0.013544771
16	0x3ba88cf8	0.005143758
17	0xbbc9f22f	-0.0061629037
18	0xbcc66290	-0.02421692
19	0xbac9d6a1	-0.0015399047
20	0x3d162f58	0.036666244
21	0x3d3c6223	0.045992028
22	0xbc59bcd7	-0.013289652
23	0x3cc9829e	0.024598416
24	0x3c39cd0f	0.011340394
25	0xbd0e1e98	-0.034697145
26	0xbca81c28	-0.020521238
27	0x3ca7e0d5	0.02049295
28	0x3ccf094a	0.025272984
29	0x3b335faa	0.0027370253
30	0x3c942e2e	0.018088426
31	0xbcffef3f	-0.031242011
32	0xbd0b9bb6	-0.034084044
33	0xbc865ada	-0.016400743
34	0x3ccf26e3	0.025287097
35	0xbd0b4a62	-0.034006484
36	0x3d2c9102	0.042130478
37	0xbcb65a92	-0.022259984
38	0xbd291b2c	-0.04128568
39	0xbc0e7660	-0.008695215
40	0xbade740b	-0.0016971839
41	0xba71536d	-0.0009205852
42	0x3cdcab80	0.026937246
43	0x3c4473eb	0.011990528
44	0x3ccd71cb	0.025078675
45	0xbb84ca58	-0.0040524416
46	0xbbe499b1	-0.0069763293
47	0xbd042132	-0.03225822
48	0x3d0e4f0d	0.034743357
49	0xbb9b42fc	-0.00473821
50	0x3caf23be	0.021379348
51	0x3d0897e9	0.033347998
52	0xbc735197	-0.0148509955
53	0xbce47cd3	-0.027891552
54	0x3ce88872	0.028385375
55	0x3cb5a088	0.022171274
56	0xbc490644	-0.01226956
57	0xbb8170b7	-0.0039502042
58	0x3b83c333	0.0040210723
59	0x3c73b46e	0.014874561
60	0xbb72ae54	-0.0037030177
61	0x3cff5b5d	0.031171495
62	0xbc22513f	-0.009907066
63	0x3c8c8888	0.017154947
64	0x3c99f5a6	0.018793892
65	0x3c6589aa	0.014009872
66	0x3c3b47f2	0.011430727
67	0xbcbbde30	-0.022933096
68	0x3bc3c9b5	0.005974973
69	0x3d0362a0	0.032076478
70	0x3c302f69	0.010753491
71	0x3d207793	0.039176535
72	0x3c91b49f	0.017786322
73	0x3868c987	5.5500797e-05
74	0xbc5675ae	-0.01308958
75	0xbb9dd0ee	-0.004816166
76	0xbd11eb73	-0.035624932
77	0x3d132a74	0.03592916
78	0xbc987248	-0.018609181
79	0xba1dd122	-0.0006020238
80	0xba961960	-0.0011451654
81	0x3c952847	0.018207682
82	0x3cf35bd0	0.029706866
83	0x3d044e1f	0.032301065
84	0xbcdd7f0b	-0.027038118
85	0xbc968c1a	-0.018377353
86	0xbcb1683c	-0.021656148
87	0x3beeb24d	0.0072844387
88	0x3c5c7982	0.013456704
89	0x3c232829	0.009958305
90	0x3d1513db	0.03639589
91	0x3cd95d2d	0.026533687
92	0xbac58d1c	-0.0015071961
93	0x3b38adb3	0.0028179705
94	0x3ca58417	0.020204587
95	0x3ba5220a	0.005039458
96	0x3cf49eb9	0.029860841
97	0x3a198957	0.0005856952
98	0xbcce23ce	-0.025163557
99	0xbc4f4966	-0.012651777
100	0xbd1f4651	-0.03888542
101	0x3c9e6e4a	0.0193397
102	0x3b93193c	0.004489092
103	0x3cee35d5	0.029078403
104	0x3ce89d68	0.02839537
105	0xbd1a8c66	-0.03773155
106	0x3a40665c	0.00073394715
107	0x3bcc4c35	0.0062346705
108	0x3ce26a92	0.027638707
109	0x3cbc392b	0.022976479
110	0xbd074080	-0.033020496
111	0xbd15d073	-0.036575746
112	0xbcf22e55	-0.029563108
113	0xbcd956c6	-0.026530635
114	0xbd28272c	-0.041052982
115	0x3c9485f6	0.018130284
116	0x3cb52ce3	0.02211613
117	0x3d1b658f	0.03793865
118	0x3cb54891	0.022129329
119	0x39602b7f	0.00021378508
120	0xbd14fb83	-0.036372673
121	0x3c5ff635	0.01366954
122	0xbb65469b	-0.003498471
123	0xbca21259	-0.01978414
124	0x3c99b854	0.018764652
125	0x3c68cac8	0.014208503
126	0xbc71f65f	-0.014768212
127	0xbbc935f5	-0.0061404654
128	0x3c8ba264	0.017045207
129	0x3b0b437d	0.0021249943
130	0x3cebe557	0.028795881
131	0x3d04b754	0.032401398
132	0xbd1fd8fc	-0.03902529
133	0xbc460ba4	-0.012087736
134	0x3c02a469	0.007973769
135	0xbc972f17	-0.018455071
136	0x3c1444df	0.009049623
137	0x3c81d348	0.015847817
138	0x3ca19dd0	0.019728571
139	0xba24416d	-0.0006265853
140	0x3d1fe7e4	0.039039508
141	0xbafcca54	-0.0019286373
142	0xbc3038c7	-0.010755724
143	0xbd32c734	-0.043647006
144	0xbcfd7fd6	-0.030944746
145	0x3d20dbb7	0.039272036
146	0xbc6a25ca	-0.014291236
147	0xbc18655b	-0.009301509
148	0x3bae0e83	0.0053117885
149	0xbcd464c7	-0.02592696
150	0xbbbbae9e	-0.005727603
151	0x3ca28300	0.019837856
152	0xbc2cd578	-0.010548942
153	0xbb5be603	-0.0033553846
154	0xbc3756fe	-0.011190174
155	0x3c98321d	0.018578583
156	0x3bc10960	0.00589101
157	0x3b314d30	0.0027054064
158	0x3d01372b	0.031546753
159	0x3c042fe0	0.008068055
160	0x3bb866fe	0.005627512
161	0x3c4cd9cf	0.0125031015
162	0xbae2ffef	-0.0017318706
163	0xbc33769c	-0.010953572
164	0x3cd59d68	0.026076034
165	0xbc474ca9	-0.012164273
166	0x3cd42fc1	0.025901677
167	0x3cd20a49	0.02563967
168	0x3c47638a	0.012169728
169	0x3ccbde98	0.024886414
170	0xbce65be4	-0.028119989
171	0xbc3b712a	-0.011440555
172	0xbc3b52d2	-0.01143332
173	0xbd088823	-0.033332955
174	0x3d0c4f58	0.034255356
175	0xbaea48d5	-0.0017874489
176	0xbc501390	-0.012699977
177	0x3d21af37	0.03947374
178	0x3d0ad37d	0.033893097
179	0xbca2e630	-0.019885153
180	0x3abea671	0.0014545453
181	0xbbf8ae6c	-0.007589152
182	0x3cbf448b	0.023348114
183	0x3d0c6c5b	0.034283023
184	0xbd0e8c02	-0.03480149
185	0xbb2f1136	-0.002671314
186	0x3cd5848d	0.026064182
187	0xbc507f0a	-0.012725601
188	0xbcf119c9	-0.02943124
189	0x3ccda979	0.025105225
190	0xbca3dc92	-0.020002637
191	0xbcfd414e	-0.030914929
192	0xbbafed6f	-0.0053688805
193	0xbc992cff	-0.018698214
194	0xbbd7b3a4	-0.006582694
195	0xbba553df	-0.0050453986
196	0x3c321453	0.0108691035
197	0x3cfba464	0.030718036
198	0xbab91361	-0.0014120155
199	0xbd075659	-0.033041332
200	0xbd1eeb5c	-0.038798675
201	0xbb6e9fdb	-0.00364112
202	0xbc8337fa	-0.016017903
203	0x3c960327	0.01831205
204	0xbbffb589	-0.007803623
205	0x3d067e47	0.03283527
206	0xbc1e65d0	-0.009667829
207	0xbcfbd80f	-0.030742673
208	0xbc7a2eee	-0.015269978
209	0xbc6842be	-0.014176069
210	0x3cfbeb99	0.03075199
211	0x3b15b0f0	0.0022841059
212	0xbc12c8cf	-0.008959009
213	0xbc8a438d	-0.016877914
214	0x3d14d814	0.03633888
215	0xbcb32e4f	-0.021872668
216	0x3c61be76	0.01377832
217	0xbb97e2ed	-0.004635206
218	0x3b4a8aca	0.0030905479
219	0x3c59fdf0	0.013305172
220	0x3cbbf3ac	0.02294334
221	0x3c93d3e2	0.01804537
222	0x3c9deb4d	0.01927724
223	0xbb541e98	-0.0032366868
224	0x3d1ea967	0.038735773
225	0x3c18a2b2	0.009316133
226	0x3d21392e	0.03936117
227	0xbd15a1f0	-0.03653139
228	0x3d1552e8	0.03645602
229	0x3d1cffae	0.038329773
230	0xbd1017c2	-0.035178907
231	0x3c913f9f	0.017730532
232	0xbcda8fa7	-0.026679827
233	0x3cef93e8	0.029245332
234	0xbc447515	-0.011990805
235	0x3d0a94d2	0.033833332
236	0x3b8345a9	0.004006107
237	0xbc249746	-0.010045832
238	0x3bbb69c4	0.0057193954
239	0x3bd7ef87	0.006589833
240	0xbd1676e3	-0.036734473
241	0xba6e5b33	-0.0009092569
242	0x3cab9a86	0.020947706
243	0xbd0ddfcf	-0.03463727
244	0x3d2c3956	0.042046867
245	0x3bce9be2	0.006305204
246	0x3d192d6b	0.03739683
247	0x3b1f6af2	0.002432522
248	0xbd020748	-0.031745225
249	0xbbbe956e	-0.0058161533
250	0x3d3f472f	0.046698745
251	0xbd14a306	-0.036288284
252	0xbcc145cc	-0.023592852
253	0x3cd0d9fe	0.025494572
254	0xbd17ac5e	-0.037029617
255	0xbc8eb918	-0.017422244

conv2.3.bias f4 [64]
0	0xbccb8c46	-0.024847161
1	0xbcac36e4	-0.021022268
2	0xbc412cf8	-0.011790507
3	0xbc8c969d	-0.017161662
4	0x3c453ad1	0.012037949
5	0xbd0d0403	-0.034427654
6	0x3c4858af	0.012228175
7	0x3ccb4a68	0.024815753
8	0xbcd32ae5	-0.02577729
9	0x3d2c5fe6	0.042083643
10	0x3d00505b	0.031326633
11	0xbd105bc1	-0.035243753
12	0x3cfe3b5e	0.031034168
13	0xbcdba8b6	-0.026813846
14	0xbb7ab006	-0.003825189
15	0xbcbabde6	-0.022795629
16	0xbc353b65	-0.011061524
17	0xbc62f45c	-0.013852205
18	0x3c1a3060	0.009410948
19	0xbd2cc051	-0.042175595
20	0xbb7f78f0	-0.0038981996
21	0xbc9ca7ae	-0.019122925
22	0xbd0d043b	-0.034427863
23	0x3c4ddafa	0.012564415
24	0xbcfd8e1e	-0.030951556
25	0x3c80e086	0.015732061
26	0x3c8ee631	0.017443748
27	0x3c5231f1	0.01282929
28	0xbcde38b6	-0.027126651
29	0x3c55e75d	0.01305565
30	0xbcc143f4	-0.023591973
31	0x3cdd1d8f	0.026991634
32	0xbaaaf26c	-0.0013042218
33	0xbc252814	-0.010080356
34	0x3d1f878f	0.038947638
35	0x3c3fc695	0.0117050605
36	0xbc2623c0	-0.010140359
37	0x3c593512	0.013257282
38	0xbb85595e	-0.0040694913
39	0x3ce4cdb4	0.027930118
40	0x3c025bde	0.007956473
41	0x3d1b7ea6	0.03796258
42	0x3d03b4e8	0.032154948
43	0x3b81c444	0.0039601643
44	0x3b74e82d	0.0037369833
45	0x3ca81338	0.020516977
46	0x3d273deb	0.040830534
47	0x3a0c1146	0.000534315
48	0x3a488c73	0.0007650323
49	0xbd0f7912	-0.03502757
50	0x3cd68f79	0.02619146
51	0x3cea226d	0.028580869
52	0xbce5f715	-0.02807192
53	0xbd12b8aa	-0.03582064
54	0xbd0335df	-0.032033797
55	0xbc688da5	-0.014193927
56	0xbbe3afe7	-0.0069484594
57	0x3c9fbe0c	0.019499801
58	0x3cb418fc	0.02198457
59	0xbd0a4d1c	-0.033764943
60	0xbd18f81f	-0.037346
61	0xbb5b3e8a	-0.0033454024
62	0x3ca63bb4	0.02029214
63	0xbcb949a4	-0.022618122

conv2.5.weight f4 [64]
0	0x3f7ffe8e	0.99997795
1	0x3f7f9487	0.9983601
2	0x3f7f996f	0.99843496
3	0x3f8022f9	1.0010673
4	0x3f80c2d9	1.0059463
5	0x3f7f6a81	0.9977189
6	0x3f7fe8b5	0.9996446
7	0x3f7fdf56	0.9995016
8	0x3f80a53b	1.0050424
9	0x3f7fdbf6	0.9994501
10	0x3f801ecf	1.0009402
11	0x3f7f4ab4	0.9972336
12	0x3f7fcbb2	0.9992019
13	0x3f7f93f2	0.9983512
14	0x3f7fa6a5	0.99863654
15	0x3f80332b	1.0015615
16	0x3f7fe295	0.9995511
17	0x3f800b11	1.0003377
18	0x3f800d00	1.0003967
19	0x3f80bbf8	1.0057364
20	0x3f8048dd	1.0022236
21	0x3f7ebe73	0.9950935
22	0x3f7fc15c	0.9990442
23	0x3f804af2	1.0022871
24	0x3f7efa13	0.9960033
25	0x3f7f19c8	0.99648714
26	0x3f7f52e1	0.9973584
27	0x3f7fbdf5	0.99899226
28	0x3f804a3c	1.0022655
29	0x3f7fe18a	0.9995352
30	0x3f7f5290	0.99735355
31	0x3f7fc36c	0.99907565
32	0x3f800ab9	1.0003272
33	0x3f809129	1.0044299
34	0x3f8023da	1.0010941
35	0x3f800960	1.0002861
36	0x3f7f8c38	0.9982333
37	0x3f807e44	1.0038533
38	0x3f7f8ce3	0.9982435
39	0x3f7edd98	0.99556875
40	0x3f800b3c	1.0003428
41	0x3f80969d	1.0045964
42	0x3f7f2443	0.99664706
43	0x3f7ef9bd	0.9959982
44	0x3f803b5b	1.0018114
45	0x3f7eda2c	0.99551654
46	0x3f7fdf45	0.9995006
47	0x3f7fcc24	0.9992087
48	0x3f7f35a4	0.99691224
49	0x3f80106d	1.0005013
50	0x3f801b41	1.0008317
51	0x3f7fa2f5	0.9985803
52	0x3f800a3f	1.0003127
53	0x3f804cfe	1.0023496
54	0x3f80d5b5	1.0065218
55	0x3f7f483b	0.9971959
56	0x3f7f74a3	0.9978735
57	0x3f7fd69a	0.9993683
58	0x3f7fb568	0.9988618
59	0x3f8048cf	1.002222
60	0x3f805284	1.0025182
61	0x3f803a34	1.0017762
62	0x3f8061b8	1.0029821
63	0x3f80549d	1.0025822

conv2.5.bias f4 [64]
0	0xbb091866	-0.0020919084
1	0xba1b5d69	-0.00059267
2	0xba084b39	-0.00051991973
3	0xbae482e5	-0.0017434029
4	0xb9c16cc6	-0.0003689287
5	0x3a278156	0.0006389817
6	0x3a95b40b	0.0011421455
7	0xbb2de6af	-0.0026535203
8	0x3a553376	0.00081329735
9	0x39475a05	0.00019011654
10	0xba93a3e5	-0.0011264054
11	0xba5fe537	-0.00085409306
12	0xbab4d3c4	-0.0013796021
13	0xba3f7204	-0.00073030614
14	0xba5feea6	-0.0008542336
15	0xbb123f30	-0.0022315495
16	0xbacee363	-0.0015784319
17	0xb9515701	-0.00019964205
18	0x39b6f154	0.0003489355
19	0xba9eaa99	-0.0012105285
20	0xb9f371b3	-0.00046433284
21	0xbac4531e	-0.0014978384
22	0xb91f9389	-0.00015218383
23	0xb765c031	-1.3694212e-05
24	0xba96c812	-0.0011503717
25	0xbae82e52	-0.0017714
26	0x39fd5503	0.0004831926
27	0xb9c862d7	-0.00038220614
28	0xbb015883	-0.0019736595
29	0xba2f8861	-0.0006696042
30	0xbb331df7	-0.0027331093
31	0xba2d3409	-0.000660718
32	0x39d22d77	0.00040088195
33	0xba809bf6	-0.0009812105
34	0xba99fde1	-0.0011748635
35	0xba3b9294	-0.0007155326
36	0xb8b5cd66	-8.669011e-05
37	0x3a548624	0.0008107147
38	0xbaa4246b	-0.001252306
39	0xba8b8320	-0.0010643937
40	0xbae93164	-0.0017791209
41	0xbabbb9b6	-0.0014322314
42	0xbb009dab	-0.0019625227
43	0xbaf77ad1	-0.0018881207
44	0xba603d99	-0.00085541006
45	0xbacef301	-0.0015788974
46	0x3a21bad3	0.00061695016
47	0xbb231329	-0.0024883247
48	0xbab5663a	-0.001383967
49	0xba9faff1	-0.0012183172
50	0xbac2297b	-0.0014813388
51	0xba5acd05	-0.00083465903
52	0xb9bc4f40	-0.000359172
53	0x392760e9	0.00015962463
54	0xba092b75	-0.0005232611
55	0xba3e62de	-0.0007262657
56	0xbb07cd21	-0.0020721632
57	0xbad07a34	-0.001590556
58	0x394a0553	0.00019266205
59	0xba12032c	-0.00055699307
60	0x3a95ed27	0.0011438475
61	0xb9df59e5	-0.0004260085
62	0xba1574f5	-0.0005701327
63	0xbab651eb	-0.0013909912
