FaceExpressions_CNN/savemodel/model_96.pth (torch_old, 185408 bytes, 14 tensors)

layer1.0.weight f4 [16, 1, 5, 5]
00000000: 5dc5 5c3f 1f34 3b40 72f7 7540 9cba 7640
00000010: e9dc 7a40 3bbd 9540 c931 89be 0fc6 45bf
00000020: 121f 1abf 32e7 87be 0bd9 883f e211 4bc0
00000030: 4f04 bbbf 9b5f ccc0 b5c6 06c1 4dd7 0b40
00000040: 870a c2bf c517 543e 77ec 88c0 c5a7 36c0
00000050: 9f61 e73f e95b 78c0 abbc 1e40 cd4b 0d3e
00000060: c8f4 1040 5c11 063f 1ac2 80c0 05e5 e8bf
00000070: 5056 6d40 5406 9440 82f7 81bf 9934 b3bf
00000080: 8cb9 0640 a63b b23f 1d72 00c0 3857 2fbe
00000090: 6958 00c0 0cd3 0ec0 fb5a 11c0 99b1 33c0
000000a0: 8b65 14c1 2bcd 2ec0 ef07 19c0 2732 f0c0
000000b0: bace fd3f de7d 9f3f b79e 853f 58bc b5bf
000000c0: bbf4 7c3f 2e3b 0540 6e91 2ac0 b15a 3fc0
000000d0: 08fb 2a40 666d 5a3f d79d a4c0 2008 1a40
000000e0: 3467 4c40 10e4 1140 e2d1 b640 ded6 95be
000000f0: 88a6 b8be 1c1d 9940 5adc 3ac0 e365 dc40
00000100: 05be 843f dd29 a4c0 885b 7e40 6401 883e
00000110: 15da d340 bb99 7a3f 6c8f fdbf f547 933e
00000120: 2e2f 87be 28e3 e8be aee4 57c0 8a6b 9440
00000130: 7c67 e93f fee9 53c0 8f93 b3be ca5d b93e
00000140: a10f 5040 1842 bdc0 dce1 86c0 13ec 823f
00000150: c733 85be 1bb1 4cc0 6cc8 01c1 eeb4 cb3e
00000160: 5ad3 88be edf5 57c0 51a2 19c0 ec21 4d40
00000170: a983 5340 d0f7 6540 34ab 3b40 4bc3 3a3f
00000180: 09fb c63f 23c6 653f 5896 cc3e 0658 1240
00000190: 58c7 3e40 c67b ebbf 7416 0fc0 c092 67c0
000001a0: 4b4e fb3f 2d53 d23f 5fcb f0bf aed5 ca3e
000001b0: f5e7 f9bf 47a9 aabf 1432 60c0 cef0 91bf
000001c0: 4a36 2b40 5ba8 b1c0 21dd fec0 f079 683f
000001d0: fe9f 863f 418f 09c0 5b96 3dc0 d904 17c0
000001e0: e3ff ae40 eea1 c540 c3d0 ed3f 4130 fe3f
000001f0: 7820 053f 302e a3bf e4fe cfc0 e998 f2c0
00000200: e8fd 23c0 0aea d4bf 9d6a 77be 373b 8fbf
00000210: a404 4ac0 b95c 38c0 5412 39c0 7cef 933f
00000220: a78d b73e 0565 0440 b9e5 9f40 ea13 88bf
00000230: 251b a2bf c25a e93e accb 6040 3759 803f
00000240: f361 8e3f 5144 a540 cf21 0540 bcdb 1440
00000250: 0941 38bd 0e2b af40 a3af 283f 9dfd 14c0
00000260: f31f 5dbf 0536 4f40 db36 253e ecac c53f
00000270: 1acb 50bf b99e a9c0 d919 d43e 5525 b040
00000280: 54be ae3f 02fd 2840 5380 c1c0 2fab cbc0
00000290: 538d 8540 6d33 bdbe 6d13 5c40 7029 1d40
000002a0: 7af9 a6c0 4a96 e3bf 6cae 07bf ff3c 203f
000002b0: 2563 3a40 ec8a 5a3e d2f2 5abe 01d8 7c3e
000002c0: b757 ae3e 365c 62c0 6abf 67c0 fb9d 89bf
000002d0: 5f93 16c0 9800 4d3f 223a ddbf 17a5 293f
000002e0: 594b 573f e379 4ec0 dd13 0741 26fe fb40
000002f0: fb7c d240 4943 8440 4cd3 91be 3927 5840
00000300: 59f2 49bf 1a32 6e40 99bd 78c0 4ecf 2f40
00000310: 9f94 403f e82b e5bd dfbe e13f f550 9bc0
00000320: b710 2dc0 bef4 283e 6a08 78be 7191 82c0
00000330: f057 2bc0 08da 1840 6680 8dbf 5f81 9bbe
00000340: d330 f3bf 20d9 8d40 d640 323e b058 b33f
00000350: 58bc 2540 b72c 9440 3972 20bf d396 973f
00000360: b0d5 6440 adb6 7340 2833 6b40 b13f c0c0
00000370: 9b76 a73e 398c 853d 7298 7640 99b6 0040
00000380: 5401 dac0 93c9 a53f 8118 15c0 7e04 2dbf
00000390: 0979 333f b2e9 4f3c 0858 02c0 4f59 c3bf
000003a0: db81 9640 24b0 3640 5336 2840 1331 cf3e
000003b0: 15a4 203e f595 f940 d5c5 aa3d 433f aac0
000003c0: 7a48 14c0 ea13 4f40 38a1 fa40 c7dc 22c0
000003d0: ae7d b8c0 165f 3cc0 a680 e03e a3df bebf
000003e0: c776 72bf b652 9dbf 46fd 9040 7c3a 273f
000003f0: d6ea 72c0 69bd f1bf 2712 1c40 e3b4 8dbf
0.8623865 2.9250562 3.8432279 3.8551397 3.9197333 4.6793494 -0.26795796 -0.7725534
-0.6020366 -0.26543576 1.0691236 -3.1729665 -1.461069 -6.3866706 -8.423512 2.185016
-1.5159463 0.20712192 -4.2788653 -2.8539898 1.8076667 -3.8806098 2.4802654 0.13798447
2.2649403 0.5237024 -4.023694 -1.8194891 3.708393 4.6257725 -1.0153658 -1.4000427
2.105075 1.3924453 -2.006965 -0.17123115 -2.0053961 -2.2316313 -2.271178 -2.8077147
-9.274791 -2.7312725 -2.3911092 -7.506122 1.9828713 1.2460287 1.0439061 -1.4198103
0.9881093 2.081737 -2.6651263 -2.9899104 2.6715717 0.8532318 -5.1442676 2.406746
3.193799 2.2795448 5.7131205 -0.29265493 -0.36064553 4.7848034 -2.9196992 6.8874373
1.0370489 -5.1301103 3.9743366 0.2656356 6.6203713 0.97890824 -1.9809394 0.28765836
-0.26403183 -0.45485806 -3.3733325 4.6381273 1.8234706 -3.3111567 -0.35073516 0.36204368
3.250954 -5.914318 -4.2150707 1.0228294 -0.26016065 -3.1983097 -8.111431 0.39786476
-0.26723748 -3.374385 -2.400532 3.2051954 3.304911 3.5932503 2.9323244 0.72954243
1.554536 0.8975546 0.39958453 2.2866225 2.980917 -1.8397148 -2.2357454 -3.618332
1.9633268 1.6431633 -1.8812064 0.3961615 -1.9523913 -1.3332909 -3.5030565 -1.1401613
2.6751885 -5.551801 -7.9644933 0.9081106 1.0517576 -2.1493685 -2.962302 -2.3596709
5.468736 6.176017 1.8579334 1.9858476 0.5200267 -1.274847 -6.4998646 -7.581166
-2.5623722 -1.6633923 -0.24161763 -1.1189946 -3.1565332 -2.8806593 -2.8917437 1.155746
0.3585026 2.0686657 4.9967923 -1.0631077 -1.2664534 0.45577055 3.5124311 1.0027226
1.1123642 5.1645894 2.0801885 2.3259115 -0.044983897 5.4740057 0.65893 -2.3279793
-0.86376876 3.237672 0.16134207 1.5443397 -0.8155991 -5.3006253 0.4142597 5.504557
1.3651834 2.6404424 -6.0469146 -6.3646464 4.1735015 -0.36953297 3.4386857 2.4556541
-5.2179537 -1.778024 -0.5300052 0.6259307 2.9123013 0.21342057 -0.21381691 0.24691774
0.34051296 -3.536878 -3.621058 -1.0751337 -2.3527448 0.8007903 -1.7283366 0.6626753
0.84099346 -3.2261894 8.442349 7.874774 6.5777564 4.1332135 -0.2848152 3.377394
-0.7888542 3.721808 -3.8865721 2.7470279 0.7522678 -0.11190015 1.7636374 -4.8536325
-2.7041452 0.16499612 -0.2422196 -4.080254 -2.6772423 2.3883076 -1.1054809 -0.3037214
-1.8999275 4.4327545 0.17407545 1.401144 2.5896206 4.6304584 -0.6267429 1.1842903
3.5755424 3.8080246 3.6749973 -6.007775 0.32707676 0.06520886 3.8530545 2.0111449
-6.812662 1.295214 -2.3296206 -0.6758498 0.7010656 0.012689995 -2.036623 -1.526163
4.7033515 2.8545008 2.6283157 0.40467128 0.15687592 7.7995553 0.08338515 -5.3202224
-2.3169236 3.2355905 7.83218 -2.5447252 -5.7653418 -2.9433036 0.4384815 -1.4911999
-0.9471249 -1.2290866 4.530917 0.65323615 -3.7955832 -1.8885928 2.438608 -1.1070827

layer1.0.bias f4 [16]
00000000: 340c e03d b4bc 4341 895b 91bd fb47 5bc0
00000010: 4a16 ae40 4b58 69c0 2898 e53e 08db d13f
00000020: 3966 4d3e 99c5 8bbf 3c6e 9d3e 8843 193f
00000030: a651 0041 8d18 a8bf 7a90 3f40 b2da 4a3e
0.109398276 12.23357 -0.07097537 -3.4262683 5.440221 -3.646014 0.44842649 1.6394968
0.20058526 -1.0919677 0.30748165 0.5986867 8.019934 -1.3132492 2.9931931 0.19809988

layer1.1.weight f4 [16]
00000000: 6f73 8440 b322 5e40 ed9d 8240 4446 4740
00000010: fb6d 5340 d9cc 8b40 4b1a 5040 81e2 6540
00000020: d9d8 f53f f6cf 2840 ad51 6440 0633 6540
00000030: 0e63 8d40 dd7c 5340 eade 2540 77d6 bb3e
4.139091 3.4708679 4.081778 3.1136637 3.3035877 4.368756 3.2516048 3.5919497
1.9206802 2.637693 3.567485 3.5812392 4.4183416 3.304496 2.5917306 0.3668706

layer1.1.bias f4 [16]
00000000: 91b0 86c0 a0e8 47c0 07f1 aac0 bab0 13be
00000010: c369 26c0 26ff 3ac0 f077 88bf c077 44c0
00000020: 0054 923f 4a46 a3bf 1522 a3c0 85a1 2dc0
00000030: 7854 a9c0 1bcb f5be adf0 b1bf bc32 afbf
-4.2090535 -3.1235733 -5.3419223 -0.14422885 -2.6002052 -2.921823 -1.0661602 -3.069809
1.1431885 -1.2755826 -5.0979104 -2.7129834 -5.291561 -0.4800652 -1.3901573 -1.3687358

layer1.1.running_mean f4 [16]
00000000: 40bd e8bf 2809 293f 2656 0141 c995 87c0
00000010: 7514 01be 079d 9cc0 87ab fabc a89b 2441
00000020: d897 8940 5390 0f3f 66c0 523e 41ca 803e
00000030: 1fd0 88c0 6a87 10c0 66d0 8b40 fde5 6ac0
-1.8182755 0.66029596 8.083532 -4.2370343 -0.1260546 -4.8941684 -0.030599369 10.288002
4.2997856 0.56079596 0.20581207 0.25154307 -4.2754054 -2.258265 4.3691893 -3.6702874

layer1.1.running_var f4 [16]
00000000: 4ef2 5341 5907 1042 3076 aa41 dc9c bf40
00000010: 97c0 a641 f1d3 b141 ad0a 4a40 df66 ba41
00000020: c73c 2e41 c5e5 e040 5c5f cd40 c9d5 9941
00000030: 8f0a 6442 e035 4e41 0ab3 b340 3a48 5540
13.246656 36.007175 21.307709 5.987898 20.844038 22.228487 3.1569016 23.30023
10.889838 7.028048 6.4178905 19.229387 57.01031 12.888153 5.6156054 3.3325334

layer2.0.weight f4 [32, 16, 5, 5]
00000000: a62f 64c0 ef9d 1ac0 3c83 9dc0 1040 15c1
00000010: 5b36 97bf 744d ccc0 7301 90c0 0ffc 19c0
00000020: 78a8 98c0 07fc 1640 9129 2440 3d3f 363f
00000030: 8fcc abc0 fdd4 083f ea22 0c40 d8f9 b0bf
00000040: b52c 6cc0 b5f1 c43e 9515 6840 6979 1dc0
00000050: 571e 52c0 51ea 52c0 7050 c23f bffe 86bf
00000060: 7654 f43f ffb1 7cc0 e1a9 1bc0 9325 6ac0
00000070: 44eb dbbf 6da3 453f c29d 11c0 bb5a b33f
00000080: dafa 88bf 67ae dd3f 6c71 f940 d3e1 ae3f
00000090: 6659 0540 d3bc c0bc 5433 c0c0 4007 9d3f
000000a0: 2ed5 9dbf e248 1140 7a30 9540 a037 c3bf
000000b0: 7b12 a03f eef5 fe3f 852f 3b3f 5736 4abf
000000c0: 704a cbc0 3b2f 0140 1833 0b3f 314b fe40
000000d0: b99a 1ac0 6465 2ec0 9cdd 38c0 d927 07bf
000000e0: ea3a 9fbf 5512 e9c0 7acd 6c3f 2d88 d23f
000000f0: 67f7 f7c0 0842 3b40 af9f 413e 7351 b13f
00000100: c731 68bf ef10 20bd 5a91 4640 b0c6 5140
00000110: addd 6d40 bb24 803f ce18 e1bf 15e2 f2be
00000120: b8fb 06be 37e2 cbc0 91c9 7ec0 b386 e83f
00000130: e95e 7cbf 57e0 ddbf 5b0d cfbf 9802 94c0
00000140: f3db 1ec0 83aa 87c0 4b70 f3c0 5771 503e
00000150: db94 a93e 0bd7 a540 f7c8 1e40 f4f5 29c1
00000160: 4d04 f5c0 3404 843f e4fe 99be 31ff 893f
00000170: 27f6 0ac0 8387 e13f d739 c4bf 2419 33bd
00000180: 0d2a 3840 1d5e 41c0 5494 2d3e 4594 5640
00000190: 22cd 553f 1a13 ac40 be1a 51c0 cc70 d03f
000001a0: 9e0f cbbc 71ed 10c0 7c32 ddc0 97c1 0bc0
000001b0: 3659 5dc0 ed64 2ac0 bcb0 52c0 0ca0 13c0
000001c0: 1bfd 3d40 9b2e 35be d497 e7bf 7afb 103f
000001d0: b7a6 d340 f63f 543e 7b48 b0c0 1907 40bf
000001e0: bec0 a440 4e61 8a3e bafb 3dc0 5b70 1940
000001f0: a19b c03f 98f2 453d 2c89 78c0 d71f 2bc0
00000200: ec9e f83f f4c1 2b40 d402 2040 2490 433f
00000210: 26de ffbf 77b7 123e 8633 933f 78f7 43c0
00000220: 9ea0 c6bf 09e4 a1c0 f2f8 78c0 f451 96c0
00000230: 81f0 ecbe b2d6 6c40 c8a4 a0c0 9ccd 0bc0
00000240: 03fe 8540 776b 16c0 de0d 0a40 775d 8bbf
00000250: 67b3 88c0 0f48 33bf 80a8 89c0 9635 e040
00000260: a6a9 b4be 7d0d 7b3f 8f8c 0b40 bc9f 60bf
00000270: 871a 35c1 0af0 c6bf acb7 a83f f5fd 23c1
00000280: 1af6 a340 bd25 ce3e 1dd9 09c0 2f0a fac0
00000290: f5ce 6b40 1ceb c63f 7ff1 3540 d51b 943e
000002a0: 01f9 3d40 fdf8 73bf 5095 d03f e1a8 ad3e
000002b0: 8308 42c0 dc62 06bd f5e7 19c0 4e6e f13f
000002c0: beb7 65c0 e52e 1ec0 4b5b 3540 a8b3 0140
000002d0: dba5 c940 01b3 f63e 80aa acbf 368a 9e3e
000002e0: 3225 25c0 6ed0 44c1 19cb a9c0 8fb7 80bf
000002f0: 6663 9ec0 7567 f6be 3b84 0cc0 6b46 e0be
00000300: 430f 97bf e18d 30bd 7f8f 7840 ef55 83bf
00000310: b8be 9a3f 032c ab3e 0137 933f 647f 8d40
00000320: d606 aabf 960b b43e bb15 8d3f 6723 fd3f
00000330: 9e31 a0bf f537 99bf e6d7 64c0 6895 4c40
00000340: 1b4c f33e af09 38c0 841c 84c0 cc2e 1bc0
00000350: 3f3d 853c b309 5640 1d96 1240 f793 debc
00000360: 2995 53bf e9f6 1fc0 b428 8dc0 4f5f 3640
00000370: f6ec 66c0 7e59 15be 749a 2040 bc57 9c3e
00000380: 0781 963f 7fd8 38c0 a51f fb3f 5812 6ec0
00000390: 794b 9d40 c0ff 04c0 9c62 c93e d66f 03c1
000003a0: b416 0740 6d1c 80bf e637 4f3d 1a18 c0bf
000003b0: 0f2f 80c0 675a dc3e 9c75 4e40 44fe ec3f
000003c0: 4b3b c0c0 a277 53c0 3aed 78c0 2c53 94bf
000003d0: 4696 e13f 8e5d 75c0 3027 1b40 1a60 1840
000003e0: f5eb b43f 1d62 823f d2c6 9540 3504 99c0
000003f0: c479 3a40 1e2d 03c0 63d3 193c 7d04 623f
-3.5654082 -2.4158895 -4.92227 -9.32814 -1.1813463 -6.3844547 -4.500177 -2.4060094
-4.770565 2.3591325 2.565037 0.71190244 -5.3687205 0.53449994 2.189631 -1.3826246
-3.6902287 0.38465658 3.6263173 -2.4605353 -3.2831018 -3.2955515 1.5180798 -1.0546492
1.9088275 -3.948364 -2.4322436 -3.6585433 -1.7181172 0.7720249 -2.2752538 1.4012064
-1.0701554 1.7318848 7.7950954 1.3662666 2.0835814 -0.023527538 -6.0062656 1.2267838
-1.2330682 2.2700734 4.6621675 -1.525135 1.250564 1.9918802 0.73119384 -0.78989166
-6.3528366 2.0185077 0.5437484 7.9466786 -2.4156935 -2.7249384 -2.888526 -0.5279518
-1.2439854 -7.283488 0.9250103 1.6447808 -7.7489505 2.9259052 0.1890857 1.3852981
-0.90700954 -0.03907865 3.1026216 3.277752 3.716655 1.0011209 -1.7585695 -0.47438112
-0.1318196 -6.371364 -3.9810526 1.8166107 -0.9858232 -1.7334088 -1.6175951 -4.6253166
-2.4821746 -4.2395644 -7.6074576 0.20355736 0.3312138 5.1825004 2.481016 -10.622547
-7.656775 1.0313783 -0.3007728 1.0781003 -2.171274 1.761948 -1.5330151 -0.043725148
2.8775666 -3.0213692 0.16951114 3.3527997 0.8351613 5.3773317 -3.2672572 1.6284423
-0.02478772 -2.2644923 -6.9124126 -2.1836908 -3.45857 -2.66241 -3.292037 -2.3066435
2.9685733 -0.1769356 -1.8093209 0.5663372 6.614101 0.20727524 -5.5088477 -0.7501083
5.148528 0.27027363 -2.9684892 2.3974826 1.5047494 0.04832706 -3.8833723 -2.6738183
1.9423499 2.683713 2.5001726 0.76391816 -1.9989669 0.14327799 1.1500099 -3.0619793
-1.5517766 -5.0590863 -3.8901944 -4.697504 -0.4627724 3.700604 -5.020115 -2.1844244
4.1872573 -2.3503091 2.1570964 -1.0887898 -4.2718997 -0.7003183 -4.301819 7.0065413
-0.3528568 0.98067456 2.180454 -0.87743735 -11.318976 -1.5542004 1.3181052 -10.249501
5.1237917 0.40263167 -2.1538765 -7.813743 3.6845067 1.55405 2.8428648 0.28927484
2.968323 -0.953018 1.6295567 0.33917907 -3.0317695 -0.032809123 -2.4047825 1.8861787
-3.5893397 -2.4716122 2.833697 2.0265903 6.301496 0.48183444 -1.3489532 0.30964822
-2.5803952 -12.300886 -5.306042 -1.0056018 -4.9496336 -0.48125806 -2.1955707 -0.43803725
-1.1801533 -0.043104056 3.8837583 -1.02606 1.2089453 0.33432016 1.1501161 4.4218006
-1.3283336 0.3516509 1.1022257 1.9776429 -1.2515142 -1.1970202 -3.5756774 3.196619
0.47519 -2.875591 -4.128481 -2.4247313 0.016264556 3.344342 2.2904122 -0.027170165
-0.82649475 -2.4994452 -4.4112186 2.8495672 -3.608213 -0.1458492 2.509427 0.30535686
1.1758126 -2.8882139 1.9619032 -3.7198696 4.915463 -2.0781097 0.39333045 -8.214804
2.1107607 -1.0008675 0.05059042 -1.5007355 -4.0057445 0.43037722 3.2259283 1.8515096
-6.007238 -3.3041768 -3.8894792 -1.1587882 1.7623985 -3.8338351 2.4242668 2.3808656
1.4134508 1.0186192 4.68052 -4.7817636 2.913682 -2.0496287 0.009388777 0.882881

layer2.0.bias f4 [32]
00000000: 4acf 5540 1ec6 ab3f 852a 2340 c889 453e
00000010: 6918 e33e 0a39 b83f 9645 4940 a944 9a3e
00000020: 771e 0540 24a4 823e 9e6b bb3f 9a9c fd3d
00000030: a441 483e 675a 923f 6776 3840 7b33 cc3f
00000040: c7b3 413e 07ae 493e b51b d73f d021 1e40
00000050: 5677 073e f961 3840 6837 2040 cdf5 2340
00000060: 6133 1840 7cff 023d a071 ad3f 6af8 0040
00000070: 12f5 2c3e fcaa 5840 90e6 ac3f a390 303e
3.340777 1.3419836 2.5494702 0.1929084 0.4435456 1.4392407 3.1448722 0.3013051
2.0799844 0.25515854 1.4642217 0.12383385 0.1955629 1.1433839 2.8822267 1.595321
0.18916236 0.19695292 1.680533 2.4708138 0.13229117 2.8809798 2.5033817 2.5618775
2.378136 0.03198193 1.3550301 2.015162 0.16890362 3.385436 1.3507862 0.17242675

layer2.1.weight f4 [32]
00000000: 4f17 233f 43fd 343f 56c8 3d3f ea8b 893e
00000010: 4c96 653e 6ae8 443f 3dfd 463f bcaf 113e
00000020: a810 f03e 8bea 673e f9e1 0f3f 4af9 943f
00000030: b19f 343e 3621 6c3f acf9 5f3f 3c1f a23f
00000040: 91a5 573e 9fc0 923e de2d 773f 15b3 2c3f
00000050: c64b 2c3e 22cd 633f 4643 283f 3256 073f
00000060: d200 4e3f e23e 8b3e 687c 5d3f 1997 503f
00000070: 8ebb 8a3e 9c45 2d3f d33e 2f3f cfd3 813e
0.6370744 0.70698947 0.74133813 0.26864558 0.22420615 0.76917136 0.7773016 0.14227194
0.46887708 0.22648065 0.5620418 1.1638577 0.17639042 0.92238176 0.87490344 1.2665782
0.21059252 0.28662583 0.9655436 0.6746076 0.1682578 0.8898488 0.6572765 0.528659
0.8047 0.27196413 0.86517954 0.81480557 0.27096218 0.6768434 0.6845524 0.2535691

layer2.1.bias f4 [32]
00000000: 0c4f 27bf ec4f 37bf afca 61bf c277 3bbf
00000010: 18df 2fbf 90df 75bf e707 5cbf 900b 53bf
00000020: 9834 0bbf 8eed 43bf 13da 12bf 1d39 0cc0
00000030: 0b96 68bf 1ae7 c8bf d010 6cbf 7b31 e6bf
00000040: 9430 44bf b73a 20bf 411a 96bf a886 4abf
00000050: 92cf 12bf 2296 8bbf afdf 57bf 6aa4 06bf
00000060: feb4 99bf a79f 26bf 90c0 96bf 6fd6 77bf
00000070: a442 30bf a806 25bf a790 46bf dcd3 52bf
-0.6535499 -0.71606326 -0.88199896 -0.7322961 -0.6869979 -0.96044254 -0.8594956 -0.8243952
-0.54377127 -0.76534355 -0.57364005 -2.190986 -0.9085395 -1.5695527 -0.92213154 -1.798385
-0.76636624 -0.6258959 -1.1726762 -0.7911172 -0.5734798 -1.0905192 -0.8432569 -0.52594626
-1.200836 -0.6508736 -1.1777515 -0.96811575 -0.68851686 -0.6446328 -0.7756447 -0.8235452

layer2.1.running_mean f4 [32]
00000000: 9c9d 33c3 5a7e 0ec3 076e 08c3 5b8f 85c2
00000010: e339 0ac2 2871 ebc2 7ee3 09c3 3e14 3cc2
00000020: 5959 cbc2 c7fd 3bc2 dc95 dcc2 dbe1 cbc2
00000030: f9a2 77c2 b63e 07c3 8aa1 33c3 ac4c 12c3
00000040: 3f1d 01c2 fe02 ccc1 6a8d f9c2 2b2a 66c3
00000050: cb9a 6ec2 6535 16c3 7604 06c3 4a41 11c3
00000060: d460 c5c2 69bf 06c2 8819 cfc2 e9e1 0cc3
00000070: 43b4 1fc2 463c 2cc3 d3da 00c3 ed9c 6ac2
-179.61566 -142.49356 -136.4298 -66.77999 -34.55653 -117.72101 -137.88864 -47.019768
-101.67451 -46.99783 -110.292694 -101.941124 -61.909153 -135.24496 -179.63101 -146.2995
-32.27856 -25.501461 -124.7762 -230.16472 -59.651165 -150.20857 -134.01743 -145.25504
-98.68912 -33.686924 -103.549866 -140.88246 -39.926037 -172.23544 -128.85478 -58.653248

layer2.1.running_var f4 [32]
00000000: 9070 0347 3b5b 2147 45fa ab46 4176 ea44
00000010: 71b6 1144 04d5 a946 379f ba46 22bc 7c44
00000020: 82c8 8146 07bf 8544 8ea9 d246 d97d e046
00000030: b541 0645 b360 d546 4762 0447 db61 cf46
00000040: 1eec 3844 70a6 a843 144d c446 981c 0247
00000050: 4088 ea44 b7cd cb46 8e56 8846 ddc4 c746
00000060: 0b5c 6f46 5b35 f943 6f13 c546 32dd c946
00000070: 0137 3044 471d d346 aa86 ed46 9940 c944
33648.562 41307.23 22013.135 1875.6954 582.85065 21738.508 23887.607 1010.9396
16612.254 1069.9696 26964.777 28734.924 2148.1067 27312.35 33890.277 26544.928
739.68933 337.3003 25126.54 33308.594 1876.2578 26086.857 17451.277 25570.432
15319.011 498.41684 25225.717 25838.598 704.85944 27022.639 30403.332 1610.0187

fc.weight f4 [7, 4608]
00000000: eb23 61c0 ca6b 9fbf f17e b23f b5c2 91bf
00000010: 3eec 473f cc9a 67c0 4e86 24c0 f8dd 4d40
00000020: a903 48c0 16bc 07be 4228 b0bc d583 44c0
00000030: cefa c7bf 8be4 c23e 8618 65c0 91f2 303f
00000040: c72e 4ebe 3845 c5bf 004a f63f e9a8 f7bf
00000050: 0601 1b3e f33f 213f 5381 cbbf 8cd7 51c0
00000060: b568 24c0 9607 1dbe 95da 72bf 7895 0840
00000070: 948f 10c0 8c8c 693f 3266 91bf b253 083f
00000080: e980 7fbf 1970 5bc0 d6d4 babf 6a70 0d3f
00000090: d038 f03f 7155 fd3f 62c1 f0bf 5fda abbf
000000a0: d0e8 ba3d c5e7 11c0 7eec 33bf d4e2 0840
000000b0: bf35 8fbe f2aa 97bf 4be7 a5bd 532f 29c0
000000c0: 595c ddbe 6691 9bbf 7c93 f1bf 82a3 0fc0
000000d0: c515 86bf 39b4 bd3c 40cd 6f3e a228 24bf
000000e0: 80ea 8fbf be34 ebbf 7821 19bd 19a2 bc3e
000000f0: 813b 4c40 872d 8140 c288 e63e a8d7 26bf
00000100: b217 b53f fab2 2bbf 459b 143f e441 29be
00000110: d617 e5be e0c4 73bf aad8 223f b8a6 92c0
00000120: 4164 43c0 bbac 20bf 8332 b93f e249 1e3f
00000130: 75f4 5a3f 052b 3540 29b0 bfbf 0ee1 67be
00000140: 037a 91be b914 ed3f 9068 5d3f 6799 b840
00000150: 529e cd3e 4ae7 533e 722b a43f eef6 45bf
00000160: 4fe2 d63f 47a9 203f a521 693f 721a e0be
00000170: 81c2 2040 5ba3 98bf 3807 2dbc 550a 4dc0
00000180: 1ea6 e0be 147e 58bf 7f6c d03f 4f97 adbf
00000190: e8bd 3a40 df80 bebe b4d3 c4bf 7694 423f
000001a0: db4e c93f 87af 62be b641 1c3f 87d8 4bbf
000001b0: 99d4 a53f 12e2 f03f 79d6 96be f4d0 243e
000001c0: 3a59 efbf 7393 843f c561 81be 9de7 a23f
000001d0: 43e4 363f 1b57 223f 90fb 5ebf d02a dcbd
000001e0: d098 9b40 ff2d 993d d54f eabe 0a0b 3fc0
000001f0: 0f1d 0c40 e1c9 94c0 ffca 2e40 3218 853f
00000200: 35d3 9a3f 9cec 86bf 2ab6 04c0 b12b 823f
00000210: 27c3 033f 9825 8b40 8673 a4bf 344d a8be
00000220: 11ef 87bf 283b f93f 11af ab3f a588 92bf
00000230: 6b52 7940 e765 98c0 4144 0840 d56d ffbf
00000240: ba86 c7bf bd87 54bf bdbe 843f 65cc 09bf
00000250: d6a4 9a40 7c3d a3c0 cf07 0240 8a8d 0f40
00000260: b247 77bf 44b3 11bf ff4f 5f3f f15b b9c0
00000270: a2ea 3c40 62eb 883f b31b 773e f951 2f3f
00000280: 1a25 1240 4088 f83d 4473 253f d8c2 4540
00000290: 673b b63c 7995 d63f 999f a43f a700 5f40
000002a0: f296 7a3f 5594 a8be b566 b0bd d8c3 1240
000002b0: 98d9 773f 9c21 d93d cadb 0640 7d71 ef3f
000002c0: aa90 793f 1cc4 fc3f a662 d73e dddc dd3d
000002d0: 65f4 22bf 5f86 06c0 b4fe 1fbe 491c 2c40
000002e0: 03d6 1940 0985 9abf 9ba9 e73e 0371 f23f
000002f0: 404e e23f fbd3 b73f 07f5 3a3f 3ec1 94bf
00000300: 8151 673e 4320 14c0 28f6 fd3e 0958 0c40
00000310: 1654 9c3f 83fa b5be 28af 383f 7938 bf3f
00000320: 781f 583f dee8 1440 8d53 f03d 517b 9a3f
00000330: 9dd5 0440 aa4b 0ac0 3e88 a0bf 7e31 783f
00000340: 495f 0ebf 9af8 f8bf b4c5 e73e 9786 2c3f
00000350: 8208 443d f83e 60bf ce6a 3c3e 6117 4b40
00000360: 9917 0f40 57b2 87c0 9060 43c0 aad5 c93e
00000370: 3fe8 17c0 28f9 61bf 2978 983f 2515 bcbf
00000380: ab2f 4ec0 5fab 203f d600 a9bf 2674 b9c0
00000390: d4b7 0940 d456 073e 530d 9dbf 153c 7cc0
000003a0: 3a36 c7bf 8279 39bf e20c 2cc0 57c0 0ac0
000003b0: 8eca 7cc0 5e0e dabf fbe7 3ac0 6a73 fdbe
000003c0: cdef 1f40 5e8c b0c0 5e5f 95be d497 75bf
000003d0: 5e0e 20c0 9572 06c0 5920 033c 3dba afc0
000003e0: 4e31 0ec0 aa28 653f 1968 1ac0 b128 973e
000003f0: c247 d6bf f757 c33e d11c 43bf 1552 babe
-3.5178173 -1.245477 1.394499 -1.1387545 0.7809485 -3.618823 -2.5706973 3.216673
-3.1252234 -0.13255343 -0.021503571 -3.0705464 -1.5623415 0.3806499 -3.5796218 0.69120127
-0.20135032 -1.5411749 1.9241333 -1.9348422 0.15137109 0.62988204 -1.5898842 -3.278781
-2.5688908 -0.15334925 -0.9486478 2.1341228 -2.2587633 0.9123008 -1.1359313 0.5325271
-0.99806076 -3.428717 -1.4596202 0.55249655 1.8767338 1.97917 -1.8809016 -1.3426017
0.09126437 -2.279771 -0.70282733 2.1388445 -0.27970693 -1.1849043 -0.08100756 -2.6435134
-0.43234518 -1.2153747 -1.8873134 -2.2443547 -1.0475394 0.023157226 0.2341814 -0.641245
-1.1243439 -1.8375471 -0.037385434 0.3684242 3.1911318 4.0368075 0.45026213 -0.65172815
1.4147856 -0.6706997 0.5804942 -0.16529042 -0.44744748 -0.9522228 0.63611853 -4.5828514
-3.052994 -0.62763566 1.446854 0.61831486 0.8552926 2.8307507 -1.4975635 -0.22644445
-0.284134 1.8521949 0.86487675 5.768726 0.4015985 0.20693699 1.2825758 -0.7732991
1.6787814 0.62758297 0.9106696 -0.43770176 2.5118716 -1.1924852 -0.010560803 -3.2037556
-0.43876737 -0.8456738 1.628311 -1.3561801 2.917841 -0.37207696 -1.5377107 0.76007783
1.572719 -0.22137271 0.61037767 -0.7962727 1.2955505 1.8818991 -0.29460505 0.16095334
-1.8699105 1.0357498 -0.25269905 1.2726933 0.7144205 0.6341416 -0.87102604 -0.10750353
4.862404 0.07479476 -0.45764032 -2.9850488 2.1892736 -4.6496434 2.73114 1.0398009
1.2095705 -1.0540957 -2.0736184 1.0169584 0.51469654 4.348339 -1.2847755 -0.328714
-1.0619832 1.9471178 1.3412801 -1.1447951 3.8956554 -4.7624393 2.129166 -1.9955393
-1.558799 -0.8301962 1.0370709 -0.53827506 4.8326216 -5.1012554 2.0317266 2.2430139
-0.96593773 -0.5691416 0.8723144 -5.7924733 2.9518209 1.0696833 0.2413166 0.68484455
2.2835145 0.121353626 0.64629006 3.0900173 0.022245122 1.6764365 1.2861205 3.4844148
0.97886574 -0.32925668 -0.0861334 2.2932034 0.96816397 0.106021136 2.1071649 1.8706509
0.97486365 1.9747348 0.4206745 0.10833142 -0.63654166 -2.1019514 -0.15624505 2.6892264
2.4036872 -1.2071849 0.45246586 1.8940738 1.768013 1.4361566 0.7303013 -1.1621473
0.22589685 -2.314469 0.49601865 2.1928732 1.2213161 -0.35542688 0.7214227 1.4939109
0.8442302 2.326713 0.11734686 1.2068883 2.075538 -2.1608682 -1.2541578 0.9695052
-0.55614144 -1.9450867 0.45268023 0.6739287 0.047859676 -0.8759608 0.18400118 3.173302
2.2358153 -4.24052 -3.0527687 0.39420825 -2.3735502 -0.8827081 1.191167 -1.4693953
-3.2216594 0.6276149 -1.320338 -5.7954283 2.151845 0.13216716 -1.2269691 -3.941167
-1.5563424 -0.7245103 -2.6882863 -2.1679895 -3.949863 -1.7035635 -2.920409 -0.49502116
2.4990113 -5.5171347 -0.29174322 -0.95934796 -2.500877 -2.1007435 0.008003318 -5.491484
-2.2217593 0.89515173 -2.4126036 0.29523233 -1.6740649 0.3815305 -0.76215845 -0.3639075

fc.bias f4 [7]
00000000: 0abd d43e ed03 86c0 1aa3 1ebd 8109 5f3e
00000010: 545a f63e 1ad3 983f bbd7 04c0
0.41550475 -4.187979 -0.038729765 0.21780969 0.4811579 1.1939423 -2.0756671
