FaceExpressions_CNN/savemodel/model_20.pth (torch_old, 185408 bytes, 14 tensors)

layer1.0.weight f4 [16, 1, 5, 5]
0	0x3f308e04	0.689667
1	0x3f9f2f01	1.243622
2	0x4021e26d	2.529445
3	0x3fdbb206	1.7163703
4	0x3fffd2db	1.9986223
5	0x40131eef	2.298763
6	0xbda1bda8	-0.07897502
7	0xbc125ca4	-0.00893322
8	0xbd4adee0	-0.049528956
9	0xbd9617b6	-0.07328741
10	0x3f57ccfe	0.8429717
11	0xbfa54e04	-1.2914433
12	0xbff246c2	-1.8927844
13	0xc06a88a9	-3.664591
14	0xc08fb2a1	-4.4905553
15	0x3f87d033	1.0610412
16	0xbf4f5ce6	-0.81001127
17	0xbe81aeff	-0.25328824
18	0xbffad6ef	-1.9596843
19	0xbfd77a3a	-1.6834176
20	0x3e9c7df2	0.3056484
21	0xbfc2b7b7	-1.5212315
22	0x3fc71301	1.5552675
23	0x3e882478	0.26590323
24	0x3f91e934	1.1399293
25	0xbf6c2fcb	-0.92260426
26	0xbfc407e9	-1.5314914
27	0xbe196f3e	-0.14983842
28	0x3fcf20aa	1.6181843
29	0x3ffff3c1	1.9996263
30	0xbb766e28	-0.003760228
31	0xbf585d1e	-0.84517086
32	0x3d2a2188	0.041535884
33	0x3f2ebc63	0.68256205
34	0xbce94ed2	-0.028479967
35	0xbf9bd28a	-1.2173626
36	0xbf45ecf5	-0.7731469
37	0xbf1e1568	-0.61751413
38	0xbff9885a	-1.9494736
39	0xc00039c6	-2.0035262
40	0xc07b7816	-3.9292045
41	0xc01ee115	-2.482488
42	0xc00df56e	-2.2181048
43	0xc05bd950	-3.4351387
44	0x3f0571a1	0.5212651
45	0x3f3d7cbc	0.74018455
46	0xbea8bdee	-0.32957405
47	0xbe2a6f70	-0.16644073
48	0x3e880edd	0.2657384
49	0x3f3796c7	0.7171444
50	0xbfd789b2	-1.6838896
51	0xbf41d8d8	-0.757215
52	0x3f6bf8bc	0.92176414
53	0xbdbbe418	-0.09174365
54	0xc010b428	-2.2609959
55	0x3f1fe7c1	0.62463003
56	0x401c9245	2.4464276
57	0x3fcd0937	1.6018437
58	0x405d32f3	3.4562347
59	0x3f01950c	0.5061805
60	0x3ec542c0	0.3852749
61	0x402883b6	2.633039
62	0x3f57b99b	0.84267586
63	0x406916d8	3.6420193
64	0x3f41e169	0.75734574
65	0xbff1f670	-1.8903332
66	0x3f921c0a	1.1414807
67	0x3f2e85e3	0.68173045
68	0x40725f59	3.7870696
69	0x3eede46f	0.46463344
70	0xbf60cfa9	-0.87816864
71	0x3e17c21d	0.14820142
72	0x3ec4dfcd	0.38451996
73	0xbde9d19b	-0.11416932
74	0xbfe841c8	-1.8145075
75	0x401acc4e	2.4187198
76	0x3f452a3e	0.7701758
77	0xbfc710da	-1.5552018
78	0xbe8ca093	-0.27466258
79	0xbb8a6975	-0.0042239972
80	0x3ff9b91c	1.9509616
81	0xc044c234	-3.0743532
82	0xc00a47ee	-2.1606402
83	0x3e82379a	0.25433046
84	0x3e77caf7	0.24198519
85	0xbfe4c15d	-1.787151
86	0xc088d3ec	-4.2758694
87	0x3e8ca237	0.2746751
88	0xbe903e31	-0.28172448
89	0xbfdc4a99	-1.7210265
90	0xbfb115f7	-1.3834828
91	0x3faab1d3	1.3335518
92	0x400a1036	2.1572394
93	0x3fe559a6	1.7917984
94	0x3fcb23e3	1.5870327
95	0x3e8476bc	0.25871837
96	0x3fbcea94	1.4759088
97	0x3e4a6173	0.19763736
98	0x3edeabf0	0.43490553
99	0x3fa3305c	1.2749133
100	0x3f80f853	1.0075783
101	0xbed83a4d	-0.4223198
102	0xbfb35cd3	-1.4012703
103	0xc0110ba1	-2.2663348
104	0x3f8b66d7	1.0890759
105	0x3f353ffc	0.7080076
106	0xbf7a1154	-0.9768269
107	0x3e82bd29	0.25534943
108	0xbfca6ef8	-1.5815115
109	0xbfeacc17	-1.8343533
110	0xbfc95a74	-1.5730729
111	0xbe29dc9e	-0.16588065
112	0x3f1e887a	0.61926997
113	0xc0386395	-2.881078
114	0xc0596ae7	-3.3971498
115	0x3f703ec5	0.9384578
116	0x3f2ccfff	0.67504877
117	0xbf4bf073	-0.7966377
118	0xc003e675	-2.060941
119	0xbff44ff0	-1.9086895
120	0x402ef7ac	2.7338667
121	0x403a988d	2.915561
122	0x3f7efb39	0.99602085
123	0x3f9c0586	1.2189186
124	0x3f892b36	1.0716312
125	0xbf5ee417	-0.8706679
126	0xc06f8642	-3.7425694
127	0xc0801768	-4.002857
128	0xbfe7262e	-1.8058527
129	0xbf2d2a05	-0.6764224
130	0x3eff3c16	0.4985053
131	0xbf6b35ea	-0.9187914
132	0xbfadb7df	-1.3571738
133	0xbf95083c	-1.1643138
134	0xbfc0753d	-1.5035778
135	0x3e48a0a7	0.19592534
136	0x3f177a95	0.5917142
137	0x3fbdef05	1.4838568
138	0x3fe24464	1.7677121
139	0xbf4e1068	-0.80493784
140	0xbe9c6332	-0.3054443
141	0x3ed7e2e0	0.4216528
142	0x3fcb9253	1.590403
143	0x3f5e15e2	0.8675214
144	0x3f8f28ab	1.1184286
145	0x403cb763	2.948693
146	0x3f9aca6a	1.2093022
147	0x3fac9cf1	1.3485395
148	0x3efde487	0.49588415
149	0x4036a085	2.8535473
150	0x3ef556a8	0.47917676
151	0xbf92e12a	-1.1474965
152	0xbf131fc8	-0.5747037
153	0x3fb9fcfb	1.4530329
154	0x3ebbc7c0	0.36675835
155	0x3f403e7b	0.7509534
156	0xbefd6080	-0.49487686
157	0xc03419fc	-2.814086
158	0x3d4bb4a6	0.049732827
159	0x403ee0df	2.982475
160	0x3f3ed13b	0.7453801
161	0x3fc0e4a4	1.5069776
162	0xc04ee053	-3.2324417
163	0xc04ab74f	-3.1674383
164	0x400ce379	2.2013838
165	0xbe7e8d4c	-0.24858588
166	0x4004504a	2.0674005
167	0x3f77f330	0.9685545
168	0xc03972b9	-2.897627
169	0xbf881c54	-1.0633645
170	0xbe8e6706	-0.27812976
171	0x3ec93e48	0.3930533
172	0x3fda4b82	1.7054293
173	0x3e545793	0.20736532
174	0xbe10b744	-0.1413241
175	0xbe54b35c	-0.20771545
176	0xbe841720	-0.25798893
177	0xc0113866	-2.2690673
178	0xbf90f659	-1.1325179
179	0xbfb127ae	-1.3840234
180	0xbf7b2b11	-0.9811259
181	0x3e8d543d	0.2760333
182	0xbf2c2ea8	-0.6725869
183	0x3f03650b	0.51326054
184	0x3eb5c18b	0.35499224
185	0xbfa9cd55	-1.3265787
186	0x408a213f	4.3165584
187	0x408125bf	4.0358577
188	0x40893c7a	4.2886324
189	0x3fe6b5f9	1.8024284
190	0xbf01bb17	-0.506761
191	0x3ffad6f4	1.9596848
192	0x3e123023	0.14276175
193	0x400f036a	2.2345834
194	0xbfee32b3	-1.8609222
195	0x3fb0de05	1.3817755
196	0x3f1eb491	0.6199427
197	0xbda2d221	-0.07950235
198	0x3f4bd07a	0.79614985
199	0xc00a6fac	-2.163066
200	0xbf84834a	-1.0352566
201	0xbf0aa545	-0.5415843
202	0xbf0adfb9	-0.54247624
203	0xc005ea54	-2.0924273
204	0xbfaa5517	-1.3307217
205	0x3f3072df	0.6892528
206	0xbe04e5f6	-0.12978348
207	0xbef9e20f	-0.48805282
208	0xbeb1b837	-0.34710857
209	0x3ffb3398	1.962512
210	0x3ef3183b	0.47479424
211	0x3fe4062d	1.7814385
212	0x3f9b466d	1.2130867
213	0x401c868b	2.4457119
214	0xbf028cc3	-0.50996035
215	0xbe0efbe8	-0.13963282
216	0x4025e3cb	2.5920284
217	0x400ca3fb	2.1975086
218	0x4002bd34	2.042798
219	0xc0505aaa	-3.2555337
220	0x3e80c686	0.2515146
221	0x3f7f8d5e	0.99825084
222	0x3fbbba0b	1.4666151
223	0x3fa042da	1.2520401
224	0xc06155e3	-3.520867
225	0x3ebd4df7	0.36973545
226	0xbfa03558	-1.2516279
227	0xbeebd56c	-0.46061265
228	0xbe9c9eb9	-0.30589846
229	0x3f1eb8e9	0.620009
230	0xbf81d7b2	-1.014395
231	0xbf92162e	-1.1413019
232	0x403c42e1	2.941582
233	0x3fd92868	1.6965456
234	0x3f1a0689	0.6016622
235	0x3cf1ce62	0.029517356
236	0x3f51a4d7	0.8189215
237	0x4092d09d	4.5879655
238	0x3ea016e7	0.31267473
239	0xc018a0a6	-2.3848052
240	0xbf6e2ea7	-0.93039936
241	0x4001969e	2.024818
242	0x406d1c4e	3.7048526
243	0xbfc34fcc	-1.5258727
244	0xc04d8503	-3.2112434
245	0xbfb22627	-1.3917893
246	0xbf026068	-0.50928354
247	0x3ed30b62	0.41219622
248	0xbf0c59f1	-0.5482474
249	0xbf827708	-1.0192575
250	0x3ffb0f3a	1.9614022
251	0x3f61edeb	0.8825366
252	0xc000c140	-2.011795
253	0xbf675583	-0.90364856
254	0x3fc2d1f8	1.5220327
255	0x3df62aac	0.12019858

layer1.0.bias f4 [16]
0	0xbfdd1c5a	-1.7274277
1	0x3fd0b2e5	1.6304594
2	0xbde9990e	-0.11406146
3	0xbe7fe08c	-0.24988002
4	0x3faf7574	1.3707719
5	0xbfba9c6e	-1.4578989
6	0x3f046a18	0.51724386
7	0x3e1ef737	0.15523992
8	0x3f098655	0.537206
9	0xbe49db38	-0.19712532
10	0x3edbf815	0.4296271
11	0xbf5507b0	-0.83214855
12	0x3f576da1	0.84151655
13	0x3e2ed0a3	0.17071776
14	0x3fa8c23f	1.3184279
15	0x3e4adab2	0.19809988

layer1.1.weight f4 [16]
0	0x401654f7	2.3489358
1	0x3ff84d8a	1.9398663
2	0x400268b2	2.03764
3	0x400d2e1d	2.2059395
4	0x3fee90df	1.8637961
5	0x4021bc60	2.5271225
6	0x40213670	2.5189476
7	0x3ff60daa	1.922292
8	0x3f88240e	1.0636003
9	0x3fc192d5	1.5122935
10	0x3ff1c05c	1.8886828
11	0x40052c5e	2.080833
12	0x40069e8b	2.1034267
13	0x400cea41	2.2017977
14	0x3faf10ba	1.367698
15	0x3ebbd677	0.3668706

layer1.1.bias f4 [16]
0	0xc01cb3e2	-2.4484792
1	0xbfe2e727	-1.7726792
2	0xc021c52e	-2.52766
3	0xbd88b314	-0.066747814
4	0xbfba0061	-1.4531366
5	0xbfcee057	-1.6162213
6	0xbf41973c	-0.7562139
7	0xbfdec088	-1.7402506
8	0x3f2f6a0a	0.6852118
9	0xbf405989	-0.7513662
10	0xc023b8e8	-2.5581608
11	0xbfd158d7	-1.6355237
12	0xc02084c4	-2.5081034
13	0xbeb5bd85	-0.35496154
14	0xbf3a274e	-0.72716224
15	0xbfaf32bc	-1.3687358

layer1.1.running_mean f4 [16]
0	0xc03398d4	-2.806203
1	0xc0ca61f3	-6.3244567
2	0x40e6e0de	7.2149496
3	0xbf0e0057	-0.5546927
4	0xc0182fa6	-2.3779082
5	0xbfba5114	-1.4555993
6	0x3ec7c0da	0.39014322
7	0x40aad9eb	5.3391013
8	0x4055b49e	3.339149
9	0x3f97558a	1.182298
10	0x3f03306f	0.5124578
11	0xbf02f41f	-0.5115375
12	0xc0da9351	-6.830483
13	0xbe063318	-0.13105428
14	0x4025c8eb	2.590388
15	0xc06b41c9	-3.6758902

layer1.1.running_var f4 [16]
0	0x40743581	3.8157656
1	0x4176c5e9	15.423318
2	0x415ba39a	13.727442
3	0x3fd688ae	1.6760461
4	0x40f40a9d	7.6262956
5	0x40da5e37	6.824001
6	0x3f6cd1a6	0.925074
7	0x41007526	8.028601
8	0x40851f73	4.160089
9	0x401b3310	2.4249916
10	0x3fd6ff91	1.6796743
11	0x40aea52c	5.4576626
12	0x41a32654	20.393715
13	0x4071a714	3.7758226
14	0x4006bde3	2.1053398
15	0x4050ccab	3.262492

layer2.0.weight f4 [32, 16, 5, 5]
0	0xc0775443	-3.864518
1	0xc032d1a9	-2.7940466
2	0xbf881cce	-1.063379
3	0xc01b0a49	-2.4225028
4	0xbfb0d2c9	-1.3814327
5	0xc06130d3	-3.518605
6	0xc008e9e5	-2.1392758
7	0xbfb124a0	-1.3839302
8	0xc057ef9e	-3.374
9	0x3d38b0c9	0.04509047
10	0x3faaf2bc	1.3355327
11	0xbedc3d96	-0.43015736
12	0xbfff6ab2	-1.9954436
13	0xbf9e6f7f	-1.2377776
14	0x400e653f	2.2249296
15	0x3f714cf2	0.94258034
16	0xbf89a0e7	-1.0752228
17	0xbf54edf0	-0.83175564
18	0xbf2a0df4	-0.6642754
19	0x3dbb734d	0.09152851
20	0xbf7aece2	-0.98017704
21	0xc0094a00	-2.1451416
22	0x3edf810c	0.43653142
23	0xbf67d5d4	-0.9056065
24	0x3f8fbae1	1.1228906
25	0xc005fb1a	-2.093451
26	0xbf19cf75	-0.6008218
27	0xc01f8efa	-2.4931016
28	0xbf86d0d2	-1.0532477
29	0x3f1356a1	0.5755406
30	0xbcfa3579	-0.030543076
31	0x3edd2bd1	0.43197492
32	0xbfdf482d	-1.7443901
33	0x3f0b15b9	0.5433002
34	0x4064b5ce	3.5735965
35	0x3f2474a3	0.64240474
36	0x3fa20ec7	1.266076
37	0xbf468e36	-0.77560747
38	0xc00b0f41	-2.172806
39	0xbe678dfc	-0.22612756
40	0x3fa4cd2d	1.2875115
41	0x40393595	2.8938954
42	0x3f995543	1.1979145
43	0xbf32fcc3	-0.69916934
44	0xbf6e66a0	-0.93125343
45	0x401cb876	2.4487586
46	0x3f72ced8	0.9484687
47	0xbffc25db	-1.9699053
48	0xc00de5d7	-2.2171533
49	0x3efb04ef	0.49027202
50	0xbd377ccd	-0.044796754
51	0x409a113a	4.814603
52	0xbf678f27	-0.9045281
53	0xbe73c54e	-0.23805735
54	0xbf92874b	-1.1447538
55	0xbf409e7a	-0.75241816
56	0x3f193478	0.59845686
57	0xc014b96c	-2.3238173
58	0xbf0004b8	-0.500072
59	0xbf216968	-0.6305146
60	0xbfe059e2	-1.752743
61	0x3f35c2a8	0.71000147
62	0x3b530e6f	0.0032204648
63	0xbea2de83	-0.31810388
64	0xbf97b0dc	-1.1850848
65	0xbfa49675	-1.2858416
66	0x400b0971	2.1724513
67	0xbedcc8db	-0.4312199
68	0x3f2d2ec0	0.6764946
69	0xbf2e9689	-0.6819845
70	0xbfbc542b	-1.4713186
71	0xbf160e7a	-0.5861584
72	0xbefd119e	-0.49427503
73	0xbfd2e665	-1.6476561
74	0xbfcc78c3	-1.5974354
75	0x3f48cd75	0.784385
76	0xbed2bfab	-0.41161856
77	0xbf3fef3c	-0.7497442
78	0xbe750442	-0.23927405
79	0xbfef1f9b	-1.868152
80	0xbfaf4985	-1.3694311
81	0xc04a54ce	-3.161426
82	0xc07bd4d3	-3.9348648
83	0xbfb45a0d	-1.4089981
84	0x3e086832	0.13320997
85	0x400d617d	2.2090752
86	0x3f8c2515	1.0948817
87	0xc0af63fc	-5.480955
88	0xc077a630	-3.8695183
89	0x3e8645c9	0.26225117
90	0x3eef7e10	0.46775866
91	0x3faaf68e	1.3356493
92	0xbf90e724	-1.1320539
93	0x3e40113d	0.18756576
94	0x3e964188	0.2934687
95	0x3e670f3b	0.22564404
96	0x3fb80b4d	1.4378449
97	0xbf44a26e	-0.7681035
98	0xbf17aa68	-0.59244394
99	0x3fbe9d3c	1.4891734
100	0xbecbe774	-0.39825022
101	0x3fdcaabc	1.7239604
102	0xbf9a544b	-1.2056974
103	0xbf051a10	-0.51992893
104	0xbfae6566	-1.3624694
105	0xc01b66e6	-2.4281554
106	0xbf8212c3	-1.0161976
107	0xbfe6af77	-1.8022298
108	0xbfc7d341	-1.5611345
109	0xbf93d521	-1.1549417
110	0xbf682043	-0.9067423
111	0xbf39ade2	-0.7253095
112	0xbfa24be3	-1.2679409
113	0xbf9208f6	-1.1408985
114	0xbfe60955	-1.7971598
115	0x3fab79ef	1.3396586
116	0x3ff64463	1.923962
117	0xbf8559e0	-1.0418053
118	0xbf7fc166	-0.9990448
119	0xbdf5c01b	-0.11999532
120	0x401f7b92	2.4919171
121	0xbf9ae96b	-1.2102484
122	0xbf9ad885	-1.2097327
123	0x3fc97834	1.5739808
124	0x3f68c4cb	0.9092528
125	0xbcdbf9ec	-0.02685257
126	0xbfe52e82	-1.7904818
127	0xbfde0a04	-1.7346807
128	0x3f53dc31	0.8275786
129	0x3f07dca2	0.53071034
130	0x3f810e21	1.0082437
131	0xbed29867	-0.411319
132	0xbfcea288	-1.6143351
133	0xbf80ff06	-1.0077827
134	0x3ea4ed5b	0.32212338
135	0xbffb5966	-1.9636657
136	0x3f768631	0.9629851
137	0xbe312444	-0.1729899
138	0x3f180a63	0.5939085
139	0xbf87ffb3	-1.0624908
140	0x3f1d019d	0.61330587
141	0x3f5f0512	0.8711711
142	0xc05cb1e5	-3.4483578
143	0xbfd0e7f8	-1.6320791
144	0x3fa055d8	1.2526197
145	0xbf627291	-0.88456064
146	0x3f1b0ee4	0.60569596
147	0x3dc0d185	0.09414963
148	0xc0318086	-2.7734694
149	0xbdf26c0b	-0.11837014
150	0xbfebdd28	-1.8426867
151	0x40772ecf	3.862232
152	0xbe12c701	-0.14333726
153	0x3f3f4772	0.7471839
154	0x3f839a60	1.0281487
155	0xbe2ff9c9	-0.17185129
156	0xc0a6b6d0	-5.209816
157	0xbf9b6430	-1.213995
158	0xbfd5704b	-1.6674894
159	0xc07a07a3	-3.906716
160	0x400822c0	2.127121
161	0x3fa0b52c	1.2555289
162	0xbfd5cb0b	-1.6702589
163	0xc090aa57	-4.5207934
164	0x3e59324d	0.21210594
165	0x3f6e149f	0.93000215
166	0x3fd3e66c	1.6554694
167	0xbe2b68eb	-0.16739242
168	0x3f8495b3	1.0358185
169	0xbe72c341	-0.23707296
170	0x3f804586	1.0021217
171	0x3ecec4bb	0.40384468
172	0xbfbe036d	-1.4844795
173	0x3efe42a9	0.49660233
174	0xbee50e23	-0.44737348
175	0x3f7a8673	0.97861403
176	0x3f8cfbd1	1.1014348
177	0xc001adc4	-2.0262308
178	0x3f9f317a	1.2436974
179	0x3f1b6be1	0.60711485
180	0x3fce742a	1.61292
181	0x3f348878	0.70520735
182	0xbe8cd4c2	-0.2750607
183	0xbf5ccc25	-0.86249
184	0xc00fdaef	-2.2477376
185	0xc041f19e	-3.0303721
186	0xbfd2e458	-1.6475935
187	0xbf800981	-1.00029
188	0xbf09257e	-0.53572834
189	0xbfb71ae9	-1.4305087
190	0xc004032f	-2.0626943
191	0xbf159ce9	-0.5844255
192	0xbf7eafd3	-0.99487036
193	0x3daca711	0.08430303
194	0x3f8a8e7c	1.0824733
195	0xbe81f2dd	-0.25380602
196	0xbe11300b	-0.14178483
197	0xbdd307c4	-0.103042156
198	0x3f6c514c	0.9231155
199	0x4017f529	2.3743384
200	0xbf6733e3	-0.9031355
201	0xbf9d1e41	-1.2274858
202	0xbf828615	-1.0197169
203	0x3ef95a6f	0.48701808
204	0xbf37e5bd	-0.7183493
205	0xbf9c0e09	-1.2191783
206	0xc004e80a	-2.0766625
207	0x3f99b2bd	1.2007672
208	0x3f571b39	0.84025913
209	0x3e27be82	0.16381267
210	0xc030de9b	-2.7635868
211	0xc011a989	-2.2759726
212	0xbec942df	-0.3930883
213	0x3f2239d4	0.6336949
214	0x3f4a867c	0.79111457
215	0xbf9ccea7	-1.2250565
216	0xbf47c0f5	-0.78028804
217	0xbf9bbbc8	-1.2166681
218	0xbf7dca16	-0.99136484
219	0x3eb3806c	0.35058916
220	0xc01661e8	-2.3497257
221	0xbd0351c9	-0.03206042
222	0x3f7b9a30	0.98282146
223	0x3ebea352	0.3723398
224	0xbf2b2265	-0.66849357
225	0xbfc69b26	-1.5516098
226	0xbfb9051a	-1.4454682
227	0xbf529f1c	-0.8227403
228	0x40081925	2.1265347
229	0xbec230e9	-0.3792794
230	0x3f27c1b1	0.65529925
231	0xc07b87f9	-3.930174
232	0xbe901dc9	-0.28147724
233	0x3ef2f123	0.47449598
234	0xbee7e726	-0.4529354
235	0xbec82eea	-0.39098293
236	0xbf591e94	-0.84812284
237	0xbf0f2ca4	-0.5592749
238	0x3f8e7640	1.1129837
239	0x3d924133	0.07141342
240	0xc02f8a9c	-2.742835
241	0xc0133425	-2.3000576
242	0xbfed38f9	-1.8533012
243	0x3cc42202	0.023941997
244	0x3fae8679	1.3634788
245	0xbfef25aa	-1.8683369
246	0x3f26355f	0.6492519
247	0x3f985651	1.1901342
248	0x3e55536e	0.20832607
249	0x3f87dbed	1.0613991
250	0x404a7107	3.1631486
251	0xc03b25c0	-2.924179
252	0x3e6ac98b	0.22928445
253	0xbfbeaa2b	-1.4895681
254	0xbc674d84	-0.014117602
255	0xbf53f180	-0.82790375

layer2.0.bias f4 [32]
0	0x3fbcd6d1	1.4753057
1	0x3f2f7c71	0.6854926
2	0x3f920e08	1.1410532
3	0x3e4589c8	0.1929084
4	0x3ee31869	0.4435456
5	0x3f338538	0.7012515
6	0x3fba1abc	1.4539409
7	0x3e9a44a9	0.3013051
8	0x3f7fe9fb	0.999664
9	0x3e82a424	0.25515854
10	0x3f543225	0.82889014
11	0xbd2db1cb	-0.042405885
12	0x3e4841a4	0.1955629
13	0x3f15ed12	0.58564866
14	0x3fb13007	1.3842782
15	0x3efd3e64	0.49461663
16	0x3e41b3c7	0.18916236
17	0x3e49ae07	0.19695292
18	0x3f3b55a2	0.7317754
19	0x3f2eb46f	0.6824407
20	0x3e077756	0.13229117
21	0x3fb6b841	1.427498
22	0x3f98bddb	1.1932939
23	0x3fa3b920	1.2790871
24	0x3fa0d4a0	1.2564888
25	0x3d02ff7c	0.03198193
26	0x3f597e83	0.84958667
27	0x3f654da2	0.89571583
28	0x3e2cf512	0.16890362
29	0x3fb591d6	1.4185131
30	0x3f404e9e	0.7511996
31	0x3e3090a3	0.17242675

layer2.1.weight f4 [32]
0	0x3ee0cbc5	0.43905464
1	0x3eda6866	0.42657775
2	0x3f08f742	0.53502285
3	0x3e898bea	0.26864558
4	0x3e65964c	0.22420615
5	0x3efe780e	0.4970097
6	0x3f13a9c0	0.5768089
7	0x3e11afbc	0.14227194
8	0x3ec47102	0.38367468
9	0x3e67ea8b	0.22648065
10	0x3ee6180f	0.4494023
11	0x3f5643db	0.8369729
12	0x3e349fb1	0.17639042
13	0x3f1fbb7a	0.6239544
14	0x3f11efcb	0.5700652
15	0x3f6d37a1	0.9266301
16	0x3e57a591	0.21059252
17	0x3e92c09f	0.28662583
18	0x3f370f63	0.71507853
19	0x3eebdc3e	0.4606647
20	0x3e2c4bc6	0.1682578
21	0x3f1bee7b	0.6091077
22	0x3ef39c56	0.47580212
23	0x3ece1d95	0.40256944
24	0x3f2bc045	0.67090255
25	0x3e8b3ee2	0.27196413
26	0x3f2257d9	0.63415295
27	0x3f19666c	0.5992191
28	0x3e8abb8e	0.27096218
29	0x3eff8b48	0.4991095
30	0x3ee4e45e	0.4470548
31	0x3e81d3cf	0.2535691

layer2.1.bias f4 [32]
0	0xbef04ef5	-0.4693524
1	0xbee1f465	-0.4413177
2	0xbf2def6d	-0.6794346
3	0xbf3b77c2	-0.7322961
4	0xbf2fdf18	-0.6869979
5	0xbf3bfc46	-0.73431814
6	0xbf2ebe17	-0.68258804
7	0xbf530b90	-0.8243952
8	0xbef104c1	-0.4707394
9	0xbf43ed8e	-0.76534355
10	0xbedce1a2	-0.43140894
11	0xbfe8d965	-1.8191344
12	0xbf68960b	-0.9085395
13	0xbf8c3c02	-1.0955813
14	0xbf2af54c	-0.66780543
15	0xbfb851d4	-1.4399972
16	0xbf443094	-0.76636624
17	0xbf203ab7	-0.6258959
18	0xbf74d574	-0.95638204
19	0xbf1c7d5c	-0.61128783
20	0xbf12cf92	-0.5734798
21	0xbf488fd2	-0.7834445
22	0xbf1a1ab3	-0.6019699
23	0xbedfe0ab	-0.43726096
24	0xbf7eb473	-0.99494094
25	0xbf269fa7	-0.6508736
26	0xbf6f73b7	-0.9353594
27	0xbf370a9e	-0.71500576
28	0xbf3042a4	-0.68851686
29	0xbf00f746	-0.5037731
30	0xbf167bf1	-0.5878287
31	0xbf52d3dc	-0.8235452

layer2.1.running_mean f4 [32]
0	0xc29525bf	-74.57372
1	0xc2647db8	-57.122772
2	0xc25f2f9d	-55.796497
3	0xc21d43e1	-39.316288
4	0xc1a1aae7	-20.208448
5	0xc21fadd7	-39.919765
6	0xc255669f	-53.350216
7	0xc1dc51e1	-27.53998
8	0xc22a9547	-42.64578
9	0xc1dfbb31	-27.966402
10	0xc234de9e	-45.2174
11	0xc22a8194	-42.62654
12	0xc2090009	-34.250034
13	0xc24cd883	-51.211437
14	0xc289326c	-68.59848
15	0xc2708635	-60.13106
16	0xc1843a8a	-16.528584
17	0xc181440e	-16.15823
18	0xc2302c5a	-44.043312
19	0xc2aa691d	-85.2053
20	0xc2069df8	-33.654266
21	0xc277574e	-61.83526
22	0xc23f1387	-47.76907
23	0xc254e7ab	-53.22624
24	0xc20dcc02	-35.449226
25	0xc1a66110	-20.797394
26	0xc21dd04f	-39.453426
27	0xc273db00	-60.963867
28	0xc1bb4096	-23.406536
29	0xc2a42cff	-82.08788
30	0xc2513d3a	-52.30979
31	0xc208cf64	-34.20253

layer2.1.running_var f4 [32]
0	0x457cfb89	4047.721
1	0x4586d6db	4314.857
2	0x453704f7	2928.3103
3	0x44180cc9	608.19977
4	0x433e6674	190.4002
5	0x4524c107	2636.0642
6	0x45495986	3221.5952
7	0x43a63bbd	332.4667
8	0x45155b2c	2389.6982
9	0x43b14b50	354.58838
10	0x4558e260	3470.1484
11	0x4588eb44	4381.408
12	0x4422f5bd	651.83966
13	0x454a433b	3236.202
14	0x456f23cb	3826.237
15	0x455f26e5	3570.431
16	0x434f0905	207.03523
17	0x42f09cbe	120.30614
18	0x4552eff0	3374.996
19	0x458c1cca	4483.5986
20	0x4411c907	583.14105
21	0x454f4044	3316.0166
22	0x4515c8e9	2396.557
23	0x4548c235	3212.138
24	0x44ed5cc6	1898.8992
25	0x4329e383	169.88872
26	0x4552bc09	3371.7522
27	0x4555abe1	3418.7424
28	0x435b66f9	219.40224
29	0x459435c6	4742.7217
30	0x455d6a8d	3542.6594
31	0x44011c60	516.44336

fc.weight f4 [7, 4608]
0	0xbf9cba73	-1.22444
1	0xbddf8952	-0.10914864
2	0x3f5b8b00	0.8575897
3	0x3eb4298c	0.35187948
4	0x3fdd5d5b	1.7294115
5	0xbff53d3c	-1.9159312
6	0xc03224a1	-2.7834857
7	0x3f763480	0.9617386
8	0xbfde3ddd	-1.7362629
9	0xbf87a93b	-1.059852
10	0xbc2f8a74	-0.010714162
11	0xbf4de859	-0.8043266
12	0xbed2d9b8	-0.4118173
13	0xbe69f199	-0.22846068
14	0xbfd5209e	-1.6650579
15	0x3e8c2ffe	0.27380365
16	0x3f08f5bd	0.53499967
17	0xbf73fe22	-0.9530965
18	0x3f73cb9f	0.95232576
19	0x3d4339be	0.04766249
20	0x3e31f2d5	0.1737779
21	0x3e48fcf0	0.19627738
22	0xbfb13917	-1.3845547
23	0xbfc03eda	-1.5019181
24	0xbe0a93aa	-0.13532892
25	0x3f33e685	0.7027362
26	0x3f7a0bf3	0.97674483
27	0x3f1c07b8	0.6094928
28	0xbfa8d654	-1.3190408
29	0x3cb50fa1	0.022102179
30	0xbf69cbac	-0.91326404
31	0xbe493211	-0.19648005
32	0xbf7b1e45	-0.9809306
33	0xc0159bf0	-2.3376427
34	0xbf11325a	-0.56717455
35	0x3e17c134	0.14819795
36	0xbeb1b7b4	-0.34710467
37	0xbe0b0cfe	-0.13579175
38	0xbfadbd28	-1.3573351
39	0x3dbbc512	0.091684476
40	0x3eb7e8d4	0.3591982
41	0xbfb450e6	-1.4087188
42	0xbf2f58c4	-0.6849482
43	0x3fd75397	1.6822385
44	0xbea639b0	-0.32465887
45	0xbf602e4f	-0.8757066
46	0x3e0f771e	0.14010283
47	0xbfc7bb29	-1.5603992
48	0xbecedba4	-0.40401947
49	0x3e9a4619	0.30131605
50	0xbf8f3921	-1.1189309
51	0xbf715b3d	-0.94279844
52	0xbe9a386e	-0.30121177
53	0xbee53b36	-0.44771737
54	0x3f64f12b	0.89430493
55	0xbfa485eb	-1.2853369
56	0xbf0537ff	-0.5203857
57	0xbf972552	-1.1808264
58	0x3e870ff4	0.2637936
59	0x3ed2c6dd	0.41167346
60	0x3fd05d04	1.6278386
61	0x4014b907	2.3237932
62	0x3f255230	0.64578533
63	0xbe8a8ea3	-0.27061948
64	0x3fd4bea1	1.6620675
65	0xbedfd17c	-0.4371451
66	0x3f460772	0.7735511
67	0xbebe7ab3	-0.37202987
68	0xbec0b30e	-0.37636608
69	0xbf871e1f	-1.0556067
70	0x3f99df1c	1.2021213
71	0xbf5d0891	-0.86341196
72	0xbf8734bc	-1.0562968
73	0xbe126e3a	-0.1429986
74	0xbd6e551e	-0.058186643
75	0x3e266832	0.16250685
76	0x3dcb4789	0.099257536
77	0x3fec7ea7	1.8476151
78	0xbf6c4acf	-0.9230165
79	0xbe033ed4	-0.12816936
80	0x3e9577bf	0.29192922
81	0x3fe370c0	1.7768784
82	0xbef4ebb7	-0.47836086
83	0x4048dab4	3.1383486
84	0xbf805704	-1.0026555
85	0x3f03faf8	0.5155482
86	0x3f8149ea	1.0100682
87	0xbf368229	-0.7129236
88	0x3f8ea90a	1.1145337
89	0xbf882834	-1.0637269
90	0x3f165c00	0.5873413
91	0xbe7aedda	-0.24504796
92	0x3fe78961	1.80888
93	0xbf3c14a2	-0.73468983
94	0xbde9478a	-0.11390598
95	0x3d3af804	0.045646682
96	0x3f16092c	0.58607745
97	0xbf2f40ce	-0.6845826
98	0x3f73827a	0.95120966
99	0x3d9f4bf0	0.07778156
100	0x40089389	2.1340048
101	0xbdafc86b	-0.085831486
102	0xbeed3410	-0.46328783
103	0x3e76f1da	0.24115697
104	0x3faba78a	1.3410504
105	0xbc29c557	-0.010361991
106	0xbec13846	-0.37738246
107	0xbed6463e	-0.41850466
108	0x3e13b14b	0.144231
109	0x3fabaa5d	1.3411366
110	0xbe8002b5	-0.25002065
111	0x3ede7345	0.4344732
112	0xbf82a1e1	-1.0205652
113	0x3e1c884e	0.15286371
114	0xbd8a1153	-0.067415856
115	0x3f3f309a	0.74683535
116	0x3f8290d5	1.0200449
117	0x3f74162a	0.9534632
118	0x3dc22fc3	0.09481766
119	0x3f853942	1.0408099
120	0xbf125991	-0.5716792
121	0x3d2eb082	0.0426488
122	0xbe41c85d	-0.18924089
123	0xc001486a	-2.0200448
124	0x3f512303	0.8169405
125	0xbfd23975	-1.6423784
126	0x3f80fd02	1.0077212
127	0x3f36cc73	0.71405715
128	0x3efe004c	0.49609601
129	0xbed0637c	-0.407009
130	0xbf3b9652	-0.73276246
131	0x3e4027ef	0.18765233
132	0xbefe013a	-0.4961031
133	0x3ff5f3f0	1.9215069
134	0xbf5967ad	-0.8492382
135	0xbe85001f	-0.25976655
136	0xbf4fdccb	-0.8119628
137	0x3ebfc164	0.37452233
138	0x3e92e7a6	0.2869236
139	0xbf902369	-1.1260806
140	0x3fa6f78f	1.3044299
141	0xc003198d	-2.0484345
142	0xbe8bb82b	-0.27288947
143	0xbe78e1e1	-0.24304916
144	0xbecac784	-0.39605343
145	0xbed6e819	-0.4197395
146	0x3d35e567	0.04440823
147	0xbda5ed3e	-0.08101891
148	0x4023748f	2.5539892
149	0xc01a19a3	-2.4078147
150	0x3fa3f1b3	1.2808136
151	0x3f997278	1.1988058
152	0x3f809654	1.0045877
153	0x3f6331fe	0.8874816
154	0xbf4ed958	-0.8080039
155	0xc0356ac4	-2.8346415
156	0x3fb8ab6d	1.4427315
157	0x3e9c8f71	0.30578187
158	0x3fa24834	1.2678285
159	0x3f6ad236	0.91727006
160	0x3f965d1f	1.1747168
161	0x3f399789	0.7249685
162	0x3d902830	0.07038915
163	0x401a6d2a	2.4129128
164	0xbec7d3db	-0.3902882
165	0x3f598cca	0.8498045
166	0x3f599670	0.84995174
167	0x3fedfbf0	1.859251
168	0xbe9096c0	-0.28240013
169	0x3e8ce9ba	0.2752207
170	0x3ef745ce	0.48295444
171	0x3edf8bc5	0.43661323
172	0x3fa0162a	1.2506764
173	0xbda281fc	-0.07934949
174	0x3febf88a	1.8435223
175	0x3f8a111c	1.0786471
176	0x3f078fbf	0.52953714
177	0x3fa43df8	1.2831411
178	0x3e13c7ad	0.14431639
179	0xbe6acef6	-0.22930512
180	0xbc17ab4c	-0.009257149
181	0xc009e078	-2.1543255
182	0x3e2601a8	0.1621157
183	0x400e9f90	2.228489
184	0x3fdea9b5	1.739554
185	0xbf3bc590	-0.7334833
186	0x3e7c49ee	0.24637577
187	0x3f99db91	1.2020131
188	0x3f3da46c	0.7407901
189	0x3fc98ec7	1.5746697
190	0x3f595d76	0.84908235
191	0xbebb06b2	-0.36528546
192	0x3f1316e4	0.57456803
193	0x3e256031	0.16149975
194	0x3efac2d9	0.48976782
195	0x3f533586	0.82503545
196	0x3fb11e26	1.3837326
197	0xbed9ff53	-0.4257761
198	0x3f95345f	1.1656607
199	0x3f087e4d	0.5331772
200	0x3e7046e9	0.2346455
201	0x40326920	2.7876663
202	0xbfbe1b8d	-1.4852158
203	0x3e41abc6	0.18913183
204	0x4009502d	2.1455185
205	0xbe043f82	-0.12914851
206	0xbea7da3c	-0.32783687
207	0x3e4be1b4	0.19910318
208	0xbecb414b	-0.39698252
209	0xbf8f0fba	-1.1176674
210	0x3f053e77	0.5204844
211	0xbc944899	-0.018101024
212	0x3e8fc461	0.28079513
213	0x3ce2c99f	0.027684031
214	0xbf29fed2	-0.6640445
215	0x4043818b	3.0547817
216	0x3fba4fb0	1.4555569
217	0xc045e4f7	-3.0921
218	0xbfaf7d78	-1.3710165
219	0xbe8b51b1	-0.27210763
220	0xbfabc372	-1.341902
221	0xbf496d04	-0.7868197
222	0x3f9ae668	1.2101564
223	0xbf2908a0	-0.66028786
224	0xc02a72b1	-2.6632502
225	0x3d0dbc94	0.03460367
226	0xbf8af333	-1.0855469
227	0xc023bc50	-2.5583687
228	0x3ff421e7	1.9072846
229	0x3ebab2ff	0.36464688
230	0xbfa492e2	-1.2857325
231	0xc011d22c	-2.2784529
232	0xbf97de9a	-1.1864808
233	0x3d508bfa	0.050914742
234	0xbfcb02af	-1.5860194
235	0xbfe6cbe1	-1.8030969
236	0xc01420b9	-2.3144972
237	0x3e0126f4	0.12612516
238	0xbfd8ff93	-1.6952995
239	0x3f69a92a	0.9127375
240	0x3f5781ec	0.8418262
241	0xc03e214f	-2.970783
242	0xbf4d9a53	-0.80313605
243	0xbf73a45d	-0.95172673
244	0xbfbb28e1	-1.462185
245	0xbf960b05	-1.1722113
246	0xbf456339	-0.77104527
247	0xc047fa73	-3.1246612
248	0xbfa7641c	-1.3077426
249	0x3f204303	0.6260225
250	0xbf2467f4	-0.6422112
251	0xbec72c90	-0.38901186
252	0xbf4e1529	-0.8050104
253	0x3f29fffa	0.66406214
254	0xbef8b5fb	-0.4857634
255	0x3ed526d1	0.41631177

fc.bias f4 [7]
0	0x3db383ea	0.08765395
1	0xc01904c0	-2.390915
2	0x3d8221e3	0.0635412
3	0x3e201732	0.15633848
4	0x3e9bd739	0.3043764
5	0x3f5113a1	0.81670576
6	0xbf8afb1a	-1.085788
