FaceExpressions_CNN/savemodel/model_92.pth (torch_old, 185408 bytes, 14 tensors)

layer1.0.weight f4 [16, 1, 5, 5]
1.0499452 2.9256544 3.802747 3.7205071 3.9616714 4.750432 -0.27901694 -0.6437793
-0.6576234 -0.26228648 1.1062233 -2.9022317 -1.2472671 -6.1440253 -8.366587 1.9320426
-1.5269821 0.19375762 -4.201236 -2.7459788 1.8040938 -3.7506027 2.392742 0.34161133
2.2334824 0.22439924 -4.082334 -1.8643109 3.4279618 4.5151534 -0.95981914 -1.4033468
1.9876719 1.4047191 -2.0617843 0.05102819 -1.9011987 -2.5389984 -2.2195308 -2.9831154
-8.730706 -2.5531912 -2.5482395 -7.340927 1.7851704 1.4173357 1.0896382 -1.2998253
0.92964673 2.2108548 -2.6832044 -2.4777167 2.8056593 0.8024918 -4.808135 2.4113271
3.3777578 2.1723719 5.8138776 -0.33023578 -0.31043515 4.8404827 -2.8209743 6.680314
0.76843 -5.003899 4.2709374 0.17722692 6.24408 0.81418806 -1.9436414 0.4832737
-0.17926681 -0.42341214 -3.4405806 4.4652796 1.756198 -3.22519 -0.38644573 0.47225398
3.2093992 -5.830721 -4.1777697 0.9788895 -0.21044327 -2.9949832 -8.040668 0.3192319
-0.33030266 -3.2682252 -2.4418669 3.0069702 3.3055303 3.4060247 2.9255044 0.70743036
1.5410628 0.8406433 0.32680193 2.3663187 2.7318351 -1.7425027 -2.3823202 -3.555104
2.0028625 1.549768 -1.8853678 0.2552663 -1.9590509 -1.3792748 -3.4391897 -1.1102296
2.6440885 -5.553269 -7.6405206 0.9038998 1.0192255 -2.0710258 -2.9651432 -2.2194126
5.4287286 6.0010357 1.8292913 2.0036464 0.8325869 -1.3161768 -6.4997272 -7.378442
-2.5983436 -1.7247924 -0.07221984 -0.8998018 -3.0688252 -2.9580586 -2.8088624 1.0704147
0.33891615 2.0425084 4.7647033 -1.1071675 -1.286957 0.39811543 3.434554 0.96481794
1.2040871 5.131786 1.9984436 2.219356 -0.2148841 5.3221445 0.65493864 -2.27102
-0.86263037 3.1118343 0.09984489 1.447068 -0.8367272 -5.090963 0.48965877 5.419602
1.3487881 2.6515384 -5.8880243 -6.221272 4.174668 -0.3593899 3.5112789 2.4569788
-5.1078615 -1.7503349 -0.5642818 0.68141 2.8459451 0.2147237 -0.16411802 0.30768564
0.3885753 -3.3888178 -3.4282928 -1.0710307 -2.2740984 0.7005877 -1.6940607 0.5430182
0.68307126 -3.0657663 8.349391 7.654887 6.7461877 3.9834957 -0.40267006 3.28928
-0.696163 4.1565466 -3.8191805 2.6598957 0.82805914 -0.02061062 1.8345428 -4.6195984
-2.4887183 0.10684235 -0.09168227 -3.9609392 -2.6064963 2.4044976 -1.2071913 -0.29803643
-1.961937 4.2771826 0.17467381 1.2353727 2.3226745 4.513445 -0.6223339 1.0289071
3.354991 3.870073 3.5897324 -5.9787073 0.1933364 -0.053967636 3.9017298 1.9763294
-6.6864214 1.2920527 -2.1386442 -0.6398859 0.5940724 -0.03381417 -2.0331686 -1.479786
4.6441536 2.7150793 2.4854836 0.5073101 0.30082172 7.745873 0.13568577 -5.308426
-2.0057948 3.2103436 7.59462 -2.520165 -5.7159615 -2.884699 0.44910306 -1.4655672
-0.98934615 -1.2603104 4.244044 0.64658904 -3.616259 -1.7547286 2.4630022 -0.9473972
00000000: 9b64 863f ec3d 3b40 3560 7340 ca1c 6e40
00000010: 068c 7d40 8a03 9840 4fdb 8ebe b8ce 24bf
00000020: 025a 28bf 6a4a 86be ba98 8d3f 2abe 39c0
00000030: 73a6 9fbf db9b c4c0 8add 05c1 2c4d f73f
00000040: 2674 c3bf 6668 463e 8670 86c0 1ebe 2fc0
00000050: 8cec e63f e009 70c0 af22 1940 aee7 ae3e
00000060: 60f1 0e40 eac8 653e 7ba2 82c0 bda1 eebf
00000070: ba63 5b40 237c 9040 b5b6 75bf dea0 b3bf
00000080: 086c fe3f d6cd b33f 46f4 03c0 ef02 513d
00000090: 7b5a f3bf f37e 22c0 cb0c 0ec0 5deb 3ec0
000000a0: f9b0 0bc1 7c67 23c0 5b16 23c0 e0e8 eac0
000000b0: 7780 e43f 426b b53f 4479 8b3f ad60 a6bf
000000c0: 54fd 6d3f a57e 0d40 9fb9 2bc0 e992 1ec0
000000d0: ec8f 3340 1a70 4d3f 3edc 99c0 2f53 1a40
000000e0: 2f2d 5840 2408 0b40 490b ba40 aa14 a9be
000000f0: 5bf1 9ebe 3ce5 9a40 d88a 34c0 22c5 d540
00000100: d4b7 443f f11f a0c0 85ab 8840 f97a 353e
00000110: 81cf c740 a16e 503f 3ec9 f8bf a76f f73e
00000120: b891 37be 7ac9 d8be 7932 5cc0 92e3 8e40
00000130: 19cb e03f 8369 4ec0 37dc c5be 46cb f13e
00000140: cc66 4d40 4495 bac0 4ab0 85c0 8198 7a3f
00000150: 717e 57be cead 3fc0 93a6 00c1 5d72 a33e
00000160: 6e1d a9be 9a2a 51c0 8c47 1cc0 3372 4040
00000170: cf8d 5340 4ffc 5940 773b 3b40 281a 353f
00000180: 8c41 c53f 6634 573f 9552 a73e c471 1740
00000190: 63d6 2e40 540a dfbf ef77 18c0 d386 63c0
000001a0: e62e 0040 cc5e c63f bb53 f1bf 44b2 823e
000001b0: 2ec2 fabf 148c b0bf af1b 5cc0 011c 8ebf
000001c0: bf38 2940 61b4 b1c0 257f f4c0 fa65 673f
000001d0: fb75 823f b08b 04c0 e8c4 3dc0 db0a 0ec0
000001e0: 25b8 ad40 7c08 c040 3826 ea3f be3b 0040
000001f0: 6a24 553f 7b78 a8bf c4fd cfc0 321c ecc0
00000200: 434b 26c0 ffc5 dcbf ffe7 93bd 6959 66bf
00000210: a267 44c0 d550 3dc0 67c4 33c0 5903 893f
00000220: 6b86 ad3e 75b8 0240 7378 9840 aab7 8dbf
00000230: 02bb a4bf c9d5 cb3e bccf 5b40 4ffe 763f
00000240: 871f 9a3f 9737 a440 00cd ff3f ee09 0e40
00000250: 940a 5cbe 024f aa40 0faa 273f 6458 11c0
00000260: 58d5 5cbf 4b28 4740 7a7b cc3d 8639 b93f
00000270: c133 56bf 2be9 a2c0 8eb4 fa3e 616d ad40
00000280: 17a5 ac3f ceb2 2940 b26a bcc0 a914 c7c0
00000290: e196 8540 f401 b8be cbb8 6040 243f 1d40
000002a0: 9a73 a3c0 f90a e0bf c674 10bf e370 2e3f
000002b0: f723 3640 88e0 5b3e 8e0e 28be f988 9d3e
000002c0: 57f3 c63e 64e2 58c0 2669 5bc0 8917 89bf
000002d0: d48a 11c0 b759 333f fbd6 d8bf 3e03 0b3f
000002e0: c2dd 2e3f 8435 44c0 1b97 0541 d6f4 f440
000002f0: c5e0 d740 98f1 7e40 c52a cebe 9083 5240
00000300: bd37 32bf 6e02 8540 746d 74c0 bb3b 2a40
00000310: affb 533f 9ad7 a8bc 4cd2 ea3f c0d3 93c0
00000320: 2947 1fc0 29d0 da3d eac3 bbbd 0780 7dc0
00000330: d6d0 26c0 4ae3 1940 3f85 9abf 3b98 98be
00000340: c020 fbbf aede 8840 b1dd 323e b120 9e3f
00000350: b3a6 1440 246e 9040 4651 1fbf 3ab3 833f
00000360: 2cb8 5640 47af 7740 2dbe 6540 9251 bfc0
00000370: faf9 453e 2b0d 5dbd f1b5 7940 5df8 fc3f
00000380: 2af7 d5c0 fc61 a53f 8cdf 08c0 90cf 23bf
00000390: 2115 183f ba80 0abd 6f1f 02c0 a169 bdbf
000003a0: e89c 9440 dcc3 2d40 2a12 1f40 13df 013f
000003b0: 4e05 9a3e 31de f740 36f1 0a3e a0de a9c0
000003c0: f15e 00c0 4576 4d40 2107 f340 624a 21c0
000003d0: 28e9 b6c0 e99e 38c0 d6f0 e53e b597 bbbf
000003e0: ca45 7dbf da51 a1bf 35cf 8740 dc86 253f
000003f0: ca70 67c0 f29a e0bf d4a1 1d40 9f88 72bf

layer1.0.bias f4 [16]
0.26100856 12.004112 -0.2160737 -3.7112598 5.4445534 -3.564616 0.20727246 1.82356
0.9025325 -1.1131537 0.047476735 0.33162078 7.910633 -1.4866596 2.9456763 0.19809988
00000000: eaa2 853e d810 4041 6d42 5dbe 4885 6dc0
00000010: c839 ae40 ab22 64c0 3b3f 543e 6a6a e93f
00000020: 5f0c 673f d27b 8ebf f776 423d 33ca a93e
00000030: e823 fd40 dd4a bebf f685 3c40 b2da 4a3e

layer1.1.weight f4 [16]
4.000045 3.4605672 4.0259047 3.024362 3.292959 4.263866 3.2976336 3.588207
1.9303447 2.5231633 3.429782 3.4615796 4.390073 3.215487 2.609082 0.3668706
00000000: 5e00 8040 ef79 5d40 36d4 8040 268f 4140
00000010: d7bf 5240 9771 8840 6e0c 5340 2fa5 6540
00000020: 8915 f73f 827b 2140 8c81 5b40 858a 5d40
00000030: 7a7b 8c40 8aca 4d40 33fb 2640 77d6 bb3e

layer1.1.bias f4 [16]
-4.1243243 -2.9880557 -5.2345896 -0.1500479 -2.591044 -2.8578625 -1.11654 -2.9131713
1.1647047 -1.2958217 -5.084374 -2.6471283 -5.118719 -0.5102419 -1.4757991 -1.3687358
00000000: 77fa 83c0 4e3c 3fc0 c281 a7c0 28a6 19be
00000010: aad3 25c0 38e7 36c0 c8ea 8ebf 6671 3ac0
00000020: 0b15 953f 7cdd a5bf 31b3 a2c0 8d6a 29c0
00000030: 8ccc a3c0 379f 02bf fce6 bcbf bc32 afbf

layer1.1.running_mean f4 [16]
-1.4895972 0.36621848 8.469425 -4.6543865 0.20048481 -5.065746 -0.11347439 10.857072
4.563131 0.8146145 -0.19775109 0.26704076 -4.867051 -2.1246772 4.327233 -3.66778
00000000: 1fab bebf fd80 bb3e c482 0741 bcf0 94c0
00000010: e44b 4d3e 971a a2c0 4365 e8bd 91b6 2d41
00000020: 2b05 9240 938a 503f 437f 4abe 91b9 883e
00000030: e2be 9bc0 b6fa 07c0 b178 8a40 e8bc 6ac0

layer1.1.running_var f4 [16]
12.476143 35.859203 23.25461 5.5783153 19.384233 20.99256 2.8580205 24.805649
9.4807205 6.8662333 6.039933 18.146599 59.65079 11.930363 5.4007382 3.409952
00000000: 489e 4741 d36f 0f42 7109 ba41 8f81 b240
00000010: e912 9b41 c3f0 a741 cfe9 3640 f871 c641
00000020: 08b1 1741 2fb8 db40 2247 c140 3c2c 9141
00000030: 699a 6e42 c4e2 3e41 d9d2 ac40 a73c 5a40

layer2.0.weight f4 [32, 16, 5, 5]
-3.462698 -2.6171842 -4.618277 -9.4199 -1.136779 -6.305664 -4.50466 -2.1958642
-5.0036583 2.3543656 2.1998448 0.4114915 -5.0691133 0.7378685 2.1181524 -1.2154865
-3.7270682 0.5852841 3.3927546 -1.8877445 -3.0036862 -3.092265 1.392594 -1.0791291
2.0629933 -3.8259387 -2.3046372 -3.3982127 -1.8113782 0.7655919 -2.1031287 1.1419377
-0.88997877 1.701937 7.6482596 1.3284155 2.1294782 -0.14235353 -5.93528 1.1073505
-1.2221819 2.6205375 4.4298644 -1.8505485 0.9666187 2.3667727 1.022091 -0.74414265
-6.4044724 1.655831 0.5128037 7.730895 -2.3104374 -2.4452033 -2.2014573 -0.91940045
-1.6096982 -7.463129 0.56950563 1.765645 -6.976152 3.2617464 -0.06496929 1.4692763
-0.5532648 -0.16848814 3.111615 3.4100077 3.835207 0.9092608 -2.117131 -0.83875656
-0.1638238 -5.979695 -4.1080785 1.5068492 -1.0574713 -1.9178602 -1.7224313 -4.420192
-2.3582184 -4.2606163 -7.6637435 0.21642634 0.14477608 5.323411 2.395703 -10.551766
-7.7954917 0.8642926 -0.17285214 1.1328185 -1.9974062 1.5413843 -1.774234 -0.091030486
2.9284585 -2.8266869 0.029017748 3.3192794 0.7817297 5.1802483 -3.0380824 1.2877066
-0.24783872 -2.2234268 -6.8175273 -1.8139579 -3.2947426 -2.7154505 -3.2094703 -2.7336094
2.9929762 -0.231633 -1.9348729 0.45687452 6.3369226 0.25044188 -5.4118915 -0.8829193
5.2139654 0.0608516 -3.0696492 2.25904 1.5867451 -0.0205079 -3.7727718 -2.5809956
1.8274933 2.491358 2.2444417 0.6073167 -2.0077841 -0.032926336 0.9387021 -3.024809
-1.4302193 -4.671246 -3.5594547 -4.441199 -0.29539827 3.652356 -4.814156 -2.1614807
3.9441705 -2.2322536 2.0896544 -0.83866495 -4.074289 -0.8529172 -4.1791263 6.9383388
-0.33371815 0.9781962 2.0551453 -0.638227 -11.133224 -1.4128323 1.0548599 -10.249021
5.292612 0.7011309 -1.7063712 -7.9535465 3.2315018 1.6240506 2.8022969 0.28607583
2.9933207 -1.108838 1.4720821 0.43504986 -2.9993181 0.07387176 -1.9751884 1.7355865
-3.5764265 -2.8193038 2.5712092 1.955863 5.805814 0.2627898 -1.497757 -0.18690157
-2.7606933 -11.795068 -4.9748545 -1.4395759 -4.993748 -0.3697614 -2.0474782 -0.35935184
-1.4818083 -0.40763572 3.6682656 -0.73870134 1.2618256 0.57645035 0.7541522 3.967821
-1.4679443 0.28414136 0.7598392 1.7115604 -1.2721108 -1.4950509 -3.7964776 2.9941769
0.38419843 -2.797734 -4.0866613 -2.5764325 -0.03114404 3.0774612 2.1185427 -0.1973204
-0.9285934 -2.4432418 -4.59446 2.4550598 -3.6958058 -0.13536708 2.370151 0.025649874
0.9327203 -3.1836994 1.608882 -3.7678893 4.4909887 -1.5165963 -0.21231171 -8.172426
1.9976673 -0.9554668 0.057043854 -1.5483651 -3.6975281 0.24804883 3.2784064 1.7849151
-5.5780735 -3.3881693 -3.6339579 -1.1896373 1.6471215 -3.8843267 2.026431 2.700603
1.2851373 0.85218424 4.2322216 -4.8991876 2.8383205 -2.2456813 0.104359716 0.6520957
00000000: d89c 5dc0 f27f 27c0 edc8 93c0 e9b7 16c1
00000010: f981 91bf 00c8 c9c0 2d26 90c0 0a89 0cc0
00000020: f81d a0c0 edad 1640 42ca 0c40 04af d23e
00000030: 2d36 a2c0 f3e4 3c3f cf8f 0740 1095 9bbf
00000040: 4988 6ec0 2ed5 153f e422 5940 9da1 f1bf
00000050: 653c 40c0 abe7 45c0 8540 b23f e720 8abf
00000060: 1508 0440 2edc 74c0 2d7f 13c0 517c 59c0
00000070: 3edb e7bf d5fd 433f a999 06c0 042b 923f
00000080: a6d5 63bf 12d9 d93f 8bbe f440 8509 aa3f
00000090: 5f49 0840 20c5 11be d0ed bdc0 a9bd 8d3f
000000a0: 7570 9cbf e3b6 2740 73c1 8d40 c6de ecbf
000000b0: 5374 773f 3479 1740 e1d3 823f 2280 3ebf
000000c0: 70f1 ccc0 45f2 d33f 1a47 033f 7e63 f740
000000d0: 35de 13c0 367e 1cc0 ade4 0cc0 d45d 6bbf
000000e0: 970a cebf f4d1 eec0 1fcb 113f a800 e23f
000000f0: a33c dfc0 74c0 5040 9e0e 85bd 3f11 bc3f
00000100: c3a2 0dbf 2888 2cbe b324 4740 913d 5a40
00000110: 0874 7540 51c5 683f 137f 07c0 c0b8 56bf
00000120: 6dc1 27be a959 bfc0 6175 83c0 6fe0 c03f
00000130: 385b 87bf 717c f5bf a178 dcbf 3672 8dc0
00000140: 0ded 16c0 f856 88c0 633d f5c0 de9e 5d3e
00000150: 2e40 143e 6259 aa40 3353 1940 09d4 28c1
00000160: ab74 f9c0 4842 5d3f 2700 31be 3200 913f
00000170: 02ab ffbf 154c c53f 1a1a e3bf 316e babd
00000180: dd6b 3b40 70e8 34c0 a1b6 ed3c 136f 5440
00000190: 701f 483f 98c4 a540 f16f 42c0 92d3 a43f
000001a0: 6fc9 7dbe a04c 0ec0 2f29 dac0 c62f e8bf
000001b0: 10dd 52c0 f1c9 2dc0 f667 4dc0 75f3 2ec0
000001c0: ec8c 3f40 3331 6dbe eaa9 f7bf 75eb e93e
000001d0: 12c8 ca40 eb39 803e 372e adc0 0007 62bf
000001e0: ced8 a640 873f 793d 2275 44c0 1d94 1040
000001f0: 771a cb3f 2f00 a8bc 1875 71c0 082f 25c0
00000200: 4deb e93f 6972 1f40 efa4 0f40 1b79 1b3f
00000210: 897f 00c0 c4dd 06bd c84e 703f 7896 41c0
00000220: 6d11 b7bf d97a 95c0 1bce 63c0 4d1e 8ec0
00000230: 713e 97be 33c0 6940 910d 9ac0 b355 0ac0
00000240: 4a6d 7c40 3edd 0ec0 e6bc 0540 bfb2 56bf
00000250: 9360 82c0 c858 5abf 67bb 85c0 df06 de40
00000260: 1bdd aabe 116b 7a3f 8087 0340 d862 23bf
00000270: af21 32c1 b0d7 b4bf a605 873f fdfb 23c1
00000280: 145d a940 517d 333f 5f6a dabf 7483 fec0
00000290: edd0 4e40 e4e0 cf3f d558 3340 8878 923e
000002a0: 9192 3f40 67ee 8dbf 306d bc3f dbbe de3e
000002b0: d4f4 3fc0 144a 973d f9d2 fcbf b327 de3f
000002c0: 2ce4 64c0 796f 34c0 b18e 2440 b859 fa3f
000002d0: 3ac9 b940 628c 863e 80b6 bfbf 2063 3fbe
000002e0: 33af 30c0 99b8 3cc1 0232 9fc0 0644 b8bf
000002f0: c9cc 9fc0 5e51 bdbe e209 03c0 f7fc b7be
00000300: e5ab bdbf a1b5 d0be ddc4 6a40 881b 3dbf
00000310: 8083 a13f 4092 133f 1e10 413f c7f0 7d40
00000320: 99e5 bbbf fa7a 913e d284 423f 6914 db3f
00000330: 87d4 a2bf d45d bfbf 7df9 72c0 98a0 3f40
00000340: a8b5 c43e 130e 33c0 eec5 82c0 45e4 24c0
00000350: c921 ffbc 20f5 4440 3496 0740 5c0e 4abe
00000360: 4cb8 6dbf 135e 1cc0 d105 93c0 b31f 1d40
00000370: 1588 6cc0 ab9d 0abe 8eb0 1740 af1f d23c
00000380: c2c6 6e3f bbc1 4bc0 d8ef cd3f 1925 71c0
00000390: 2eb6 8f40 d41f c2bf 3e68 59be 42c2 02c1
000003a0: 90b3 ff3f 7999 74bf d1a6 693d d430 c6bf
000003b0: 4da4 6cc0 8300 7e3e 69d1 5140 1978 e43f
000003c0: 947f b2c0 c4d7 58c0 c492 68c0 0946 98bf
000003d0: e1d4 d23f cf98 78c0 0cb1 0140 aed6 2c40
000003e0: 617f a43f bf28 5a3f 5c6e 8740 25c6 9cc0
000003f0: 0ba7 3540 3eb9 0fc0 8cba d53d beef 263f

layer2.0.bias f4 [32]
3.2800071 1.3080187 2.5106542 0.1929084 0.4435456 1.4404671 3.0718906 0.3013051
2.0813844 0.25515854 1.4637905 0.10924876 0.1955629 1.124723 2.8387535 1.5829684
0.18916236 0.19695292 1.6576545 2.3915653 0.13229117 2.8284576 2.4435213 2.4812934
2.3260684 0.03198193 1.3155711 1.9718243 0.16890362 3.3732405 1.3256017 0.17242675
00000000: a3eb 5140 286d a73f 8fae 2040 c889 453e
00000010: 6918 e33e 3a61 b83f db99 4440 a944 9a3e
00000020: 6735 0540 24a4 823e 7d5d bb3f d0bd df3d
00000030: a441 483e ecf6 8f3f 23ae 3540 b59e ca3f
00000040: c7b3 413e 07ae 493e 062e d43f 680f 1940
00000050: 5677 073e 7305 3540 a762 1c40 83cd 1e40
00000060: 4ede 1440 7cff 023d a264 a83f bd64 fc3f
00000070: 12f5 2c3e 2ce3 5740 51ad a93f a390 303e

layer2.1.weight f4 [32]
0.64065254 0.6758469 0.71251255 0.26864558 0.22420615 0.7163534 0.7525677 0.14227194
0.44382724 0.22648065 0.56312835 1.1839637 0.17639042 0.9586767 0.83264065 1.1837164
0.21059252 0.28662583 0.9733618 0.65628386 0.1682578 0.9194017 0.664393 0.5123117
0.7948756 0.27196413 0.8367395 0.79356873 0.27096218 0.6634582 0.6756282 0.2535691
00000000: ce01 243f 4d04 2d3f 3967 363f ea8b 893e
00000010: 4c96 653e f062 373f 47a8 403f bcaf 113e
00000020: 533d e33e 8bea 673e 2e29 103f 1f8c 973f
00000030: b19f 343e d66b 753f f027 553f 0584 973f
00000040: 91a5 573e 9fc0 923e 3d2e 793f 3802 283f
00000050: c64b 2c3e e95d 6b3f a915 2a3f dc26 033f
00000060: f87c 4b3f e23e 8b3e 8f34 563f 5227 4b3f
00000070: 8ebb 8a3e 66d8 293f f8f5 2c3f cfd3 813e

layer2.1.bias f4 [32]
-0.62136906 -0.64566356 -0.88116044 -0.7322961 -0.6869979 -0.9635069 -0.88011223 -0.8243952
-0.56299347 -0.76534355 -0.5740015 -2.1708028 -0.9085395 -1.5155612 -0.9271032 -1.8545778
-0.76636624 -0.6258959 -1.2026467 -0.78730834 -0.5734798 -1.0870476 -0.8344143 -0.515942
-1.1428523 -0.6508736 -1.2008291 -0.9685319 -0.68851686 -0.62916327 -0.74325407 -0.8235452
00000000: 0b12 1fbf 354a 25bf bb93 61bf c277 3bbf
00000010: 18df 2fbf 63a8 76bf 094f 61bf 900b 53bf
00000020: 5720 10bf 8eed 43bf c3f1 12bf 6fee 0ac0
00000030: 0b96 68bf e9fd c1bf a356 6dbf ce62 edbf
00000040: 9430 44bf b73a 20bf 54f0 99bf 0a8d 49bf
00000050: 92cf 12bf 6024 8bbf 2d9c 55bf c614 04bf
00000060: fc48 92bf a79f 26bf c5b4 99bf b5f1 77bf
00000070: a442 30bf d810 21bf e645 3ebf dcd3 52bf

layer2.1.running_mean f4 [32]
-179.07579 -132.35078 -138.51273 -64.679016 -33.8594 -104.0917 -134.51299 -45.81046
-97.53406 -45.45713 -103.89028 -92.15472 -60.390774 -124.29003 -175.46361 -140.94644
-31.965235 -24.482046 -115.793396 -221.4705 -58.71046 -152.86198 -127.29376 -137.18156
-96.41911 -32.645462 -92.27144 -134.46931 -38.73353 -160.12885 -129.0132 -57.087112
00000000: 6713 33c3 cd59 04c3 4283 0ac3 a85b 81c2
00000010: 0770 07c2 f32e d0c2 5383 06c3 e93d 37c2
00000020: 7011 c3c2 1ad4 35c2 d3c7 cfc2 374f b8c2
00000030: 2790 71c2 7f94 f8c2 af76 2fc3 4af2 0cc3
00000040: cdb8 ffc1 3bdb c3c1 3896 e7c2 7378 5dc3
00000050: 83d7 6ac2 abdc 18c3 6896 fec2 7b2e 09c3
00000060: 96d6 c0c2 f494 02c2 fa8a b8c2 2578 06c3
00000070: 22ef 1ac2 fc20 20c3 6103 01c3 3459 64c2

layer2.1.running_var f4 [32]
30101.412 36533.457 20724.916 1570.0065 515.5325 18734.637 21617.277 893.04266
14689.893 938.69995 23511.857 26754.088 1935.9514 24416.363 30647.709 23207.277
664.9642 299.62805 22376.242 29177.973 1700.5886 24364.373 16394.604 21857.746
13452.886 434.0875 22092.605 23469.33 597.0745 23967.031 28166.824 1399.7518
00000000: d32a eb46 75b5 0e47 d5e9 a146 3540 c444
00000010: 14e2 0044 465d 9246 8ee2 a846 bb42 5f44
00000020: 9287 6546 ccac 6a44 b7af b746 2d04 d146
00000030: 72fe f144 bac0 be46 6b6f ef46 8e4e b546
00000040: b53d 2644 64d0 9543 7cd0 ae46 f2f3 e346
00000050: d692 d444 bf58 be46 3515 8046 7ec3 aa46
00000060: 8b33 5246 330b d943 3699 ac46 a95a b746
00000070: c544 1544 103e bb46 a60d dc46 0ff8 ae44

fc.weight f4 [7, 4608]
-3.5840323 -1.42811 1.2514181 -1.5203094 0.71328175 -3.6045291 -2.939222 3.154405
-2.4994254 0.11701202 0.31882024 -3.1967096 -1.7754413 0.17301708 -3.8232372 0.5513255
-0.064989544 -1.7594402 1.1213056 -1.5991776 0.30467346 0.24732472 -1.3958042 -3.487863
-2.2245755 -0.3700566 -0.8790439 1.9711139 -2.0804965 1.0868598 -1.3204007 0.3930907
-0.867808 -3.3909624 -1.5720227 0.54562104 1.0270641 1.703604 -2.003001 -1.2186259
0.21332039 -2.1966038 -0.5506076 2.0729861 -0.4455574 -1.3175482 -0.27392066 -2.3055315
-0.6679447 -0.7232938 -1.9923428 -2.0460148 -1.0719724 0.09664257 0.30766377 -0.6839917
-1.0601096 -1.9651103 -0.2213212 0.09809474 3.4775858 3.9421136 0.24860427 -0.37451953
1.2943276 -0.7219241 0.48878264 -0.09428565 -0.69244385 -1.5032045 1.0382189 -4.118078
-2.807872 -0.8939596 1.4275265 0.42809513 0.61745673 2.7019274 -1.4379681 -0.4225053
-0.21657151 1.2982382 0.6105483 6.2717633 0.9209195 0.285584 1.1020037 -1.1276867
1.1046479 0.32901904 1.124564 -0.45404473 2.4893098 -1.0417396 -0.017371036 -3.098384
-0.427664 -0.7441426 1.7175351 -1.2854143 2.8550644 -0.20211543 -1.3401407 0.5831348
1.5259922 -0.36835566 -0.018070344 -0.854423 1.0136427 2.0784376 -0.3650653 -0.09512832
-1.756175 0.38377893 -0.3200047 0.9989177 1.0052335 0.78705555 -0.6558917 0.044526007
4.6137967 -0.1331642 -0.35165173 -2.8875592 2.1021054 -4.573174 2.303574 0.6224785
1.2902546 -0.7105518 -1.6487997 1.3651947 0.69356495 4.175199 -1.2401161 -0.6193281
-1.1824578 1.8382416 0.8253729 -1.4332122 3.8054495 -4.9315023 2.2911687 -1.5672488
-1.5644459 -1.1462011 1.080038 -0.62674874 4.716441 -5.1507745 2.2511446 2.4186404
-0.8117342 -0.0023769895 1.6857888 -4.32289 2.9194896 1.03725 0.27048185 0.75182974
2.1209323 0.11538041 0.5874302 2.852599 0.16034164 1.6518471 1.3514792 3.5874076
0.93550545 -0.33355784 -0.036651935 2.3014233 0.98595226 -0.07147636 2.2554934 1.6263615
0.5779748 1.7789458 0.6775044 0.65653074 -0.83184546 -2.354361 -0.40307298 2.8038907
2.3109782 -1.1443104 0.43534485 1.9211622 1.7712249 1.3369662 0.92639965 -1.2694083
0.33070067 -1.968647 0.47414145 1.8678297 1.2823768 -0.056684844 0.96815246 1.0915543
0.7286049 2.3908215 0.48055682 1.0604693 1.8102388 -2.166143 -1.0440942 0.8065588
-0.39110094 -1.5624611 0.4063359 0.5285557 0.16205533 -0.787718 -0.16234155 3.0931997
2.5102909 -4.1735754 -3.4676964 0.47452307 -2.5369573 -1.058195 1.0742888 -1.6996901
-3.249942 0.3352058 -1.1134938 -5.656774 2.0044396 -0.37320006 -1.0644857 -3.6034796
-1.9488026 -0.8097118 -2.5448735 -1.9598274 -3.8334012 -1.2829844 -2.3287158 -0.26645613
2.4297018 -5.761471 -0.5914754 -1.2702029 -2.569175 -1.9578255 0.21724474 -5.0134068
-2.0442584 0.8162825 -2.2347622 0.14934637 -1.3122444 0.29986635 -0.72265136 -0.2057202
00000000: c960 65c0 4fcc b6bf 782e a03f 8099 c2bf
00000010: a299 363f 9bb0 66c0 371c 3cc0 c6e1 4940
00000020: 96f6 1fc0 ffa3 ef3d 683c a33e e496 4cc0
00000030: a941 e3bf 642b 313e ebaf 74c0 ab23 0d3f
00000040: 3d19 85bd 5635 e1bf f186 8f3f dab1 ccbf
00000050: 29fe 9b3e b142 7d3e b6a9 b2bf 2639 5fc0
00000060: 725f 0ec0 0f78 bdbe 0509 61bf 764d fc3f
00000070: db26 05c0 391e 8b3f e402 a9bf 2f43 c93e
00000080: aa28 5ebf 8705 59c0 0a38 c9bf d2ad 0b3f
00000090: d676 833f b20f da3f 2b31 00c0 effb 9bbf
000000a0: a970 5a3e 2895 0cc0 9ff4 0cbf ceab 0440
000000b0: 1920 e4be 6ba5 a8bf 543f 8cbe d48d 13c0
000000c0: 6dfe 2abf c829 39bf 1705 ffbf e8f1 02c0
000000d0: 6436 89bf 8aec c53d 1b86 9d3e 141a 2fbf
000000e0: acb1 87bf bc88 fbbf 06a2 62be e5e5 c83d
000000f0: c490 5e40 974b 7c40 1e92 7e3e 06c1 bfbe
00000100: 87ac a53f 05d0 38bf b841 fa3e d618 c1bd
00000110: 0044 31bf 0169 c0bf 5be4 843f 4cc7 83c0
00000120: 2db4 33c0 89da 64bf 30b9 b63f 492f db3e
00000130: a511 1e3f 61ec 2c40 570f b8bf 9d52 d8be
00000140: ecc4 5dbe ab2c a63f e54c 1c3f 49b2 c840
00000150: 61c1 6b3f 1138 923e 750e 8d3f 0a58 90bf
00000160: 1a65 8d3f 2f75 a83e b7f1 8f3f 8d78 e8be
00000170: da50 1f40 b957 85bf b44d 8ebc ec4b 46c0
00000180: c7f6 dabe 2180 3ebf 31d8 db3f 7588 a4bf
00000190: 60b9 3640 59f7 4ebe bb89 abbf 5248 153f
000001a0: b653 c33f 1d99 bcbe 4208 94bc 77bb 5abf
000001b0: 0bbf 813f 1f05 0540 d7e9 babe a3d2 c2bd
000001c0: 58ca e0bf ac7e c43e a8d7 a3be 12b9 7f3f
000001d0: 7eab 803f 797c 493f 85e8 27bf e760 363d
000001e0: 39a4 9340 325c 08be b20b b4be c5cd 38c0
000001f0: e588 0640 7157 92c0 c26d 1340 c05a 1f3f
00000200: 1027 a53f b9e6 35bf de0b d3bf b3be ae3f
00000210: 798d 313f 3b9b 8540 20bc 9ebf 498c 1ebf
00000220: c75a 97bf 804b eb3f a34b 533f 7f73 b7bf
00000230: 7c8c 7340 dece 9dc0 82a2 1240 9c9b c8bf
00000240: c33f c8bf b8b6 92bf af3e 8a3f 9b72 20bf
00000250: 16ed 9640 25d3 a4c0 c112 1040 01cb 1a40
00000260: d0cd 4fbf 44c7 1bbb edc7 d73f 1d55 8ac0
00000270: ebd8 3a40 9cc4 843f 997c 8a3e ea77 403f
00000280: 5bbd 0740 904c ec3d d361 163f fb90 3640
00000290: 9930 243e ba6f d33f 45fd ac3f 1698 6540
000002a0: 497d 6f3f 18c8 aabe 5720 16bd 854a 1340
000002b0: 5e67 7c3f 3362 92bd 015a 1040 9d2c d03f
000002c0: 28f6 133f 7fb4 e33f ee70 2d3f 6612 283f
000002d0: d3f3 54bf daad 16c0 955f cebe f272 3340
000002e0: 11e7 1340 c378 92bf 85e5 de3e a5e8 f53f
000002f0: 7fb7 e23f b521 ab3f 8728 6d3f f97b a2bf
00000300: 9951 a93e a0fc fbbf abc2 f23e 0b15 ef3f
00000310: ec24 a43f 5e2e 68bd d7d8 773f 0db8 8b3f
00000320: da85 3a3f 3803 1940 8b0b f63e 75bd 873f
00000330: e8b5 e73f 16a2 0ac0 e1a4 85bf a37a 4e3f
00000340: 623e c8be bafe c7bf 420b d03e 6d4f 073f
00000350: d5f1 253e e3a7 49bf dd3c 26be fcf6 4540
00000360: 9ba8 2040 ee8d 85c0 bdee 5dc0 b0f4 f23e
00000370: 825d 22c0 ef72 87bf 4c82 893f 728f d9bf
00000380: 0dff 4fc0 18a0 ab3e f786 8ebf 4b04 b5c0
00000390: bd48 0040 1414 bfbe 1141 88bf 699f 66c0
000003a0: 5d72 f9bf 4649 4fbf 35df 22c0 a0db fabf
000003b0: 7256 75c0 d538 a4bf ae09 15c0 f06c 88be
000003c0: 3c80 1b40 f85d b8c0 ef6a 17bf 0296 a2bf
000003d0: 5d6d 24c0 079a fabf 6875 5e3e d46d a0c0
000003e0: 21d5 02c0 e4f7 503f 5806 0fc0 41ee 183e
000003f0: a0f7 a7bf 1588 993e aeff 38bf 51a8 52be

fc.bias f4 [7]
0.3627746 -4.1849575 0.041338544 0.21840037 0.44486502 1.2485254 -2.175657
00000000: 98bd b93e 2ceb 85c0 9b52 293d 59a4 5f3e
00000010: 59c5 e33e aecf 9f3f f73d 0bc0
