FaceExpressions_CNN/savemodel/model_16.pth (torch_old, 185408 bytes, 14 tensors)

layer1.0.weight f4 [16, 1, 5, 5]
0.9046296 1.2490375 2.2037625 1.6721095 1.9768076 2.1578572 0.10268315 0.16930409
0.052544273 -0.016868811 0.8855326 -1.0715735 -1.8410095 -3.2808328 -4.204309 1.1101997
-0.6590033 -0.18866268 -1.7968345 -1.6717908 0.0132437935 -1.4864755 1.2559187 0.28038716
0.8788095 -0.85251004 -1.3645324 -0.27763063 1.3076504 1.8404406 -0.21413194 -0.8841002
-0.21443592 0.33252656 0.19288915 -1.6165384 -0.8568939 -0.8970502 -1.9861131 -1.7752539
-3.1750152 -2.218509 -2.234189 -2.990944 0.25967106 0.7233755 -0.24685517 -0.16467166
0.4264288 0.6435614 -1.5936536 -0.6255216 0.78238606 -0.07451048 -2.1188157 0.40334994
2.3132942 1.4324249 3.1924062 0.46309084 0.2458454 2.205308 1.0687906 3.126832
0.48373565 -1.7026187 1.006264 0.7089138 3.2355294 0.08893707 -0.7709896 0.17084566
0.4202766 -0.07144787 -1.8349544 2.308531 0.7657167 -1.5228158 -0.23301303 -0.016849479
1.8480034 -2.8141122 -1.9914418 0.19704284 0.1429531 -1.6588033 -4.046133 0.21361499
-0.31838247 -1.5795223 -1.2542723 1.1727803 1.8845938 1.5854815 1.5109746 0.16826022
1.4741821 0.16497824 0.4143233 1.1692681 0.88826275 -0.17353778 -1.1941984 -2.2161062
0.642613 0.47694924 -0.8996126 0.2200636 -1.4126399 -1.8579333 -1.3003721 -0.21665642
0.29214993 -2.9108813 -3.0293868 1.0169399 0.7095303 -0.72697324 -1.858196 -1.7527198
2.4944813 2.6311946 1.1948199 1.1386168 1.0759724 -0.93238217 -3.4701397 -3.834848
-1.7508072 -0.8431095 0.488202 -0.81564397 -1.2186759 -1.1903554 -1.5742273 0.07052237
0.33800566 1.3013595 1.5243174 -0.77354795 -0.40267825 0.39783314 1.3852301 0.92923373
1.1708062 2.4181862 1.0177052 1.363816 0.70224345 2.644522 0.4660303 -1.1205025
-0.49721578 1.4272071 0.36461604 0.82647824 -0.42863834 -2.5765617 0.063643046 2.8533163
0.7603431 1.4618764 -2.9636173 -2.9601498 2.0404553 -0.2771986 1.9422358 0.82181823
-2.7357905 -0.9910359 -0.29059345 0.32056066 1.474524 0.23072141 -0.1332109 -0.36063534
-0.31204197 -2.093089 -1.0743034 -1.2008101 -0.9314284 0.36923197 -0.58430934 0.38661686
0.4486777 -1.3445814 4.0439997 3.8599508 4.160338 1.6909941 -0.62370515 1.8499653
0.36086923 2.1848636 -1.3380888 1.138167 0.7106078 0.056556627 0.75458854 -1.7390311
-0.914844 -0.5148072 -0.6027289 -1.9399551 -1.3774006 0.6659109 -0.08745759 -0.49157766
-0.3194338 1.5479667 0.65124524 1.7856473 1.2329832 2.2418225 -0.56302077 -0.07052917
2.428025 2.0085812 1.8495346 -2.9963062 0.2070559 0.92293453 1.5477911 1.2653612
-3.2423997 0.20228751 -1.0644592 -0.290011 -0.28740945 0.64889604 -0.84187347 -1.1240458
2.8339715 1.5298688 0.33148745 0.1448979 0.6545093 4.304364 0.28488052 -2.1950653
-0.90949893 1.65426 3.4266853 -1.3541182 -3.0655172 -1.2556571 -0.6927097 0.52256775
-0.54817647 -1.0284615 1.7352707 0.82802355 -1.9546461 -1.0465966 1.4544667 0.1812129
00000000: ce95 673f 76e0 9f3f 720a 0d40 af07 d63f
00000010: 0808 fd3f 551a 0a40 8b4b d23d 0d5e 2d3e
00000020: aa38 573d 7630 8abc 44b2 623f 5229 89bf
00000030: 33a6 ebbf 2af9 51c0 b389 86c0 061b 8e3f
00000040: 71b4 28bf ca30 41be acfe e5bf 3efd d5bf
00000050: 7ffc 583c d444 bebf f2c1 a03f e88e 8f3e
00000060: a9f9 603f 193e 5abf ffa8 aebf 9a25 8ebe
00000070: 1761 a73f 8f93 eb3f 6745 5bbe 6454 62bf
00000080: 1795 5bbe ec40 aa3e bc84 453e bbea cebf
00000090: 665d 5bbf 15a5 65bf f438 febf 853b e3bf
000000a0: 7333 4bc0 0dfc 0dc0 f4fc 0ec0 a06b 3fc0
000000b0: 9bf3 843e 232f 393f 9ac7 7cbe b09f 28be
000000c0: e054 da3e 71c0 243f d7fc cbbf 2f22 20bf
000000d0: 744a 483f f398 98bd ad9a 07c0 e283 ce3e
000000e0: 030d 1440 b359 b73f 6250 4c40 3e1a ed3e
000000f0: e6be 7b3e c423 0d40 21ce 883f 041e 4840
00000100: 33ac f73e 69ef d9bf 42cd 803f 607b 353f
00000110: ea12 4f40 a324 b63d 935f 45bf 2af2 2e3e
00000120: 7f2e d73e 4353 92bd c9df eabf f9be 1340
00000130: 0206 443f a1eb c2bf f89a 6ebe eb07 8abc
00000140: 608b ec3f 6a1a 34c0 91e7 febf 99c5 493e
00000150: 4c62 123e ab53 d4bf ec79 81c0 e3bd 5a3e
00000160: 0703 a3be c92d cabf ff8b a0bf aa1d 963f
00000170: 5f3a f13f 0ff1 ca3f 9e67 c13f 684c 2c3e
00000180: 00b2 bc3f 0ef0 283e 2f22 d43e 94aa 953f
00000190: 3065 633f e3b3 31be 7edb 98bf afd4 0dc0
000001a0: 4982 243f b132 f43e 034d 66bf 5a58 613e
000001b0: 62d1 b4bf c2d0 edbf 9872 a6bf 2edb 5dbe
000001c0: ad94 953e e14b 3ac0 79e1 41c0 162b 823f
000001d0: c7a3 353f eb1a 3abf 5ed9 edbf 1f59 e0bf
000001e0: 95a5 1f40 7e65 2840 dcef 983f 32be 913f
000001f0: 77b9 893f 99b0 6ebf c516 5ec0 266e 75c0
00000200: 731a e0bf 06d6 57bf 9df5 f93e 0bce 50bf
00000210: 92fd 9bbf 915d 98bf 4880 c9bf 086e 903d
00000220: 140f ad3e f392 a63f d51c c33f 3d07 46bf
00000230: d82b cebe c9b0 cb3e 384f b13f 43e2 6d3f
00000240: fadc 953f 90c3 1a40 2a44 823f 8691 ae3f
00000250: 3ac6 333f d93f 2940 869b ee3e a06c 8fbf
00000260: 1193 febe b9ae b63f f4ae ba3e 1494 533f
00000270: 7c76 dbbe 63e6 24c0 4957 823d bc9c 3640
00000280: d8a5 423f c41e bb3f e8ab 3dc0 1873 3dc0
00000290: d296 0240 faec 8dbe 2f9b f83f ae62 523f
000002a0: 3117 2fc0 87b4 7dbf aac8 94be 8720 a43e
000002b0: 34bd bc3f 3c42 6c3e 7068 08be 32a5 b8be
000002c0: f7c3 9fbe 2cf5 05c0 c682 89bf 25b4 99bf
000002d0: 1772 6ebf f90b bd3e 4c95 15bf a5f2 c53e
000002e0: 15b9 e53e 3e1b acbf 7268 8140 6f09 7740
000002f0: 7d21 8540 7f72 d83f 24ab 1fbf aacb ec3f
00000300: dac3 b83e ced4 0b40 7e46 abbf 75af 913f
00000310: 65ea 353f eca7 673d b72c 413f 9298 debf
00000320: 3733 6abf 68ca 03bf 714c 1abf 7350 f8bf
00000330: aa4e b0bf 2379 2a3f f71c b3bd 11b0 fbbe
00000340: d48c a3be c623 c63f 02b8 263f 1790 e43f
00000350: 65d2 9d3f 057a 0f40 2122 10bf 9971 90bd
00000360: c364 1b40 988c 0040 8dbd ec3f 7bc3 3fc0
00000370: 7606 543e 7045 6c3f 051e c63f 5bf7 a13f
00000380: 7a83 4fc0 7524 4f3e 3340 88bf 527c 94be
00000390: 5527 93be 0d1e 263f 0585 57bf bce0 8fbf
000003a0: ca5f 3540 bed2 c33f b9b8 a93e 1d60 143e
000003b0: ec8d 273f 5abd 8940 dcdb 913e f37b 0cc0
000003c0: ecd4 68bf cbbe d33f d04e 5b40 bf53 adbf
000003d0: 6f31 44c0 5fb9 a0bf 6c55 31bf 00c7 053f
000003e0: 4b55 0cbf a0a4 83bf 5a1d de3f 5af9 533f
000003f0: d831 fabf e1f6 85bf f72b ba3f e08f 393e

layer1.0.bias f4 [16]
-1.435034 1.4969834 -0.27515727 0.069289744 0.8383709 -0.9363193 0.3750715 0.14351064
0.95448315 -0.1763831 0.5845916 -1.072566 0.7040108 -0.2750916 1.0484698 0.19809425
00000000: 32af b7bf 279d bf3f 6ae1 8cbe c8e7 8d3d
00000010: 7a9f 563f 9fb2 6fbf 5f09 c03e 74f4 123e
00000020: 0259 743f c59d 34be cca7 153f d849 89bf
00000030: 0d3a 343f ced8 8cbe 4234 863f 38d9 4a3e

layer1.1.weight f4 [16]
2.1756036 1.8174088 1.7194268 2.284135 1.6434995 2.3195863 2.404548 1.8482201
1.0477657 1.3787076 1.7232182 2.0883164 1.9439956 2.0911918 1.382702 0.4014955
00000000: 173d 0b40 daa0 e83f 2d16 dc3f 452f 1240
00000010: 315e d23f 1a74 1440 1de4 1940 7a92 ec3f
00000020: 301d 863f 7e79 b03f 6a92 dc3f faa6 0540
00000030: d9d4 f83f 16d6 0540 61fc b03f d190 cd3e

layer1.1.bias f4 [16]
-2.3303938 -1.5475821 -2.3808167 -0.03856265 -1.4622171 -1.6119902 -0.90118915 -1.5680703
0.56547076 -0.7652753 -2.3517754 -1.5045773 -2.319787 -0.30559984 -0.49339575 -1.3494763
00000000: 2c25 15c0 2c17 c6bf 4d5f 18c0 dff3 1dbd
00000010: ee29 bbbf b255 cebf 55b4 66bf 87b6 c8bf
00000020: b1c2 103f 15e9 43bf 7d83 16c0 fd95 c0bf
00000030: 6477 14c0 9577 9cbe 5e9e fcbe a4bb acbf

layer1.1.running_mean f4 [16]
-2.3529842 -6.614486 6.161377 -0.32987592 -2.4159806 -1.4887819 0.13132489 5.353083
3.5775387 0.79815096 0.7236679 -1.368488 -5.592514 -0.68207663 2.7280843 -2.86213
00000000: 4b97 16c0 dfa9 d3c0 002a c540 7fe5 a8be
00000010: 6d9f 1ac0 6890 bebf 087a 063e 754c ab40
00000020: 65f6 6440 9f53 4c3f 4d42 393f 9d2a afbf
00000030: e0f5 b2c0 939c 2ebf ef98 2e40 232d 37c0

layer1.1.running_var f4 [16]
3.5854423 15.784205 10.961543 1.4700813 6.750873 6.302579 0.8441151 8.051696
3.9644012 2.0756857 1.5964727 4.992946 15.154774 3.3441968 2.222014 2.1495485
00000000: e377 6540 1b8c 7c41 7b62 2f41 a02b bc3f
00000010: 2707 d840 baae c940 ed17 583f bfd3 0041
00000020: c0b8 7d40 09d8 0440 3859 cc3f 37c6 9f40
00000030: f479 7241 5207 5640 7a35 0e40 3492 0940

layer2.0.weight f4 [32, 16, 5, 5]
-3.7013416 -2.4745672 -1.1968974 -2.3371038 -1.6257874 -3.2215533 -1.896723 -1.5047135
-3.013633 -0.42190915 1.28586 -0.9031425 -2.0738487 -1.6052479 1.9071659 0.82637614
-1.2065415 -1.3673546 -0.91783965 0.14854984 -1.2873915 -2.4799397 -0.02987704 -0.86921936
1.0928507 -1.4451373 -0.5441427 -2.0092676 -1.0336448 0.26068103 0.22688857 0.24937971
-1.5909373 0.370742 2.8096213 0.41112307 0.6998557 -0.7817672 -2.052614 -0.5097476
1.4476026 2.5306313 0.7742302 -0.7716252 -1.1342654 2.5302057 0.8421396 -1.6955763
-1.7550645 0.33432007 -0.020818459 4.4801006 -0.51129186 0.048292186 -1.5116037 -0.977754
0.6708578 -1.545294 -0.0018535755 -0.89649796 -1.1163908 0.73703396 0.20087986 -0.064445905
-1.4195689 -0.82855356 2.1159346 -0.6941561 0.40076718 -0.75511545 -0.814274 0.11839447
-0.3340542 -1.2333435 -1.0538318 0.6606791 -0.5158405 -0.54011 -0.08207087 -1.8524107
-1.5800697 -3.1471636 -3.736574 -1.6262486 0.15304741 1.8706195 1.0227245 -5.0732603
-3.5443916 0.28845105 0.64323056 1.1795876 -1.0069494 0.049276706 0.5357947 0.1478203
1.1851704 -0.9501487 -0.652751 1.44616 -0.117483616 1.5744332 -1.236915 -0.929746
-1.5458223 -2.0907192 -0.25743344 -1.4864173 -1.4745417 -1.3529618 -0.23548356 -0.21049997
-1.3442787 -1.161603 -1.556847 1.6225852 1.6631203 -1.0757891 -1.0505284 0.046068612
2.0220292 -1.3878272 -1.2439079 1.1849364 0.78268975 0.15005489 -1.3646241 -1.2984588
0.91060233 0.6689701 0.7900515 -0.56708914 -1.6410673 -1.0279549 0.2639329 -1.4005847
0.7751617 -0.19447269 0.68912387 -0.97806907 0.8616912 0.98721117 -2.8822474 -1.5120811
1.2650807 -1.0173774 0.49621862 0.20700124 -2.5656438 0.11517614 -1.5919708 3.422567
0.17924464 0.8744628 1.0903877 -0.21684806 -4.169336 -0.9249118 -1.5351546 -3.7521136
2.0584311 1.1177684 -1.1684637 -4.3838224 -0.3431395 0.6409918 1.4102573 -0.2772551
0.76863015 -0.5571977 0.5609964 0.3969322 -1.5549663 0.5440403 -0.4006578 1.2134902
1.6418914 -1.5792818 1.3751743 0.50960803 1.0566808 0.67308825 -0.2503471 -0.72723174
-1.9332879 -1.8955518 -1.2034414 -1.0895644 -0.07773845 -1.1034877 -1.8193444 -0.493627
-0.9127032 0.6185139 1.1160979 -0.24484494 -0.28361747 -0.22579606 0.9897867 2.303367
-0.7743328 -1.1079581 -1.0084145 0.42726922 -0.683567 -1.1601208 -1.7747777 0.96142894
0.69591105 0.13901433 -2.3793957 -2.0241127 -0.3053553 0.50652856 0.79691124 -1.0699502
-0.8462832 -1.1033692 -0.946105 0.1787505 -2.1046817 0.016383046 0.50346607 0.12883355
-0.77584463 -1.7045789 -1.4142944 -0.70977265 2.3488507 -0.21411537 0.6197141 -3.4353497
-0.3727433 0.74720126 -0.70532256 -0.011797585 -0.40494025 -0.21537992 1.1208489 -0.080037475
-2.3142009 -1.9394767 -1.6866741 0.27068844 1.0960128 -1.698414 0.6487762 0.95998305
0.6492438 1.2470267 2.4775374 -2.8237047 0.3169603 -1.3779743 -0.027912183 -1.1812109
00000000: c8e2 6cc0 4f5f 1ec0 ef33 99bf 1c93 15c0
00000010: cd19 d0bf ee2d 4ec0 d2c7 f2bf 749a c0bf
00000020: 5ddf 40c0 7a04 d8be 0f97 a43f 5934 67bf
00000030: f0b9 04c0 c378 cdbf 031e f43f 638d 533f
00000040: f46f 9abf 7a05 afbf 8af7 6abf 731d 183e
00000050: 3fc9 a4bf 55b7 1ec0 b2c0 f4bc 2985 5ebf
00000060: 88e2 8b3f 42fa b8bf f04c 0bbf d797 00c0
00000070: 794e 84bf fc77 853e 7a55 683e 655d 7f3e
00000080: d5a3 cbbf e5d1 bd3e d6d0 3340 b97e d23e
00000090: be29 333f e521 48bf 075e 03c0 d27e 02bf
000000a0: 0b4b b93f ddf5 2140 f333 463f 3b89 45bf
000000b0: 9c2f 91bf e4ee 2140 7696 573f a508 d9bf
000000c0: f4a5 e0bf 002c ab3e 798b aabc fc5c 8f40
000000d0: 06e4 02bf 07ce 453d 3b7c c1bf 164e 7abf
000000e0: 56bd 2b3f 32cc c5bf acf3 f2ba e480 65bf
000000f0: e5e5 8ebf 42ae 3c3f 73b3 4d3e 37fc 83bd
00000100: 6fb4 b5bf 161c 54bf 796b 0740 37b4 31bf
00000110: 5b31 cd3e 3f4f 41bf 4374 50bf cd78 f23d
00000120: 2709 abbe 33de 9dbf f6e3 86bf 4422 293f
00000130: 1f0e 04bf a644 0abf c614 a8bd cb1b edbf
00000140: b93f cabf 216b 49c0 0724 6fc0 ea28 d0bf
00000150: 76b8 1c3e 7670 ef3f a3e8 823f 2658 a2c0
00000160: 50d7 62c0 dbaf 933e c2aa 243f bafc 963f
00000170: b8e3 80bf 5fd6 493d d729 093f 345e 173e
00000180: aab3 973f f23c 73bf b11a 27bf c51b b93f
00000190: 409b f0bd 0787 c93f 3b53 9ebf d503 6ebf
000001a0: 81dd c5bf 58ce 05c0 51ce 83be ec42 bebf
000001b0: c8bd bcbf da2d adbf 9a22 71be 4e8d 57be
000001c0: 5311 acbf 68af 94bf c346 c7bf dfb0 cf3f
000001d0: 20e1 d43f 75b3 89bf b777 86bf 71b2 3c3d
000001e0: ed68 0140 52a4 b1bf 6038 9fbf ffab 973f
000001f0: 5b5e 483f fda7 193e 01ac aebf e633 a6bf
00000200: 3c1d 693f a041 2b3f d140 4a3f c12c 11bf
00000210: 7e0e d2bf 0794 83bf 3722 873e 5c46 b3bf
00000220: ff70 463f d923 47be 6c6a 303f bc62 7abf
00000230: cb97 5c3f dfb9 7c3f be76 38c0 e08b c1bf
00000240: 2aee a13f 6c39 82bf 5e10 fe3e 22f8 533e
00000250: 8233 24c0 78e1 eb3d b3c5 cbbf 560b 5b40
00000260: e88b 373e cbdc 5f3f d391 8b3f 6b0d 5ebe
00000270: 336b 85c0 05c7 6cbf f27f c4bf a122 70c0
00000280: 56bd 0340 0913 8f3f 3890 95bf 4648 8cc0
00000290: fbaf afbe 0a18 243f 5083 b43f 61f4 8dbe
000002a0: f2c4 443f 82a4 0ebf 769d 0f3f b33a cb3e
000002b0: 2309 c7bf 3a46 0b3f 0523 cdbe a653 9b3f
000002c0: 7f29 d23f e825 cabf b605 b03f ac75 023f
000002d0: 5141 873f 834f 2c3f 7f2d 80be dc2b 3abf
000002e0: fa75 f7bf 71a1 f2bf 5e0a 9abf d976 8bbf
000002f0: 5635 9fbd 163f 8dbf 47e0 e8bf aebc fcbe
00000300: eba6 69bf ed56 1e3f 4cdc 8e3f a2b8 7abe
00000310: 4f36 91be 1537 67be a962 7d3f 5d6a 1340
00000320: ad3a 46bf 92d1 8dbf ba13 81bf 08c3 da3e
00000330: 3ffe 2ebf d77e 94bf ea2b e3bf 3520 763f
00000340: 3a27 323f c659 0e3e 0548 18c0 108b 01c0
00000350: 8857 9cbe dbab 013f 6002 4c3f 21f4 88bf
00000360: 04a6 58bf 343b 8dbf f033 72bf 5f0a 373e
00000370: 1bb3 06c0 bd35 863c 27e3 003f f1ec 033e
00000380: c19d 46bf a42f dabf 9907 b5bf a9b3 35bf
00000390: 9253 1640 0f41 5bbe 95a5 1e3f c5dc 5bc0
000003a0: 36d8 bebe 9548 3f3f 0590 34bf a84a 41bc
000003b0: 5454 cfbe 8e8c 5cbe fa77 8f3f b0ea a3bd
000003c0: de1b 14c0 c640 f8bf f0e4 d7bf ad97 8a3e
000003d0: 264a 8c3f a165 d9bf 3216 263f 73c1 753f
000003e0: d734 263f 929e 9f3f f98f 1e40 94b7 34c0
000003f0: 9f48 a23e 7661 b0bf 17a8 e4bc eb31 97bf

layer2.0.bias f4 [32]
1.2665561 0.6513363 0.9300566 0.1929084 0.4435456 0.6517444 1.3639206 0.3013051
0.88381463 0.25515854 0.7570663 -0.05125627 0.1955629 0.5338795 1.3113992 0.44051382
0.18916236 0.19695292 0.62405235 0.5714137 0.13229117 1.3782214 1.1366311 1.0987055
1.0815643 0.03198193 0.75556004 0.83272403 0.16890362 1.3394732 0.6725787 0.17242675
00000000: 831e a23f fabd 263f 3018 6e3f c889 453e
00000010: 6918 e33e b9d8 263f f394 ae3f a944 9a3e
00000020: ad41 623f 24a4 823e 19cf 413f 18f2 51bd
00000030: a441 483e 54ac 083f eedb a73f 078b e13e
00000040: c7b3 413e 07ae 493e e5c1 1f3f 2b48 123f
00000050: 5677 073e 8f69 b03f 217d 913f 62a2 8c3f
00000060: b370 8a3f 7cff 023d 626c 413f 672d 553f
00000070: 12f5 2c3e dc73 ab3f 1e2e 2c3f a390 303e

layer2.1.weight f4 [32]
0.43036276 0.3860602 0.5192408 0.26864558 0.22420615 0.52239925 0.53216636 0.14227194
0.37347856 0.22648065 0.42472243 0.7878972 0.17639042 0.59723467 0.54830354 0.89546674
0.21059252 0.28662583 0.6721359 0.46715385 0.1682578 0.549754 0.4743813 0.38416332
0.6218356 0.27196413 0.6266155 0.56710345 0.27096218 0.5023049 0.4166029 0.2535691
00000000: 8258 dc3e afa9 c53e f7ec 043f ea8b 893e
00000010: 4c96 653e f5bb 053f 0e3c 083f bcaf 113e
00000020: 9538 bf3e 8bea 673e 3875 d93e a2b3 493f
00000030: b19f 343e 5fe4 183f 9f5d 0c3f 4f3d 653f
00000040: 91a5 573e 9fc0 923e 1911 2c3f ca2e ef3e
00000050: c64b 2c3e aebc 0c3f 1be2 f23e 0eb1 c43e
00000060: 9e30 1f3f e23e 8b3e e069 203f b12d 113f
00000070: 8ebb 8a3e 0e97 003f fa4c d53e cfd3 813e

layer2.1.bias f4 [32]
-0.46715626 -0.39127418 -0.6386528 -0.7322961 -0.6869979 -0.70270485 -0.70407677 -0.8243952
-0.46543655 -0.76534355 -0.45436084 -1.693825 -0.9085395 -1.157296 -0.68050635 -1.3766303
-0.76636624 -0.6258959 -0.9224667 -0.5505889 -0.5734798 -0.7569926 -0.59048456 -0.45429227
-0.94998294 -0.6508736 -0.93884003 -0.68558794 -0.68851686 -0.4752184 -0.57263994 -0.8235452
00000000: 1b2f efbe 1755 c8be c07e 23bf c277 3bbf
00000010: 18df 2fbf 77e4 33bf 603e 34bf 900b 53bf
00000020: b34d eebe 8eed 43bf fca1 e8be 42cf d8bf
00000030: 0b96 68bf 4622 94bf aa35 2ebf 6c35 b0bf
00000040: 9430 44bf b73a 20bf c726 6cbf 65f3 0cbf
00000050: 92cf 12bf 44ca 41bf ff29 17bf ff98 e8be
00000060: 1532 73bf a79f 26bf d257 70bf b182 2fbf
00000070: a442 30bf d34f f3be 8898 12bf dcd3 52bf

layer2.1.running_mean f4 [32]
-70.35175 -50.831676 -49.042973 -38.592754 -18.731606 -38.417736 -51.904064 -25.95089
-43.652927 -26.436958 -34.840397 -41.235123 -32.818962 -40.318687 -60.580185 -57.721413
-15.876809 -15.408364 -42.26237 -82.46968 -32.19694 -53.01197 -42.76797 -53.851154
-31.134905 -19.748194 -38.911686 -56.708057 -22.93497 -74.98582 -47.284172 -32.34615
00000000: 19b4 8cc2 a353 4bc2 012c 44c2 fb5e 1ac2
00000010: 54da 95c1 c3ab 19c2 c39d 4fc2 6c9b cfc1
00000020: 999c 2ec2 e47e d3c1 915c 0bc2 c4f0 24c2
00000030: 9e46 03c2 5646 21c2 1c52 72c2 bae2 66c2
00000040: 6907 7ec1 a988 76c1 ab0c 29c2 7af0 a4c2
00000050: abc9 00c2 420c 54c2 6712 2bc2 9567 57c2
00000060: 4914 f9c1 4dfc 9dc1 91a5 1bc2 0dd5 62c2
00000070: d27a b7c1 bdf8 95c2 fe22 3dc2 7562 01c2

layer2.1.running_var f4 [32]
3383.4172 3643.1438 2528.0254 591.1077 181.3543 2289.2734 3026.419 314.99533
2206.559 333.09662 2686.9343 3659.4126 623.38525 2473.8816 3054.2751 3231.9026
200.37953 117.15737 3069.538 4176.898 558.5112 2759.0356 2084.092 2832.7585
1604.2482 165.93631 2873.5862 2660.8132 215.40651 3941.2683 3027.4695 492.79425
00000000: ad76 5345 4db2 6345 6800 1e45 e5c6 1344
00000010: b35a 3543 6014 0f45 b426 3d45 677f 9d43
00000020: f2e8 0945 5e8c a643 f3ee 2745 9ab6 6445
00000030: a8d8 1b44 1b9e 1a45 67e4 3e45 71fe 4945
00000040: 2961 4843 9350 ea42 9cd8 3f45 2f87 8245
00000050: b8a0 0b44 9270 2c45 7941 0245 230c 3145
00000060: f187 c844 b2ef 2543 6199 3345 034d 2645
00000070: 1168 5743 4b54 7645 8337 3d45 aa65 f643

fc.weight f4 [7, 4608]
-1.7569485 -0.27128467 0.6241663 0.3776362 1.7095199 -1.9741048 -2.559688 0.98684764
-1.3484919 -0.7051775 0.027537411 -0.5523591 0.033151 -0.35116082 -1.1864275 0.075054966
0.39153525 -0.95658195 0.7112937 -0.008868627 0.37712258 0.050282463 -1.0483971 -1.0959146
0.22724676 0.7379224 1.2035476 0.39384717 -1.0763222 0.016877057 -0.6628476 -0.20504801
-0.7284375 -2.0185115 -0.4815176 0.41097844 -0.27648333 -0.0101353545 -1.4603989 -0.023770127
0.38351968 -1.1196347 -0.75612754 1.9368302 -0.42887652 -0.9001974 0.03929005 -1.8629849
-0.45311183 -0.064614885 -0.87037706 -1.2250303 -0.40453428 -0.32991445 0.9558426 -1.1214782
-0.20307164 -1.0709305 0.083273955 0.12023678 1.0308024 1.5600204 0.75132185 -0.055592205
1.7738506 -0.10288638 0.7117823 -0.34664008 -0.15638404 -0.83550066 1.1946626 -0.23760661
-0.6642978 -0.28870702 -0.41890472 0.6126028 0.22923845 1.680071 -0.72427493 -0.17509246
0.10298994 1.7861382 -0.15629819 2.5021667 -0.786179 0.23059534 0.6892046 -0.7129056
0.8740382 -1.0764723 0.62248236 -0.062178463 1.4923497 -0.468029 -0.07191486 -0.31867543
0.9425065 -0.7124802 0.8588194 -0.07120051 2.0017183 0.24227518 -0.514691 0.13961405
1.1460723 0.006609307 0.10481537 -0.5323766 -0.122783884 1.523721 -0.15053476 0.5997087
-0.79839534 0.40693155 0.20781308 0.68583715 1.1948545 1.3758974 0.68469644 1.0372043
-0.9211034 -0.12302102 -0.227822 -1.7877386 0.85472375 -1.612013 1.0223446 0.8648462
0.71789056 -0.09022774 -0.532803 0.17712583 -0.24949355 1.5495135 -0.53045213 -0.2528692
-1.1570572 0.33981252 0.16815516 -1.1671247 1.025223 -1.4938388 -0.45721444 -0.26573578
-0.34039167 -0.46291077 0.28230518 -0.19850731 2.1385596 -2.3165758 1.117008 1.2547897
1.056289 1.1720946 -0.76178205 -2.1313343 1.5182531 0.33136615 1.3433682 0.33275864
1.0120136 0.7917447 0.029186372 2.14391 -0.41345236 0.84244835 0.521588 2.2309532
-0.3199923 0.19522017 0.43998656 0.57641965 1.1730639 -0.19511513 1.8702844 1.0332936
0.742554 1.1389415 0.54888195 -0.5992033 0.0038824086 -1.7168112 0.10655217 2.0429387
1.6439519 -0.4193954 0.12256209 1.1872611 0.4587667 1.2681781 0.6898159 -0.92438394
0.8219413 -0.05983063 0.39458215 1.2138271 1.5320709 -0.3960596 1.0711858 0.38449588
0.25894466 2.4169903 -1.6156442 0.35664842 1.9687412 0.044027302 -0.16699508 0.37668416
-0.22185776 -0.9743756 0.3898743 -0.15184899 0.1989398 0.064073294 -0.61798644 2.746814
1.0905632 -2.7882671 -1.3041624 -0.34615582 -1.2471386 -0.8452663 1.193595 -0.5385153
-1.9747026 0.20226863 -0.61380017 -2.437702 1.6229765 0.50855 -0.97581446 -2.2118084
-1.0682626 -0.04423851 -1.1533022 -1.5937716 -2.1369584 0.43629757 -1.5663314 0.50911254
0.7687082 -2.8195248 -0.8459835 -0.981773 -1.279046 -1.1339 -0.6423631 -2.9162154
-0.757375 0.6637302 -0.63937813 -0.14184178 -0.85664797 0.5077589 -0.48673815 0.28149855
00000000: b0e3 e0bf d3e5 8abe 5dc9 1f3f 8859 c13e
00000010: 8cd1 da3f 77af fcbf eed1 23c0 0ca2 7c3f
00000020: 629b acbf 8386 34bf 2396 e13c 6867 0dbf
00000030: 58c9 073d 5acb b3be dbdc 97bf 6bb6 993d
00000040: 4f77 c83e 8ee2 74bf 5817 363f b84d 11bc
00000050: 3616 c13e fcf4 4d3d e031 86bf ee46 8cbf
00000060: 60b3 683e 7be8 3c3f d90d 9a3f 56a6 c93e
00000070: edc4 89bf c141 8a3c 61b0 29bf 1bf8 51be
00000080: e17a 3abf 4b2f 01c0 7a89 f6be c46b d23e
00000090: 398f 8dbe c20e 26bc 5aee babf 92b9 c2bc
000000a0: b15c c43e 3150 8fbf 9391 41bf 0dea f73f
000000b0: b495 dbbe 5673 66bf 9aee 203d 4a76 eebf
000000c0: 46fe e7be cf54 84bd 08d1 5ebf cbcd 9cbf
000000d0: 1e1f cfbe 8cea a8be 1ab2 743f 998c 8fbf
000000e0: 03f2 4fbe 4014 89bf 898b aa3d b33e f63d
000000f0: 55f1 833f c0ae c73f a156 403f a7b4 63bd
00000100: 890d e33f 18b6 d2bd 5d37 363f cf7a b1be
00000110: 2323 20be 5fe3 55bf b4ea 983f 264f 73be
00000120: 6c0f 2abf 68d1 93be ae7a d6be 89d3 1c3f
00000130: 7cbd 6a3e 910c d73f 156a 39bf 704b 33be
00000140: 64ec d23d 2da0 e43f a20c 20be 8023 2040
00000150: 0743 49bf 2f21 6c3e b66f 303f fb80 36bf
00000160: f8c0 5f3f d8c9 89bf 015b 1f3f d8ae 7ebd
00000170: 5105 bf3f 7fa1 efbe 1948 93bd 6d29 a3be
00000180: 1b48 713f 1a65 36bf 97db 5b3f 93d1 91bd
00000190: 271c 0040 fc16 783e cac2 03bf fcf6 0e3e
000001a0: 7fb2 923f e392 d83b 71a9 d63d d549 08bf
000001b0: 1e76 fbbd 4a09 c33f c925 1abe 8286 193f
000001c0: a363 4cbf 5559 d03e f4cc 543e 0693 2f3f
000001d0: fef0 983f 681d b03f 4448 2f3f 1cc3 843f
000001e0: 6fcd 6bbf 72f2 fbbd 2c4a 69be 9ed4 e4bf
000001f0: 2dcf 5a3f 7156 cebf 30dc 823f 9066 5d3f
00000200: adc7 373f 52c9 b8bd c765 08bf 7960 353e
00000210: 3d7b 7fbe 7556 c63f b6cb 07bf 1278 81be
00000220: 731a 94bf e8fb ad3e de30 2c3e 5864 95bf
00000230: 823a 833f 1c36 bfbf 0318 eabe 850e 88be
00000240: d147 aebe a402 edbe 4e8a 903e 8045 4bbe
00000250: 29de 0840 c742 14c0 1efa 8e3f f39c a03f
00000260: 7a34 873f 3207 963f 2604 43bf c867 08c0
00000270: 1e56 c23f d3a8 a93e 7df3 ab3f 575f aa3e
00000280: a989 813f c8af 4a3f 4218 ef3c d235 0940
00000290: 07b0 d3be b2aa 573f cb86 053f f0c7 0e40
000002a0: 08d6 a3be cce7 473e eb45 e13e 3d90 133f
000002b0: f526 963f 43cc 47be 7b65 ef3f f742 843f
000002c0: 0518 3e3f d6c8 913f 8783 0c3f 6365 19bf
000002d0: 0270 7e3b 78c0 dbbf 0638 da3d 82bf 0240
000002e0: 046d d23f feba d6be d501 fb3d 2cf8 973f
000002f0: 78e3 ea3e a953 a23f c697 303f 6da4 6cbf
00000300: bf6a 523f f610 75bd ac06 ca3e b05e 9b3f
00000310: e61a c43f 53c8 cabe 9e1c 893f a5dc c43e
00000320: 6594 843e f8af 1a40 6ecd cebf 9f9a b63e
00000330: b6ff fb3f f955 343d c200 2bbe bfdc c03e
00000340: ae2e 63be ae70 79bf 9b9d c73e 4d7e 1bbe
00000350: e0b6 4b3e dc38 833d 5c34 1ebf cdcb 2f40
00000360: 9397 8b3f f872 32c0 cbee a6bf 563b b1be
00000370: 3da2 9fbf 5f63 58bf b9c7 983f 24dc 09bf
00000380: 0ec3 fcbf 821f 4f3e 0222 1dbf 4f03 1cc0
00000390: b2bd cf3f 5530 023f face 79bf 458e 0dc0
000003a0: d4bc 88bf 7133 35bd 689f 93bf b500 ccbf
000003b0: edc3 08c0 6562 df3e 8c7d c8bf 3355 023f
000003c0: 10ca 443f 1873 34c0 6092 58bf 7a55 7bbf
000003d0: c8b7 a3bf a323 91bf e871 24bf 46a3 3ac0
000003e0: 54e3 41bf 39ea 293f 49ae 23bf f93e 11be
000003f0: 484d 5bbf 7dfc 013f be35 f9be 9420 903e

fc.bias f4 [7]
0.24161674 -2.0293329 0.07957437 0.08479644 0.21414039 0.82480294 -1.2316318
00000000: 616a 773e 97e0 01c0 e3f7 a23d c2a9 ad3d
00000010: 9e47 5b3e 4926 533f 1ca6 9dbf
