FaceExpressions_CNN/savemodel/model_58.pth (torch_old, 185408 bytes, 14 tensors)

layer1.0.weight f4 [16, 1, 5, 5]
000000 2a 08 61 3f 1b 07 05 40 0a 38 4b 40 16 fa 4f 40
       0.8790308 2.0785587 3.1752954 3.249639
000010 77 bb 52 40 d9 7a 76 40 28 62 5b bd 9e 6b 46 bf
       3.292692 3.851248 -0.053560406 -0.7750796
000020 d3 e1 ae be 23 1c 3e bd 06 68 3e 3f dd ac 02 c0
       -0.34156665 -0.046413552 0.7437748 -2.0418007
000030 9e 56 9d bf b4 3f a7 c0 34 ee dd c0 a1 d2 d3 3f
       -1.2292058 -5.2265263 -6.9353275 1.6548654
000040 77 d3 96 bf 47 83 8f bd 18 f3 54 c0 89 45 08 c0
       -1.1783284 -0.07007461 -3.3273373 -2.129244
000050 8c 8e 9d 3f e8 8e 36 c0 5f 2e 01 40 69 dd 62 3e
       1.2309127 -2.8524723 2.0184553 0.22154774
000060 1a ca eb 3f dc a5 96 be b8 85 2d c0 35 29 84 bf
       1.8421052 -0.29423416 -2.7112865 -1.0325075
000070 13 3d 33 40 0b 3c 67 40 f8 ed da be b6 ef bf bf
       2.8006027 3.6130397 -0.4275968 -1.4995029
000080 5c 0d 40 3f 2d 03 ae 3f 49 64 bc bf f4 f8 81 be
       0.75020385 1.3594719 -1.4718105 -0.2538525
000090 2e b9 f0 bf 4e 8b ae bf e4 5d 0b c0 98 7a 24 c0
       -1.8806512 -1.3636262 -2.1776056 -2.5699825
0000a0 60 25 eb c0 03 b0 10 c0 de 0f 38 c0 fa 89 b7 c0
       -7.3483124 -2.260743 -2.8759685 -5.735593
0000b0 d3 78 a4 3f 8d d5 80 3f 0c 3a db 3e 5b 9c 77 bf
       1.2849373 1.006517 0.42817724 -0.96722955
0000c0 f8 c2 0f 3f 43 02 ed 3f 50 60 21 c0 95 5f e1 bf
       0.56156874 1.8516315 -2.5215034 -1.7607294
0000d0 2a 40 1c 40 df fc 75 3e bf 35 70 c0 0f 4c dc 3f
       2.4414163 0.24022244 -3.7532804 1.7210711
0000e0 ab d4 21 40 a7 93 da 3f 6d 30 9a 40 e8 fc 7e be
       2.5286052 1.707631 4.8184114 -0.24901164
0000f0 4f f2 76 3d c0 82 7b 40 88 69 c8 bf cc 2c c0 40
       0.060289677 3.9298553 -1.5657206 6.0054684
000100 62 15 e8 3e 52 65 7a c0 82 1d 3f 40 95 97 37 bd
       0.45328814 -3.912434 2.986176 -0.044822294
000110 a8 98 b1 40 ea b0 25 3f 63 86 c9 bf 39 8e e0 3e
       5.549885 0.64723074 -1.5744137 0.43858507
000120 96 f6 fb 3d 08 fc ab be 27 29 34 c0 2d 68 65 40
       0.12302892 -0.33590722 -2.8150117 3.5844834
000130 05 88 b4 3f a0 46 1e c0 ed f4 70 be d0 8e 87 3e
       1.410401 -2.4730606 -0.23530932 0.26476145
000140 9a 8e 36 40 7f 6d 99 c0 f3 23 51 c0 3d 28 1f 3f
       2.8524537 -4.794616 -3.2678192 0.62170774
000150 a2 2d 05 be ab 1d 22 c0 42 07 ce c0 81 0e 9d 3d
       -0.13005689 -2.5330608 -6.438386 0.07668782
000160 e8 6c 7e be cd d4 2d c0 97 e7 04 c0 b4 1c 1c 40
       -0.24846232 -2.7161133 -2.0766351 2.439252
000170 28 8d 35 40 42 cf 38 40 44 25 1a 40 38 04 13 3f
       2.8367405 2.88765 2.4085245 0.5742831
000180 a6 e0 b9 3f 8d cd 29 3f 49 3b cc 3e 11 82 fd 3f
       1.4521682 0.6632927 0.3988898 1.9805318
000190 ea 29 0b 40 17 f2 a0 bf e0 28 f9 bf 50 c6 39 c0
       2.1744332 -1.257388 -1.9465599 -2.902729
0001a0 80 df c6 3f fa 05 c1 3f e4 a6 d5 bf bf f1 e1 3e
       1.5536957 1.5079949 -1.6691556 0.4412975
0001b0 a5 d7 fd bf e5 84 fc bf 8a a0 30 c0 27 b6 e3 be
       -1.9831434 -1.9728056 -2.7597985 -0.4447491
0001c0 c6 e3 ed 3f 3f 86 84 c0 21 44 b8 c0 6d cb 71 3f
       1.8585136 -4.1413875 -5.7583165 0.9445103
0001d0 71 e8 69 3f ee 75 ea bf bf fa 34 c0 d1 d2 fc bf
       0.913703 -1.8317239 -2.8278043 -1.9751836
0001e0 ec b4 8a 40 c5 2f 9d 40 31 26 ba 3f c9 6c eb 3f
       4.334585 4.9120812 1.4542905 1.8392574
0001f0 cd e4 3d 3f 63 56 84 bf 9f 23 ae c0 5b 0c c9 c0
       0.7417725 -1.0338863 -5.4418483 -6.282758
000200 d9 a8 06 c0 9a 4f ac bf 0e b1 37 bc f0 0e 65 bf
       -2.1040556 -1.3461792 -0.011211647 -0.8947592
000210 60 fc 22 c0 d4 f4 f3 bf 6c f2 20 c0 d0 6e 40 3f
       -2.5466537 -1.9059091 -2.5147963 0.75169086
000220 4e 72 b0 3e d0 11 e6 3f 9c 43 61 40 34 fe 65 bf
       0.34462208 1.7974186 3.5197515 -0.8984101
000230 17 6b 8f bf 97 40 df 3e 8d bc 26 40 28 07 93 3f
       -1.1204556 0.43603966 2.6052582 1.1486559
000240 4e 09 a9 3f 00 71 84 40 0a be bf 3f 59 38 d9 3f
       1.3205965 4.138794 1.497987 1.6970321
000250 75 e3 d4 3d 6a 43 8a 40 1a 36 14 3f 32 9b dc bf
       0.103949465 4.3207293 0.5789505 -1.7234862
000260 c2 33 45 bf bb 42 20 40 4a b6 87 3e 3c be a3 3f
       -0.770321 2.504073 0.26506263 1.279243
000270 02 56 19 bf e8 6e 83 c0 60 3f b7 3e 0c 6f 8d 40
       -0.5989686 -4.1072884 0.3579054 4.4198055
000280 fe 88 7d 3f d5 79 0e 40 7b 72 a0 c0 6d 09 9c c0
       0.9903716 2.226186 -5.0139747 -4.8761506
000290 9f f0 54 40 63 9b b5 be 06 1c 37 40 a8 64 e8 3f
       3.3271863 -0.35470113 2.8610854 1.8155718
0002a0 17 aa 85 c0 9a 85 b4 bf 44 5a da be 54 26 0c 3f
       -4.177013 -1.4103272 -0.42646992 0.54745984
0002b0 e1 c5 1e 40 79 14 22 3e 86 fb fc bd 64 92 69 3e
       2.4808276 0.15828122 -0.12352662 0.2280975
0002c0 a2 e0 77 3d 5e ed 41 c0 ca 09 2b c0 79 1a 9a bf
       0.06051696 -3.0301127 -2.6724725 -1.2039329
0002d0 13 93 eb bf a2 39 e7 3e 7b bf a5 bf 7a cd 18 3f
       -1.8404258 0.45161158 -1.294906 0.5968853
0002e0 6b 26 cf 3e 75 02 06 c0 10 6f d9 40 2b 8c c6 40
       0.40458998 -2.0939 6.7948074 6.2046103
0002f0 46 69 b1 40 f7 06 45 40 59 34 1b bf a0 a9 24 40
       5.5441008 3.07855 -0.6062675 2.572853
000300 77 12 36 bf 59 9b 61 40 be 7e 44 c0 a3 3a 0f 40
       -0.71121925 3.5251067 -3.0702357 2.237954
000310 c4 0f 64 3f 8c c2 d7 be c9 e6 d7 3f c2 01 71 c0
       0.89086556 -0.42140615 1.6867305 -3.7657323
000320 dd 4d 00 c0 8f 77 f6 3c 0b 6e b2 be 4d bc 61 c0
       -2.0047524 0.030086307 -0.3484958 -3.527118
000330 69 b7 05 c0 72 c9 eb 3f 36 fa d0 be af 2e 07 bf
       -2.0893195 1.8420851 -0.40815896 -0.5280561
000340 71 cc 9e bf 44 40 57 40 e3 80 08 3d 55 0c dd 3f
       -1.240614 3.3632975 0.03332604 1.7269388
000350 59 1c c5 3f 1c 46 6e 40 60 42 03 bf 00 0e 0c 3f
       1.5399276 3.7230291 -0.51273155 0.5470886
000360 34 e6 32 40 36 0c 4d 40 55 02 42 40 87 30 98 c0
       2.7953005 3.2038703 3.0313923 -4.7559237
000370 04 b2 92 3e 9a 99 00 3f 16 4c 32 40 e6 17 d9 3f
       0.2865144 0.5023438 2.785894 1.6960418
000380 db 7b af c0 22 d7 6c 3f 8d 09 fa bf 19 50 16 bf
       -5.483869 0.92515767 -1.9534165 -0.5871597
000390 09 77 bc 3e 0a 11 06 3d a4 65 c8 bf 72 f3 c0 bf
       0.36809567 0.032731093 -1.5656018 -1.5074294
0003a0 d0 26 7b 40 16 40 1d 40 47 a0 f5 3f bd 6e 6c 3e
       3.924244 2.4570365 1.9189538 0.23089118
0003b0 d0 e8 ef 3e b0 78 d4 40 23 8a 96 3e e7 30 84 c0
       0.4685731 6.6397324 0.29402265 -4.1309695
0003c0 67 43 c4 bf a6 34 35 40 a1 c3 bb 40 b4 29 0e c0
       -1.533307 2.8313384 5.8676305 -2.2212954
0003d0 7a 40 92 c0 b2 89 1b c0 69 a3 36 3e ff 49 2f bf
       -4.5703707 -2.4302793 0.17835774 -0.68472284
0003e0 9f 4a 2e bf 0d 5b 95 bf 43 df 56 40 9d 42 16 3f
       -0.6808261 -1.1668411 3.3573768 0.58695394
0003f0 50 c6 49 c0 d6 82 c3 bf 83 dd f6 3f 43 fe 04 bf
       -3.152729 -1.5274303 1.928635 -0.5195047

layer1.0.bias f4 [16]
000000 98 df ae bd 62 4b b8 40 19 48 2c 3e 9d b8 12 c0
       -0.08538741 5.759202 0.16824378 -2.292518
000010 ae 83 26 40 11 76 42 c0 76 ec 7b be e7 60 6c 3f
       2.601787 -3.0384562 -0.24601921 0.9233536
000020 74 0a 61 3f 3d 5c 83 bf 2a bb 82 3e d5 55 e3 3c
       0.87906575 -1.0262524 0.2553342 0.027750889
000030 ea 88 79 40 87 cd 7a 3f 5c 07 2d 40 b2 da 4a 3e
       3.8989816 0.9796986 2.7035742 0.19809988

layer1.1.weight f4 [16]
000000 8d 0d 58 40 52 f2 30 40 1c 49 57 40 2c 9f 2d 40
       3.375827 2.76479 3.3638372 2.71284
000010 78 de 29 40 9c 91 60 40 99 1d 37 40 b5 1c 3e 40
       2.6542034 3.5088873 2.8611815 2.9705021
000020 03 db c4 3f 04 6f 07 40 f0 90 37 40 11 bc 3d 40
       1.5379337 2.1161509 2.8682213 2.9646037
000030 c3 02 61 40 0b 96 31 40 94 ff 0b 40 77 d6 bb 3e
       3.5157936 2.774783 2.1874743 0.3668706

layer1.1.bias f4 [16]
000000 47 1f 5e c0 97 ea 24 c0 74 47 87 c0 49 ec a4 bd
       -3.470659 -2.5768182 -4.2274723 -0.0805288
000010 aa 72 05 c0 7f c7 14 c0 73 0f 7f bf 44 68 1b c0
       -2.0851235 -2.3246763 -0.9963295 -2.4282389
000020 d3 2b 6f 3f c4 79 88 bf a2 f1 7e c0 52 90 0e c0
       0.93426245 -1.066216 -3.983498 -2.2275586
000030 bf 9a 82 c0 83 a2 e9 be ca 95 8b bf bc 32 af bf
       -4.08139 -0.456318 -1.0905087 -1.3687358

layer1.1.running_mean f4 [16]
000000 9b 61 ab bf be 0a a0 c0 93 30 fc 40 94 9b 30 c0
       -1.3389162 -5.0013113 7.8809295 -2.7594957
000010 49 57 00 c0 69 83 83 c0 d0 e5 c3 be e0 56 01 41
       -2.0053275 -4.1097913 -0.3826127 8.08371
000020 fb 6e 81 40 ca d5 41 3f c1 fe aa 3e b2 0e 10 be
       4.0447974 0.7571684 0.33397487 -0.14068106
000030 13 c6 ea c0 95 cf 92 3e 24 5a 8c 40 46 cf 6d c0
       -7.336679 0.28673998 4.3860035 -3.715776

layer1.1.running_var f4 [16]
000000 39 83 05 41 31 25 ec 41 3e b1 8c 41 1b 13 77 40
       8.344537 29.51816 17.586544 3.860541
000010 a8 31 67 41 ef 2c 6b 41 8d 67 00 40 f7 9f 7c 41
       14.449623 14.69847 2.0063202 15.789054
000020 bf 2a dd 40 8a 8a 9e 40 68 41 83 40 3a ce 4c 41
       6.911468 4.9544115 4.101734 12.800348
000030 22 08 2f 42 fd f3 06 41 e0 ad 82 40 2c 88 58 40
       43.757942 8.434567 4.083725 3.3833113

layer2.0.weight f4 [32, 16, 5, 5]
000000 70 93 59 c0 e0 f6 67 c0 68 06 32 c0 73 de be c0
       -3.3996239 -3.624443 -2.781641 -5.9646544
000010 ee 34 d3 bf 7f 1a aa c0 e4 d1 3a c0 6f 78 1a c0
       -1.6500528 -5.3157344 -2.9190607 -2.4136007
000020 0c af 90 c0 46 57 a0 3f 55 87 ec 3f 87 73 62 be
       -4.521368 1.2526634 1.84788 -0.22114383
000030 e5 82 83 c0 db a3 13 3f f1 3a 0a 40 65 f6 57 bf
       -4.1097283 0.576719 2.1598475 -0.84360343
000040 b9 eb d0 bf ef d9 a3 3e 4d f0 d7 3f b1 e2 b4 bf
       -1.6321937 0.32002208 1.6870209 -1.4131681
000050 a7 2b 10 c0 92 f4 0d c0 02 61 43 3f 24 4e a1 bf
       -2.2526643 -2.2180524 0.763199 -1.2601972
000060 ca f4 dc 3f 50 e2 87 c0 9e a9 eb bf 7e b5 51 c0
       1.7262204 -4.246376 -1.8411138 -3.2767024
000070 5d 45 22 c0 e9 b0 3a 3f 57 71 aa bf ad 85 65 3f
       -2.5354836 0.72926193 -1.3315839 0.896571
000080 2c ad 88 bf 0d af a4 3f 7d 0a ec 40 c5 74 15 3f
       -1.0677848 1.2865921 7.3762803 0.583813
000090 54 61 18 40 fe ca e5 be 41 ee a2 c0 08 4f fc 3e
       2.3809404 -0.44881433 -5.0915837 0.49279046
0000a0 3a fb 75 bf 24 e2 32 40 a3 d3 63 40 09 68 66 bf
       -0.96086466 2.7950525 3.5597923 -0.90002495
0000b0 81 6f 90 3f cb b2 08 40 e8 2a 67 3f 28 6b e6 bf
       1.1284028 2.1359127 0.90299845 -1.8001451
0000c0 06 c2 a5 c0 2b 61 9d 3f cc 8c cd bd 00 29 cb 40
       -5.1799345 1.2295278 -0.100366205 6.348755
0000d0 68 96 03 c0 6d c4 ad bf 60 06 ec bf d3 60 70 be
       -2.056055 -1.3575569 -1.8439445 -0.23474436
0000e0 f9 5b 7b be fd 43 a3 c0 80 ee 8f bf f5 25 28 3f
       -0.24546804 -5.1020494 -1.124466 0.6568292
0000f0 87 9b 6b c0 e6 3c 13 40 a0 10 50 3e b2 fe 1a 3f
       -3.6813676 2.300592 0.20318842 0.60544884
000100 3d 66 42 bf 2b 2c 2a bf ea cf 81 40 d8 92 2c 40
       -0.75937253 -0.66473645 4.05663 2.6964626
000110 c4 ad 59 40 3e 79 69 bd 21 d0 26 c0 af e4 e8 bf
       3.4012308 -0.05700039 -2.6064532 -1.8194789
000120 41 e2 44 bf 5d 39 86 c0 22 34 5a c0 32 7a cf 3f
       -0.76907736 -4.1945024 -3.409432 1.6209166
000130 89 da a2 bf e8 1b b0 bf 44 9c 46 bf a9 55 57 c0
       -1.2722942 -1.3758516 -0.7758219 -3.3646033
000140 2e 73 ef bf 3e 57 82 c0 70 41 bc c0 4e 02 11 bf
       -1.8707025 -4.0731497 -5.882988 -0.5664414
000150 09 73 68 3e 81 6d 88 40 09 72 07 40 16 f4 04 c1
       0.22700132 4.263367 2.1163352 -8.309591
000160 bf 70 c5 c0 74 c9 2c 3f b2 49 be 3e 01 b1 ad 3f
       -6.170013 0.67494893 0.371656 1.3569642
000170 07 b3 18 c0 b8 b3 a4 3f 0c a6 5d bf 52 13 58 be
       -2.385927 1.2867346 -0.8658149 -0.2110112
000180 31 fa 22 40 52 61 ff bf 1a 63 1e be d1 75 15 40
       2.5465205 -1.9951575 -0.15467492 2.335316
000190 fa 16 d4 3e 2f a1 76 40 ad dd 00 c0 e8 89 2a 3f
       0.4142378 3.8535879 -2.01353 0.6661668
0001a0 99 eb 30 bf a6 58 44 c0 6f 68 c7 c0 d8 cc 3b c0
       -0.69109493 -3.0679107 -6.2314982 -2.9343777
0001b0 9c 03 23 c0 f0 7f 00 c0 56 3e 2a c0 2b 97 b0 bf
       -2.5470953 -2.0078087 -2.6600547 -1.3796133
0001c0 03 54 41 3f f0 e6 88 3d 92 64 20 c0 53 e9 0c 3e
       0.75518817 0.06684673 -2.5061383 0.13760881
0001d0 f4 2b 9c 40 1b ea 2c bf 38 56 4c c0 24 ca 54 bf
       4.8803654 -0.67544717 -3.1927624 -0.8312094
0001e0 63 dd 6c 40 38 c5 80 be fc 37 12 c0 bc e8 00 40
       3.7010124 -0.25150466 -2.284667 2.014205
0001f0 1e 40 fc 3f 95 ea 43 3d e9 70 29 c0 ba 45 15 c0
       1.9707067 0.047831137 -2.6475165 -2.3323808
000200 97 7b 9c 3f 8f 7e d1 3f a5 b6 b4 3f 36 71 e5 3e
       1.2225217 1.6366748 1.4118239 0.44812936
000210 77 ed ca bf c2 77 d2 be 1a ce 29 3f 89 b5 17 c0
       -1.5853719 -0.41106993 0.6633011 -2.370455
000220 3f 43 66 3e 14 76 08 c0 44 70 4c bf e9 c5 e4 bf
       0.2248659 -2.132207 -0.79858804 -1.7872897
000230 29 33 67 3e 97 9c 23 40 b5 5f 9f c0 fc 20 c8 bf
       0.2257811 2.5564325 -4.980433 -1.5635066
000240 97 c1 27 40 38 f6 c5 bf c7 de a8 3f b9 f2 18 bf
       2.6211908 -1.5465765 1.3192986 -0.59745365
000250 cc f0 6b c0 df ea 64 be a6 59 50 c0 a3 b8 b7 40
       -3.686572 -0.22355221 -3.2554717 5.7412887
000260 4e 63 80 be c1 8c 44 3f 5a 18 cc 3f 36 2d 08 be
       -0.25075763 0.76777273 1.5944932 -0.13298497
000270 4c b3 1a c1 2c eb 92 bf 77 6d da 3e 9a f5 f5 c0
       -9.668774 -1.1478019 0.4266164 -7.6862307
000280 9d 0d 86 40 37 21 62 3f 61 d3 c7 bf f7 de dc c0
       4.189162 0.8833193 -1.5611383 -6.9022174
000290 54 20 d9 3f 02 a2 c1 3f 0d b1 f4 3f f7 8a ca 3d
       1.6962991 1.5127566 1.9116532 0.09889787
0002a0 f0 b0 10 40 f6 97 7d bf 0a 49 d2 3f 23 6a c1 3e
       2.2607994 -0.9906 1.642854 0.37776288
0002b0 54 40 25 c0 be 95 ce 3b 7f cb c1 bf 9a fe 58 3f
       -2.5820513 0.0063044718 -1.5140227 0.8476349
0002c0 5a cc ec bf 8a be 2b c0 e3 68 dc 3f d4 20 b4 3f
       -1.8499863 -2.6835046 1.7219509 1.4072518
0002d0 8b 2b 8a 40 5b 31 93 3f f4 ce e2 be 38 ba de bd
       4.3178153 1.1499437 -0.44298518 -0.10875362
0002e0 12 b4 fc bf f0 d5 fd c0 78 a2 6a c0 10 6d a7 bf
       -1.9742453 -7.9323654 -3.6661663 -1.3080158
0002f0 64 47 39 c0 c7 6b b9 be d2 ec 2f c0 79 2f 07 bf
       -2.8949823 -0.3621504 -2.7488294 -0.5280681
000300 31 30 52 be 67 a9 4e bf a3 36 3d 40 16 86 46 bf
       -0.20526196 -0.8072724 2.9564598 -0.7754835
000310 88 67 67 3e 71 5e 94 3f 65 fc 74 3f 16 e3 4f 40
       0.22598088 1.1591321 0.95697623 3.2482352
000320 4e 86 8f bf 65 fe 28 be 45 0a 53 bd 4b 7e 86 3f
       -1.1212862 -0.16503294 -0.051523466 1.0507292
000330 56 e4 7a bf 2d df dd bf 2d 1b 4c c0 7d 5a 1f 40
       -0.98004663 -1.7333733 -3.1891587 2.489898
000340 76 f6 70 3f a6 12 65 bf 6f 17 4b c0 98 61 51 c0
       0.9412607 -0.8948158 -3.1733053 -3.2715816
000350 41 de f1 bc e5 c9 0c 40 49 59 04 40 72 3f ab bf
       -0.029524924 2.1998227 2.0679495 -1.3378737
000360 7e 64 51 bf 07 50 0c c0 44 f6 45 c0 1e 5d cd 3f
       -0.81793964 -2.1923845 -3.0931559 1.6044042
000370 99 e8 36 c0 15 c6 94 3e 06 ba fa 3f 60 57 be 3e
       -2.8579466 0.29057375 1.958802 0.37176037
000380 a9 96 18 3f 08 7e d4 bf 76 e5 51 bf 80 f6 3f c0
       0.5960489 -1.6600962 -0.81990755 -2.9994202
000390 b8 04 5a 40 93 21 de bf 80 50 01 be dc 44 d1 c0
       3.406538 -1.7353996 -0.12628365 -6.5396557
0003a0 35 66 40 3f f7 59 e8 be 62 db c4 be f3 1f 79 bf
       0.75155956 -0.45381138 -0.38448626 -0.97314376
0003b0 e7 57 24 c0 69 0f 3c 3a 0f 50 1c 40 fd b7 95 3f
       -2.5678651 0.0007173927 2.4423864 1.1696774
0003c0 ac f9 94 c0 35 68 6f c0 9a 9d 28 c0 ea b0 24 bf
       -4.6554775 -3.7407353 -2.6346192 -0.6433245
0003d0 e3 7e c2 3f 3c 6f 45 c0 60 55 c6 3f 8b 28 f7 3f
       1.5194973 -3.0849142 1.5494804 1.9309248
0003e0 de 61 48 3f 12 a4 09 3f 8b 17 8f 40 9d 1b 8e c0
       0.78274333 0.53765976 4.471624 -4.440871
0003f0 d5 4c c4 3f 92 66 3a c0 54 af bf b9 5a 38 63 3e
       1.5335947 -2.9125104 -0.00036560989 0.22189465

layer2.0.bias f4 [32]
000000 b5 ef 25 40 21 71 88 3f 69 82 f2 3f c8 89 45 3e
       2.5927556 1.0659524 1.8946048 0.1929084
000010 69 18 e3 3e 87 5d 91 3f cf 0b 19 40 a9 44 9a 3e
       0.4435456 1.1356667 2.3913457 0.3013051
000020 13 b8 db 3f 24 a4 82 3e 21 06 90 3f 60 32 68 3d
       1.716555 0.25515854 1.125187 0.056688666
000030 a4 41 48 3e 6e 63 58 3f e0 ec 13 40 e6 75 95 3f
       0.1955629 0.8452672 2.3113327 1.1676605
000040 c7 b3 41 3e 07 ae 49 3e 40 19 96 3f 12 19 d7 3f
       0.18916236 0.19695292 1.1726456 1.6804526
000050 56 77 07 3e be ff 0c 40 b2 a6 00 40 f6 3e f2 3f
       0.13229117 2.2031093 2.0101743 1.8925464
000060 85 26 db 3f 7c ff 02 3d 84 ac 8c 3f d1 78 c4 3f
       1.712113 0.03198193 1.0990148 1.534937
000070 12 f5 2c 3e 93 a0 27 40 33 de 81 3f a3 90 30 3e
       0.16890362 2.6191757 1.0145935 0.17242675

layer2.1.weight f4 [32]
000000 27 e0 07 3f 2b 79 17 3f eb b6 23 3f ea 8b 89 3e
       0.53076404 0.5916926 0.63950986 0.26864558
000010 4c 96 65 3e a6 0d 28 3f b7 bb 2d 3f bc af 11 3e
       0.22420615 0.65645826 0.67864555 0.14227194
000020 6c 83 db 3e 8b ea 67 3e ae 26 05 3f e3 f7 88 3f
       0.42873704 0.22648065 0.52012146 1.0700649
000030 b1 9f 34 3e 4a 1d 58 3f 2f cc 46 3f 8f 1e 91 3f
       0.17639042 0.8441969 0.7765531 1.1337451
000040 91 a5 57 3e 9f c0 92 3e c0 c6 54 3f 61 e1 10 3f
       0.21059252 0.28662583 0.8311577 0.565939
000050 c6 4b 2c 3e 8a 18 4b 3f 3f 58 12 3f 8f 51 e2 3e
       0.1682578 0.7933432 0.571659 0.4420285
000060 be 0d 3b 3f e2 3e 8b 3e aa 42 42 3f ee f3 34 3f
       0.73067844 0.27196413 0.7588297 0.7068471
000070 8e bb 8a 3e 92 fb 1b 3f 15 e0 16 3f cf d3 81 3e
       0.27096218 0.6093074 0.5893567 0.2535691

layer2.1.bias f4 [32]
000000 ac a8 10 bf 2a 16 1a bf 5d 75 5a bf c2 77 3b bf
       -0.5650737 -0.6019007 -0.8533533 -0.7322961
000010 18 df 2f bf 3c 44 61 bf 3e d8 4c bf 90 0b 53 bf
       -0.6869979 -0.8799474 -0.8001746 -0.8243952
000020 36 e2 f5 be 8e ed 43 bf fa 8d 06 bf 07 d7 03 c0
       -0.48024148 -0.76534355 -0.5256039 -2.0599992
000030 0b 96 68 bf 9c 45 ae bf 07 5a 5c bf 3a 90 d9 bf
       -0.9085395 -1.3614993 -0.8607487 -1.699714
000040 94 30 44 bf b7 3a 20 bf 8e a6 8e bf 9a f8 32 bf
       -0.76636624 -0.6258959 -1.1144578 -0.69910586
000050 92 cf 12 bf bd c0 73 bf 29 b5 42 bf 13 35 f3 be
       -0.5734798 -0.9521597 -0.7605768 -0.4750143
000060 0b 41 8a bf a7 9f 26 bf f3 48 93 bf ed 1d 61 bf
       -1.08011 -0.6508736 -1.1506637 -0.8793629
000070 a4 42 30 bf 34 02 17 bf d0 8d 2b bf dc d3 52 bf
       -0.68851686 -0.58987737 -0.67013264 -0.8235452

layer2.1.running_mean f4 [32]
000000 4d f1 01 c3 e1 8b d3 c2 3d c4 c9 c2 53 c6 5b c2
       -129.94258 -105.7732 -100.88328 -54.943676
000010 b8 9b df c1 90 5b ad c2 98 50 b2 c2 f6 1d 19 c2
       -27.951035 -86.67883 -89.15741 -38.27926
000020 70 38 95 c2 73 37 19 c2 00 4c 9f c2 76 e2 91 c2
       -74.61023 -38.30415 -79.64844 -72.94231
000030 a5 d1 47 c2 9e 5b b7 c2 90 8e ee c2 25 65 c2 c2
       -49.95473 -91.67894 -119.27844 -97.19755
000040 de 7b cf c1 b4 84 a8 c1 38 2f a0 c2 49 e9 1d c3
       -25.935482 -21.064796 -80.092224 -157.91127
000050 2f 07 43 c2 51 6f d7 c2 30 4e b8 c2 74 d2 c7 c2
       -48.757015 -107.717415 -92.15271 -99.91104
000060 62 c9 84 c2 33 fe de c1 04 8f 8d c2 1f 6c cd c2
       -66.393326 -27.87412 -70.77933 -102.711174
000070 8f c6 03 c2 8b 3e eb c2 0c 01 c7 c2 e1 c9 3e c2
       -32.943905 -117.622154 -99.502045 -47.697147

layer2.1.running_var f4 [32]
000000 42 65 5c 46 7b 81 8b 46 3f 09 1f 46 58 ce 8f 44
       14105.314 17856.74 10178.312 1150.4482
000010 13 ae b5 43 18 ad 22 46 fe a0 29 46 26 31 1d 44
       363.35995 10411.273 10856.248 628.76794
000020 98 aa 00 46 9d 39 26 44 27 90 3b 46 6d 1a 62 46
       8234.648 664.9002 12004.038 14470.606
000030 51 9f a6 44 f8 bc 3b 46 b5 4b 5d 46 e9 52 3a 46
       1332.9786 12015.242 14162.927 11924.728
000040 d8 24 e3 43 6e 56 54 43 b9 c0 22 46 15 8c 6d 46
       454.28784 212.33762 10416.181 15203.0205
000050 de e8 94 44 b6 14 38 46 df 7c f7 45 cf 39 2f 46
       1191.2771 11781.178 7919.609 11214.452
000060 8c ea d3 45 60 03 9b 43 c4 69 30 46 49 82 31 46
       6781.3184 310.02637 11290.441 11360.571
000070 e9 05 d9 43 5b e8 3d 46 42 ed 4c 46 d0 3b 78 44
       434.04617 12154.089 13115.314 992.9346

fc.weight f4 [7, 4608]
000000 f2 1a 42 c0 fd 14 0a be 62 fa ac 3f a9 cc 68 bf
       -3.0328946 -0.13484569 1.3513911 -0.90937287
000010 e8 63 b2 3f 7b d3 38 c0 4e f5 25 c0 49 d0 d1 3f
       1.3936739 -2.8879077 -2.5930972 1.6391689
000020 88 a3 e5 bf 8e 2c f3 bf 22 ff f0 3e 84 78 13 c0
       -1.7940531 -1.8997972 0.4706965 -2.3042307
000030 bd 88 ab be 18 17 b5 bc 04 d0 10 c0 50 62 2a 3f
       -0.3350276 -0.022105739 -2.2626963 0.6655626
000040 c9 18 28 bd 25 19 ba bf 5c cd d1 3f 01 e8 49 bf
       -0.041039262 -1.4538924 1.6390796 -0.78869635
000050 0c 83 9f 3d fe 39 05 3f a3 db ab bf 07 d9 53 c0
       0.07788667 0.52041614 -1.3426403 -3.3101213
000060 e3 45 93 bf ae 13 b9 bc c3 6c b4 be 40 ee ce 3f
       -1.1505703 -0.022592392 -0.3523923 1.6166458
000070 bf 97 e7 bf ee f6 6f 3f a1 2b b6 bf a4 81 26 3c
       -1.8093184 0.9373616 -1.4232064 0.010162745
000080 d5 cf 7a bf 09 41 26 c0 1a cb a5 bf 62 67 f1 3e
       -0.97973377 -2.5977194 -1.2952607 0.47149187
000090 51 62 08 3e c7 e8 6b 3f 9e 55 c6 bf 22 dd 89 bf
       0.13318755 0.92152065 -1.5494878 -1.0770609
0000a0 08 64 ce 3e 3b 89 f7 bf ed 93 2c be 12 2a d0 3f
       0.40310693 -1.9338754 -0.16853304 1.6262839
0000b0 19 a4 25 bf 3e a7 a0 bf c2 ec 96 3e ba c0 2f c0
       -0.6470352 -1.2551038 0.29477507 -2.746138
0000c0 e3 7e 99 bf 1f f3 80 be 93 f8 60 bf 7f a3 bc bf
       -1.1991848 -0.25185487 -0.87879294 -1.4737395
0000d0 57 6d ed be cf 92 2e be 09 f5 d7 3e 8f 14 a4 bf
       -0.46372482 -0.1704819 0.42179134 -1.2818774
0000e0 21 b3 90 bf 6d cf ed bf 64 a2 5d 3e 52 60 23 3f
       -1.1304666 -1.8578926 0.21643978 0.6381885
0000f0 08 24 4a 40 e8 61 7c 40 6d 18 f0 3e ba 54 e5 3c
       3.1584492 3.9434757 0.46893635 0.027994502
000100 ad 1b 88 3f 87 17 68 bf b0 21 ad bb 99 76 c4 3d
       1.0633446 -0.906609 -0.005283557 0.09592933
000110 65 a9 1d bf c0 25 fa be 7a 88 c4 3f 01 53 17 c0
       -0.615866 -0.48856926 1.5354149 -2.3644412
000120 2a 45 38 c0 df c3 74 bf 16 8c 8e 3f 9b 7f 80 3f
       -2.8792214 -0.95611376 1.1136501 1.0038942
000130 48 aa ba 3d 17 20 01 40 e0 70 8d bf 45 26 99 bd
       0.0911451 2.0175836 -1.1050072 -0.074780025
000140 06 8f 57 3c 11 1e 0b 40 c2 1f 0e 3e 79 54 a5 40
       0.013156658 2.17371 0.13879302 5.1665616
000150 46 45 a2 be 6a 89 14 3f 3a e2 93 3f a2 49 49 bf
       -0.31693476 0.5802218 1.1553414 -0.7862798
000160 c2 a4 80 3f 8b 6e 84 be 3f f1 db 3e f2 33 8b be
       1.005028 -0.25865588 0.42957494 -0.2718807
000170 d5 6a 19 40 f9 e2 44 bf 6d 4b e7 3e 3d 17 e0 bf
       2.3971455 -0.7690883 0.45174733 -1.7507092
000180 63 54 76 bf 15 d7 49 bf ab f4 c1 3f a7 d2 85 bf
       -0.96222514 -0.78843814 1.5152792 -1.0454911
000190 5c b6 19 40 cf 14 42 be 8c f4 a4 bf e7 a0 e5 3e
       2.4017553 -0.1895325 -1.288713 0.4484932
0001a0 d9 fa c3 3f c1 9d 46 be e8 dd 88 3d 0c 5b d5 be
       1.5310928 -0.19396116 0.0668295 -0.41671026
0001b0 d7 35 1c 3f 3e 03 bf 3f db 8a fb bc 01 e6 9c 3e
       0.61019653 1.4922864 -0.03070586 0.3064423
0001c0 f8 0f 92 bf 6b 2f 9a 3f 88 21 24 bd c7 52 90 3f
       -1.1411123 1.2045721 -0.04007104 1.1275262
0001d0 12 99 1e 3f 5c 2f 85 3f 1e e7 c1 be f5 fa 29 3f
       0.61952317 1.0405078 -0.3787164 0.66398555
0001e0 7c 0b 0e 3f 5b b5 05 be c6 f4 c4 be 97 59 38 c0
       0.55486274 -0.13057463 -0.38467997 -2.8804681
0001f0 e4 e7 ce 3f df ca 75 c0 95 c8 0c 40 24 ad 52 3f
       1.6164517 -3.8405073 2.1997426 0.8229544
000200 1d 67 b0 3f ac 56 9d be 45 4e 68 bf 2c a4 a6 3f
       1.3781468 -0.30730188 -0.9074443 1.3018851
000210 d1 40 dc 3f 8c 43 6d 40 e8 d9 f5 bf 10 f5 e6 bd
       1.720728 3.7072477 -1.9207125 -0.11277211
000220 7c f3 0c bf 8f ae ad 3f 61 21 96 3f 83 f6 8b bf
       -0.5505903 1.3568896 1.1728936 -1.0934604
000230 2a 3f 0a 40 f3 3f 92 c0 de 5b ac 3f 33 76 b3 bf
       2.1601052 -4.5703063 1.3465536 -1.4020447
000240 a1 88 86 bf 1f 79 36 bf 12 5a 2a 3f 5e 6e 00 bf
       -1.0510446 -0.71278566 0.66543686 -0.50168407
000250 cd ef 81 40 22 21 8a c0 3a ed cd 3f 2e 0f 16 40
       4.0605226 -4.3165445 1.6088021 2.3446765
000260 79 8b 7f bd d4 04 05 3f 45 ab 50 3f 32 52 4c c0
       -0.06238887 0.5196049 0.81511337 -3.1925168
000270 85 dc 0b 40 9e bd 98 3f bd 1f 62 3f 98 7f 75 3f
       2.1853344 1.1932867 0.8832968 0.9589782
000280 35 f2 e1 3f f4 9d d5 3e 9d bc f8 3e d9 59 49 40
       1.7652041 0.4172207 0.485814 3.1461089
000290 d9 49 b0 be 51 0b b5 3f 5c 7f 1c 3f 9d b5 3c 40
       -0.3443134 1.4144078 0.61131835 2.9485848
0002a0 82 a4 b9 3e ac db 67 3e 8e 01 51 3d 95 bd d7 3f
       0.36258322 0.22642392 0.051026873 1.6854731
0002b0 69 fb 1a 3f 23 99 3e bf 0f 3b fd 3f cb bc ab 3f
       0.6053987 -0.7445242 1.9783648 1.341699
0002c0 38 1c 23 3f d2 0a a8 3f 89 5d 04 3d 37 ff be 3d
       0.63714933 1.3128302 0.032315765 0.09326022
0002d0 c6 79 3c bf 73 69 00 c0 74 5a a5 bc 18 25 24 40
       -0.7362331 -2.006436 -0.020184733 2.564764
0002e0 33 1f fa 3f 50 46 79 bf ba d8 a3 3e 46 63 d5 3f
       1.9540771 -0.97372913 0.32001287 1.6670921
0002f0 d5 ff b3 3f b1 b3 82 3f 97 08 8d 3f a5 22 8a 3d
       1.4062449 1.0211087 1.1018246 0.06744889
000300 83 16 44 3e e7 72 96 bf 05 74 0f 3f 3b 6b bd 3f
       0.19149213 -1.1753815 0.56036407 1.4798349
000310 1e 2b cb 3f d4 71 ae be 35 ff 71 3f 5e 3c 69 3f
       1.5872533 -0.3407122 0.9453004 0.9110774
000320 86 20 3c 3f 30 1b 19 40 f7 88 f3 bd a4 7d 87 3f
       0.73487127 2.3922844 -0.11891358 1.0585217
000330 df cb fd 3f 64 42 95 bf 76 88 c6 bf 2b 86 de 3e
       1.9827842 -1.1660886 -1.5510395 0.43461737
000340 6a 91 23 bf c2 57 b8 bf ec 0f f6 3e 63 6f ed 3e
       -0.6389376 -1.4401782 0.48059022 0.46374044
000350 d3 12 c6 3e 6f 30 4f bf 1a 8c 7a bf 81 2a 35 40
       0.38686237 -0.8093328 -0.9787003 2.8307192
000360 f2 1b 04 40 b4 42 8a c0 58 76 37 c0 85 93 08 3f
       2.0642056 -4.3206425 -2.8665981 0.53350097
000370 d6 9f 1b c0 e9 71 66 bf ad 1b 61 3f b0 b7 6a bf
       -2.4316306 -0.90017563 0.87932855 -0.91686535
000380 18 48 4c c0 06 fd 55 3f c7 00 b3 bf ed 08 8b c0
       -3.1919003 0.8358921 -1.3984612 -4.3448396
000390 3c 3c d2 3f ab 70 e3 3e 57 b9 96 bf 4b 92 49 c0
       1.6424632 0.44421896 -1.1775311 -3.149554
0003a0 2f 01 bf bf ca ff e5 be 85 1b f8 bf f4 4e 15 c0
       -1.4922236 -0.44921714 -1.9383398 -2.332944
0003b0 8f 1f 77 c0 fa ab 60 bf 0d 46 ff bf 7b 7f 99 3e
       -3.8613012 -0.87762415 -1.9943253 0.29980072
0003c0 44 49 cc 3f 2e c9 a2 c0 d8 fd 4f be da d6 82 bf
       1.5959859 -5.087058 -0.20311677 -1.0221817
0003d0 fd e3 0d c0 e8 a1 a6 bf 1a 8b 19 3e f5 a3 8d c0
       -2.2170403 -1.301816 0.1499447 -4.4262643
0003e0 38 94 b8 bf bb 5c 20 3f f6 07 e6 bf 4b 8a 20 bc
       -1.4420233 0.62641495 -1.797118 -0.009798597
0003f0 62 78 ae bf 7b ae f8 3e 5d d5 16 bf 26 c0 17 bf
       -1.3630488 0.48570618 -0.58919317 -0.5927757

fc.bias f4 [7]
000000 61 24 af 3e fa e8 46 c0 38 ab 6b 3d 53 45 03 3e
       0.34207442 -3.1079698 0.057536334 0.12819414
000010 69 53 8d 3e 86 a9 8e 3f 0c 71 db bf
       0.276027 1.1145484 -1.7143874
