FaceExpressions_CNN/savemodel/model_4.pth (torch_old, 185408 bytes, 14 tensors)

layer1.0.weight f4 [16, 1, 5, 5]
0.89679676 0.57114154 1.5803573 1.1731136 1.5434172 1.569583 0.049529538 0.3843906
-0.13570169 0.089013696 0.4435895 -0.85448015 -1.3809861 -2.5477462 -2.8542922 0.84487784
-0.4994221 -0.00940094 -1.0541136 -1.6119571 -0.06506947 -0.85516703 0.79776067 0.2650339
0.43351376 -0.9652281 -0.688317 -0.12312473 0.64899784 0.9715593 -0.19008477 -0.5698782
-0.22505327 0.0058876076 0.016761161 -1.4933661 -0.7717887 -0.7102226 -0.9690399 -0.90554565
-1.5382904 -1.9088774 -1.2257485 -1.7595354 -0.26192087 0.38738617 -0.23445235 0.014149135
0.0003740181 0.025556492 -0.87683624 -0.24369982 0.2591134 -0.12022389 -1.1770021 0.210914
1.4755473 1.4654818 2.0688403 0.32158297 0.27024898 1.2896239 1.0585561 2.0481358
0.3274953 -0.628187 0.43421137 0.65346086 1.5106405 0.08560305 -0.39708182 0.031948216
0.6635176 0.09489445 -1.040851 1.6551723 0.34095025 -1.0657549 -0.21861577 0.12677854
1.3326705 -2.0603337 -1.4923608 0.040988807 0.16409056 -1.4326091 -3.049448 0.21334344
-0.27513927 -1.1003325 -0.9254448 0.81387126 1.5256526 1.1396081 1.1435497 0.13961902
1.2058787 0.032644704 0.4753762 0.7759512 0.6197763 0.05202701 -0.72675025 -1.8979297
0.014116343 0.072737284 -0.3131765 -0.029413039 -1.3604189 -1.5825367 -0.44417703 -0.12956497
0.062593386 -2.15721 -1.6994061 0.9466554 0.52519053 -0.24520269 -1.4634297 -1.4866614
1.5020771 1.5541917 1.062699 0.65013015 0.9424944 -0.69363594 -2.4831483 -3.2236478
-1.7397703 -0.6569522 0.30343324 -0.5476492 -0.60063887 -0.8569456 -0.9311336 0.06102591
0.042138938 0.64937276 0.8283461 -0.39165223 0.07325704 0.70692 0.8264097 0.80949956
0.98060495 1.4136391 0.9033177 0.9422254 0.8953785 1.6631733 0.28962576 -0.7415071
-0.37091047 1.0930134 0.21325785 0.45473087 -0.47628358 -1.8808535 0.002142941 2.2584553
0.5401285 0.85962445 -2.0827692 -2.2372508 1.5291636 -0.09231585 1.3582072 0.48922548
-1.9861339 -0.74890584 -0.27208015 0.46109182 1.1709123 0.11476313 -0.22301601 -0.77015054
-0.37938237 -1.411695 -0.7363777 -1.0600446 -0.24274506 0.64484864 -0.17833653 -0.035123613
0.20475762 -0.42820084 2.882538 2.9917326 3.0392842 0.89631903 -0.6290811 1.1167815
0.9053835 1.6772807 -0.68397117 0.54809505 0.5123327 0.35559458 0.20700404 -1.2153243
-0.46672508 -0.48124155 -0.7769033 -1.1031215 -1.137019 0.5900018 0.058974564 -0.4163393
-0.052676685 0.83779275 0.70036703 1.5800668 0.9377213 1.4260197 -0.288142 0.0617539
2.2740273 1.4787608 1.2125336 -2.0929358 -0.046339307 0.9198031 1.3498482 0.72879916
-2.1810787 -0.12860662 -0.62201154 -0.17301631 -0.1297688 0.7345284 -0.5171137 -0.69577736
1.8334248 0.92461246 0.11648079 -0.19053058 0.6109433 3.297147 0.23890784 -1.4854746
-0.618443 1.2571423 2.2922745 -0.9510058 -2.330563 -1.0566591 -0.37300262 0.64136666
-0.29588103 -0.8832558 1.0537266 0.7700988 -1.1717911 -0.36665857 1.2474854 0.6058083
00000000: 7994 653f 5536 123f 2649 ca3f 9628 963f
00000010: b28e c53f 19e8 c83f 7cdf 4a3d d8ce c43e
00000020: 62f5 0abe d04c b63d 2a1e e33e 36bf 5abf
00000030: 27c4 b0bf 460e 23c0 b9ac 36c0 ea49 583f
00000040: 41b4 ffbe 6606 1abc 32ed 86bf 9c54 cebf
00000050: 2443 85bd 3aec 5abf 0b3a 4c3f 86b2 873e
00000060: 84f5 dd3e 3019 77bf 8b35 30bf d228 fcbd
00000070: b924 263f 1cb8 783f 95a5 42be 8ae3 11bf
00000080: 5d74 66be d5ec c03b b44e 893c 9f26 bfbf
00000090: f293 45bf 26d1 35bf 0013 78bf d7d1 67bf
000000a0: b3e6 c4bf 1856 f4bf 54e5 9cbf 7538 e1bf
000000b0: 7e1a 86be 7b57 c63e 4714 70be c6d1 673c
000000c0: dc17 c439 d95b d13c 5778 60bf 728c 79be
000000d0: 83aa 843e f137 f6bd 01a8 96bf d7f9 573e
000000e0: bcde bc3f e894 bb3f e167 0440 86a6 a43e
000000f0: 135e 8a3e 6512 a53f c47e 873f a814 0340
00000100: 77ad a73e ddd0 20bf f450 de3e 3649 273f
00000110: ab5c c13f a750 af3d 4f4e cbbe 22dc 023d
00000120: 4adc 293f 0558 c23d 9b3a 85bf b0dc d33f
00000130: 0891 ae3e a86a 88bf d0dc 5fbe 3cd2 013e
00000140: f294 aa3f 82dc 03c0 ae05 bfbf e1e3 273d
00000150: 5b07 283e bc5f b7bf 282a 43c0 b476 5a3e
00000160: 0edf 8cbe b2d7 8cbf f3e9 6cbf de59 503f
00000170: 9648 c33f aede 913f d65f 923f 4af8 0e3e
00000180: 3c5a 9a3f 74b6 053d 8264 f33e bda4 463f
00000190: a9a9 1e3f 461a 553d 4e0c 3abf 5cef f2bf
000001a0: 3c48 673c 49f7 943d ac58 a0be 9df3 f0bc
000001b0: 3522 aebf 9090 cabf 2c6b e3be aeac 04be
000001c0: f630 803d bb0f 0ac0 2486 d9bf 0258 723f
000001d0: e372 063f 6a16 7bbe aa51 bbbf ec4a bebf
000001e0: 1044 c03f c1ef c63f 8506 883f ee6e 263f
000001f0: 5047 713f 2092 31bf e7eb 1ec0 3f50 4ec0
00000200: cbb0 debf 052e 28bf 9a5b 9b3e bd32 0cbf
00000210: 78c3 19bf c960 5bbf c65e 6ebf 4ef6 793d
00000220: e199 2c3d 4b3d 263f 7d0e 543f a486 c8be
00000230: c907 963d b6f8 343f 968f 533f 5d3b 4f3f
00000240: ed08 7b3f 20f2 b43f d43f 673f af35 713f
00000250: 8637 653f dde2 d43f d449 943e 69d3 3dbf
00000260: fae7 bdbe dde7 8b3f 4460 5a3e 7cd2 e83e
00000270: 71db f3be cfbf f0bf 9670 0c3b 888a 1040
00000280: dd45 0a3f 5910 5c3f 174c 05c0 1e2f 0fc0
00000290: a2bb c33f 1810 bdbd bcd9 ad3f c37b fa3e
000002a0: a339 febf 4bb8 3fbf 174e 8bbe 3a14 ec3e
000002b0: 74e0 953f ef08 eb3d 4f5e 64be 9628 45bf
000002c0: 683e c2be 6cb2 b4bf 4083 3cbf 8baf 87bf
000002d0: 2992 78be cd14 253f da9d 36be c7dd 0fbd
000002e0: fbab 513e 243d dbbe 817b 3840 8c78 3f40
000002f0: a283 4240 2a75 653f 750b 21bf b2f2 8e3f
00000300: 37c7 673f 22b1 d63f bc18 2fbf f54f 0c3f
00000310: 3c28 033f 7e10 b63e def8 533e bf8f 9bbf
00000320: 97f6 eebe 4b65 f6be 22e3 46bf 1633 8dbf
00000330: d789 91bf 5c0a 173f 508f 713d 6d2a d5be
00000340: 82c3 57bd 9679 563f 414b 333f a13f ca3f
00000350: 810e 703f d087 b63f 5987 93be a8f1 7c3d
00000360: aa89 1140 0948 bd3f 4d34 9b3f a9f2 05c0
00000370: 49ce 3dbd 3778 6b3f d3c7 ac3f 9592 3a3f
00000380: cb96 0bc0 74b1 03be 263c 1fbf 302b 31be
00000390: 1de2 04be 0e0a 3c3f 9061 04bf 771e 32bf
000003a0: aaad ea3f 67b3 6c3f 7b8d ee3d 731a 43be
000003b0: c866 1c3f 7504 5340 42a4 743e 0824 bebf
000003c0: 4852 1ebf 0aea a03f a0b4 1240 1e75 73bf
000003d0: f227 15c0 9b40 87bf 33fa bebe 9b30 243f
000003e0: b87d 97be 0d1d 62bf 83e0 863f 3225 453f
000003f0: 40fd 95bf acba bbbe 9aad 9f3f 4116 1b3f

layer1.0.bias f4 [16]
-0.86603075 0.62174356 -0.020223668 -1.0556335 0.07693017 -0.22052059 -1.4312541 0.32691446
0.6716285 -0.27765563 0.5353836 -0.7507631 0.44380298 1.0131633 0.5126665 0.18954453
00000000: 31b4 5dbf 962a 1f3f 1bac a5bc 001f 87bf
00000010: 918d 9d3d 26d0 61be 5633 b7bf 5561 a73e
00000020: d8ef 2b3f e128 8ebe e60e 093f 0332 40bf
00000030: 253a e33e 56af 813f 1d3e 033f f617 423e

layer1.1.weight f4 [16]
1.6536348 1.2989964 1.154438 2.0868773 1.4205406 1.8813367 2.3131523 1.1478566
0.75810736 1.0356734 1.1162858 1.544421 1.1202149 1.8348573 1.1162206 0.4886176
00000000: 4eaa d33f 8445 a63f a0c4 933f 668f 0540
00000010: 46d4 b53f a4cf f03f b00a 1440 f7ec 923f
00000020: 5313 423f f290 843f 74e2 8e3f 96af c53f
00000030: 3463 8f3f 9bdc ea3f 51e0 8e3f 162c fa3e

layer1.1.bias f4 [16]
-1.839399 -1.2934436 -1.581545 -0.07058822 -1.2419509 -1.2240227 -0.8207999 -1.2800655
0.45269427 -0.50086516 -1.5070924 -1.2076348 -1.4569005 -0.27705014 -0.54354346 -1.2183948
00000000: 6d71 ebbf 8f8f a5bf 1170 cabf 8f90 90bd
00000010: 3ff8 9ebf c7ac 9cbf f11f 52bf 30d9 a3bf
00000020: 8bc7 e73e b338 00bf 67e8 c0bf c793 9abf
00000030: b77b babf 84d9 8dbe aa25 0bbf 5cf4 9bbf

layer1.1.running_mean f4 [16]
-1.7626747 -5.4741955 4.790659 -1.4158968 -2.9818914 -0.75909626 -1.6313533 4.35462
3.3044708 0.63706106 1.0408609 -1.3057343 -4.6948295 0.56990016 1.6237159 -2.6208992
00000000: 539f e1bf 9c2c afc0 144d 9940 1b3c b5bf
00000010: 4fd7 3ec0 2254 42bf 2fd0 d0bf 0c59 8b40
00000020: 737c 5340 6f16 233f ee3a 853f 4d22 a7bf
00000030: 0b3c 96c0 fae4 113f ecd5 cf3f d0bc 27c0

layer1.1.running_var f4 [16]
1.9935756 8.826757 5.8559813 0.89774287 4.756727 3.779271 0.46289977 4.9226217
3.1288643 1.1746321 1.0418361 2.538137 8.901763 1.8999251 1.3540251 1.8255897
00000000: 7c2d ff3f 663a 0d41 3364 bb40 7ad2 653f
00000010: 1c37 9840 93df 7140 3301 ed3e 1e86 9d40
00000020: 503f 4840 585a 963f e35a 853f d670 2240
00000030: 9f6d 0e41 bf30 f33f b250 ad3f ecac e93f

layer2.0.weight f4 [32, 16, 5, 5]
-3.0876222 -1.7711202 -1.1341321 -1.0735611 -0.5040572 -1.4635597 -1.9435935 -1.4812317
-1.5255667 -0.6198363 0.7080571 -0.76277375 -2.0411217 -1.1704264 1.0069767 1.458215
-0.3591251 -1.7583435 -0.9065816 0.69180083 -0.5394958 -1.333241 -0.6992016 0.044291846
0.77460974 -0.9960094 -1.1090145 -1.5183052 -0.61444247 0.087615594 0.5438568 -0.49145406
-1.5439657 -0.35291004 0.7902329 0.503245 0.18356219 -0.77921087 -1.2750635 -1.0308514
1.5076066 1.677703 -0.12722309 -0.38820088 -0.6692039 2.0284953 0.84526724 -0.95603406
-1.0265939 -0.12327682 -0.3385515 2.02093 -0.32147238 -0.3277923 -0.6104694 -0.8982885
0.50720423 -0.3460515 -0.38919348 -0.861173 -0.48679742 0.0638136 0.24391711 0.20684862
-0.90197897 -0.78608 1.1989795 -0.7854745 -0.3387988 -0.651514 -0.69426745 0.32098836
-0.7052178 -1.0399489 0.19811533 0.61421406 -0.22907378 -0.21634054 -0.514832 -0.975023
-1.0036986 -2.5439706 -2.6597717 -1.75179 -0.3922506 1.0221392 0.4792453 -3.5731404
-3.042058 1.0325751 0.6325595 0.7965203 -0.5745055 -0.2859209 0.85224175 -0.04169982
0.84653264 -0.5392936 -1.0005482 1.2020279 -0.8417943 0.94825554 -0.7823721 -0.9473132
-1.205355 -2.0383828 -0.095801115 -0.75202006 -1.0816711 -0.9495829 0.15556863 -0.29994598
-1.173643 -1.3876023 -1.0101634 1.3827462 0.9491497 -0.79233515 -1.0352749 0.1474699
2.050548 -0.3511153 -1.1243631 0.28987178 1.2369297 -0.05839636 -0.9638033 -0.57792133
0.7098003 0.2500347 0.28019902 0.10409794 -0.8457094 -0.7827584 -0.16479814 -1.1246963
-0.2900774 -0.71740854 -0.2633877 -0.85629684 0.66013616 1.0727007 -1.2664536 -0.5315394
0.300611 -0.4538009 0.5617493 0.17533813 -1.4553125 -0.65516543 -0.9820999 2.5354698
0.41504377 0.15788254 0.9747097 -0.45433807 -3.0473094 -0.77230644 -2.4544709 -2.2769835
1.292347 0.89440364 -0.34210023 -3.0626478 -0.5816729 0.30658397 1.0243948 -0.18165241
0.091519244 0.042910352 0.43034393 -0.10851586 -0.7098792 0.24385291 -0.27392548 0.74224985
1.2399027 -0.86211896 0.21596637 -0.025346054 -0.14104587 0.37765637 -0.25311035 -0.5878113
-0.85119694 0.060014527 0.021521188 -0.58330834 0.10313274 -0.1403899 -1.4441179 -0.008366625
-0.24190842 0.29481462 0.84340125 -0.07625598 -0.19028257 -0.35664916 0.148099 0.93309325
-0.9222211 -0.6804384 -0.8670317 -0.1027665 -0.3487381 -1.3750176 -0.90689206 0.610015
0.46699408 0.35264418 -1.1593348 -1.1297892 0.15923487 0.16035146 0.63082737 -0.44780436
-0.710327 -0.4795691 -0.5148274 0.07266134 -1.297997 -0.41426226 0.08719466 -0.13967912
-0.6493403 -1.5992758 -0.84736824 -0.56155777 1.0739032 0.32494473 -0.46563956 -2.167217
-0.8363182 0.7779047 -0.4339794 0.8019237 0.071688764 -0.21768661 0.9889311 0.32227847
-1.03207 -1.4593407 -1.2766405 0.21687551 0.3166996 -0.8362706 -0.20821695 0.85705215
0.8074406 1.1802934 0.5027503 -0.84656316 -0.17880721 -0.63737535 0.6608212 -0.7029727
00000000: 9a9b 45c0 11b4 e2bf 3e2b 91bf 736a 89bf
00000010: e509 01bf ed55 bbbf acc7 f8bf 0099 bdbf
00000020: c545 c3bf 97ad 1ebf 3b43 353f 2445 43bf
00000030: bda1 02c0 88d0 95bf 9de4 803f caa6 ba3f
00000040: 3fdf b7be 6611 e1bf bb15 68bf dc19 313f
00000050: 661c 0abf a4a7 aabf e0fe 32bf 5e6b 353d
00000060: d34c 463f 79fa 7ebf 30f4 8dbf d357 c2bf
00000070: 1a4c 1dbf ce6f b33d 333a 0b3f de9f fbbe
00000080: aba0 c5bf a0b0 b4be b44c 4a3f aad4 003f
00000090: baf7 3b3e 5d7a 47bf 4835 a3bf f0f2 83bf
000000a0: 41f9 c03f f9be d63f c546 02be 44c2 c6be
000000b0: f250 2bbf ded2 0140 6f63 583f a6be 74bf
000000c0: 6e67 83bf 8f78 fcbd 9f56 adbe eb56 0140
000000d0: 0798 a4be 64d4 a7be b947 1cbf 3cf6 65bf
000000e0: 23d8 013f aa2d b1be 5e44 c7be d575 5cbf
000000f0: 833d f9be b4b0 823d 68c5 793e 20d0 533e
00000100: 18e8 66bf 8a3c 49bf 2978 993f db14 49bf
00000110: 0977 adbe 9fc9 26bf 83bb 31bf 9658 a43e
00000120: 2789 34bf 0c1d 85bf bfde 4a3e 223d 1d3f
00000130: 5192 6abe 6088 5dbe 08cc 03bf 1b9b 79bf
00000140: 3279 80bf 6ad0 22c0 b339 2ac0 a83a e0bf
00000150: 12d5 c8be 75d5 823f a45f f53e 55ae 64c0
00000160: 14b1 42c0 6c2b 843f 6bef 213f c1e8 4b3f
00000170: cb12 13bf 3964 92be 842c 5a3f 6ecd 2abd
00000180: 5db6 583f 250f 0abf f711 80bf 0ddc 993f
00000190: d57f 57bf e0c0 723f 8a49 48bf 1e83 72bf
000001a0: 1349 9abf dd74 02c0 6033 c4bd 6384 40bf
000001b0: 3374 8abf dd17 73bf 624d 1f3e 8592 99be
000001c0: ef39 96bf f49c b1bf 094d 81bf d4fd b03f
000001d0: 7afb 723f 7ad6 4abf e383 84bf 5902 173e
000001e0: 2e3c 0340 62c5 b3be 21eb 8fbf 136a 943e
000001f0: b653 9e3f 0631 6fbd d0bb 76bf a7f2 13bf
00000200: 79b5 353f 8c04 803e 3f76 8f3e 4d31 d53d
00000210: 6980 58bf db62 48bf d8c0 28be 0cf6 8fbf
00000220: 0685 94be 16a8 37bf c1da 86be 4536 5bbf
00000230: affe 283f 424e 893f 271b a2bf f712 08bf
00000240: afe9 993e 9758 e8be cdce 0f3f d78b 333e
00000250: ae47 babf ecb8 27bf e66a 7bbf 2345 2240
00000260: 9e80 d43e f6ab 213e 9386 793f 009f e8be
00000270: 1e07 43c0 e0b5 45bf 0d16 1dc0 19ba 11c0
00000280: a06b a53f a3f7 643f c327 afbe 6c02 44c0
00000290: 84e8 14bf 93f8 9c3e 5e1f 833f 1703 3abe
000002a0: 716e bb3d c4c2 2f3d 0a56 dc3e 903d debd
000002b0: a5ba 35bf 94b4 793e f63f 8cbe 1604 3e3f
000002c0: 22b5 9e3f d4b3 5cbf 4a26 5d3e 87a2 cfbc
000002d0: 546e 10be 2d5c c13e ae97 81be cd7a 16bf
000002e0: 0be8 59bf cbd1 753d 344d b03c b253 15bf
000002f0: 4237 d33d 5fc2 0fbe dbd8 b8bf 2b14 09bc
00000300: d7b6 77be f1f1 963e 25e9 573f 182c 9cbd
00000310: 6fd9 42be b89a b6be 44a7 173e 33df 6e3f
00000320: af16 6cbf 3631 2ebf caf5 5dbf 3e77 d2bd
00000330: cd8d b2be 9400 b0bf 142a 68bf f129 1c3f
00000340: d919 ef3e c78d b43e 1565 94bf ef9c 90bf
00000350: 770e 233e 2c33 243e e77d 213f 9d46 e5be
00000360: fed7 35bf 158a f5be bacb 03bf 78cf 943d
00000370: c424 a6bf 2f1a d4be 1d93 b23d 0b08 0fbe
00000380: 2a3b 26bf 12b5 ccbf 20ed 58bf 40c2 0fbf
00000390: a975 893f 285f a63e 4f68 eebe afb3 0ac0
000003a0: f318 56bf c324 473f 8c32 debe df4a 4d3f
000003b0: 8fd1 923d 3de9 5ebe 972a 7d3f af01 a53e
000003c0: df1a 84bf adcb babf f568 a3bf 9d14 5e3e
000003d0: 7326 a23e d415 56bf d336 55be c567 5b3f
000003e0: 6db4 4e3f db13 973f 3eb4 003f 5db8 58bf
000003f0: 3d19 37be 082b 23bf 942b 293f 05f6 33bf

layer2.0.bias f4 [32]
0.70638984 0.39234245 0.60702485 0.1929084 0.4435456 0.43481195 0.8728211 0.3013051
0.40050364 0.25515854 0.6030747 -0.016682228 0.1955629 0.322021 0.9917226 0.22587638
0.18916236 0.19695292 0.33827195 0.2913576 0.13229117 0.96420336 0.91346335 0.68284357
0.6608246 0.03198193 0.5561493 0.6146374 0.16890362 0.8096111 0.41891402 0.17242675
00000000: f7d5 343f 1ce1 c83e fb65 1b3f c889 453e
00000010: 6918 e33e ac9f de3e 3471 5f3f a944 9a3e
00000020: d00e cd3e 24a4 823e 1b63 1a3f 2ba9 88bc
00000030: a441 483e f0df a43e 88e1 7d3f 234c 673e
00000040: c7b3 413e 07ae 493e fb31 ad3e d32c 953e
00000050: 5677 073e 08d6 763f bcd8 693f d6ce 2e3f
00000060: cd2b 293f 7cff 023d cd5f 0e3f e058 1d3f
00000070: 12f5 2c3e ac42 4f3f e67b d63e a390 303e

layer2.1.weight f4 [32]
0.44644228 0.3402769 0.44484097 0.26864558 0.22420615 0.40037948 0.451811 0.14227194
0.31402978 0.22648065 0.38689047 0.5476007 0.17639042 0.52259624 0.49136633 0.6136865
0.21059252 0.28662583 0.6076403 0.43593186 0.1682578 0.5208408 0.40867075 0.38116115
0.5725515 0.27196413 0.51188177 0.49807683 0.27096218 0.42859915 0.32203948 0.2535691
00000000: 1594 e43e c638 ae3e 32c2 e33e ea8b 893e
00000010: 4c96 653e 8afe cc3e c553 e73e bcaf 113e
00000020: 83c8 a03e 8bea 673e 8216 c63e 8f2f 0c3f
00000030: b19f 343e dec8 053f 5e94 fb3e 8f1a 1d3f
00000040: 91a5 573e 9fc0 923e 518e 1b3f 7632 df3e
00000050: c64b 2c3e d355 053f 4b3d d13e 8e27 c33e
00000060: bc92 123f e23e 8b3e af0a 033f ed03 ff3e
00000070: 8ebb 8a3e 5971 db3e 5ce2 a43e cfd3 813e

layer2.1.bias f4 [32]
-0.4188883 -0.3977572 -0.5888214 -0.7322961 -0.6869979 -0.6295586 -0.67228717 -0.8243952
-0.42459238 -0.76534355 -0.47349012 -1.3492298 -0.9085395 -0.906186 -0.6145428 -1.1583419
-0.76636624 -0.6258959 -0.83401096 -0.54138005 -0.5734798 -0.6950817 -0.5693768 -0.41459903
-0.83783776 -0.6508736 -0.83683664 -0.5835621 -0.68851686 -0.41329142 -0.43822524 -0.8235452
00000000: 8778 d6be d5a6 cbbe 00bd 16bf c277 3bbf
00000010: 18df 2fbf c12a 21bf 031b 2cbf 900b 53bf
00000020: 2c64 d9be 8eed 43bf 4c6d f2be 90b3 acbf
00000030: 0b96 68bf cefb 67bf ad52 1dbf 8c44 94bf
00000040: 9430 44bf b73a 20bf be81 55bf e297 0abf
00000050: 92cf 12bf e0f0 31bf aec2 11bf 5346 d4be
00000060: 897c 56bf a79f 26bf ed3a 56bf 5364 15bf
00000070: a442 30bf ef9a d3be 0f5f e0be dcd3 52bf

layer2.1.running_mean f4 [32]
-46.589046 -31.848269 -33.37328 -30.345081 -14.62499 -26.911688 -37.1002 -20.507622
-28.44506 -21.20404 -21.362743 -24.63462 -24.384697 -32.17255 -39.03714 -41.285183
-10.632249 -13.09338 -34.300888 -53.173653 -24.372366 -33.63896 -26.570654 -34.199245
-26.55381 -16.166481 -28.341204 -37.109047 -17.844816 -55.175526 -32.830032 -25.48903
00000000: 2f5b 3ac2 41c9 fec1 3d7e 05c2 bac2 f2c1
00000010: f6ff 69c1 234b d7c1 9b66 14c2 9c0f a4c1
00000020: 7c8f e3c1 e0a1 a9c1 e6e6 aac1 b413 c5c1
00000030: dc13 c3c1 b1b0 00c2 0826 1cc2 0724 25c2
00000040: b11d 2ac1 7c7e 51c1 1c34 09c2 d2b1 54c2
00000050: 9bfa c2c1 4c8e 06c2 b390 d4c1 07cc 08c2
00000060: 346e d4c1 f454 81c1 c9ba e2c1 aa6f 14c2
00000070: 2fc2 8ec1 bdb3 5cc2 f451 03c2 89e9 cbc1

layer2.1.running_var f4 [32]
1371.6544 1355.571 953.62964 343.27237 108.31414 798.36414 1146.737 182.14821
775.7923 198.72525 803.34644 1263.1864 307.86517 944.64703 1076.7714 1344.7633
100.447365 77.614 1202.1722 1598.3722 289.69852 1001.53674 809.12744 1112.9551
650.4012 102.57638 1055.9125 990.38086 117.53879 1716.9487 1220.8387 279.1597
00000000: f174 ab44 4672 a944 4c68 6e44 dda2 ab43
00000010: d7a0 d842 4e97 4744 9657 8f44 f125 3643
00000020: b5f2 4144 aab9 4643 2cd6 4844 f7e5 9d44
00000030: beee 9943 6929 6c44 af98 8644 6d18 a844
00000040: 0de5 c842 5e3a 9b42 8345 9644 e9cb c744
00000050: 69d9 9043 5a62 7a44 2848 4a44 901e 8b44
00000060: ad99 2244 1b27 cd42 33fd 8344 6098 7744
00000070: dc13 eb42 5c9e d644 d79a 9844 7194 8b43

fc.weight f4 [7, 4608]
-0.634571 0.00044300512 0.44142243 0.7610322 1.2758741 -0.6779885 -1.0199144 0.25736386
-1.066482 0.027875174 0.25816384 -0.2353697 0.74919915 -0.30727607 -0.61401635 0.031614203
-0.07279891 0.09259388 0.43787375 -0.09421485 0.4421111 0.011837372 -0.9098877 -0.22001812
0.7951983 0.34808502 0.6654089 0.11965906 -0.39545327 0.15371169 -0.38587582 -0.64710337
-0.6786028 -1.1499628 -0.25383696 0.18250419 0.056992743 0.052662324 -0.7749201 0.2986508
0.57623905 -0.8254337 -0.4736172 1.0754514 -0.67893904 -0.65827596 0.24830972 -1.2069849
-0.12321314 -0.077669084 -0.3422709 -0.557407 -0.14298801 -0.2682433 1.0061965 -0.9556692
-0.44801632 -0.57806116 0.15555762 0.06204906 -0.23776336 1.314519 0.6420458 0.20188767
0.966781 0.53402597 0.17866078 -0.3071217 0.06148531 -0.26242137 0.42615575 0.15198962
-0.54484063 0.13401724 -0.56962824 0.36020082 -0.06294601 1.2012224 -0.059913088 -0.046982214
0.5215949 0.6590899 -0.13000236 1.51552 -0.152925 0.37482253 0.6496487 -0.25743625
1.4358051 -0.985643 0.49278492 -0.010068197 1.0462438 -0.5766746 0.022333689 0.1694545
1.6138221 0.07477354 0.3364955 0.25050774 1.2934836 -0.11188567 -0.6247114 0.24267313
0.80417156 0.41794357 -0.08782181 -0.6719712 -0.01597517 1.0796623 -0.40504155 0.13706407
-0.5694254 0.10002732 -0.019123917 0.3907057 1.3937505 0.9556754 0.36749712 0.80143195
-0.9101691 -0.21059139 -0.23899059 -1.1429709 0.48416632 -1.2821357 0.50386757 0.52271944
0.41571957 -0.27421513 0.061454937 0.014549443 -0.48717934 0.4316988 -0.6701 0.051657505
-0.3617344 0.18516101 -0.57184124 -1.1848097 0.36098954 -0.7062832 -1.2588611 -0.100122355
-0.15352137 -0.04672765 0.51248646 0.35832405 1.3408456 -0.7506778 1.088117 1.3646159
0.58184946 1.327621 -0.74848384 -1.2340039 0.75673205 0.024701435 1.5717473 0.015847428
0.8730005 0.2968997 0.59061235 1.6788774 0.17057891 0.51401687 0.5203853 1.8703191
0.04774759 0.17355447 0.30263567 0.4422611 0.70832676 0.0048425905 1.0695592 0.4786825
0.521573 0.7450195 0.47581065 -0.4615203 0.28760117 -1.0256855 0.24844888 1.8004963
1.1429933 0.030707847 0.31083682 1.0892816 0.5203036 0.99811345 0.61403584 -0.7233
1.0941474 0.04258788 0.27439475 1.205473 1.0960481 -0.12881525 1.1122929 0.41552374
-0.13781878 1.8910424 -1.2116469 0.3391782 0.9578344 -0.23091204 0.032481454 0.506444
0.05526138 -0.6961212 0.26117724 -0.16241224 -0.20609692 -0.122296095 -0.993832 1.8257164
0.6499306 -2.2358325 -0.672831 -0.0587041 -0.92814 -0.6036235 0.49576503 -0.6267316
-1.1834894 0.1694391 -0.5407108 -1.241648 1.1826317 0.26738077 -0.6535611 -1.761656
-0.5777365 0.016101768 -1.1845471 -1.2903413 -1.5020956 -0.19413629 -1.3345035 1.0746704
0.665736 -1.2045785 -0.6287017 -1.0258111 -0.95547557 -1.0542828 -0.49434763 -2.3727708
-0.8241296 -0.12878159 0.021963114 0.5145221 -0.5165152 0.4832826 -0.09459053 0.3908645
00000000: 3f73 22bf 2443 e839 1f02 e23e 02d3 423f
00000010: d84f a33f a890 2dbf 8e8c 82bf 32c5 833e
00000020: 7b82 88bf 7a5a e43c 0d2e 843e c104 71be
00000030: 84cb 3f3f 4a53 9dbe 2d30 1dbf e57d 013d
00000040: 9817 95bd dca1 bd3d fd30 e03e b7f3 c0bd
00000050: 635c e23e 89f1 413c 66ee 68bf 6e4c 61be
00000060: 1e92 4b3f 3338 b23e 3d58 2a3f cf0f f53d
00000070: da78 cabe 9966 1d3e 8491 c5be 91a8 25bf
00000080: eab8 2dbf fb31 93bf ebf6 81be 61e2 3a3e
00000090: 3971 693d 73b4 573d 2a61 46bf c2e8 983e
000000a0: 6784 133f 9f4f 53bf f47d f2be 64a8 893f
000000b0: f3ce 2dbf c684 28bf e744 7e3e 7b7e 9abf
000000c0: 2c57 fcbd f810 9fbd 223e afbe 3ab2 0ebf
000000d0: 736b 12be 3057 89be 0ccb 803f bda6 74bf
000000e0: 6562 e5be d1fb 13bf 7f4a 1f3e 2827 7e3d
000000f0: 3d78 73be 2942 a83f 1d5d 243f a4bb 4e3e
00000100: f67e 773f edb5 083f daf2 363e 0e3f 9dbe
00000110: 05d8 7b3d 185c 86be 1631 da3e 2ba3 1b3e
00000120: ad7a 0bbf d13b 093e 28d3 11bf 3e6c b83e
00000130: d6e9 80bd a8c1 993f 6d67 75bd 6c70 40bd
00000140: 3e87 053f 1eba 283f 571f 05be 8ffc c13f
00000150: 5f98 1cbe bde8 bf3e 614f 263f afce 83be
00000160: 76c8 b73f 1a53 7cbf 4e4e fc3e 14f5 24bc
00000170: 51eb 853f f2a0 13bf 24f5 b63c 7b85 2d3e
00000180: b991 ce3f df22 993d 2349 ac3e 8d42 803e
00000190: df90 a53f 5024 e5bd 16ed 1fbf 4e7f 783e
000001a0: 30de 4d3f b3fc d53e ecdb b3bd 4e06 2cbf
000001b0: 5cde 82bc 6032 8a3f 9b61 cfbe 865a 0c3e
000001c0: ddc5 11bf 20db cc3d c3a9 9cbc 940a c83e
000001d0: 6b66 b23f 25a7 743f 9528 bc3e a52a 4d3f
000001e0: d800 69bf 45a5 57be f3b9 74be df4c 92bf
000001f0: a6e4 f73e 061d a4bf 77fd 003f f1d0 053f
00000200: 32d9 d43e ed65 8cbe 2cb8 7b3d c960 6e3c
00000210: 926f f9be a007 dd3e ac8b 2bbf d296 533d
00000220: 4035 b9be d99a 3d3e 3064 12bf d8a7 97bf
00000230: 9fd3 b83e face 34bf 5c22 a1bf f30c cdbd
00000240: b534 1dbe 7e65 3fbd 5032 033f 4076 b73e
00000250: d4a0 ab3f 6c2c 40bf 6b47 8b3f bcab ae3f
00000260: 16f4 143f 7cef a93f a39c 3fbf d7f3 9dbf
00000270: 31b9 413f aa5a ca3c 042f c93f 77d2 813c
00000280: f67c 5f3f 3d03 983e 5f32 173f 74e5 d63f
00000290: 3dac 2e3e 9c96 033f f937 053f 9e66 ef3f
000002a0: fa92 433d 43b8 313e 10f3 9a3e 0c70 e23e
000002b0: e754 353f 98ae 9e3b 51e7 883f df15 f53e
000002c0: cf85 053f 99b9 3e3f 749d f33e 644c ecbe
000002d0: 7640 933e aa49 83bf 6269 7e3e aa76 e63f
000002e0: 9b4d 923f 068f fb3c 0126 9f3e 946d 8b3f
000002f0: 9e32 053f 5d84 7f3f 7431 1d3f 302a 39bf
00000300: 060d 8c3f a170 2e3d 787d 8c3e f04c 9a3f
00000310: 4e4b 8c3f 25e8 03be 9d5f 8e3f 87bf d43e
00000320: 5e20 0dbe ad0d f23f 3f17 9bbf c4a8 ad3e
00000330: a334 753f 3574 6cbe 460b 053d 50a6 013f
00000340: c259 623d 0035 32bf 06b9 853e 654f 26be
00000350: 120b 53be 6076 fabd c66b 7ebf 13b1 e93f
00000360: da61 263f e117 0fc0 a73e 2cbf b673 70bd
00000370: 959a 6dbf 1287 1abf ead4 fd3e 7b71 20bf
00000380: 957c 97bf 7281 2d3e 066c 0abf 52ee 9ebf
00000390: 7a60 973f 22e6 883e c84f 27bf f27d e1bf
000003a0: 8ae6 13bf dbe7 833c 3d9f 97bf e729 a5bf
000003b0: ab44 c0bf aacb 46be 03d1 aabf cd8e 893f
000003c0: ad6d 2a3f a12f 9abf 98f2 20bf c74d 83bf
000003d0: 0c9a 74bf bdf2 86bf 221b fdbe 7adb 17c0
000003e0: 28fa 52bf 52df 03be fdeb b33c b8b7 033f
000003f0: 573a 04bf d170 f73e aeb8 c1bd 641f c83e

fc.bias f4 [7]
-0.047348615 -1.5745833 -0.05139401 0.17998675 0.29886553 0.7524495 -0.91557425
00000000: 9ff0 41bd f28b c9bf 8782 52bd 724e 383e
00000010: e704 993e 88a0 403f 1363 6abf
