FaceExpressions_CNN/savemodel/model_12.pth (torch_old, 185408 bytes, 14 tensors)

layer1.0.weight f4 [16, 1, 5, 5]
0	0x3f622cf7	0.8834986
1	0x3fa37561	1.2770196
2	0x4001ff85	2.0312207
3	0x3fcbbc94	1.5916924
4	0x3fecc182	1.8496554
5	0x3feb97b5	1.8405672
6	0x3e0a1fc7	0.13488685
7	0x3dfc93ca	0.12332876
8	0xbcad7400	-0.021173477
9	0x3d75c747	0.0600045
10	0x3f3e935d	0.7444361
11	0xbf7d57d5	-0.98962146
12	0xbfed38b7	-1.8532933
13	0xc0453b4e	-3.0817447
14	0xc06c5caa	-3.6931558
15	0x3f934fa1	1.1508676
16	0xbf0295bd	-0.5100973
17	0xbe458079	-0.1928729
18	0xbfd29db0	-1.6454372
19	0xbfdbe046	-1.7177818
20	0xbd0b6b27	-0.034037735
21	0xbfa81ff2	-1.3134749
22	0x3f812007	1.0087899
23	0x3e62336c	0.22089928
24	0x3f2f37d7	0.6844458
25	0xbf4e079e	-0.8048037
26	0xbfb2d17a	-1.3970177
27	0xbe971d81	-0.29514697
28	0x3f88821e	1.0664709
29	0x3fb84eef	1.4399089
30	0xbdd26382	-0.10272886
31	0xbf657362	-0.89629185
32	0xbe1e23e7	-0.15443383
33	0x3e95751e	0.29190916
34	0x3e7d0294	0.24708015
35	0xbfd9b38b	-1.7007917
36	0xbf56faa2	-0.83976185
37	0xbf0a341e	-0.53985775
38	0xbfc3c1f8	-1.529357
39	0xbfa56530	-1.2921505
40	0xc02af184	-2.670991
41	0xc01b3e4b	-2.425677
42	0xc005882e	-2.0864367
43	0xc02d3c9b	-2.706824
44	0xbd414ea7	-0.04719415
45	0x3f4f2472	0.80914986
46	0xbe9e7795	-0.3095061
47	0x3d019009	0.031631503
48	0x3ec3293c	0.38117397
49	0x3e98eafb	0.29866776
50	0xbfbce808	-1.475831
51	0xbf029955	-0.51015216
52	0x3f072909	0.5279699
53	0xbe45e764	-0.1932655
54	0xc001c1b5	-2.027448
55	0x3e5cd4ca	0.21565548
56	0x400422c7	2.0646226
57	0x3fab30a9	1.3374225
58	0x4036a461	2.853783
59	0x3e8bc0b9	0.27295473
60	0xbd1deffd	-0.03855895
61	0x3fc55cec	1.5418983
62	0x3f70f9f8	0.9413142
63	0x404625d7	3.0960596
64	0x3eb24d17	0.3482444
65	0xbfad9963	-1.3562435
66	0x3f1a3f3a	0.60252726
67	0x3f3608fb	0.71107453
68	0x403b4087	2.9258134
69	0x3d710849	0.058845792
70	0xbf195b2c	-0.5990474
71	0x3e24ded7	0.16100632
72	0x3f1ddbda	0.6166359
73	0x3d734fe6	0.05940237
74	0xbfc7afff	-1.5600585
75	0x40077e09	2.1170676
76	0x3f186b37	0.59538597
77	0xbfaeb097	-1.3647641
78	0xbe396ad4	-0.18107158
79	0x3d4a0ce6	0.049328707
80	0x3fd4eb55	1.6634318
81	0xc022c634	-2.5433474
82	0xbfdcf324	-1.7261701
83	0x3de5dd80	0.112238884
84	0x3e470fed	0.19439669
85	0xbfcc01da	-1.5938065
86	0xc071d4a3	-3.7786033
87	0x3e66f8d2	0.22555855
88	0xbeaa2bd8	-0.33236575
89	0xbfb9f304	-1.4527287
90	0xbf919b85	-1.1375586
91	0x3f83e3f0	1.0303936
92	0x3fe56fca	1.792474
93	0x3fbbab3c	1.4661632
94	0x3faeec1f	1.3665808
95	0x3de1a587	0.110179
96	0x3fbfe2ae	1.4991052
97	0x3e306fe5	0.17230184
98	0x3eea6791	0.4578214
99	0x3f8161ba	1.0107949
100	0x3f34000c	0.7031257
101	0xbe1e3c08	-0.15452588
102	0xbf949aa1	-1.1609689
103	0xc01cc8d5	-2.4497578
104	0x3f122164	0.570822
105	0x3ea0e541	0.31424907
106	0xbf28e817	-0.6597914
107	0x3e49e8c4	0.197177
108	0xbfc3b8f1	-1.5290815
109	0xbfc82906	-1.5637519
110	0xbf819706	-1.0124214
111	0xbe437549	-0.1908771
112	0x3e7035ae	0.23457977
113	0xc036f39c	-2.8586187
114	0xc025e1d1	-2.5919077
115	0x3f7821a2	0.9692632
116	0x3f1022ee	0.563033
117	0xbf0eb252	-0.55740845
118	0xbff44c49	-1.908578
119	0xbfe9108a	-1.8208172
120	0x4002dcb5	2.044721
121	0x4010c6e9	2.2621405
122	0x3f8cf9be	1.1013715
123	0x3f387c7e	0.7206496
124	0x3f8ad4d7	1.0846204
125	0xbf4fd409	-0.81182915
126	0xc0452483	-3.0803535
127	0xc069da64	-3.6539545
128	0xbfed16ea	-1.8522618
129	0xbf2e2ea3	-0.6803991
130	0x3f0f78be	0.5604361
131	0xbf39f265	-0.7263549
132	0xbf9359ca	-1.1511776
133	0xbf9ca7ed	-1.2238747
134	0xbfb66ae8	-1.4251375
135	0x3d0046fc	0.031317696
136	0x3e614fe8	0.22003138
137	0x3f9d9161	1.2309991
138	0x3faa8d62	1.3324397
139	0xbf1209b7	-0.57046074
140	0xbe548a7f	-0.20755957
141	0x3f230f06	0.636948
142	0x3fb6bf75	1.4277178
143	0x3f543ab7	0.8290209
144	0x3f86e2c4	1.0537953
145	0x40048fe7	2.071283
146	0x3f78bd4b	0.9716384
147	0x3fa24482	1.2677157
148	0x3f22a24a	0.63528883
149	0x40116618	2.2718563
150	0x3ec1dd40	0.37864113
151	0xbf7ec46c	-0.99518466
152	0xbeec3704	-0.46135724
153	0x3fac7cee	1.3475626
154	0x3e4b5db1	0.19859959
155	0x3f30fc22	0.69134724
156	0xbeca519f	-0.39515397
157	0xc018aa73	-2.3854034
158	0x3d48cdfc	0.049024567
159	0x402da9f9	2.7134993
160	0x3f3341f0	0.7002249
161	0x3fa929e9	1.3215915
162	0xc02d8e6e	-2.7118182
163	0xc02e5f95	-2.7245839
164	0x3fecc8a6	1.8498733
165	0xbe724a63	-0.23661189
166	0x3fefd4d0	1.873682
167	0x3f3ee212	0.74563706
168	0xc01d4fe3	-2.458001
169	0xbf5c6bf5	-0.8610223
170	0xbea7c375	-0.3276631
171	0x3ee4a7e0	0.44659328
172	0x3fb6344a	1.4234707
173	0x3e615319	0.22004355
174	0xbde13c39	-0.10997815
175	0xbe95ddf7	-0.29270908
176	0xbeabe121	-0.33570197
177	0xbfe5cba8	-1.7952776
178	0xbf51223e	-0.81692874
179	0xbf9c24d6	-1.2198741
180	0xbf21ae56	-0.6315664
181	0x3ef8fb47	0.4862921
182	0xbee98536	-0.45609444
183	0x3ee4878e	0.4463467
184	0x3eca35cf	0.39494178
185	0xbf83eae0	-1.0306053
186	0x4068408f	3.6289403
187	0x405f1863	3.4858634
188	0x407b0f4b	3.9228084
189	0x3fa3571f	1.2760962
190	0xbefae411	-0.49002126
191	0x3fd57c57	1.667857
192	0x3f224850	0.6339159
193	0x4003237d	2.049041
194	0xbf9fd649	-1.248727
195	0x3f9aef9c	1.2104373
196	0x3f53db38	0.82756376
197	0x3ec0a551	0.37626126
198	0x3f2fd450	0.6868334
199	0xbfd8d32b	-1.6939443
200	0xbf53afc8	-0.82690096
201	0xbefd738e	-0.49502224
202	0xbf302be7	-0.6881699
203	0xbfde1170	-1.7349072
204	0xbfa5ef51	-1.2963659
205	0x3f041995	0.51601535
206	0xbe55ccbc	-0.20878881
207	0xbf26f60d	-0.65219194
208	0xbe5d6758	-0.21621454
209	0x3fb94101	1.4472963
210	0x3f035746	0.51305044
211	0x3fcd9b37	1.6062993
212	0x3f8bfb14	1.0935998
213	0x3fff3f49	1.9941188
214	0xbed0f551	-0.40812162
215	0xbe232703	-0.1593285
216	0x4012eac2	2.2955785
217	0x3ff11d1c	1.8837008
218	0x3fd378f1	1.6521283
219	0xc034e8e1	-2.8267138
220	0x3e2a01c7	0.1660224
221	0x3f64a760	0.89317894
222	0x3fb47c0c	1.4100356
223	0x3f8ffe2a	1.124944
224	0xc03c1734	-2.9389162
225	0x3dd318fe	0.10307501
226	0xbf83ea16	-1.0305812
227	0xbef1e434	-0.47244418
228	0xbe8e6340	-0.27810097
229	0x3f31441e	0.69244564
230	0xbf3f7d0b	-0.74800175
231	0xbf99e2bd	-1.202232
232	0x401a9647	2.4154222
233	0x3fb54c3d	1.4163891
234	0x3e89b32c	0.2689451
235	0x3e0ecd86	0.13945588
236	0x3f168d2c	0.5880916
237	0x40814f9d	4.0409684
238	0x3eb81f10	0.359612
239	0xbff9e31a	-1.9522431
240	0xbf61c30a	-0.8818823
241	0x3fcecdbb	1.6156534
242	0x4042a8e9	3.0415595
243	0xbf995aa8	-1.1980791
244	0xc033ae0a	-2.8074975
245	0xbf974d6d	-1.1820503
246	0xbf071356	-0.5276388
247	0x3f16d1b2	0.5891372
248	0xbed0b11a	-0.40760118
249	0xbf7b909e	-0.98267543
250	0x3fccf56f	1.60124
251	0x3f472372	0.7778846
252	0xbfdb25c1	-1.7120897
253	0xbf331b49	-0.6996351
254	0x3faca7a8	1.3488665
255	0x3eb39964	0.35077965

layer1.0.bias f4 [16]
0	0xbf9eef41	-1.2416764
1	0x3f95c669	1.1701175
2	0xbd858359	-0.06519193
3	0xbf0834a6	-0.53205335
4	0x3ede6840	0.4343891
5	0xbf31b77c	-0.694206
6	0xbd926bd7	-0.07149475
7	0x3f1d5a0f	0.61465544
8	0x3e258cb7	0.1616696
9	0x3cbef5ad	0.023310507
10	0x3f1e7403	0.6189577
11	0xbf34ef5c	-0.70677733
12	0x3eed969f	0.46403977
13	0x3c5b1ee4	0.013374064
14	0x3f5908ad	0.84778863
15	0x3e4ad938	0.19809425

layer1.1.weight f4 [16]
0	0x40037c87	2.0544755
1	0x3fccb99e	1.5994146
2	0x3fc86f08	1.5658884
3	0x40045e42	2.068253
4	0x3fce8209	1.6133434
5	0x400f497b	2.23886
6	0x40170926	2.3599334
7	0x3fd89040	1.6919022
8	0x3f7cade8	0.9870286
9	0x3fabfa89	1.3435832
10	0x3fc452b5	1.533774
11	0x3ff97ee8	1.9491854
12	0x3fdb6ce8	1.714261
13	0x4004de1c	2.0760565
14	0x3fa7d183	1.3110813
15	0x3ecd90d1	0.4014955

layer1.1.bias f4 [16]
0	0xc00deb71	-2.2174952
1	0xbfba07c3	-1.4533619
2	0xc004204b	-2.064471
3	0xbd77cb6f	-0.060496744
4	0xbfa31fea	-1.2744114
5	0xbfc0ac5c	-1.50526
6	0xbf5dc1ef	-0.86624044
7	0xbfb2322b	-1.392156
8	0x3f1859c6	0.59511983
9	0xbf20df9f	-0.6284122
10	0xc008020d	-2.1251252
11	0xbfc3e178	-1.5303183
12	0xbff95ebb	-1.9482034
13	0xbe77e05d	-0.24206682
14	0xbf36ac59	-0.7135673
15	0xbfacbba4	-1.3494763

layer1.1.running_mean f4 [16]
0	0xbffcd6b6	-1.9753025
1	0xc0c845c9	-6.2585187
2	0x40a936a1	5.2879186
3	0xbf4929f7	-0.7857966
4	0xc04c01d8	-3.1876125
5	0xbf8e08c7	-1.1096429
6	0xbe8e0d71	-0.2774463
7	0x40c8c1fe	6.2736807
8	0x4020f8fc	2.5151968
9	0x3f9f74b0	1.2457485
10	0x3ea722a6	0.32643622
11	0xbf16e713	-0.5894634
12	0xc0daa874	-6.833063
13	0xbe9486f3	-0.29009208
14	0x401a20cd	2.408252
15	0xc03637a4	-2.847146

layer1.1.running_var f4 [16]
0	0x404c7137	3.19441
1	0x41553a29	13.326699
2	0x40fc1052	7.876992
3	0x3fa08070	1.2539196
4	0x40d6dbf0	6.714348
5	0x40af233c	5.473051
6	0x3f2f6c59	0.685247
7	0x410efbfd	8.936521
8	0x404ce066	3.2011962
9	0x3fe4e7a3	1.788319
10	0x3fb9b170	1.4507275
11	0x407bd405	3.9348156
12	0x41898a29	17.192461
13	0x403da667	2.9632814
14	0x3ff7c669	1.9357425
15	0x400967c8	2.1469593

layer2.0.weight f4 [32, 16, 5, 5]
0	0xc05543e2	-3.3322682
1	0xc00a3ad8	-2.1598415
2	0xbf700a4a	-0.937657
3	0xc004a1b4	-2.0723696
4	0xbf57ef25	-0.8434928
5	0xc0217651	-2.5228465
6	0xc0084f12	-2.129826
7	0xbfca5a44	-1.5808797
8	0xc028752e	-2.632152
9	0xbecfbfea	-0.40576106
10	0x3f8dbd5e	1.1073415
11	0xbf78b461	-0.97150236
12	0xc00ad17f	-2.1690366
13	0xbfaed466	-1.3658569
14	0x3fec6e11	1.847109
15	0x3f88edbc	1.0697551
16	0xbf52910f	-0.8225259
17	0xbf8f94ea	-1.121732
18	0xbf967cae	-1.1756799
19	0x3eae6938	0.3406465
20	0xbf782ae8	-0.9694047
21	0xbff9a56d	-1.9503609
22	0x3dee234a	0.116278246
23	0xbecf5c17	-0.40499946
24	0x3f880b5e	1.0628469
25	0xbf9828f6	-1.18875
26	0xbf46b6d5	-0.7762273
27	0xbfdd0def	-1.7269877
28	0xbf4a3a4f	-0.7899522
29	0x3bebb1a3	0.007192807
30	0x3ed5c05f	0.4174833
31	0xbd3de01e	-0.046356313
32	0xbfd44e9c	-1.658649
33	0x3d3349df	0.04377162
34	0x4007dc2a	2.1228127
35	0x3f199f5e	0.600088
36	0x3efad900	0.48993683
37	0xbf4b51c8	-0.79421663
38	0xbfe3eea6	-1.7807205
39	0xbf3c65f8	-0.7359309
40	0x3fbab3f5	1.4586169
41	0x401049f3	2.2545135
42	0x3ef8cbc8	0.48592973
43	0xbf298dd5	-0.66232044
44	0xbf8447d7	-1.0334424
45	0x4013d35c	2.3097754
46	0x3f33a466	0.7017273
47	0xbfc405fd	-1.5314327
48	0xbfb8cb0d	-1.4436966
49	0x3e56c7e7	0.20974694
50	0xbe3e3a51	-0.18576933
51	0x407f464b	3.9886653
52	0xbf1fe54b	-0.6245925
53	0xbe31d8a2	-0.17367795
54	0xbfb7da9e	-1.4363592
55	0xbfacaadf	-1.3489646
56	0x3f31f42a	0.6951319
57	0xbfa5250d	-1.2901932
58	0xbec9c8a8	-0.394109
59	0xbfb91d8b	-1.4462141
60	0xbf82e195	-1.0225092
61	0x3f0eedc1	0.55831534
62	0x3e4efe1a	0.2021412
63	0x3d330789	0.043708358
64	0xbf9f7312	-1.2456992
65	0xbf74a576	-0.95564973
66	0x400f9bf6	2.243894
67	0xbf767cc5	-0.96284133
68	0x3dd45f3e	0.103697285
69	0xbf4e94d9	-0.80695873
70	0xbf965ed0	-1.1747684
71	0xbd206598	-0.039159387
72	0xbf5bc911	-0.8585368
73	0xbf9ac294	-1.209063
74	0xbe9b2167	-0.3029892
75	0x3f595a5d	0.8490351
76	0xbf03502d	-0.51294214
77	0xbe4dde0e	-0.20104238
78	0xbde7c9e0	-0.113178015
79	0xbfbcd0d7	-1.4751233
80	0xbfb28458	-1.3946638
81	0xc04d9aa5	-3.2125638
82	0xc067fed9	-3.6249297
83	0xbfe96bfc	-1.8236079
84	0x3e5b0830	0.21389842
85	0x3fb8e82d	1.4445854
86	0x3f205277	0.6262583
87	0xc0946c7f	-4.638244
88	0xc05a745b	-3.4133518
89	0x3f2ce40f	0.6753549
90	0x3f3c143f	0.73468393
91	0x3f858716	1.043185
92	0xbf2c772e	-0.67369354
93	0x3c8fb497	0.017542167
94	0x3f44af48	0.7682996
95	0x3e164e18	0.14678228
96	0x3f928959	1.1448165
97	0xbeead8a8	-0.4586842
98	0xbf26d722	-0.65172017
99	0x3fad604f	1.3545016
100	0xbf00be30	-0.50290203
101	0x3f8af862	1.085705
102	0xbf9c9c29	-1.2235156
103	0xbf844081	-1.0332185
104	0xbfb53d9f	-1.415943
105	0xbfe9775d	-1.8239552
106	0xbe0e295b	-0.13882963
107	0xbfad5855	-1.3542582
108	0xbfb36152	-1.4014075
109	0xbf84bd4c	-1.0370269
110	0xbcd92750	-0.026508003
111	0xbd93fa18	-0.07225436
112	0xbfaf9fbc	-1.3720622
113	0xbfbec7be	-1.4904706
114	0xbfb4683b	-1.4094309
115	0x3fd4bdff	1.6620482
116	0x3fbbe588	1.4679422
117	0xbf691af0	-0.9105673
118	0xbf7a54cf	-0.9778566
119	0x3e5d2ebd	0.2159986
120	0x4005f38c	2.09299
121	0xbf802ff1	-1.001463
122	0xbf9c7e0d	-1.2225968
123	0x3f89dea6	1.0771072
124	0x3f704ae2	0.9386426
125	0x3ea5c4bd	0.32376662
126	0xbf8c0e7e	-1.0941923
127	0xbf4ab485	-0.791817
128	0x3f9038de	1.1267354
129	0x3f476a57	0.77896637
130	0x3f3c3097	0.7351164
131	0xbecabd7f	-0.395977
132	0xbfbb70fd	-1.4643856
133	0xbf7f4b3b	-0.9972417
134	0x3e35d86b	0.17758338
135	0xbfbf4319	-1.4942352
136	0x3ed733a2	0.4203158
137	0xbf2daf1f	-0.6784534
138	0x3d609fd2	0.054839917
139	0xbf95e8ee	-1.171171
140	0x3f570efe	0.8400725
141	0x3f8e2012	1.1103537
142	0xc0252f39	-2.5810072
143	0xbfe572ba	-1.7925637
144	0x3f57f717	0.84361404
145	0xbf54089c	-0.82825637
146	0x3ee66987	0.45002386
147	0x3eb30a3c	0.34968746
148	0xc018e831	-2.3891718
149	0xbea644b0	-0.3247428
150	0xbfabc3c5	-1.3419119
151	0x403683d3	2.851796
152	0xbc907211	-0.017632516
153	0x3f8b641b	1.0889925
154	0x3f4b0282	0.793007
155	0xbda9c03e	-0.082886204
156	0xc0814fdc	-4.0409985
157	0xbfb460a0	-1.4091988
158	0xc007454b	-2.1136043
159	0xc053bcb0	-3.3083916
160	0x3fe52484	1.7901769
161	0x3f85cecf	1.0453738
162	0xbf349b15	-0.70549136
163	0xc099fbd6	-4.8119917
164	0xbeec5ffb	-0.46166977
165	0x3f06de58	0.5268302
166	0x3fabc9d2	1.3420966
167	0xbecf6a2f	-0.405107
168	0x3f026e17	0.50949234
169	0xbee18113	-0.44043788
170	0x3f08b92e	0.5340756
171	0x3e8503e3	0.25979528
172	0xbfc86db3	-1.5658478
173	0x3ecc94ed	0.3995737
174	0xbf2d2f84	-0.6765063
175	0x3f667935	0.900287
176	0x3fc14122	1.5098002
177	0xbfb2bff8	-1.3964834
178	0x3f8b4e15	1.0883204
179	0x3eac4d47	0.33652708
180	0x3edd64d3	0.43240985
181	0x3ee4ff1c	0.44725883
182	0xbea32dc6	-0.3187086
183	0xbf69b426	-0.9129051
184	0xbffba513	-1.9659752
185	0xbfe1cbbc	-1.76403
186	0xbf60831d	-0.87700063
187	0xbfabaff6	-1.3413074
188	0xbdf67884	-0.12034705
189	0xbf842d83	-1.0326389
190	0xc00b4353	-2.1759841
191	0xbecfe45b	-0.4060391
192	0xbf535f75	-0.8256753
193	0x3f1c1b65	0.609793
194	0x3f437c03	0.763611
195	0xbe3ec9aa	-0.18631616
196	0xbe45e1f3	-0.19324474
197	0xbf0b5b13	-0.54435843
198	0x3ee6fbb4	0.4511391
199	0x3feb35cc	1.8375793
200	0xbf3ad4cd	-0.7298096
201	0xbf4a75ec	-0.79086185
202	0xbf561e6d	-0.83640176
203	0x3eee1265	0.4649841
204	0xbec90d2d	-0.39267865
205	0xbf6f6cbf	-0.9352531
206	0xbfb5be0d	-1.4198624
207	0x3f6691a5	0.90065986
208	0x3f39a28d	0.7251366
209	0x3e2d1186	0.16901216
210	0xc002b7fd	-2.0424798
211	0xbfd56e1f	-1.6674231
212	0xbdc1a7a3	-0.09455802
213	0x3ea3ee14	0.32017577
214	0x3f2b48cc	0.66907954
215	0xbf4ae617	-0.7925734
216	0xbf40a3db	-0.75250024
217	0xbf37936f	-0.7170934
218	0xbf5d2fe2	-0.8640119
219	0x3e1f40cf	0.15552066
220	0xbff4470a	-1.9084179
221	0x3d9fcd64	0.07802847
222	0x3f1d0045	0.61328536
223	0x3da7b1c9	0.08188207
224	0xbf47c2ba	-0.78031504
225	0xbfd27d76	-1.6444538
226	0xbf9647b2	-1.174063
227	0xbf415d03	-0.7553255
228	0x3feb6aa0	1.8391914
229	0x3e7d9d2b	0.24766986
230	0x3ec1bdde	0.3784017
231	0xc048c5ec	-3.1370802
232	0xbf360417	-0.7109999
233	0x3f5e1abe	0.86759555
234	0xbf1f53f7	-0.62237495
235	0x3e9f2ca1	0.31088737
236	0xbec92b57	-0.39290878
237	0xbecb5751	-0.39715055
238	0x3f7cd1b2	0.9875747
239	0xbe29b234	-0.16571885
240	0xbffa0058	-1.9531355
241	0xbfb56a56	-1.4173076
242	0xbfdb9836	-1.7155826
243	0x3e83e9ef	0.25764415
244	0x3f441d02	0.7660676
245	0xbfc61d90	-1.5477772
246	0x3f1daaad	0.61588556
247	0x3f6c925d	0.9241083
248	0x3f27e569	0.6558443
249	0x3f881f02	1.0634463
250	0x4000804f	2.0078313
251	0xc024dc02	-2.5759282
252	0x3ced62d3	0.028977787
253	0xbfaa4233	-1.3301452
254	0x3e82d326	0.25551718
255	0xbf02ab2f	-0.51042455

layer2.0.bias f4 [32]
0	0x3f8bd9f9	1.0925895
1	0x3f095a00	0.53652954
2	0x3f51f0a9	0.82007843
3	0x3e4589c8	0.1929084
4	0x3ee31869	0.4435456
5	0x3f137348	0.5759778
6	0x3f9ee19e	1.2412603
7	0x3e9a44a9	0.3013051
8	0x3f3fa181	0.7485581
9	0x3e82a424	0.25515854
10	0x3f2cfa10	0.67569065
11	0xbd2c6bf7	-0.04209515
12	0x3e4841a4	0.1955629
13	0x3efc2f3b	0.49254784
14	0x3f9332b1	1.1499845
15	0x3ea19c96	0.31564778
16	0x3e41b3c7	0.18916236
17	0x3e49ae07	0.19695292
18	0x3f0bee3a	0.5466038
19	0x3edf822f	0.4365401
20	0x3e077756	0.13229117
21	0x3fa65f51	1.2997838
22	0x3f86c495	1.0528742
23	0x3f73f60a	0.952973
24	0x3f7b3777	0.9813151
25	0x3d02ff7c	0.03198193
26	0x3f34d140	0.7063179
27	0x3f444243	0.7666361
28	0x3e2cf512	0.16890362
29	0x3f89259f	1.0714606
30	0x3f0eb70c	0.5574806
31	0x3e3090a3	0.17242675

layer2.1.weight f4 [32]
0	0x3ed0ea15	0.4080359
1	0x3ebafc90	0.36520815
2	0x3ef8d42a	0.48599368
3	0x3e898bea	0.26864558
4	0x3e65964c	0.22420615
5	0x3f013b7d	0.50481397
6	0x3f07552b	0.5286433
7	0x3e11afbc	0.14227194
8	0x3eb11ff1	0.34594682
9	0x3e67ea8b	0.22648065
10	0x3ebeb637	0.37248394
11	0x3f2e16c3	0.6800348
12	0x3e349fb1	0.17639042
13	0x3f1274f6	0.5720972
14	0x3f047ee1	0.517561
15	0x3f4f5d32	0.8100158
16	0x3e57a591	0.21059252
17	0x3e92c09f	0.28662583
18	0x3f20229c	0.6255281
19	0x3eea9cd9	0.4582279
20	0x3e2c4bc6	0.1682578
21	0x3f0d6452	0.552312
22	0x3edffc36	0.4374711
23	0x3ec96b08	0.3933947
24	0x3f1cd076	0.61255586
25	0x3e8b3ee2	0.27196413
26	0x3f1411ef	0.57839864
27	0x3f0c3383	0.547661
28	0x3e8abb8e	0.27096218
29	0x3ee4b1fa	0.44667035
30	0x3ecfae13	0.40562496
31	0x3e81d3cf	0.2535691

layer2.1.bias f4 [32]
0	0xbee60603	-0.44926462
1	0xbec6600f	-0.38745162
2	0xbf208a72	-0.6271125
3	0xbf3b77c2	-0.7322961
4	0xbf2fdf18	-0.6869979
5	0xbf2f8b7a	-0.685722
6	0xbf291f53	-0.6606342
7	0xbf530b90	-0.8243952
8	0xbede3166	-0.43397063
9	0xbf43ed8e	-0.76534355
10	0xbeeaf183	-0.45887384
11	0xbfd51772	-1.664778
12	0xbf68960b	-0.9085395
13	0xbf88a7fd	-1.0676266
14	0xbf301d12	-0.6879436
15	0xbfaf05d2	-1.3673651
16	0xbf443094	-0.76636624
17	0xbf203ab7	-0.6258959
18	0xbf62045c	-0.882879
19	0xbf08e226	-0.53470075
20	0xbf12cf92	-0.5734798
21	0xbf39493a	-0.7237736
22	0xbf168bbb	-0.5880696
23	0xbed17219	-0.40907362
24	0xbf76e004	-0.9643557
25	0xbf269fa7	-0.6508736
26	0xbf5ae14a	-0.85500014
27	0xbf3b3068	-0.7312074
28	0xbf3042a4	-0.68851686
29	0xbefcd3b9	-0.49380282
30	0xbf0c9584	-0.5491564
31	0xbf52d3dc	-0.8235452

layer2.1.running_mean f4 [32]
0	0xc27700ed	-61.750904
1	0xc22de21f	-43.47082
2	0xc234df7e	-45.218254
3	0xc210dfd9	-36.2186
4	0xc18ea583	-17.830816
5	0xc20267d9	-32.601414
6	0xc2379438	-45.894745
7	0xc1c488a2	-24.566715
8	0xc212c352	-36.690742
9	0xc1c9563e	-25.16711
10	0xc2126a84	-36.60402
11	0xc212bff6	-36.68746
12	0xc1f79b67	-30.95088
13	0xc23077a7	-44.116848
14	0xc2537fb3	-52.874706
15	0xc24e9ff1	-51.656193
16	0xc16670b3	-14.402514
17	0xc16a9498	-14.661278
18	0xc21b2352	-38.784492
19	0xc28fbbc7	-71.86675
20	0xc1f2544f	-30.291166
21	0xc2348037	-45.12521
22	0xc21feaf6	-39.979454
23	0xc23eca52	-47.69758
24	0xc200d0c9	-32.20389
25	0xc193a965	-18.457712
26	0xc21cab55	-39.167316
27	0xc2353520	-45.30188
28	0xc1a9ee31	-21.241304
29	0xc28ab4f4	-69.353424
30	0xc22e5116	-43.579185
31	0xc1f84140	-31.03186

layer2.1.running_var f4 [32]
0	0x452a9b66	2729.7124
1	0x452486e1	2632.43
2	0x44f0e431	1927.131
3	0x43f134af	482.4116
4	0x43142198	148.13123
5	0x44c793f9	1596.6241
6	0x45063393	2147.2234
7	0x4381901a	259.1258
8	0x44bdafa6	1517.489
9	0x43895e6a	274.7376
10	0x44fda61a	2029.1907
11	0x4529b80a	2715.5024
12	0x44023054	520.7551
13	0x44f19b3c	1932.8511
14	0x4506085e	2144.523
15	0x45149098	2377.037
16	0x432125e8	161.14807
17	0x42c1eed2	96.966446
18	0x450e4cc0	2276.7969
19	0x453a135f	2977.2107
20	0x43e961a1	466.76273
21	0x44f2f2b2	1943.5842
22	0x44c0a404	1541.1255
23	0x4503407e	2100.0308
24	0x44978c90	1212.3926
25	0x430329ea	131.16373
26	0x450bec74	2238.7783
27	0x44e46451	1827.1349
28	0x432b276e	171.15402
29	0x453e43f8	3044.248
30	0x450cb903	2251.5632
31	0x43cb0958	406.073

fc.weight f4 [7, 4608]
0	0xbf7ac5bd	-0.97957975
1	0xbe93385f	-0.28753945
2	0x3f092352	0.5356952
3	0x3f4dbaba	0.8036305
4	0x3fc52962	1.5403254
5	0xbfd6490b	-1.6741041
6	0xc00234f5	-2.0344822
7	0x3f9a8787	1.207261
8	0xbfbac3f3	-1.4591049
9	0xbf0b761f	-0.54477113
10	0xbe18b4c4	-0.14912707
11	0xbe837a79	-0.25679377
12	0xbeb0e9a3	-0.3455325
13	0xbf04fb8c	-0.5194633
14	0xbf6a7c7e	-0.9159621
15	0x3ebca543	0.36844835
16	0x3f0d284d	0.5513962
17	0xbf3ee340	-0.74565506
18	0x3f15e52b	0.5855281
19	0xbe38a52a	-0.18031755
20	0xbe22b53e	-0.15889451
21	0xbe8d83f3	-0.27639732
22	0xbfb8de05	-1.4442755
23	0xbf5cf63b	-0.8631322
24	0xbe25625d	-0.16150804
25	0x3ec6cdb8	0.38828826
26	0x3fd32051	1.6494237
27	0x3f14b7b5	0.58092815
28	0xbec47f07	-0.38378164
29	0x3e238614	0.15969115
30	0xbec954ae	-0.39322418
31	0xbec21345	-0.37905326
32	0xbf4b8694	-0.79502225
33	0xbff9d499	-1.9518005
34	0xbf37d9a2	-0.71816456
35	0x3c4eb39e	0.012616066
36	0xbe4212e8	-0.18952525
37	0xbef6c8ce	-0.48200077
38	0xbf6fc956	-0.9366659
39	0x3e9daebd	0.30797377
40	0x3f0dd228	0.553988
41	0xbf8efe7b	-1.1171411
42	0xbf0bff0b	-0.5468604
43	0x3fdd6a56	1.7298076
44	0xbf0b00be	-0.5429801
45	0xbf6f553f	-0.9348945
46	0x3eb72819	0.3577278
47	0xbfd576f6	-1.6676929
48	0xbe82fcb4	-0.25583422
49	0xbdee58ab	-0.11638006
50	0xbf027bf3	-0.5097038
51	0xbf3c52ea	-0.73564017
52	0xbebc7932	-0.36811215
53	0xbedf3863	-0.43597707
54	0x3f797243	0.97439975
55	0xbf699cc1	-0.9125481
56	0xbf2367a2	-0.63830006
57	0xbf76ee08	-0.96456957
58	0x3e6ac4f4	0.22926694
59	0x3ead1041	0.33801463
60	0x3e83f81b	0.25775227
61	0x3fe12230	1.7588558
62	0x3f602a2b	0.87564343
63	0x3e8d6d4f	0.27622458
64	0x3fdb308c	1.712419
65	0x3e4b2d54	0.1984151
66	0x3e92a902	0.28644568
67	0xbee5259b	-0.44755253
68	0xbe082010	-0.13293481
69	0xbf300cc9	-0.6876951
70	0x3f8780c5	1.0586172
71	0xbdb43a58	-0.08800191
72	0xbed4973c	-0.41521633
73	0xbeb63cf9	-0.35593393
74	0xbecfa05c	-0.40552032
75	0x3eb880f8	0.36035895
76	0x3e99338e	0.29922146
77	0x3fba64e3	1.4562038
78	0xbf090db9	-0.53536564
79	0xbe512fd4	-0.20428401
80	0x3f1392ea	0.5764605
81	0x3fc94671	1.5724622
82	0xbe93ec89	-0.288914
83	0x4009e64b	2.154681
84	0xbeba9d8c	-0.36448324
85	0x3ebb73a3	0.3661166
86	0x3f4ca6b2	0.79941857
87	0xbf0e6075	-0.5561593
88	0x3f8c8fbb	1.0981363
89	0xbf2ed4b8	-0.68293333
90	0x3ef7f8c9	0.48431996
91	0xbe752ab5	-0.23942073
92	0x3fb5fdaa	1.4218037
93	0xbec8b67a	-0.3920172
94	0xbe645e7b	-0.22301666
95	0xbd2032e1	-0.039111022
96	0x3f9b33cb	1.2125181
97	0xbeeeff2e	-0.46679062
98	0x3f1916ad	0.59800225
99	0x3d155a26	0.036462925
100	0x3fcaac40	1.5833817
101	0xbca33273	-0.019921517
102	0xbf169af3	-0.58830184
103	0x3e95b1c8	0.292372
104	0x3f8611ca	1.0474179
105	0x3caea777	0.021320088
106	0x3ea44b71	0.32088807
107	0xbf18ccf0	-0.5968771
108	0xbe9c7645	-0.30558982
109	0x3fac21d2	1.3447821
110	0xbe38b494	-0.18037635
111	0x3f234951	0.63783747
112	0xbf51d042	-0.819584
113	0xbd78ac83	-0.060711395
114	0x3e500732	0.20315245
115	0x3f17a0ac	0.5922954
116	0x3f986413	1.190554
117	0x3f74dedd	0.9565256
118	0x3f12e8d8	0.5738654
119	0x3f879f2f	1.0595454
120	0xbf94b9ec	-1.1619239
121	0xbe143029	-0.14471497
122	0xbe00f2b1	-0.1259258
123	0xbfc67a37	-1.5506047
124	0x3f5d25b2	0.86385643
125	0xbfb4175d	-1.406963
126	0x3fa91426	1.3209274
127	0x3f1fcb1f	0.62419313
128	0x3efbe032	0.49194485
129	0x3e9e5a1d	0.30928126
130	0xbed36a4b	-0.41292033
131	0x3e861ca4	0.26193726
132	0xbf8ad39f	-1.0845832
133	0x3fa726e4	1.3058743
134	0xbea20404	-0.3164369
135	0x3e5df876	0.21676812
136	0xbf099190	-0.53737736
137	0x3f18dd2f	0.597125
138	0x3e9bd553	0.3043619
139	0xbf936296	-1.1514461
140	0x3f4878a9	0.7830911
141	0xbf96e538	-1.1788702
142	0xbf10b41a	-0.56524813
143	0xbe93f322	-0.28896433
144	0x3e95bd4b	0.29245982
145	0xbf1a6221	-0.6030598
146	0xbd886234	-0.06659356
147	0x3d9d600e	0.076843366
148	0x3fd091ba	1.6294472
149	0xbff1b11f	-1.8882178
150	0x3fa52c51	1.2904149
151	0x3fbaa151	1.458048
152	0x3f326d1d	0.69697744
153	0x3f5b0858	0.85559607
154	0xbf78d641	-0.97201926
155	0xbfaba936	-1.3411014
156	0x3f8ddce0	1.1083031
157	0x3e4613aa	0.19343439
158	0x3fd1ac15	1.638064
159	0x3e60e1c6	0.21961126
160	0x3f9bb733	1.2165283
161	0x3f42f5d4	0.76156354
162	0x3db208bc	0.08693072
163	0x3ff7e972	1.9368117
164	0xbdaa6020	-0.08319116
165	0x3f4e7991	0.80654246
166	0x3f22d7f7	0.63610786
167	0x3ff3ed95	1.9056879
168	0xbe2f503b	-0.17120449
169	0x3e8b5d57	0.2721965
170	0x3eb6e6d7	0.35722992
171	0x3f591a60	0.8480587
172	0x3f9a8fcc	1.2075133
173	0x3d130079	0.035889123
174	0x3fbe30a1	1.485859
175	0x3f661d36	0.8988832
176	0x3f1bb370	0.60820675
177	0x3f96638b	1.1749128
178	0x3f41b51c	0.75666976
179	0xbf511ca5	-0.81684333
180	0x3dad8b41	0.08473826
181	0xbfb722b7	-1.4307469
182	0x3db83e2d	0.08996234
183	0x400207ec	2.0317335
184	0x3fbc9e4c	1.4735808
185	0xbe9c3fe4	-0.30517495
186	0x3ea6890f	0.32526442
187	0x3f986463	1.1905636
188	0x3f0ffa32	0.5624114
189	0x3f9c9500	1.2232971
190	0x3f5f78e1	0.8729382
191	0xbefc3a67	-0.49263307
192	0x3f82aa7d	1.0208279
193	0xbcd6b699	-0.026210116
194	0x3ee6ab65	0.4505264
195	0x3f926c6b	1.1439337
196	0x3f99f598	1.2028074
197	0xbeb5e6f8	-0.35527778
198	0x3f956513	1.167147
199	0x3eb440f6	0.3520581
200	0xbd9d395f	-0.07676958
201	0x4019bbf5	2.402097
202	0xbfa0c5a0	-1.256031
203	0x3f0cc19b	0.5498292
204	0x3fc12359	1.5088912
205	0xbd8ba75b	-0.0681903
206	0xbded51ef	-0.11587893
207	0x3e3e55f6	0.18587479
208	0xbe3a5d2c	-0.18199605
209	0xbf84d618	-1.0377836
210	0x3ef52db4	0.4788643
211	0xbe67619b	-0.22595827
212	0x3dedee37	0.116177015
213	0x3c9d7b53	0.019223845
214	0xbf74b426	-0.95587385
215	0x4017b14a	2.3701959
216	0x3f82a871	1.0207654
217	0xc0209014	-2.5087938
218	0xbfa3ec10	-1.2806416
219	0xbe7ba01f	-0.245728
220	0xbf88726c	-1.0659919
221	0xbf335c78	-0.7006297
222	0x3f59773f	0.8494758
223	0xbe91c122	-0.2846766
224	0xbfed82d2	-1.8555548
225	0x3d6ae511	0.05734736
226	0xbf4381ba	-0.7636982
227	0xc0033143	-2.0498817
228	0x3fc04c78	1.5023336
229	0x3f0c88f1	0.54896456
230	0xbf732fa8	-0.9499459
231	0xbff46f22	-1.9096415
232	0xbf779c02	-0.96722424
233	0x3d7a6d94	0.061139658
234	0xbf658201	-0.89651495
235	0xbfb1b955	-1.3884684
236	0xc002e92b	-2.0454814
237	0x3e141efb	0.14464943
238	0xbfba5569	-1.4557315
239	0x3f52180a	0.8206793
240	0x3f2695e1	0.6507245
241	0xc021dce0	-2.5291061
242	0xbf4d523f	-0.8020362
243	0xbfa0ecbd	-1.2572247
244	0xbf7bf1ba	-0.9841572
245	0xbf9f5e53	-1.245066
246	0xbf5f605f	-0.87256426
247	0xc038c52e	-2.887035
248	0xbf70d43d	-0.9407385
249	0x3ea5565d	0.32292452
250	0xbea18059	-0.31543234
251	0x3d873eb4	0.066037565
252	0xbf368d52	-0.7130939
253	0x3f1376dd	0.57603246
254	0x3d04cdcc	0.032422826
255	0x3ec622d0	0.38698435

fc.bias f4 [7]
0	0xbb9fc1a0	-0.004875377
1	0xbff8b27b	-1.9429468
2	0x3d36ff2a	0.044676937
3	0x3e86ab1c	0.2630242
4	0x3e8f5229	0.2799237
5	0x3f35e433	0.7105133
6	0xbf80a945	-1.0051657
