FaceExpressions_CNN/savemodel/model_50.pth (torch_old, 185408 bytes, 14 tensors)

layer1.0.weight f4 [16, 1, 5, 5]
0	0x3f3f834e	0.7480973
1	0x3ff1285c	1.8840442
2	0x4045b83a	3.0893693
3	0x403a4774	2.9106112
4	0x403ed2dc	2.9816198
5	0x4067dc7d	3.6228325
6	0x3d9e0a70	0.077168345
7	0xbf0cef20	-0.55052376
8	0xbedddef4	-0.43334162
9	0x3ccf401b	0.025299123
10	0x3f4d420c	0.80178905
11	0xbffbba32	-1.9666197
12	0xbf971469	-1.1803104
13	0xc099de48	-4.808384
14	0xc0d5cf79	-6.6815763
15	0x3fc6cf08	1.5531931
16	0xbf91b83c	-1.1384349
17	0x3e35e729	0.17763962
18	0xc0417a55	-3.0230916
19	0xc00fb4b7	-2.245405
20	0x3f8bc479	1.0919334
21	0xc0304ed9	-2.7548125
22	0x3fe932b0	1.8218594
23	0x3e29e083	0.1658955
24	0x3fc04adf	1.5022849
25	0xbeb94807	-0.36187765
26	0xc01ae3e2	-2.4201589
27	0xbf371569	-0.71517044
28	0x401b1bc7	2.4235704
29	0x4046cef1	3.1063807
30	0xbf2cc6f2	-0.67491066
31	0xbfd4c892	-1.6623709
32	0x3ed30300	0.41213226
33	0x3f9c1402	1.2193606
34	0xbf9608bb	-1.1721414
35	0xbeff4ecf	-0.49864814
36	0xbffa403a	-1.955085
37	0xbfb2ea9d	-1.3977848
38	0xc023f5cc	-2.5618773
39	0xc02642af	-2.59782
40	0xc0cdf53f	-6.4361873
41	0xc00e6f04	-2.2255259
42	0xc03c1384	-2.9386911
43	0xc0ada076	-5.4258375
44	0x3fb04070	1.3769665
45	0x3f3390b8	0.701427
46	0x3ea2f2ef	0.3182597
47	0xbf2a5def	-0.6654958
48	0x3f3628d2	0.71156037
49	0x3fe76014	1.8076196
50	0xc01db162	-2.4639516
51	0xbfc2de0b	-1.5224012
52	0x4008b27d	2.135894
53	0xbda40e89	-0.08010585
54	0xc05d6c44	-3.459733
55	0x3fb3a142	1.4033587
56	0x401a11ce	2.4073367
57	0x3fcea5b4	1.6144319
58	0x408dfbed	4.4370027
59	0x3e2ae827	0.16690122
60	0x3e90462d	0.2817854
61	0x40743b0a	3.8161035
62	0xbf858c87	-1.043351
63	0x40b04def	5.5095134
64	0x3f907d18	1.1288176
65	0xc067956d	-3.6184952
66	0x40229f95	2.54099
67	0x3d66257d	0.056188095
68	0x40a2cb11	5.0872884
69	0x3f537728	0.82603693
70	0xbfd97046	-1.6987388
71	0x3ea42001	0.32055667
72	0x3e197725	0.14986856
73	0xbef22fba	-0.47302037
74	0xc030b06b	-2.7607677
75	0x405415ea	3.3138375
76	0x3faf9456	1.3717144
77	0xc014b6c2	-2.3236547
78	0xbea841c3	-0.32862672
79	0x3e015f73	0.12634067
80	0x402cd316	2.7003837
81	0xc08fbcc2	-4.4917917
82	0xc03da539	-2.9632094
83	0x3f04138f	0.51592344
84	0xbca89b7a	-0.02058195
85	0xc019f61f	-2.405647
86	0xc0c0f352	-6.029702
87	0x3e4362d3	0.19080667
88	0xbe6a1f56	-0.22863516
89	0xc02a4ef4	-2.661069
90	0xc0011db3	-2.0174377
91	0x4011ebf1	2.2800257
92	0x4034486f	2.816921
93	0x4025965d	2.5873024
94	0x40082344	2.1271524
95	0x3f1ac83f	0.604618
96	0x3fc09692	1.504595
97	0x3ef4c164	0.47803795
98	0x3ed252a2	0.4107867
99	0x3fe47379	1.784774
100	0x400841ab	2.129008
101	0xbf988296	-1.1914852
102	0xbff75e3d	-1.9325634
103	0xc02acafd	-2.6686394
104	0x3fced3ae	1.615835
105	0x3fb0c7c9	1.381097
106	0xbfd6c0d6	-1.6777599
107	0x3f09c2d6	0.5381292
108	0xc004b6e5	-2.073663
109	0xbfffcf3d	-1.9985119
110	0xc02606c4	-2.594163
111	0xbebf8010	-0.3740239
112	0x3fc9bb4d	1.5760285
113	0xc078251f	-3.8772657
114	0xc0aa1044	-5.3144855
115	0x3f4de15e	0.8042201
116	0x3f1c923a	0.61160624
117	0xbfe3e76d	-1.7805
118	0xc02d7b07	-2.710634
119	0xc003fe08	-2.0623798
120	0x407c8789	3.9457724
121	0x408fe34d	4.4964967
122	0x3fd72ca1	1.6810495
123	0x3fd5d45b	1.6705431
124	0x3f2d59c9	0.67715126
125	0xbf836743	-1.0265888
126	0xc09cfe8f	-4.906074
127	0xc0b9b13e	-5.802886
128	0xc004c93a	-2.074782
129	0xbfa07cc9	-1.2538081
130	0x3e5b6741	0.21426107
131	0xbf44a9cd	-0.76821595
132	0xc0134bac	-2.3014936
133	0xbfe10a17	-1.7581204
134	0xc014dc88	-2.3259602
135	0x3f433028	0.76245356
136	0x3ef36f13	0.4754568
137	0x3fdc9bb8	1.7235022
138	0x4048dc93	3.1384628
139	0xbf598dfe	-0.8498229
140	0xbf57ebf5	-0.84344417
141	0x3f0dbb97	0.55364364
142	0x401e63aa	2.474833
143	0x3f9f73a3	1.2457165
144	0x3fb4f43a	1.4137032
145	0x40813c12	4.038583
146	0x3fd71454	1.6803079
147	0x3fd87bbf	1.6912764
148	0x3e76f76d	0.24117823
149	0x408143a0	4.039505
150	0x3f053af9	0.5204311
151	0xbfd1712a	-1.636266
152	0xbf4b79e2	-0.79482853
153	0x4010b84c	2.2612486
154	0x3e4db319	0.20087852
155	0x3f95edaa	1.1713154
156	0xbf227124	-0.6345389
157	0xc07e1938	-3.9702892
158	0x3e908220	0.28224277
159	0x40850434	4.156763
160	0x3f8098ef	1.0046672
161	0x400923a5	2.1428006
162	0xc0954c85	-4.665591
163	0xc091babe	-4.5540457
164	0x40472046	3.1113448
165	0xbe7f4126	-0.24927196
166	0x402b6f82	2.678681
167	0x3fd6e825	1.6789595
168	0xc07acd80	-3.9187927
169	0xbfab2fcd	-1.3373963
170	0xbee54727	-0.44780847
171	0x3ed715e0	0.42008877
172	0x4011dc16	2.279058
173	0x3e1357af	0.14388917
174	0xbe16b5fb	-0.14717858
175	0xbcafcb89	-0.021459358
176	0x3d58ef90	0.05296284
177	0xc039aec4	-2.9012918
178	0xc01e16de	-2.4701457
179	0xbf90d29b	-1.1314272
180	0xbff3b6bc	-1.9040141
181	0x3ef31c31	0.47482446
182	0xbf98767b	-1.1911157
183	0x3f0dc256	0.5537466
184	0x3f242d8a	0.6413199
185	0xc001579f	-2.020973
186	0x40c76a7b	6.231748
187	0x40bb4669	5.852345
188	0x40a5b676	5.178523
189	0x402b421c	2.67591
190	0xbed30899	-0.41217497
191	0x401eef76	2.4833655
192	0xbf314147	-0.6924023
193	0x404bfd50	3.187336
194	0xc03eb7ae	-2.979961
195	0x400efd40	2.2342072
196	0x3f5de7d2	0.86681855
197	0xbea6ced0	-0.3257966
198	0x3fd0d615	1.6315333
199	0xc0628897	-3.5395868
200	0xbff7d17e	-1.9360807
201	0xbdd57e2e	-0.104244575
202	0xbf055048	-0.52075624
203	0xc049907a	-3.1494431
204	0xbfe58eef	-1.7934245
205	0x3fe7c471	1.8106824
206	0xbed8fc63	-0.42380056
207	0xbf414845	-0.755009
208	0xbf6ea0c4	-0.9321406
209	0x4046f522	3.1087117
210	0x3eb8df51	0.36107877
211	0x3fe98687	1.824418
212	0x3faec42c	1.3653617
213	0x406d02a2	3.7032857
214	0xbf074f95	-0.5285581
215	0x3f001e38	0.5004611
216	0x403633e9	2.8469183
217	0x403ef1d9	2.9835112
218	0x403b4b47	2.9264696
219	0xc09186db	-4.547712
220	0x3e93bceb	0.2885507
221	0x3f0ffcb5	0.56244975
222	0x40212a73	2.518216
223	0x3fd5b8e8	1.6697054
224	0xc09dcf28	-4.9315376
225	0x3f4c68a1	0.7984715
226	0xbff09ca3	-1.8797802
227	0xbf06cb37	-0.5265383
228	0x3da7e72a	0.08198388
229	0x3dbfec88	0.09371287
230	0xbfdb0a68	-1.7112551
231	0xbfc6dbbc	-1.5535808
232	0x40790b55	3.8913167
233	0x401667c1	2.3500826
234	0x3fc81341	1.5630876
235	0xbbe44208	-0.0069658794
236	0x3f13b3c7	0.57696193
237	0x40c9179b	6.2841315
238	0x3e02f087	0.12787066
239	0xc06b0cf0	-3.6726646
240	0xbfc87efd	-1.5663754
241	0x40240c89	2.563265
242	0x40ab0303	5.3441176
243	0xc00f5431	-2.2395136
244	0xc0888647	-4.2663913
245	0xc01fb78a	-2.4955773
246	0x3bba18b9	0.0056792167
247	0xbefd9956	-0.4953105
248	0xbf3369e4	-0.7008345
249	0xbf9c1b88	-1.2195902
250	0x403a90fc	2.9150991
251	0x3f551da7	0.8324837
252	0xc0349ced	-2.822078
253	0xbfb45854	-1.4089456
254	0x3ff7d2bc	1.9361186
255	0xbeeb00a9	-0.4589894

layer1.0.bias f4 [16]
0	0xbeff1bf4	-0.49826014
1	0x40a171d8	5.045147
2	0x3f069c8b	0.52582616
3	0xc00f9a61	-2.2437975
4	0x3ff2cd92	1.8968985
5	0xc034ab22	-2.822945
6	0x3e20791c	0.156712
7	0x3f919787	1.1374367
8	0x3f9fd082	1.2485507
9	0xbe90b27c	-0.28261173
10	0x3ed53fa9	0.4165013
11	0xbede42f5	-0.4341046
12	0x404f056f	3.2347066
13	0x3e8e1b99	0.2775543
14	0x401245e2	2.2855153
15	0x3e4adab2	0.19809988

layer1.1.weight f4 [16]
0	0x40451f4f	3.080036
1	0x4029dddc	2.6541662
2	0x404d66fa	3.2094102
3	0x402aef2f	2.6708486
4	0x4023cc36	2.559339
5	0x404cbb19	3.1989195
6	0x4037138a	2.8605676
7	0x40372228	2.8614597
8	0x3fb180ca	1.3867428
9	0x3ffbb4b2	1.9664519
10	0x402dfaca	2.718432
11	0x40349745	2.8217328
12	0x40501d08	3.251772
13	0x402bb7c6	2.6830916
14	0x4000b1af	2.010845
15	0x3ebbd677	0.3668706

layer1.1.bias f4 [16]
0	0xc054fc39	-3.3278944
1	0xc0177089	-2.3662436
2	0xc0815e68	-4.042774
3	0xbe0af601	-0.13570406
4	0xbff81591	-1.9381582
5	0xc00bdaf8	-2.1852398
6	0xbf823027	-1.0170945
7	0xc00c5ac0	-2.193039
8	0x3f5b498e	0.8565911
9	0xbf858e93	-1.0434135
10	0xc0744e6f	-3.8172872
11	0xc001a797	-2.0258539
12	0xc0731c03	-3.7985847
13	0xbebbb543	-0.3666173
14	0xbf83f405	-1.0308844
15	0xbfaf32bc	-1.3687358

layer1.1.running_mean f4 [16]
0	0xbfef5b2d	-1.86997
1	0xc0ae35a1	-5.4440465
2	0x40fa79ad	7.827353
3	0xc034ec30	-2.8269157
4	0xc026d7bd	-2.6069176
5	0xc045f5a7	-3.0931184
6	0xbcfcd12a	-0.030861456
7	0x40eaa300	7.3323975
8	0x40982ff3	4.755853
9	0x3f4f950c	0.810868
10	0x3e9592df	0.29213616
11	0xbf303d45	-0.6884349
12	0xc0df1af7	-6.9720416
13	0xbeb4c97e	-0.35309976
14	0x405aa728	3.4164524
15	0xc067b987	-3.6206987

layer1.1.running_var f4 [16]
0	0x40f25d73	7.5739074
1	0x41e8c715	29.097208
2	0x41827d43	16.311163
3	0x4055564c	3.3333921
4	0x414f97a5	12.974523
5	0x414d5710	12.8337555
6	0x3fdb4ce4	1.713284
7	0x414eb2f1	12.918687
8	0x40de5bc3	6.9487014
9	0x408084b7	4.0162005
10	0x405d60f4	3.4590425
11	0x412a16f3	10.630603
12	0x421a19f5	38.52535
13	0x40e7bb8d	7.2416444
14	0x4056b973	3.355069
15	0x4058b039	3.3857558

layer2.0.weight f4 [32, 16, 5, 5]
0	0xc051bef7	-3.2772806
1	0xc071ddba	-3.779158
2	0xc0251e5d	-2.5799782
3	0xc0a610df	-5.1895595
4	0xbff0e567	-1.8820008
5	0xc0ac51f4	-5.385004
6	0xc02d6dac	-2.7098188
7	0xc0134bc7	-2.3015
8	0xc08e47f9	-4.4462857
9	0x3f9763fe	1.182739
10	0x4003952e	2.0559802
11	0x3e00915f	0.12555455
12	0xc06ac749	-3.6684134
13	0x3e6bc6b9	0.23025025
14	0x4004bca4	2.0740137
15	0xbf37d7be	-0.7181357
16	0xbfa93cfc	-1.3221736
17	0xbe019716	-0.12655291
18	0x3f9cd858	1.2253523
19	0xbf8a3714	-1.0798059
20	0xc01a7f3a	-2.4140153
21	0xc0015f90	-2.0214577
22	0x3f2a51c1	0.66530997
23	0xbfa2a382	-1.2706149
24	0x3fca316d	1.5796334
25	0xc081aac4	-4.0520954
26	0xbfc36e0a	-1.5267956
27	0xc040ee5c	-3.0145483
28	0xc024d290	-2.5753517
29	0x3ee1c73d	0.4409732
30	0xbf6e7b08	-0.9315648
31	0x3f906577	1.1280965
32	0xbf30ba60	-0.69034386
33	0x3fad17ef	1.3522929
34	0x40e00bb1	7.001427
35	0x3f102051	0.5629931
36	0x400f35db	2.237662
37	0xbeabd530	-0.33561087
38	0xc09c00ce	-4.875098
39	0x3e81d354	0.25356543
40	0xbf08a5fe	-0.53378284
41	0x4038b901	2.8862917
42	0x405c852a	3.4456277
43	0xbf821254	-1.0161843
44	0x3f73a02e	0.9516629
45	0x400df1f8	2.2178936
46	0x3f674716	0.90342844
47	0xbfc7dcd0	-1.5614262
48	0xc0908310	-4.515999
49	0x3fce5c7c	1.6121974
50	0xbdd0c50d	-0.101938345
51	0x40c164f4	6.0435734
52	0xbff59417	-1.9185818
53	0xbf3322cc	-0.6997497
54	0xbfaef7c8	-1.3669367
55	0x3dfc6eb3	0.12325802
56	0xbdfed530	-0.12443006
57	0xc0a06b42	-5.013093
58	0xbf09bc5b	-0.5380303
59	0x3f0f878e	0.56066215
60	0xc06b47c9	-3.6762564
61	0x4009e778	2.1547527
62	0xbdc80343	-0.09766247
63	0x3ed7e604	0.42167675
64	0xbf8181b0	-1.0117702
65	0xbfc14c9e	-1.5101507
66	0x407a2303	3.908387
67	0x4000e40d	2.013919
68	0x4033e319	2.810736
69	0x3e2cdb6f	0.16880582
70	0xc01cce7c	-2.4501028
71	0xbfd73684	-1.6813512
72	0xbf5461e5	-0.82961875
73	0xc06bc089	-3.6836264
74	0xc04c5010	-3.1923866
75	0x3fad5be6	1.354367
76	0xbfbc7d1a	-1.4725678
77	0xbfb853b5	-1.4400545
78	0xbf5a768c	-0.8533714
79	0xc059ad53	-3.4012039
80	0xc001ef89	-2.030245
81	0xc082c48e	-4.0864935
82	0xc0b2868e	-5.578925
83	0xbf77261e	-0.9654254
84	0x3e79e4e7	0.24403726
85	0x407369b3	3.8033264
86	0x3fe15402	1.7603762
87	0xc0f0b586	-7.5221586
88	0xc0b7b3df	-5.740707
89	0x3f2cd0c7	0.6750607
90	0x3e48264c	0.19545859
91	0x3fbf6af4	1.4954515
92	0xc0108388	-2.258028
93	0x3f8585a5	1.043141
94	0xbf1a840b	-0.6035773
95	0x39919fa9	0.0002777551
96	0x40026bd1	2.0378306
97	0xbfd54e00	-1.6664429
98	0x3e37e2cd	0.17957611
99	0x4012be72	2.2928739
100	0xbea3b5c7	-0.31974623
101	0x403d51ae	2.9581103
102	0xc011fc94	-2.2810411
103	0x3dfbc1df	0.12292837
104	0xbf57552d	-0.8411434
105	0xc0554f3a	-3.3329606
106	0xc093bb9c	-4.6166515
107	0xc03e75d0	-2.9759407
108	0xc01fe717	-2.4984796
109	0xbfe8aed0	-1.8178349
110	0xc028117c	-2.6260672
111	0xbfc50d17	-1.539462
112	0x3d0e4f8b	0.034743827
113	0xbec0b98c	-0.3764156
114	0xc01dd941	-2.4663851
115	0x3ea07d7c	0.31345737
116	0x40923397	4.5687976
117	0xbf401726	-0.7503532
118	0xc01d56a6	-2.4584136
119	0xbf061e77	-0.52390236
120	0x4062b227	3.5421236
121	0xbee00a0c	-0.43757665
122	0xbfe20cb0	-1.7660122
123	0x4002abcd	2.041736
124	0x3fdfa8a2	1.7473338
125	0xbe7870eb	-0.24261825
126	0xc0143a57	-2.3160608
127	0xc00bee22	-2.1864095
128	0x3f82dad6	1.0223033
129	0x3fd44772	1.6584303
130	0x3f9e9730	1.2389889
131	0x3eaadc15	0.33371034
132	0xbfc29e20	-1.5204506
133	0xbf24842d	-0.64264184
134	0x3eef1439	0.46695116
135	0xc02e5a5c	-2.724265
136	0x3f80a623	1.0050701
137	0xbfa3d1ef	-1.2798442
138	0xbe90c064	-0.28271782
139	0xbfbc1bca	-1.469598
140	0x3eaf4ade	0.34236807
141	0x400b1b0b	2.1735256
142	0xc089de76	-4.308406
143	0xbfd3f649	-1.6559535
144	0x400a5e8b	2.1620204
145	0xbfb18e5b	-1.3871568
146	0x3f906da4	1.128346
147	0xbe9b0f94	-0.30285323
148	0xc0480a3a	-3.1256242
149	0x3de77dca	0.11303289
150	0xc04bcf97	-3.1845453
151	0x40a63f62	5.195237
152	0x3df4cddc	0.11953327
153	0x3f8826fb	1.0636896
154	0x3fc93dfa	1.5722039
155	0xbe8a596e	-0.27021354
156	0xc10cf605	-8.810063
157	0xbfa07f16	-1.2538784
158	0x3e783355	0.24238332
159	0xc0d69260	-6.705368
160	0x4067ceaf	3.62199
161	0x3f708a9f	0.9396152
162	0xbfbe7d16	-1.4881923
163	0xc0ca5b9a	-6.323682
164	0x3fc21efa	1.5165703
165	0x3faae4b4	1.3351045
166	0x4003d972	2.0601468
167	0x3c84100d	0.016120935
168	0x3fe31853	1.7741798
169	0xbf578ea7	-0.84202045
170	0x3fc9b6e6	1.5758941
171	0x3eb9b7da	0.3627308
172	0xc01c80a7	-2.4453523
173	0x3d8bf276	0.06833355
174	0xbfbc3797	-1.4704465
175	0x3f9951db	1.1978105
176	0xbf822468	-1.016736
177	0xc0271684	-2.6107492
178	0x3fca24ac	1.5792441
179	0x3fa72744	1.3058858
180	0x4082eb37	4.0912127
181	0x3f8b3787	1.0876321
182	0xbed349f8	-0.4126737
183	0xbe93b0ff	-0.28845975
184	0xc00c93e7	-2.1965272
185	0xc0e99c83	-7.3003554
186	0xc05e245c	-3.4709692
187	0xbfb2ded6	-1.3974254
188	0xc00eeb1f	-2.2331007
189	0xbf09fc3e	-0.53900516
190	0xc04b95b0	-3.1810112
191	0xbf38bcb0	-0.72162914
192	0xbf0531a2	-0.5202886
193	0xbf60eb0b	-0.8785865
194	0x40286b05	2.631532
195	0xbf3af29d	-0.7302645
196	0x3e75671a	0.23965111
197	0x3f47888a	0.7794272
198	0x3f544c2f	0.82928747
199	0x4052aef2	3.2919278
200	0xbf53f6da	-0.8279854
201	0xbd44f15d	-0.048081744
202	0xbd4182bd	-0.047243822
203	0x3f7cc42e	0.98736846
204	0xbf655960	-0.895895
205	0xbfaef73c	-1.36692
206	0xc02a2a9d	-2.658851
207	0x400d8921	2.2114947
208	0x3f7dfbd0	0.9921236
209	0xbf2ee0f0	-0.6831198
210	0xc0547af1	-3.3200037
211	0xc03c3812	-2.9409223
212	0xbdadb58f	-0.08481895
213	0x3fe719e7	1.805478
214	0x3fe20d6a	1.7660344
215	0xbfd39f01	-1.6532899
216	0xbf634974	-0.88783956
217	0xbff6b3a9	-1.9273578
218	0xc023d935	-2.5601323
219	0x3f9da037	1.2314519
220	0xc02a1225	-2.6573575
221	0x3ead041e	0.33792204
222	0x3ff02843	1.8762287
223	0x3f1858ea	0.5951067
224	0x3f15af06	0.5847019
225	0xbf9e44c5	-1.2364737
226	0xbfa4e400	-1.288208
227	0xc02a9184	-2.6651316
228	0x4059b745	3.401811
229	0xbfc9a9d9	-1.5754958
230	0x3f0c2683	0.54746264
231	0xc0bb454a	-5.852208
232	0x3efaecdc	0.49008834
233	0xbe4c8d56	-0.1997579
234	0xbea0a885	-0.3137857
235	0xbf14a918	-0.58070517
236	0xbfe27c2f	-1.7694148
237	0xbe9704bb	-0.29495797
238	0x40142055	2.3144734
239	0x3f852e92	1.0404837
240	0xc0994af9	-4.790402
241	0xc075c844	-3.8403482
242	0xc026053a	-2.594069
243	0xbe4c13ce	-0.1992943
244	0x3fae214a	1.3603909
245	0xc021c169	-2.5274298
246	0x3fcc14fc	1.5943904
247	0x400a3909	2.1597311
248	0x3f16d3bc	0.5891683
249	0x3f36afc6	0.7136196
250	0x408a8b86	4.3295317
251	0xc09a471f	-4.821182
252	0x3fb0912b	1.3794302
253	0xc04e3c5a	-3.2224336
254	0x3e37c742	0.17947105
255	0xbe39a59b	-0.1812958

layer2.0.bias f4 [32]
0	0x40148c27	2.3210542
1	0x3f80b0e4	1.0053983
2	0x3fdefe18	1.7421293
3	0x3e4589c8	0.1929084
4	0x3ee31869	0.4435456
5	0x3f8cb8ed	1.0993935
6	0x400d4b56	2.2077231
7	0x3e9a44a9	0.3013051
8	0x3fce5140	1.6118546
9	0x3e82a424	0.25515854
10	0x3f888393	1.0665153
11	0x3cdaa4ed	0.02668997
12	0x3e4841a4	0.1955629
13	0x3f4d5582	0.802086
14	0x400c978d	2.19675
15	0x3f830f2f	1.0239009
16	0x3e41b3c7	0.18916236
17	0x3e49ae07	0.19695292
18	0x3f8fa820	1.1223183
19	0x3fbdec25	1.483769
20	0x3e077756	0.13229117
21	0x40054400	2.0822754
22	0x3fe4b688	1.7868204
23	0x3fe33d8f	1.7753161
24	0x3fd6332a	1.6734364
25	0x3d02ff7c	0.03198193
26	0x3f7f93a6	0.9983467
27	0x3fb4a539	1.4112922
28	0x3e2cf512	0.16890362
29	0x401ff402	2.499268
30	0x3f808559	1.0040694
31	0x3e3090a3	0.17242675

layer2.1.weight f4 [32]
0	0x3f043976	0.5165018
1	0x3f0e79d5	0.5565465
2	0x3f2ab918	0.6668868
3	0x3e898bea	0.26864558
4	0x3e65964c	0.22420615
5	0x3f1db871	0.6160956
6	0x3f29cca0	0.6632786
7	0x3e11afbc	0.14227194
8	0x3ed63e74	0.41844523
9	0x3e67ea8b	0.22648065
10	0x3ef92039	0.48657396
11	0x3f83daa3	1.0301098
12	0x3e349fb1	0.17639042
13	0x3f4caf7f	0.79955286
14	0x3f351abf	0.70743936
15	0x3f935e94	1.1513238
16	0x3e57a591	0.21059252
17	0x3e92c09f	0.28662583
18	0x3f4efbee	0.80853164
19	0x3f0ce1fc	0.55032325
20	0x3e2c4bc6	0.1682578
21	0x3f417c31	0.75580126
22	0x3f06278b	0.5240409
23	0x3edd1826	0.43182486
24	0x3f3a254d	0.72713166
25	0x3e8b3ee2	0.27196413
26	0x3f3cc88b	0.73743504
27	0x3f3456f3	0.70445174
28	0x3e8abb8e	0.27096218
29	0x3f11fccf	0.5702638
30	0x3f0b773d	0.5447882
31	0x3e81d3cf	0.2535691

layer2.1.bias f4 [32]
0	0xbf0acd19	-0.54219204
1	0xbf14abe8	-0.5807481
2	0xbf416a7f	-0.75553125
3	0xbf3b77c2	-0.7322961
4	0xbf2fdf18	-0.6869979
5	0xbf656a56	-0.8961538
6	0xbf42fb9b	-0.7616517
7	0xbf530b90	-0.8243952
8	0xbef78190	-0.48341036
9	0xbf43ed8e	-0.76534355
10	0xbf04c63e	-0.51864994
11	0xc0055872	-2.0835233
12	0xbf68960b	-0.9085395
13	0xbfa8dd9d	-1.3192631
14	0xbf59df80	-0.8510666
15	0xbfd06c9d	-1.6283146
16	0xbf443094	-0.76636624
17	0xbf203ab7	-0.6258959
18	0xbf8f4e12	-1.11957
19	0xbf34d4bf	-0.70637125
20	0xbf12cf92	-0.5734798
21	0xbf6af3f6	-0.91778505
22	0xbf41c596	-0.7569212
23	0xbef7d542	-0.4840489
24	0xbf8685a6	-1.0509536
25	0xbf269fa7	-0.6508736
26	0xbf897a39	-1.0740424
27	0xbf574d55	-0.84102374
28	0xbf3042a4	-0.68851686
29	0xbf0b505f	-0.5441951
30	0xbf1e4409	-0.61822563
31	0xbf52d3dc	-0.8235452

layer2.1.running_mean f4 [32]
0	0xc2ec7a7e	-118.23924
1	0xc2b0cdaa	-88.40169
2	0xc2b06bd0	-88.21057
3	0xc2525c04	-52.58986
4	0xc1d75a9b	-26.91924
5	0xc289f1fc	-68.972626
6	0xc2a69800	-83.296875
7	0xc212da27	-36.71304
8	0xc29dae35	-78.84025
9	0xc213dabc	-36.963608
10	0xc29133b1	-72.60096
11	0xc2844975	-66.14347
12	0xc23ebde0	-47.685425
13	0xc2a5b764	-82.858185
14	0xc2e61249	-115.03571
15	0xc2b55c65	-90.68046
16	0xc1c2ed4a	-24.365864
17	0xc1a49104	-20.570808
18	0xc294cb36	-74.3969
19	0xc3159543	-149.58305
20	0xc23871dd	-46.111195
21	0xc2bb67f2	-93.70302
22	0xc2ab240e	-85.57042
23	0xc2b03a21	-88.11353
24	0xc264dc0e	-57.214897
25	0xc1d63769	-26.777056
26	0xc27a516b	-62.57951
27	0xc2b13178	-88.59662
28	0xc1fdd7a5	-31.730295
29	0xc2e87e34	-116.24649
30	0xc2a2a16e	-81.31529
31	0xc238c3a7	-46.191067

layer2.1.running_var f4 [32]
0	0x46442d6e	12555.357
1	0x466a327d	14988.622
2	0x46088e0d	8739.513
3	0x448de08e	1135.0173
4	0x43ab9917	343.196
5	0x45f94132	7976.1494
6	0x460ddb44	9078.816
7	0x44196906	613.641
8	0x45eba5a8	7540.707
9	0x441fe43b	639.5661
10	0x462a0aee	10882.732
11	0x4646cd52	12723.33
12	0x44a1f170	1295.5449
13	0x461b663e	9945.561
14	0x463bd6ae	12021.67
15	0x4621d0e9	10356.228
16	0x43d558c7	426.69357
17	0x434fc233	207.75859
18	0x460bc498	8945.148
19	0x464efd00	13247.25
20	0x448f9624	1148.6919
21	0x461a78e8	9886.227
22	0x45e19a6e	7219.3037
23	0x460eb02a	9132.041
24	0x45b1bd1c	5687.6387
25	0x43971b56	302.21356
26	0x461a5f68	9879.852
27	0x46140151	9472.329
28	0x43d50161	426.01077
29	0x46315a92	11350.643
30	0x4623300f	10444.015
31	0x44745dea	977.4674

fc.weight f4 [7, 4608]
0	0xc04bd16d	-3.1846573
1	0x3e17109a	0.14752427
2	0x3fb0c0be	1.380882
3	0xbefa973a	-0.48943502
4	0x3fa03fd1	1.2519475
5	0xc023ef55	-2.5614827
6	0xc065b742	-3.5893102
7	0x3fdaedcf	1.7103823
8	0xbfe21d0a	-1.7665112
9	0xbf933f6a	-1.1503727
10	0x3f0d123e	0.5510596
11	0xbfebf37b	-1.8433679
12	0xbddf148c	-0.10892591
13	0xbe19c08d	-0.15014859
14	0xbfd8eafe	-1.6946714
15	0x3ebbfff1	0.36718705
16	0xbeb240e5	-0.34815136
17	0xbfbb7270	-1.4644299
18	0x3f9731d5	1.1812083
19	0xbf138314	-0.57621884
20	0x3e8ef6e2	0.27922732
21	0x3f32fd68	0.6991792
22	0xbf89b743	-1.0759052
23	0xc043d824	-3.0600672
24	0xbf167602	-0.58773816
25	0xbe209d21	-0.1568494
26	0x3e5970df	0.21234463
27	0x3fbb51c1	1.4634324
28	0xbfd59c17	-1.668826
29	0x3f24ec0d	0.64422685
30	0xbfa78271	-1.3086683
31	0x3e2a9123	0.16656928
32	0xbf65189c	-0.89490676
33	0xc036e8ac	-2.8579512
34	0xbf879812	-1.0593283
35	0x3ec882d7	0.39162323
36	0x3db7c8df	0.0897386
37	0x3f282f77	0.65697426
38	0xbfd226a1	-1.6418039
39	0xbf4e5a53	-0.80606574
40	0x3ef9dd05	0.48801437
41	0xbfe041e4	-1.7520108
42	0xbde99c69	-0.11406786
43	0x3fb0a2b7	1.3799657
44	0xbe2e85d4	-0.17043239
45	0xbfafb964	-1.3728452
46	0x3d3952c9	0.045244966
47	0xc02da517	-2.7132013
48	0xbf247cdd	-0.64253026
49	0xbf440315	-0.765672
50	0xbf49abbf	-0.7877769
51	0xbfc2bc8b	-1.5213789
52	0xbf1f0087	-0.6211018
53	0xbe51c628	-0.20485747
54	0x3f10d14d	0.5656937
55	0xbf94ed4b	-1.1634916
56	0xbf8726fa	-1.055877
57	0xbfd5d4b5	-1.6705538
58	0xbdb97c2f	-0.09056889
59	0x3f47a3c6	0.77984273
60	0x4054bcdc	3.324027
61	0x405853d8	3.3801174
62	0x3f1e3614	0.61801267
63	0xbec75dea	-0.38938838
64	0x3faaaac4	1.3333364
65	0xbf55f4cc	-0.83576655
66	0x3ef7a58d	0.48368493
67	0xbe9e3705	-0.30901352
68	0xbf3f7f52	-0.7480365
69	0xbf4a6469	-0.79059464
70	0x3fc7b678	1.560256
71	0xc0097d51	-2.1482737
72	0xc015fc8e	-2.3435397
73	0xbf6f508b	-0.93482274
74	0x3f80522c	1.0025077
75	0x3f6b5293	0.91922873
76	0x3ecea8b4	0.40363085
77	0x4019cbee	2.4030719
78	0xbf75630b	-0.9585425
79	0xbe90f6c4	-0.28313267
80	0xbebf7919	-0.37397078
81	0x3fe16fc0	1.7612228
82	0x3d6a3786	0.057181858
83	0x408ff100	4.498169
84	0x3e08f81a	0.13375893
85	0x3eae2afb	0.34017166
86	0x3fc36ec9	1.5268184
87	0xbf2f3f33	-0.6845581
88	0x3f8a710a	1.0815747
89	0xbea21702	-0.3165818
90	0x3f542844	0.8287394
91	0xbee95491	-0.45572332
92	0x400f751b	2.2415226
93	0xbf5dfcd1	-0.8671389
94	0x3f1881ae	0.59572875
95	0xbfcbccb4	-1.5921845
96	0xbf4fafef	-0.8112783
97	0xbf30bb69	-0.69035965
98	0x3fb34aa2	1.4007151
99	0xbf704c29	-0.9386621
100	0x40079c40	2.1189117
101	0x3e25f624	0.16207176
102	0xbfa4b13e	-1.286659
103	0x3f2d5142	0.67702115
104	0x3fb7eb76	1.4368732
105	0xbd352b84	-0.044230953
106	0xbc9602d3	-0.018311894
107	0xbf9f71fa	-1.2456658
108	0x3efefba9	0.49801376
109	0x3fe71e59	1.8056136
110	0xbe9d12ca	-0.30678397
111	0x3e947992	0.28999
112	0xbf869946	-1.0515525
113	0x3f6016c8	0.8753476
114	0xbe5980ea	-0.21240583
115	0x3f8ef345	1.116799
116	0x3f6111ac	0.8791759
117	0x3f7ff59c	0.99984145
118	0xbee6af12	-0.45055443
119	0x3e4bd05c	0.19903702
120	0x3e9a2981	0.3010979
121	0x3e9af23c	0.30262935
122	0xbe562053	-0.20910768
123	0xc02bbc75	-2.6833775
124	0x3fc20bdd	1.515987
125	0xc03f22b6	-2.9864936
126	0x3ff20864	1.8908811
127	0x3f74296a	0.9537569
128	0x3fa18019	1.2617217
129	0xbf0de3a6	-0.5542549
130	0xbf914964	-1.1350522
131	0x3f941d53	1.1571449
132	0x3f9fa9b8	1.2473669
133	0x4049c703	3.1527717
134	0xbfd41f5a	-1.6572068
135	0xbe91d215	-0.28480592
136	0xbf1fd9d3	-0.6244175
137	0x3f92b6be	1.1462018
138	0x3f28a2fb	0.6587369
139	0xbf7286ae	-0.94736755
140	0x400945fe	2.144897
141	0xc0867f6a	-4.2030535
142	0x3f84db60	1.0379448
143	0xbfbe2f53	-1.4858192
144	0xbf9b2365	-1.2120177
145	0xbf3ff1a2	-0.7497808
146	0x3ec94f94	0.39318526
147	0xbf19359b	-0.5984742
148	0x407cfa0e	3.9527621
149	0xc068544d	-3.6301453
150	0x3fba8c43	1.4574054
151	0x3fcca612	1.5988181
152	0xbd3972a8	-0.04527536
153	0x3e7625cf	0.2403786
154	0x3f6a9c2c	0.9164455
155	0xc031b4b8	-2.7766552
156	0x40295c38	2.6462536
157	0x3f8ce690	1.1007862
158	0x3f7e87b0	0.9942579
159	0x3f6ffe6b	0.93747586
160	0x3fcdf69e	1.6090887
161	0x3e02a951	0.12759902
162	0x3e6b2ee6	0.22967109
163	0x403a1dfa	2.9080796
164	0xbdc9ad92	-0.09847559
165	0x3fb4e996	1.4133785
166	0x3f55f7e8	0.835814
167	0x4024fdb8	2.5779858
168	0x3ea5dc40	0.323946
169	0x3eb09a3b	0.34492669
170	0x3e9101cd	0.28321686
171	0x3faa9a89	1.332841
172	0x3f43a2ce	0.76420295
173	0xbeee664e	-0.46562427
174	0x4000d86d	2.0132096
175	0x3f982f9f	1.1889533
176	0x3f1d1534	0.6136048
177	0x3f703c39	0.9384189
178	0xbeac68d3	-0.33673725
179	0xbe210fc1	-0.15728666
180	0xbeeb3fd1	-0.45947126
181	0xc00bd605	-2.1849377
182	0xbebcaf95	-0.36852708
183	0x4025cc86	2.5906081
184	0x3fe238d5	1.7673594
185	0xbf878317	-1.058688
186	0x3e711424	0.2354284
187	0x3fcad04e	1.584482
188	0x3fb1822a	1.3867848
189	0x3fa62243	1.2979206
190	0x3f2b592b	0.66932935
191	0xbe493a5d	-0.1965117
192	0x3df95d0e	0.12175952
193	0xbf8be1f1	-1.0928327
194	0x3f09e236	0.53860795
195	0x3f9ca5eb	1.2238134
196	0x3fc7e1c0	1.5615768
197	0xbf0de903	-0.5543367
198	0x3f86b5cf	1.0524234
199	0x3f39b7da	0.7254616
200	0x3f7a3a42	0.97745144
201	0x40340e65	2.8133786
202	0xbf689b7a	-0.9086224
203	0x3f31c494	0.6944058
204	0x40042585	2.06479
205	0xbf506edf	-0.81419176
206	0xbf6f828c	-0.93558574
207	0x3f19749d	0.5994356
208	0xbf01717f	-0.50563806
209	0xbfbd57eb	-1.4792455
210	0x3ebc1d4f	0.3674111
211	0x3f17b0ec	0.59254336
212	0xbd24047f	-0.04004335
213	0xbe33b680	-0.17550087
214	0xbf19b711	-0.6004496
215	0x403f29f3	2.9869354
216	0x40067e8c	2.1014738
217	0xc076a965	-3.854089
218	0xc00cc939	-2.1997817
219	0x3e328383	0.1743298
220	0xc000967b	-2.0091846
221	0xbf77b01c	-0.96753097
222	0x3f87d424	1.0611615
223	0xbf3cf5d4	-0.73812604
224	0xc04e7e64	-3.2264643
225	0x3f47c540	0.78035355
226	0xbf985e2f	-1.1903743
227	0xc08f0b5a	-4.4701357
228	0x3ff0f7c8	1.8825617
229	0x3e9b6d2e	0.30356735
230	0xbf39601b	-0.7241227
231	0xc0590ae5	-3.39129
232	0xbfb2a050	-1.3955173
233	0xbf13eab3	-0.5778
234	0xc00188fe	-2.0239863
235	0xc001e4a0	-2.0295792
236	0xc0440e81	-3.0633852
237	0xbf2cc334	-0.67485356
238	0xbff74472	-1.9317763
239	0x3e79d378	0.24397075
240	0x3fa99da4	1.3251233
241	0xc08d2bac	-4.411581
242	0xbe18ffec	-0.14941376
243	0xbf4e0963	-0.80483073
244	0xbffaf58c	-1.9606185
245	0xbfd8792d	-1.691198
246	0xbed7e462	-0.4216643
247	0xc0856067	-4.168018
248	0xbfa1c08a	-1.2636883
249	0x3ef8befa	0.48583204
250	0xbfa427eb	-1.2824682
251	0xbf08e07d	-0.5346754
252	0xbf4346c8	-0.7627988
253	0x3f4328ab	0.7623393
254	0xbf27f23b	-0.6560399
255	0xbd854b63	-0.065085195

fc.bias f4 [7]
0	0x3e39184d	0.18075676
1	0xc04ae50b	-3.1702297
2	0x3d9cf37b	0.07663628
3	0x3e7777a9	0.2416674
4	0x3e89e89d	0.26935282
5	0x3f88fb2b	1.070165
6	0xbfc7baa3	-1.5603832
