FaceExpressions_CNN/savemodel/model_36.pth (torch_old, 185408 bytes, 14 tensors)

layer1.0.weight f4 [16, 1, 5, 5]
00000000: 6449 3d3f 1b5b c53f c59c 3b40 f661 1440
00000010: aa01 2040 7b66 5140 a4af e53d 6bc0 b6be
00000020: 62e4 12be be69 913d 8ad0 7e3f 0415 d0bf
00000030: b202 c1bf 1ca0 87c0 fb44 bdc0 90e3 953f
00000040: 8c06 87bf 1a18 d5bd 0d38 26c0 a926 02c0
00000050: 82f7 443f 6e11 06c0 89b6 c43f fb81 8f3e
00000060: d04e b93f 276c 06bf 6dd3 03c0 c80b 04bf
00000070: 8428 1540 1c80 3140 8cbc 43be 1e77 b3bf
00000080: 34ee 0e3e 5075 873f 1a9e 37bf 8207 6cbf
00000090: 28dc adbf 55c7 29bf d910 0bc0 6ff1 17c0
000000a0: 94f5 a4c0 7941 17c0 a2be 3cc0 d659 93c0
000000b0: db98 8c3f 9f51 7d3f 3cfc b7bc a991 e2be
000000c0: 93f4 1d3f fb2e 9d3f 62da 0fc0 2522 abbf
000000d0: f20a eb3f 0a78 9c3e 36e0 35c0 cdfd 5c3f
000000e0: 9bbe 0840 b56e da3f f77f 7c40 3d02 143e
000000f0: d79c cd3e 8db4 4d40 cc56 c9be a156 9540
00000100: afca 3d3f 0b90 3ec0 48f8 0a40 820a e53e
00000110: e7de 9b40 dbf2 123f 9c21 a6bf ad0f 4a3e
00000120: b5ce b53e b6ca 00be 03db 19c0 c99e 4540
00000130: da7e 7a3f f3f7 f5bf ed75 82be 8181 da3d
00000140: d2b0 1340 bb9f 78c0 0819 30c0 9266 983e
00000150: 2e40 d33d 3223 10c0 6027 a8c0 4f7f f73d
00000160: dc4f aebe bdc2 0fc0 3975 e5bf 74ca e53f
00000170: 338c 2040 77e6 0e40 be4f f13f de65 d73e
00000180: 7e9e bc3f 118e 5a3e a458 bc3e d11c d33f
00000190: 6138 c43f fba1 15bf 8a9f f4bf 1289 1fc0
000001a0: da78 b73f 0718 983f ccbc b0bf 183b ff3e
000001b0: 8cda d6bf 5906 f6bf 28ff 0ec0 4f4b b5be
000001c0: 920b 983f cf25 59c0 c215 91c0 ca9c 803f
000001d0: 7439 383f 2df9 c0bf 3808 21c0 b498 e4bf
000001e0: 5c07 6a40 4a75 7040 e721 a03f 4d1e d23f
000001f0: bf23 4f3f 85f8 87bf 2d89 8dc0 e663 9fc0
00000200: daf6 f2bf aec3 8abf ec42 943e 1d39 50bf
00000210: dc5c f8bf 8196 c4bf bb1d 14c0 ea61 d63e
00000220: 6adb 063f b314 ce3f ad97 2340 9a64 67bf
00000230: d985 19bf 8909 763e bfdd 0640 1bb3 803f
00000240: 729b ab3f 3274 6440 c07a ae3f 9e90 ce3f
00000250: baba 8d3e bd1b 5740 c99c 003f 310b afbf
00000260: d6a0 38bf 3ed2 fc3f e6fa 873e 90ec 803f
00000270: 7aef 0dbf e44a 5ac0 5ae4 813e 564e 6b40
00000280: fb05 5c3f d3fc f13f 0e40 80c0 fba3 80c0
00000290: 2640 2e40 80fa 8ebe 219a 1e40 a4ab ab3f
000002a0: 4b13 5dc0 922f 96bf 0847 e8be 0fbc a43e
000002b0: 7527 fd3f 42a1 1a3e 2750 6abe 22ef 21be
000002c0: c1a6 92be 3454 24c0 8376 d4bf 4840 99bf
000002d0: 6a51 d5bf 899e a43e dbdc 72bf 77bf 143f
000002e0: 093b e23e a646 c2bf 40e6 b640 4fe6 ac40
000002f0: 784a 8f40 48d3 2b40 a320 f7be 7ef3 0d40
00000300: cdd1 adbe fdc4 2740 c596 1fc0 253b 0240
00000310: 19f1 233f 9cf0 4cbe 2fe6 c53f e9d7 2ec0
00000320: 9afd c9bf f266 9ebe ace6 0bbf 6ecf 31c0
00000330: 0fab d6bf 0fcb 973f d187 a3be a110 29bf
00000340: ab65 58bf 6010 2840 501a c53e 64d7 d53f
00000350: 97b0 ab3f 220f 4740 5872 10bf 1670 153e
00000360: e12a 3140 f288 2e40 3b6b 2540 fe77 83c0
00000370: 5f67 0f3e 84b9 423f 9f34 0140 7443 be3f
00000380: d5e4 89c0 5ae4 023f 689e d2bf b7ef 05bf
00000390: a770 42bc 5d0f a13e a479 a5bf 94b0 bcbf
000003a0: cffd 5840 0879 0a40 09b0 9a3f 669b e23d
000003b0: 59ed 3c3f 3b52 b340 dc7e 383e 5143 4dc0
000003c0: c4fc 9ebf 541e 1440 e3f5 9540 a377 f1bf
000003d0: 5478 6fc0 c274 02c0 2d6a 8cbe 599d e8bc
000003e0: 2547 3bbf e464 8ebf ac3a 2540 9a7c 6a3f
000003f0: 4ec9 24c0 3305 9cbf 24d8 e03f ea85 6cbe
0.7394011 1.5418428 2.9314435 2.318479 2.5001016 3.27188 0.112151414 -0.35693678
-0.14344934 0.07100247 0.99536955 -1.6256413 -1.5078948 -4.2382946 -5.9146705 1.1710072
-1.0548873 -0.10404988 -2.597171 -2.0336096 0.76940167 -2.0948138 1.5368205 0.28028855
1.4477177 -0.5250878 -2.0597794 -0.51580477 2.3305979 2.7734442 -0.19114894 -1.4020727
0.13958055 1.0582676 -0.7172562 -0.92198956 -1.3582811 -0.6631978 -2.1729033 -2.374111
-5.154978 -2.3633711 -2.9491353 -4.6047163 1.0984148 0.9895267 -0.022459142 -0.44251755
0.61701316 1.2279962 -2.247704 -1.3369795 1.8362715 0.30560333 -2.8418097 0.8632477
2.1366336 1.7065035 3.9453104 0.14453979 0.40158722 3.214145 -0.39324033 4.666825
0.74137396 -2.9775417 2.171404 0.4473458 4.8709598 0.5740182 -1.2979007 0.19732542
0.35509267 -0.12577328 -2.4039924 3.0878165 0.9784981 -1.9216293 -0.25480595 0.10669232
2.3076673 -3.8847492 -2.7515278 0.29765755 0.10314976 -2.2521482 -5.2548065 0.12084829
-0.34045303 -2.246261 -1.7926399 1.7952409 2.508557 2.2328165 1.885246 0.42069906
1.4735868 0.21343257 0.36786377 1.6493169 1.5329705 -0.5845029 -1.9111187 -2.492741
1.4333756 1.1882333 -1.3807616 0.49849772 -1.6785445 -1.9220687 -2.2343235 -0.35409018
1.1878531 -3.3929327 -4.533906 1.0047848 0.71962667 -1.5076042 -2.5161266 -1.7859101
3.6566992 3.7571588 1.2510346 1.6415497 0.8091392 -1.0622717 -4.422995 -4.9809446
-1.8981583 -1.0840967 0.28957307 -0.8133715 -1.9403338 -1.535843 -2.3143146 0.41871578
0.5267855 1.6100067 2.5561326 -0.9038788 -0.5996986 0.24027075 2.1072843 1.0054659
1.3406813 3.569592 1.363121 1.6137884 0.27681524 3.361068 0.50239235 -1.367529
-0.72120416 1.9751661 0.26558608 1.0072193 -0.5544354 -3.410821 0.2536953 3.6766562
0.85946625 1.8905281 -4.007819 -4.020017 2.7226653 -0.2792549 2.4781573 1.3411756
-3.4543025 -1.1733267 -0.45366693 0.32174727 1.9777666 0.15100577 -0.22882138 -0.15813878
-0.28642848 -2.5676394 -1.6598667 -1.1972742 -1.6665471 0.32152203 -0.9486825 0.5810465
0.44185665 -1.517781 5.7156067 5.403114 4.4778404 2.6847706 -0.48267087 2.2179866
-0.33949128 2.6213982 -2.4935772 2.03486 0.6403976 -0.2001366 1.5460871 -2.731928
-1.5780518 -0.30937916 -0.5464885 -2.7782855 -1.6770953 1.1858844 -0.31939557 -0.66041
-0.84530133 2.6259995 0.38496637 1.6706357 1.3413266 3.1102986 -0.56424475 0.14593539
2.7682421 2.7271085 2.5846698 -4.1083975 0.14004277 0.76064324 2.0188367 1.4864335
-4.3091836 0.51129687 -1.6454592 -0.523189 -0.011867679 0.31457034 -1.2927747 -1.4741387
3.3904912 2.1636372 1.2084972 0.11064796 0.73799664 5.603788 0.18017143 -3.2072337
-1.2420888 2.314351 4.6862655 -1.8864635 -3.7417192 -2.0383763 -0.27424756 -0.028395342
-0.7315543 -1.1124539 2.581706 0.91596377 -2.5747867 -1.2189087 1.7565961 -0.23097959

layer1.0.bias f4 [16]
00000000: cb72 63bf 8afe 3b40 c45d 903c a7d7 8fbf
00000010: 65b8 f53f d6d1 26c0 3fec 623f 9c08 403f
00000020: 3d30 5a3f 43b1 a73e 3c8b d73e 5ec9 c6be
00000030: 6d69 0040 5a8a 10bf 8df3 e03f b2da 4a3e
-0.88847035 2.9374108 0.017622836 -1.1237687 1.9196898 -2.6065574 0.8864173 0.75013137
0.85229856 0.32752427 0.42098415 -0.38825506 2.0064347 -0.5646111 1.7574326 0.19809988

layer1.1.weight f4 [16]
00000000: 4a1e 3140 7691 1d40 bd72 2a40 658c 1840
00000010: 3259 1140 bddc 3940 1295 2940 e780 1640
00000020: fa2a a23f c2c3 e63f a03a 0f40 794c 2440
00000030: 617f 3140 1b33 1d40 c6ab e23f 77d6 bb3e
2.7674737 2.4620032 2.663253 2.383569 2.271069 2.9040978 2.6497235 2.3516176
1.2669365 1.802849 2.2379532 2.5671675 2.7733996 2.4562442 1.7708671 0.3668706

layer1.1.bias f4 [16]
00000000: 523c 3dc0 5b68 02c0 07c2 5ac0 1f8e 88bd
00000010: 4003 e4bf 670c 06c0 e8bb 5ebf 1dac 03c0
00000020: c305 293f 9786 46bf 7c2d 58c0 0572 f0bf
00000030: ffca 55c0 6f23 a9be 48bd 73bf bc32 afbf
-2.9568067 -2.0376194 -3.4180925 -0.066677324 -1.7813492 -2.094507 -0.8700547 -2.05738
0.66024417 -0.7754912 -3.3777761 -1.8784796 -3.340515 -0.33034846 -0.95210695 -1.3687358

layer1.1.running_mean f4 [16]
00000000: ab12 f5bf 200b bfc0 a2e8 ea40 2fae e7bf
00000010: cc98 f3bf 6a04 52c0 5e1a 163f bea3 dc40
00000020: 332f 6c40 fcaf e33f 2463 263f 5023 55be
00000030: 87e5 f9c0 0097 43bf f2eb 3440 18a6 66c0
-1.9146322 -5.970108 7.3408976 -1.8100032 -1.9031005 -3.2815194 0.58633983 6.894988
3.6903808 1.7788081 0.64995027 -0.20814252 -7.8092685 -0.7640228 2.826901 -3.6038876

layer1.1.running_var f4 [16]
00000000: 9522 bc40 0443 ad41 8ebb 7e41 94b6 2840
00000010: 9387 2041 36b9 2041 0485 a93f 6d3d 4241
00000020: b8c0 aa40 726f 5b40 9909 2f40 ab2d 0741
00000030: dfc4 0642 da59 b640 83f2 2f40 645c 5b40
5.8792214 21.657722 15.92079 2.6361437 10.033099 10.0452175 1.3243718 12.139997
5.336025 3.428677 2.7349608 8.448649 33.692257 5.698468 2.7491767 3.427514

layer2.0.weight f4 [32, 16, 5, 5]
00000000: f151 66c0 f92a 75c0 2428 e6bf 44b4 7dc0
00000010: daba d9bf a0b3 9fc0 f496 15c0 0a97 f9bf
00000020: 9fad 87c0 d19f 553f 9fb9 d93f ad80 473d
00000030: 2066 29c0 435e 95be 6aa4 0b40 4ea1 103e
00000040: 112a abbf 4d6b cbbe 4d70 e13e 634e 7abf
00000050: d67b eebf 9b0d 13c0 a41c 203f ac9e d0bf
00000060: 75cd 8d3f 0322 83c0 cf5c b3bf f650 3ec0
00000070: ffcd 35c0 19c7 e5bd 511f 9fbe 1dd8 3e3f
00000080: 863b 81bf 5299 253f 4d6e ad40 833c 983c
00000090: 890f ce3f 6f0e c3be 2020 88c0 1bee d0be
000000a0: ab96 8c3d 5725 3f40 5901 3740 5fc9 c6bf
000000b0: 3b0d 25bf 6b4b 0e40 e82f 313f c3fb ddbf
000000c0: cfd4 7ec0 fbdc 703f 9364 e6be 6656 b440
000000d0: 0a2b a7bf 66b5 d5bd 119e 88bf 8406 a8be
000000e0: 00f6 5bbd 3506 6bc0 5e2f 00bf 2e14 4b3e
000000f0: b0d7 eebf 7d32 a93f aae0 9bbd 2923 f2bd
00000100: f5bf 72bf ade9 51bf 5964 5c40 63ec 8a3f
00000110: 9205 e73f a0ab d5bd 299f 18c0 f9c9 bebf
00000120: 64fd 18be b878 16c0 ab58 29c0 8651 9d3f
00000130: d39e 65bf 454e 4ebf 35c2 6abe 9eb2 2ac0
00000140: 3eac 9dbf 14a5 6bc0 6bac 97c0 394c 93bf
00000150: 5207 c33e 570d 5640 398d 9a3f cff5 e3c0
00000160: 7d77 a2c0 4a0a 093f b126 873e 307e a63f
00000170: 376a d6bf 4457 613f 4ac4 86be 9b0e 55be
00000180: d16a e43f cc56 bfbf 75b5 f6be 8a83 e73f
00000190: 3971 08bf fc45 2740 d1b8 03c0 0012 0bbe
000001a0: 4136 a6bf 916c 33c0 df22 57c0 c801 27c0
000001b0: a7a0 e5bf eed7 b5bf abd6 12c0 0c07 96bf
000001c0: 883a 2bbf e61c 55bf 336b 0fc0 22a8 253f
000001d0: 211a 6240 f58e 3fbf 22c0 e4bf b212 15bf
000001e0: da2f 3140 6230 55bf 9d70 babf 9457 dc3f
000001f0: 6324 b73f 7ddb 7ebe 3266 00c0 ab1a febf
00000200: 23b6 533f 6ba3 8f3f 7250 9e3f 204b 053d
00000210: b0d8 b7bf 17b3 4cbf 5003 e63e 8e87 04c0
00000220: 91b3 983f 412a e5be e789 163f da7f aebf
00000230: 7f61 e03e f3f3 b23f 736d 83c0 7d9b a9bf
00000240: 94e3 fd3f f4df 8ebf ba8b 843f 5aae 473d
00000250: 5588 4ec0 97f4 87be 13fe 37c0 0b37 9e40
00000260: e6e5 6fbd 94c3 883f 4ec1 9a3f 1d3c 94be
00000270: 63be eac0 16bb b0bf 0e7a 18bf 97f0 bac0
00000280: fb91 3e40 7bc6 853f 155e d6bf 24df acc0
00000290: caf9 3b3f af00 923f 9bc1 da3f 16d6 6cbe
000002a0: a520 d73f 6132 85bf 9246 8f3f 01c4 f03e
000002b0: cdd5 04c0 d47a 573e 4b97 92bf f0d1 2d3f
000002c0: 2a93 03be 6835 1dc0 c0d1 a83f 3e27 773f
000002d0: 2346 4840 4b2c 513f 38e1 57be d3f3 5dbf
000002e0: 19b0 09c0 3d91 a7c0 e998 22c0 5f91 b8bf
000002f0: 791d e2bf 9cd4 a3bf b6e4 1cc0 ac33 3ebf
00000300: 9434 69bf 8ec5 19bf 95b4 0b40 6517 c4be
00000310: a6cb e9bd 68c5 573e 16e1 9d3f ed1c 2a40
00000320: 5d01 73bf 7840 4ebf b4ad 5ebe b914 753f
00000330: 6ed7 62bf 3eed a1bf db73 28c0 0688 e33f
00000340: 4241 8a3f 26f0 6abe c28e 2ac0 90ed 17c0
00000350: 572f d8bd 5813 a33f 313b 8c3f e7e2 b2bf
00000360: 247b 20bf 1c5b e5bf f356 d3bf 1a7a 303f
00000370: 0b78 27c0 472c b63e 1555 d23f ef1b 7f3e
00000380: cac2 9c3c 585d 88bf 061e b7bf c2e8 aebf
00000390: bf3d 3340 9381 c5bf f365 883e bdaf a1c0
000003a0: 88ea 093f f365 e3bd 45b9 e7bd 083d 0cbf
000003b0: 2077 7abf d2cf 4abf 665c d43f 473b 583f
000003c0: af89 86c0 09bc 7cc0 408c 0cc0 c66d 193e
000003d0: 13d4 ca3f 64fa 0ac0 0234 8f3f 7b2b de3f
000003e0: 0fa2 b13d 61a5 673f b15d 7640 f5ee 6ac0
000003f0: 794c 7a3e b964 18c0 02fd 903e 08dc 78bf
-3.5987513 -3.8307478 -1.7981 -3.9641275 -1.7010148 -4.990677 -2.3373384 -1.9499218
-4.239944 0.83446985 1.7009772 0.0487067 -2.6468582 -0.29173478 2.18191 0.14124033
-1.3372213 -0.39730301 0.4403099 -0.9777586 -1.8631542 -2.2977054 0.625437 -1.6298423
1.1078326 -4.097902 -1.4012698 -2.9736915 -2.840698 -0.112196155 -0.3107858 0.7454851
-1.009629 0.64687073 5.4197145 0.018583542 1.6098491 -0.3809695 -4.2539215 -0.4080666
0.06864675 2.986654 2.8594573 -1.5530204 -0.64473313 2.2233531 0.69213724 -1.7342457
-3.9817388 0.9408719 -0.44998607 5.6355467 -1.306001 -0.1043499 -1.0673238 -0.3281747
-0.0537014 -3.6722538 -0.50072277 0.19831917 -1.8659573 1.3218533 -0.07611211 -0.118231125
-0.94824153 -0.81997186 3.4436247 1.085339 1.8048575 -0.104331255 -2.3847144 -1.4905387
-0.14940411 -2.351118 -2.6460369 1.2290504 -0.8969547 -0.8058818 -0.22925647 -2.667152
-1.2318189 -3.6819506 -4.739797 -1.1507636 0.38091522 3.3445642 1.2074348 -7.123756
-5.077086 0.53531325 0.26396707 1.3007259 -1.6751164 0.8802378 -0.26321632 -0.20806353
1.7845098 -1.4948363 -0.48185316 1.8087018 -0.53297764 2.6136465 -2.0581553 -0.13581085
-1.2985307 -2.8035014 -3.3615034 -2.6094837 -1.7939652 -1.4206522 -2.2943523 -1.17209
-0.66886187 -0.8324722 -2.240918 0.64709675 3.5328448 -0.7482751 -1.7871134 -0.5823165
2.7685456 -0.8327695 -1.4565617 1.7214227 1.4307979 -0.24888416 -2.0062375 -1.9851888
0.82699794 1.1221746 1.23683 0.032542348 -1.4363003 -0.7996077 0.44924402 -2.0707736
1.1929799 -0.447588 0.5880417 -1.3632767 0.43824384 1.3980697 -4.1071105 -1.3250576
1.9835076 -1.1162095 1.0355141 0.04875026 -3.227071 -0.26553795 -2.8748825 4.944219
-0.058568858 1.0684686 1.2090242 -0.28952113 -7.3357406 -1.3807094 -0.5956124 -5.841869
2.97766 1.0451196 -1.6747462 -5.402239 0.7342802 1.1406459 1.7090334 -0.23128542
1.6806837 -1.0406 1.1193411 0.4702454 -2.0755494 0.21042949 -1.1452421 0.67898464
-0.12849107 -2.4563847 1.3189011 0.96544254 3.1292808 0.8170821 -0.21082008 -0.8670017
-2.1513731 -5.2364793 -2.540583 -1.4419364 -1.7665244 -1.2799258 -2.4514594 -0.74297595
-0.9109585 -0.6006707 2.1828969 -0.382991 -0.11415796 0.21071398 1.2334316 2.6580155
-0.94923955 -0.8056712 -0.2174595 0.95734745 -0.8860997 -1.2650526 -2.6320713 1.7775886
1.0801165 -0.22943172 -2.6649632 -2.3738747 -0.10555904 1.2740278 1.0955564 -1.3975495
-0.626879 -1.7918429 -1.651091 0.6893631 -2.6167018 0.35580656 1.6432215 0.24913
0.019135851 -1.0653486 -1.4306037 -1.3664782 2.8006437 -1.5430168 0.2664028 -5.0527024
0.5387349 -0.1110343 -0.11314634 -0.54780626 -0.9783802 -0.7922336 1.6590698 0.8446545
-4.204307 -3.9489768 -2.1960602 0.14983281 1.584597 -2.1715326 1.1187747 1.7357019
0.08673488 0.90486723 3.8494685 -3.6708348 0.24443235 -2.3811476 0.2831803 -0.9721074

layer2.0.bias f4 [32]
00000000: 9f34 f43f 342e 5f3f fc7b be3f c889 453e
00000010: 6918 e33e 5758 643f aef5 e73f a944 9a3e
00000020: b1b9 ae3f 24a4 823e c150 7b3f 1a6d b9bc
00000030: a441 483e 90ae 303f f287 ec3f 2b73 513f
00000040: c7b3 413e 07ae 493e c438 7a3f bfa0 8b3f
00000050: 5677 073e 7bb3 e73f 109f c13f 0eb8 cb3f
00000060: 497f bd3f 7cff 023d a63f 733f 20d8 9f3f
00000070: 12f5 2c3e ae25 0240 29ac 5c3f a390 303e
1.9078559 0.87179875 1.4881587 0.1929084 0.4435456 0.89197296 1.812185 0.3013051
1.3650419 0.25515854 0.98170096 -0.022635031 0.1955629 0.6901636 1.8478987 0.8181636
0.18916236 0.19695292 0.9774287 1.0908431 0.13229117 1.8101648 1.5126667 1.5915544
1.4804469 0.03198193 0.95018995 1.2487831 0.16890362 2.0335498 0.86200196 0.17242675

layer2.1.weight f4 [32]
00000000: 36e9 013f fdff f03e d084 163f ea8b 893e
00000010: 4c96 653e 4562 1b3f d2ba 203f bcaf 113e
00000020: 1307 ce3e 8bea 673e e7e0 eb3e 4689 803f
00000030: b19f 343e 9a75 3e3f c2e6 2e3f 8124 853f
00000040: 91a5 573e 9fc0 923e 3989 4b3f cdf9 0b3f
00000050: c64b 2c3e 86ec 3e3f aeb9 0a3f 99ab da3e
00000060: 28f4 303f e23e 8b3e e3f6 343f 5dae 1f3f
00000070: 8ebb 8a3e e84c 113f 170a 093f cfd3 813e
0.50746477 0.47070304 0.58796406 0.26864558 0.22420615 0.6069682 0.62785065 0.14227194
0.40239772 0.22648065 0.46070024 1.0041893 0.17639042 0.74398196 0.6832086 1.0401765
0.21059252 0.28662583 0.7950626 0.5467804 0.1682578 0.74579656 0.54189575 0.42709044
0.6912255 0.27196413 0.7068922 0.6237543 0.27096218 0.56757975 0.5353102 0.2535691

layer2.1.bias f4 [32]
00000000: 30a0 fcbe 82c1 0fbf 75ec 40bf c277 3bbf
00000010: 18df 2fbf cd4f 48bf 3210 35bf 900b 53bf
00000020: 4b4c fdbe 8eed 43bf e74c 05bf 3762 f6bf
00000030: 0b96 68bf b675 9cbf fbfe 42bf 77da ccbf
00000040: 9430 44bf b73a 20bf 759b 88bf d2cb 19bf
00000050: 92cf 12bf 9252 58bf 639e 28bf 2894 e4be
00000060: 54fb 7fbf a79f 26bf 599a 83bf 9828 55bf
00000070: a442 30bf 44ee 07bf f647 1fbf dcd3 52bf
-0.49340963 -0.56154644 -0.75360805 -0.7322961 -0.6869979 -0.78246766 -0.7072784 -0.8243952
-0.4947227 -0.76534355 -0.5207047 -1.9248723 -0.9085395 -1.2223423 -0.7617032 -1.600417
-0.76636624 -0.6258959 -1.0672442 -0.6007663 -0.5734798 -0.8450099 -0.6586668 -0.44644284
-0.9999287 -0.6508736 -1.0281478 -0.83265066 -0.68851686 -0.5309794 -0.6221918 -0.8235452

layer2.1.running_mean f4 [32]
00000000: c1cb c5c2 d14f 87c2 452c 9cc2 c355 38c2
00000010: e658 bfc1 b781 71c2 aae5 97c2 b519 01c2
00000020: f2ad 71c2 d964 03c2 f9a4 71c2 4898 60c2
00000030: 62bb 23c2 b94d 79c2 2e6c bac2 1edc 99c2
00000040: 500f a4c1 12aa 94c1 0f64 69c2 5a14 fcc2
00000050: f97e 1ec2 0096 9bc2 4b5b 8cc2 fe08 91c2
00000060: b5e6 3fc2 5652 c0c1 a921 59c2 e18d 96c2
00000070: 4ae0 dec1 3f0c c4c2 06cc 8ec2 ad4f 22c2
-98.89796 -67.65589 -78.086464 -46.08375 -23.918407 -60.376675 -75.94856 -32.275105
-60.41987 -32.848484 -60.411106 -56.148712 -40.93299 -62.3259 -93.21129 -76.92992
-20.507477 -18.583042 -58.347713 -126.03975 -39.623997 -77.79297 -70.17831 -72.51756
-47.9753 -24.040203 -54.28287 -75.27711 -27.859516 -98.02392 -71.39848 -40.57781

layer2.1.running_var f4 [32]
00000000: d4c0 ee45 0e5f 0246 99e2 b345 f4ed 5544
00000010: fc25 8543 af1b 9f45 bc46 c945 f813 e943
00000020: e207 9245 4ade f443 4ca5 cb45 6bf0 0246
00000030: 1bcd 7944 1668 c145 279a eb45 e510 d445
00000040: 92f0 9b43 7ce9 2043 1453 b345 08c1 0e46
00000050: 5795 5444 2c60 bf45 a0e3 9745 3455 be45
00000060: 58de 6a45 54fb 6443 16f7 c145 4e91 c145
00000070: 6d11 9e43 77b4 e645 9371 c745 0b1c 3b44
7640.1035 8343.764 5756.3247 855.718 266.29675 5091.4604 6440.842 466.156
4672.9854 489.73663 6516.662 8380.1045 999.2048 6189.0107 7539.269 6786.112
311.87946 160.91205 5738.385 9136.258 850.33344 6124.0215 4860.453 6090.6504
3757.8965 228.98175 6206.8857 6194.163 316.13614 7382.558 6382.197 748.4382

fc.weight f4 [7, 4608]
00000000: 93b0 38c0 7cf3 a3bd 24a9 e33e 01fb 72be
00000010: 8c96 9e3f a9f8 2fc0 3cfc 55c0 405b 913f
00000020: 1568 ecbf c100 76bf 272f 023f c051 d0bf
00000030: 5383 20bf c9f2 bfbe 6b7f 02c0 a4c2 903e
00000040: 0985 d13e 2db9 8bbf e2a5 8a3f e0d9 6abd
00000050: eef2 8f3e 3390 453f fc22 b1bf 9e56 01c0
00000060: 6d67 44be 466f 253e 371d ca3e cffc 843f
00000070: 0bda d9bf b044 0f3f a686 87bf 9075 febd
00000080: 2011 5ebf 498e 0ac0 aa4d 6abf de61 bc3e
00000090: ec83 00be 611f dd3e 274c d8bf 1c95 1fbf
000000a0: 628d 113f 82c3 c1bf d187 a4be b1d2 bc3f
000000b0: b024 10bf 942a 94bf 966c 663e 42f6 21c0
000000c0: e3ca abbe 60a1 983d 303f c7bf 14f1 a9bf
000000d0: 140c a5be 39b0 8ebd d061 f73e 0e8f 8bbf
000000e0: 3ed7 17bf da12 bdbf e928 a23e f660 2c3f
000000f0: 69b8 1840 4269 4340 d1ce 253f cd71 a7bd
00000100: 8c28 e83f 1005 bfbe f373 f83e baf9 cbbd
00000110: 1480 6fbf dfef 67bf 5ed2 af3f 21c2 e3bf
00000120: ca02 c6bf 24c2 44bf 47f2 183f 73aa 663f
00000130: 708e f2bd e41c 1040 c048 86bf 5dec 6cbe
00000140: 2470 82bc 2e6f ff3f a28a 6cbe 13ec 8240
00000150: 9992 5dbe 3f72 1d3d 0bb6 8a3f 52d7 01bf
00000160: dd81 5a3f cfc5 83be d3fe 263f ccfd 6abe
00000170: 4d73 0740 348d 69bf 5330 243f 1df3 7cbf
00000180: e938 e5be d30b 57bf 2d8e 963f 8dc6 37bf
00000190: dd6f 1440 5a7a 823e 49b7 29bf 8029 033f
000001a0: c144 a53f 73c5 83be a1ac 36be c501 0ebf
000001b0: ef26 513f 9273 f63f ca9b f7be fd53 143f
000001c0: b094 86bf 0798 683f 0f3c 193e d79e 8b3f
000001d0: 4e53 3e3f cecf 693f 6e99 53be 6fa5 903f
000001e0: aafb 87bf 40e2 313e dce3 e7be cbda 28c0
000001f0: 1740 a33f 16c5 19c0 907a b23f 5e30 5d3f
00000200: 96c0 9b3f c84f babe 73b4 52bf 932e 4a3f
00000210: 917f 903f 75b2 3340 f4dc c7bf b2e9 93bd
00000220: 9e76 d6be 8fc9 043f d1d1 123f 3e57 84bf
00000230: e006 ae3f 28d8 4dc0 b68d af3e 8b5e 95bf
00000240: b2ec 7cbf 4e26 a1be 2095 263e d427 26bf
00000250: a5cd 4740 0fc4 41c0 26dc c53f 91d0 b83f
00000260: 633b 213f d396 033f b410 b83e 3968 29c0
00000270: 52df 1240 152d 823f fc64 9a3f 28c1 893f
00000280: b501 bc3f 126e 083f 4359 813d f7c6 2540
00000290: a835 96be 33fc ad3f 9624 373e c0e0 3540
000002a0: 85bb 003f d1ab 0d3e 2656 ac3e 9c79 9d3f
000002b0: 301b 9e3f 79dc d8be 4098 ef3f 507b 973f
000002c0: ede7 283f 808c a63f 4307 a9be 4417 e43d
000002d0: 959a 5ebd b9c0 e8bf 36d4 d3bd 85a6 1c40
000002e0: 810b fd3f fe1b 4abf e42f ba3e 9a82 cb3f
000002f0: da76 4b3f 895d aa3f 27b5 a43f 40ea 643c
00000300: 5c5d 5d3f 78d7 2abf 94be a13e 7fac a93f
00000310: f0be ca3f e6d5 5bbe a77a 8e3f b96d 153f
00000320: f976 c73e 7b23 2f40 c4f7 a8bf bb67 d63e
00000330: 3359 f93f 170b 7fbe ed9a 0dbf 556d ce3e
00000340: f441 edbe 08a6 bcbf 22ba 3d3e 3792 f7bc
00000350: ab3f 9d3e 519f 17bf 03f9 35bf 7385 5140
00000360: 5c34 db3f 50ed 5fc0 2346 d9bf 5e8b 7a3e
00000370: e98c f1bf 5445 81bf 7e84 763f 77ed 11bf
00000380: 2fdf 48c0 7617 1b3f af9f 68bf 3724 73c0
00000390: 9402 f23f a6d9 e03e 40b8 b3bf 5cd6 39c0
000003a0: 651e 79bf cabe 7ebe c270 e1bf 29d2 00c0
000003b0: f6f8 37c0 8493 89be f300 01c0 f89b be3e
000003c0: e2b5 943f 3659 86c0 73b6 e1be 4b44 54bf
000003d0: 83d1 0fc0 ac18 a4bf fd6c 40bf db46 7bc0
000003e0: 7502 a3bf a199 083f eee2 65bf c942 0dbf
000003f0: a827 b0bf ab28 1a3f c054 cbbe a218 51be
-2.8857772 -0.08005425 0.44464982 -0.23728563 1.2389693 -2.749552 -3.3435202 1.1355972
-1.8469263 -0.960949 0.508532 -1.6274948 -0.62700385 -0.37489918 -2.039027 0.282735
0.4092181 -1.0915886 1.0831873 -0.057336688 0.28115028 0.77173156 -1.3838801 -2.0209117
-0.19180079 0.16155729 0.39475414 1.0389651 -1.7019666 0.55964184 -1.0587966 -0.12424767
-0.8674488 -2.1649344 -0.91524756 0.36793417 -0.12550324 0.43188003 -1.689824 -0.623369
0.5685636 -1.5137789 -0.3213487 1.4751798 -0.5630598 -1.1575494 0.2250236 -2.5306554
-0.33553228 0.07452655 -1.5566158 -1.3276696 -0.32235777 -0.069672056 0.48316813 -1.0903032
-0.5931281 -1.4771378 0.31671837 0.6733545 2.3862555 3.0532994 0.647687 -0.08176003
1.8137374 -0.3730855 0.48525962 -0.09959741 -0.93554807 -0.9060039 1.3736074 -1.7793618
-1.5469601 -0.76858735 0.59744686 0.90103835 -0.11843574 2.2517633 -1.0490952 -0.2313704
-0.015922613 1.9955804 -0.23099759 4.0913177 -0.21637954 0.03843903 1.0836805 -0.5071918
0.85354406 -0.25736853 0.6523258 -0.22948378 2.1164124 -0.91231084 0.64136237 -0.9880846
-0.44769982 -0.8400242 1.1762139 -0.7178734 2.3193276 0.25483972 -0.66295296 0.512352
1.2911607 -0.2573658 -0.1783929 -0.5547145 0.8170003 1.9254019 -0.48361045 0.57940656
-1.0514126 0.90856975 0.14964317 1.0907849 0.7434586 0.9133271 -0.20663998 1.1300486
-1.0623677 0.17371464 -0.4529103 -2.638354 1.2753934 -2.4026542 1.3943653 0.8640193
1.2168148 -0.36388993 -0.82306594 0.78977317 1.128893 2.8077672 -1.5614305 -0.07222308
-0.41887373 0.51870054 0.57351404 -1.0339124 1.3595848 -3.2163181 0.34287804 -1.1669477
-0.9879867 -0.31474537 0.16267824 -0.6490452 3.1219265 -3.0275915 1.5457809 1.443865
0.6298124 0.51402014 0.35950243 -2.6469862 2.2948804 1.0170008 1.2062068 1.0762072
1.4688021 0.53292954 0.063158534 2.5902689 -0.2933781 1.359259 0.1788505 2.8418427
0.5028613 0.13835074 0.33659476 1.2302737 1.2352047 -0.42355707 1.8718338 1.1834507
0.6597889 1.3011627 -0.33013353 0.1113725 -0.05434664 -1.8183814 -0.103432104 2.4476635
1.9769136 -0.7894896 0.36364663 1.5899231 0.7947823 1.3309795 1.2867783 0.013971865
0.8647058 -0.6673503 0.31590712 1.3255767 1.583952 -0.21468315 1.113118 0.5837055
0.38957956 2.7365406 -1.3200612 0.41876015 1.9480346 -0.24906574 -0.55314523 0.4031779
-0.4633938 -1.4738169 0.18528035 -0.030221088 0.30712637 -0.5922747 -0.71083087 3.27377
1.7125354 -3.4988594 -1.6974529 0.24467227 -1.8871127 -1.0099282 0.9629592 -0.5700297
-3.138622 0.60582674 -0.9086866 -3.7990854 1.8907037 0.43916053 -1.4040604 -2.9037085
-0.97312003 -0.24877468 -1.7612536 -2.0128272 -2.8745704 -0.26870358 -2.015683 0.3722837
1.1618006 -4.19839 -0.4408451 -0.82916707 -2.2471626 -1.2820029 -0.751663 -3.9261997
-1.2735125 0.5335942 -0.8979939 -0.5518003 -1.3762102 0.60218304 -0.39713097 -0.20419553

fc.bias f4 [7]
00000000: d2a9 2c3e 9b10 1cc0 48f4 9b3d bcc9 d63d
00000010: a888 873e a9f2 7f3f c13c b5bf
0.16861656 -2.4385135 0.07614952 0.104876965 0.26471448 0.99979645 -1.4159166
