FaceExpressions_CNN/savemodel/model_56.pth (torch_old, 185408 bytes, 14 tensors)

layer1.0.weight f4 [16, 1, 5, 5]
0.7567563 1.9202778 3.1665406 3.2030318 3.2207797 3.8758123 -0.046985485 -0.73681414
-0.36595178 0.044550728 0.98203516 -2.0441892 -1.2573241 -5.1202364 -6.79322 1.77007
-1.0752751 0.011145714 -3.1820369 -2.1275017 1.3085217 -2.836835 1.9623979 0.21195999
1.7563193 -0.53318095 -2.7688324 -0.7799316 2.7426717 3.581768 -0.8151723 -1.6201599
0.7753019 1.2555444 -1.4808253 -0.61609995 -2.0976884 -1.2007357 -2.4182324 -2.640649
-6.806147 -2.1110203 -2.6602554 -5.7113233 1.2959197 0.9443438 0.42326102 -0.8451559
0.516734 1.785115 -2.4912367 -1.7273709 2.3431225 0.1555832 -3.5523286 1.7597694
2.6955216 1.8079976 4.9484177 0.090127625 0.32400838 4.014223 -1.4397571 5.8952765
0.73917586 -3.7290132 2.7625213 -0.15815687 5.1336203 0.678049 -1.7067745 0.26915193
-0.040594988 -0.5481302 -2.9308066 3.565099 1.3731182 -2.4736347 -0.21481526 0.18541194
2.857026 -4.700314 -3.2379265 0.59312034 -0.1047818 -2.500936 -6.3416395 0.094667934
-0.2936151 -2.7593508 -1.9378238 2.4042776 2.8097482 2.7924674 2.3011827 0.706912
1.4599786 0.5638285 0.3896473 1.893552 2.173365 -1.1521803 -1.9330267 -2.7306015
1.6269464 1.3521022 -1.792887 0.33876097 -1.9440092 -1.8284316 -2.7593715 -0.41243732
1.6939094 -4.170731 -5.6215796 0.93529445 1.0040349 -1.7333702 -2.9151309 -2.1626408
4.1571016 4.867187 1.5597894 1.72907 0.6513065 -0.9201697 -5.274804 -6.166545
-2.0607421 -1.3254471 0.042055175 -0.812926 -2.4483778 -1.8628689 -2.5931926 0.7895455
0.4155171 1.7895519 3.3539953 -1.0212009 -0.95338905 0.51972324 2.5638819 1.1419493
1.2939543 4.2101083 1.6448023 1.7662212 0.17353919 4.202053 0.62623185 -1.7442375
-0.83595556 2.4167616 0.1682684 1.1785086 -0.62916857 -4.1357336 0.3295046 4.3501925
1.0742371 2.2710605 -4.878216 -4.7256613 3.3041422 -0.25739178 2.8368971 1.7986099
-4.0433583 -1.4460987 -0.4290999 0.5167936 2.4574788 0.17834263 -0.049901783 0.0337776
0.08328764 -2.8000264 -2.5004363 -1.1238197 -1.9029521 0.41738024 -1.1166935 0.7535729
0.6167748 -2.022396 6.7828426 6.1891565 5.3100576 2.8138294 -0.57820445 2.6827168
-0.4817051 3.6237226 -3.157626 2.2525465 0.95987475 -0.3150902 1.7810066 -3.7816465
-2.0551553 -0.04576254 -0.45257053 -3.5314445 -2.1395206 1.8393657 -0.5224758 -0.72156817
-1.2302846 3.1432443 0.06677632 1.6941833 1.3912501 3.7290208 -0.63077646 0.61714876
2.7823815 3.136962 3.0335925 -4.661247 0.22186388 0.43643042 2.65829 1.5059786
-5.3849087 0.76689 -2.017829 -0.6238046 0.32947206 0.0001683063 -1.6954105 -1.6057395
3.7180166 2.3083804 1.7143192 0.12408423 0.53413653 6.5065002 0.20592678 -4.156481
-1.5179256 2.779292 5.822231 -2.0835428 -4.6044908 -2.3981762 0.13517113 -0.56455076
-0.54672074 -1.2480222 3.1957197 0.6463218 -3.056618 -1.415031 2.0530639 -0.54350936
00000000: c8ba 413f aacb f53f 9aa8 4a40 79fe 4c40
00000010: 4121 4e40 4f0d 7840 da73 40bd da9f 3cbf
00000020: 085e bbbe d37a 363d a866 7b3f ffd3 02c0
00000030: ffef a0bf fad8 a3c0 0f62 d9c0 a791 e23f
00000040: 9da2 89bf 839c 363c 7ea6 4bc0 fd28 08c0
00000050: a47d a73f b48e 35c0 db2f fb3f 0a0c 593e
00000060: 12cf e03f 8c7e 08bf 8d34 31c0 99a9 47bf
00000070: ef87 2f40 b03b 6540 22af 50bf 6661 cfbf
00000080: 2f7a 463f aeb5 a03f af8b bdbf bab8 1dbf
00000090: 8740 06c0 b5b1 99bf 52c4 1ac0 6500 29c0
000000a0: f5cb d9c0 f51a 07c0 a041 2ac0 29c3 b6c0
000000b0: b2e0 a53f 84c0 713f abb5 d83e 235c 58bf
000000c0: ae48 043f a67e e43f 6c70 1fc0 7d1a ddbf
000000d0: b8f5 1540 3451 1f3e 5a59 63c0 2040 e13f
000000e0: 6d83 2c40 776c e73f 7059 9e40 d594 b83d
000000f0: 6de4 a53e 8474 8040 f649 b8bf 1ba6 bc40
00000100: a13a 3d3f 27a8 6ec0 26cd 3040 e0f3 21be
00000110: 9e46 a440 9f94 2d3f 9677 dabf 48ce 893e
00000120: ee46 26bd 4352 0cbf 5692 3bc0 952a 6440
00000130: 56c2 af3f 0850 1ec0 88f8 5bbe a1dc 3d3e
00000140: 84d9 3640 f968 96c0 303a 4fc0 bcd6 173f
00000150: d797 d6bd 560f 20c0 b6ee cac0 43e1 c13d
00000160: b854 96be 3499 30c0 9c0a f8bf afdf 1940
00000170: ead2 3340 c9b7 3240 9446 1340 2ff8 343f
00000180: 94e0 ba3f 1157 103f da7f c73e e95f f23f
00000190: 6a18 0b40 a57a 93bf 6b6d f7bf 2dc2 2ec0
000001a0: c83f d03f af11 ad3f 527d e5bf 1472 ad3e
000001b0: 4bd5 f8bf 0c0a eabf 8b99 30c0 fc2a d3be
000001c0: 06d2 d83f a176 85c0 fbe3 b3c0 756f 6f3f
000001d0: 3784 803f 13df ddbf 8191 3ac0 b568 0ac0
000001e0: fa06 8540 ffbf 9b40 2ea7 c73f 2a52 dd3f
000001f0: 06bc 263f 3e90 6bbf 32cb a8c0 5654 c5c0
00000200: 33e3 03c0 40a8 a9bf 0c42 2c3d eb1b 50bf
00000210: 39b2 1cc0 7d72 eebf def6 25c0 a71f 4a3f
00000220: a8be d43e 0910 e53f dca7 5640 b6b6 82bf
00000230: 4e11 74bf 950c 053f a416 2440 652b 923f
00000240: 4ba0 a53f 35b9 8640 e288 d23f 8913 e23f
00000250: 42b4 313e 3877 8640 bb50 203f 2d43 dfbf
00000260: 2f01 56bf 39ac 1a40 8d4e 2c3e 5fd9 963f
00000270: 3111 21bf ee57 84c0 d4b4 a83e c734 8b40
00000280: 9a80 893f 0e59 1140 581a 9cc0 9e38 97c0
00000290: 1177 5340 dbc8 83be b98f 3540 d938 e63f
000002a0: 3163 81c0 c319 b9bf fbb2 dbbe 964c 043f
000002b0: 5547 1d40 739f 363e d065 4cbd 615a 0a3d
000002c0: b692 aa3d a233 33c0 2607 20c0 53d9 8fbf
000002d0: ef93 f3bf ddb2 d53e d0ef 8ebf 27ea 403f
000002e0: f4e4 1d3f f06e 01c0 0c0d d940 920d c640
000002f0: feeb a940 c815 3440 3505 14bf a2b1 2b40
00000300: 0da2 f6be 12eb 6740 8b16 4ac0 b929 1040
00000310: 5aba 753f 8153 a1be 06f8 e33f 7f06 72c0
00000320: aa87 03c0 8071 3bbd 53b7 e7be 3003 62c0
00000330: e8ed 08c0 5670 eb3f f9c0 05bf b1b8 38bf
00000340: f779 9dbf ea2a 4940 06c2 883d 00db d83f
00000350: 7c14 b23f 47a8 6e40 917a 21bf 76fd 1d3f
00000360: 8a12 3240 fcc3 4840 6126 4240 ef28 95c0
00000370: 4930 633e cf73 df3e 6c21 2a40 e8c3 c03f
00000380: 2c51 acc0 e752 443f 1c24 01c0 a9b1 1fbf
00000390: 90b0 a83e 617b 3039 3603 d9bf df88 cdbf
000003a0: fcf3 6d40 81bc 1340 d06e db3f df1f fe3d
000003b0: 2cbd 083f 4035 d040 78de 523e e401 85c0
000003c0: 634b c2bf ecdf 3140 b74f ba40 c458 05c0
000003d0: fd57 93c0 b87b 19c0 4d6a 0a3e 6686 10bf
000003e0: e4f5 0bbf 31bf 9fbf ac86 4c40 5875 253f
000003f0: a19f 43c0 bc1f b5bf 6665 0340 6e23 0bbf

layer1.0.bias f4 [16]
-0.17187515 5.7491717 0.21223533 -2.1925323 2.177517 -2.8785653 -0.38635042 0.8567844
1.5734043 -0.84248245 -0.03875172 -0.24660926 3.687176 0.29344884 2.3526318 0.19809988
00000000: 0a00 30be 37f9 b740 3854 593e 7352 0cc0
00000010: 705c 0b40 6a3a 38c0 b9cf c5be 3956 5b3f
00000020: 5065 c93f eeac 57bf 20ba 1ebd 2387 7cbe
00000030: b1fa 6b40 ed3e 963e 8591 1640 b2da 4a3e

layer1.1.weight f4 [16]
3.2962053 2.7932296 3.3462858 2.6255167 2.6149888 3.5045762 2.8951247 2.9541254
1.4920431 2.0410285 2.7678523 3.0233283 3.4447498 2.7149801 2.0561168 0.3668706
00000000: 07f5 5240 46c4 3240 8c29 5640 7708 2840
00000010: fa5b 2740 fa4a 6040 b949 3940 6410 3d40
00000020: 45fb be3f 36a0 0240 7e24 3140 367e 4140
00000030: c876 5c40 3cc2 2d40 6b97 0340 77d6 bb3e

layer1.1.bias f4 [16]
-3.4071712 -2.5267878 -4.1645327 -0.10617224 -2.1995378 -2.1797051 -0.97658384 -2.4152265
0.84231824 -1.1821959 -4.0689106 -2.1350644 -3.9574594 -0.34716618 -1.146064 -1.3687358
00000000: 180f 5ac0 e4b6 21c0 da43 85c0 d570 d9bd
00000010: 3ac5 0cc0 4a80 0bc0 6601 7abf 1293 1ac0
00000020: 2ba2 573f 3252 97bf 8434 82c0 e5a4 08c0
00000030: 0447 7dc0 c4bf b1be 3ab2 92bf bc32 afbf

layer1.1.running_mean f4 [16]
-1.2748077 -5.3468738 8.068213 -2.6612258 -2.7104187 -3.5290132 -0.46570805 8.443938
4.420905 0.60601306 0.28967744 -0.32988888 -6.789931 -0.036046166 3.583943 -3.7416039
00000000: e62c a3bf 9719 abc0 6717 0141 8651 2ac0
00000010: 8077 2dc0 5adb 61c0 4971 eebe 5f1a 0741
00000020: 0e78 8d40 ac23 1b3f 9a50 943e 32e7 a8be
00000030: 1d47 d9c0 25a5 13bd 525f 6540 7076 6fc0

layer1.1.running_var f4 [16]
7.9124384 30.281544 17.627394 3.678286 14.51094 14.046762 1.9224894 16.641144
6.385057 4.5447583 3.7750752 12.097917 39.56693 8.034013 3.5950923 3.3439934
00000000: b232 fd40 9a40 f241 e704 8d41 0a69 6b40
00000010: cf2c 6841 8abf 6041 2214 f63f 1021 8541
00000020: 6352 cc40 a96e 9140 d59a 7140 1191 4141
00000030: 8944 1e42 518b 0041 fe15 6640 fd03 5640

layer2.0.weight f4 [32, 16, 5, 5]
-2.9710217 -3.4089103 -2.4652119 -5.6847386 -1.7493494 -5.4955487 -2.7885842 -2.1132133
-4.249322 1.3241898 2.0715163 0.04169176 -3.7657676 0.49456555 2.2846859 -0.72848666
-1.5817274 0.32567805 1.7056562 -1.3460823 -2.1662178 -2.0963564 0.73678005 -1.2092183
1.8396434 -4.200108 -1.6320379 -3.286941 -2.7531178 0.4845344 -1.3320047 1.2563635
-0.9135439 1.3436527 7.353698 0.43653843 2.5184064 -0.38917276 -5.138147 0.47684607
-1.061578 2.7906857 3.5583625 -0.95440024 1.1780648 1.7866699 0.86816543 -1.7758254
-4.897412 1.4274894 -0.19104949 6.3923864 -2.1114368 -1.2415539 -1.7433262 0.027325695
-0.14873412 -5.1022587 -0.8865591 0.6094846 -3.6772757 2.0998557 -0.16191877 0.43556395
-0.97660404 -0.98418874 3.9399674 2.3261518 3.3276596 0.019073972 -2.4235265 -1.8593341
-1.2292018 -4.091697 -3.4336529 1.8990183 -1.5309069 -1.4118787 -0.8217058 -3.4443603
-1.6663193 -4.0876365 -5.8958707 -0.6983986 0.35439956 4.158218 2.0844402 -8.036685
-6.0277257 0.8071095 0.27387264 1.3660412 -2.2419755 1.2489922 -0.78611815 -0.14066623
2.3333726 -1.9405414 -0.19806908 2.2500901 0.13981344 3.5456128 -2.010116 0.5864476
-0.6205245 -3.3650408 -5.785282 -2.602021 -2.3893316 -1.8983935 -2.7419453 -1.4190104
0.6944944 -0.050909124 -2.5101316 0.21581717 4.972252 -0.45375782 -3.160541 -0.775972
3.5713334 -0.23335247 -2.0860875 1.9519348 1.8231331 -0.010192638 -2.6896186 -2.4071984
1.116765 1.5819968 1.2938738 0.3575823 -1.6144638 -0.52308834 0.6083086 -2.4851692
0.57787263 -1.8059723 -0.598638 -1.7237568 0.49819535 2.7026823 -4.6654024 -1.5294708
2.474228 -1.3786856 1.346108 -0.46933848 -3.6398063 -0.16662721 -3.208461 5.5875063
0.01523117 0.7921278 1.6975093 -0.48283353 -9.457504 -1.2500253 0.3843101 -7.5544176
4.0489435 1.0411271 -1.8338637 -6.935437 1.7711095 1.4872508 1.9893465 0.15697955
2.1419256 -1.379454 1.7331179 0.4494214 -2.296428 0.29063892 -1.3188671 1.3915462
-1.2585453 -2.5103922 1.8161393 1.306506 4.4914923 1.1076282 -0.48264563 -0.119992964
-2.0424562 -7.7619247 -3.6204088 -1.4666765 -2.8593292 -0.5445422 -2.7616153 -0.40296394
-0.35764155 -0.7301785 3.0214143 -0.77814716 0.1638379 0.77687925 1.0934383 3.208269
-0.84105974 -0.040224597 -0.024187852 0.94029117 -0.87504023 -1.6352237 -3.0201368 2.3675745
0.81379956 -0.9067043 -3.1267843 -3.2891731 -0.14600763 1.9571811 1.8766403 -1.3883871
-0.7886704 -2.302586 -3.1012685 1.4563395 -2.8177156 0.28829885 1.8146544 0.39113158
0.5737994 -1.3341967 -0.7315413 -2.9997783 3.4575925 -1.6687763 0.10752396 -6.184891
0.8993077 -0.23473616 -0.27144903 -0.78357154 -2.460674 -0.30717644 2.3329248 1.0723737
-4.5333476 -3.6253943 -2.4747427 -0.54424584 1.447382 -2.7445269 1.6351742 2.0188828
0.91752094 0.7167685 4.5015025 -4.4862156 1.5976962 -3.0220652 0.21645245 0.07531893
00000000: 3825 3ec0 962b 5ac0 08c6 1dc0 61e9 b5c0
00000010: aeea dfbf 89db afc0 2a78 32c0 e33e 07c0
00000020: 72fa 87c0 0d7f a93f b993 0440 fbc4 2a3d
00000030: 5602 71c0 b237 fd3e 4b38 1240 1a7e 3abf
00000040: 0b76 cabf 46bf a63e f152 da3f 6d4c acbf
00000050: 50a3 0ac0 b42a 06c0 9e9d 3c3f aac7 9abf
00000060: 6f79 eb3f 4967 86c0 9ee6 d0bf 3e5d 52c0
00000070: 1533 30c0 e514 f83e 217f aabf 85d0 a03f
00000080: 03de 69bf d0fc ab3f 7e51 eb40 f781 df3e
00000090: 922d 2140 a741 c7be b36b a4c0 2b25 f43e
000000a0: cae1 87bf 989a 3240 36bc 6340 9353 74bf
000000b0: d4ca 963f 99b1 e43f 1740 5e3f 3f4e e3bf
000000c0: 99b7 9cc0 f9b7 b63f 7aa2 43be 6e8e cc40
000000d0: c821 07c0 3deb 9ebf 5025 dfbf 23da df3c
000000e0: c24d 18be b445 a3c0 8af5 62bf 2f07 1c3f
000000f0: 7c58 6bc0 0964 0640 09ce 25be 3d02 df3e
00000100: b902 7abf cbf3 7bbf 6d28 7c40 acdf 1440
00000110: 60f8 5440 0541 9c3c 0f1b 1bc0 a9fe edbf
00000120: 7c56 9dbf 2fef 82c0 f8c0 5bc0 0813 f33f
00000130: c2f4 c3bf 71b8 b4bf 505b 52bf 6670 5cc0
00000140: f349 d5bf ebcd 82c0 f9aa bcc0 40ca 32bf
00000150: dc73 b53e 1f10 8540 7867 0540 4396 00c1
00000160: 21e3 c0c0 ba9e 4e3f 0939 8c3e 70da ae3f
00000170: 877c 0fc0 fade 9f3f 0a3f 49bf cf0a 10be
00000180: fa55 1540 a963 f8bf 9fd2 4abe 7a01 1040
00000190: 412b 0f3e 52eb 6240 bea5 00c0 6e21 163f
000001a0: b2da 1ebf d45c 57c0 0821 b9c0 8387 26c0
000001b0: cfea 18c0 8ffe f2bf 087c 2fc0 22a2 b5bf
000001c0: 63ca 313f 1686 50bd ffa5 20c0 2dff 5c3e
000001d0: b01c 9f40 f252 e8be 4e46 4ac0 1aa6 46bf
000001e0: ba90 6440 f3f3 6ebe 7582 05c0 00d9 f93f
000001f0: 6d5c e93f 06ff 26bc b622 2cc0 8a0f 1ac0
00000200: 28f2 8e3f df7e ca3f a89d a53f 0715 b73e
00000210: c0a6 cebf 1ee9 05bf 1dba 1b3f 030d 1fc0
00000220: 76ef 133f 1a2a e7bf 5740 19bf 10a4 dcbf
00000230: 7613 ff3e bff8 2c40 fa4a 95c0 b3c5 c3bf
00000240: c059 1e40 c578 b0bf 444d ac3f 224d f0be
00000250: 96f2 68c0 53a0 2abe 6d57 4dc0 dacc b240
00000260: 288c 793c e3c8 4a3f fc47 d93f f535 f7be
00000270: f051 17c1 d400 a0bf 4bc4 c43e cabd f1c0
00000280: f290 8140 a743 853f 0cbc eabf 1aef ddc0
00000290: b7b3 e23f 3c5e be3f e8a2 fe3f 3fbf 203e
000002a0: 4f15 0940 f391 b0bf cfd6 dd3f 901a e63e
000002b0: adf8 12c0 a0ce 943e a3d0 a8bf 301e b23f
000002c0: 0318 a1bf 44aa 20c0 4177 e83f 973b a73f
000002d0: 4eba 8f40 c3c6 8d3f 541d f7be dfbe f5bd
000002e0: 9ab7 02c0 b061 f8c0 c7b4 67c0 0ebc bbbf
000002f0: 40ff 36c0 1e67 0bbf 4ebe 30c0 4a51 cebe
00000300: cb1c b7be faec 3abf da5e 4140 a734 47bf
00000310: 1fc5 273e 8fe1 463f c9f5 8b3f 4754 4d40
00000320: b14f 57bf 8cc2 24bd 9a25 c6bc ecb6 703f
00000330: a302 60bf 034f d1bf ec49 41c0 5786 1740
00000340: 2b55 503f c61d 68bf 3c1d 48c0 d081 52c0
00000350: 0683 15be e984 fa3f c035 f03f abb6 b1bf
00000360: 4ee6 49bf 925d 13c0 2f7b 46c0 5569 ba3f
00000370: 7455 34c0 e89b 933e 9846 e83f 6642 c83e
00000380: 84e4 123f f5c6 aabf 4a46 3bbf 5efc 3fc0
00000390: 3249 5d40 769a d5bf 8635 dc3d a1ea c5c0
000003a0: 0839 663f ad5e 70be 5efb 8abe 2598 48bf
000003b0: af7b 1dc0 3b46 9dbe a44e 1540 8b43 893f
000003c0: 2f11 91c0 7606 68c0 2f62 1ec0 b253 0bbf
000003d0: d043 b93f 54a6 2fc0 634d d13f 6035 0140
000003e0: a7e2 6a3f 247e 373f 4f0c 9040 148f 8fc0
000003f0: 4f81 cc3f 8469 41c0 b6a5 5d3e d040 9a3d

layer2.0.bias f4 [32]
2.552814 1.0633837 1.8278153 0.1929084 0.4435456 1.1200848 2.3636286 0.3013051
1.7177299 0.25515854 1.0771738 0.05036531 0.1955629 0.8149975 2.311811 1.1382841
0.18916236 0.19695292 1.1916839 1.5808123 0.13229117 2.2076092 1.938851 1.8632901
1.6828214 0.03198193 1.0804598 1.4817127 0.16890362 2.548457 1.0135565 0.17242675
00000000: 4e61 2340 f51c 883f daf5 e93f c889 453e
00000010: 6918 e33e f05e 8f3f b145 1740 a944 9a3e
00000020: 93de db3f 24a4 823e d5e0 893f db4b 4e3d
00000030: a441 483e ada3 503f b6f4 1340 4bb3 913f
00000040: c7b3 413e 07ae 493e 1989 983f 0f58 ca3f
00000050: 5677 073e 7849 0d40 452c f83f 4a80 ee3f
00000060: b166 d73f 7cff 023d 824c 8a3f c3a8 bd3f
00000070: 12f5 2c3e eb19 2340 38bc 813f a390 303e

layer2.1.weight f4 [32]
0.5295282 0.56299555 0.64591557 0.26864558 0.22420615 0.67149585 0.6390215 0.14227194
0.41913614 0.22648065 0.5376785 1.0487434 0.17639042 0.8829884 0.74825466 1.1507959
0.21059252 0.28662583 0.8303594 0.56539905 0.1682578 0.79747945 0.58646387 0.4525816
0.73754174 0.27196413 0.7548242 0.7264341 0.27096218 0.5989614 0.56206274 0.2535691
00000000: 298f 073f 7a20 103f b95a 253f ea8b 893e
00000010: 4c96 653e 27e7 2b3f ea96 233f bcaf 113e
00000020: 0399 d63e 8bea 673e 4ca5 093f 393d 863f
00000030: b19f 343e 870b 623f 9e8d 3f3f 484d 933f
00000040: 91a5 573e 9fc0 923e 6f92 543f febd 103f
00000050: c64b 2c3e 9d27 4c3f 7f22 163f c7b8 e73e
00000060: 89cf 3c3f e23e 8b3e 293c 413f 96f7 393f
00000070: 8ebb 8a3e 8955 193f 58e3 0f3f cfd3 813e

layer2.1.bias f4 [32]
-0.5588813 -0.5786798 -0.8019073 -0.7322961 -0.6869979 -0.8906812 -0.7904218 -0.8243952
-0.4969372 -0.76534355 -0.50227755 -2.103927 -0.9085395 -1.337825 -0.85302436 -1.6940019
-0.76636624 -0.6258959 -1.1099086 -0.6914977 -0.5734798 -0.90904725 -0.7608266 -0.47988024
-1.0339303 -0.6508736 -1.1303607 -0.8537203 -0.68851686 -0.57440424 -0.67634654 -0.8235452
00000000: d812 0fbf 5c24 14bf cc49 4dbf c277 3bbf
00000010: 18df 2fbf af03 64bf 1559 4abf 900b 53bf
00000020: 8d6e febe 8eed 43bf 4395 00bf bda6 06c0
00000030: 0b96 68bf d93d abbf ce5f 5abf 0ed5 d8bf
00000040: 9430 44bf b73a 20bf 7c11 8ebf fe05 31bf
00000050: 92cf 12bf 52b7 68bf 88c5 42bf ddb2 f5be
00000060: d457 84bf a79f 26bf a9af 90bf 6a8d 5abf
00000070: a442 30bf 280c 13bf 0c25 2dbf dcd3 52bf

layer2.1.running_mean f4 [32]
-126.973785 -102.58636 -91.35145 -54.085938 -28.01843 -78.9326 -91.27928 -37.7592
-79.35043 -38.295826 -80.618805 -65.279396 -48.7228 -92.92092 -115.795 -99.7074
-25.070305 -21.31722 -78.27675 -152.38182 -46.719406 -112.06597 -94.367004 -97.516304
-66.96431 -27.751955 -63.341583 -95.6999 -32.28545 -123.962944 -91.16175 -46.989853
00000000: 94f2 fdc2 372c cdc2 f1b3 b6c2 0058 58c2
00000010: bf25 e0c1 7edd 9dc2 fe8e b6c2 6c09 17c2
00000020: 6cb3 9ec2 ed2e 19c2 d43c a1c2 0d8f 82c2
00000030: 26e4 42c2 83d7 b9c2 0a97 e7c2 306a c7c2
00000040: fc8f c8c1 ab89 aac1 b28d 9cc2 bf61 18c3
00000050: ace0 3ac2 c721 e0c2 e8bb bcc2 5908 c3c2
00000060: baed 85c2 0104 dec1 c85d 7dc2 5966 bfc2
00000070: 4d24 01c2 07ed f7c2 d152 b6c2 9cf5 3bc2

layer2.1.running_var f4 [32]
13373.797 17523.484 9405.877 1103.7781 351.7275 9332.614 10715.3 607.30023
7958.4766 642.0709 11832.003 13651.477 1227.5736 11585.412 13775.786 11841.757
424.5561 205.88199 10175.377 14280.724 1072.0988 12344.783 8234.482 10404.744
6642.102 298.94144 10889.446 10688.329 408.37076 12868.47 11563.334 934.415
00000000: 30f7 5046 f8e6 8846 82f7 1246 e6f8 8944
00000010: 1fdd af43 75d2 1146 336d 2746 37d3 1744
00000020: d0b3 f845 8a84 2044 03e0 3846 e84d 5546
00000030: 5b72 9944 a605 3546 253f 5746 0707 3946
00000040: 2e47 d443 cae1 4d43 82fd 1e46 e522 5f46
00000050: 2903 8644 22e3 4046 eea9 0046 fa92 2246
00000060: d190 cf45 8178 9543 c925 2a46 5101 2746
00000070: 752f cc43 e111 4946 56ad 3446 8f9a 6944

fc.weight f4 [7, 4608]
-2.8904846 0.028993137 1.429448 -0.9358655 0.9948585 -2.6859586 -2.8547995 1.7264562
-1.5088757 -1.4840096 0.2234731 -2.1995175 -0.19746879 0.21084875 -2.0137193 0.78981584
-0.05467599 -1.5568713 1.3028306 -0.8838078 -0.0043249093 0.827353 -1.3776461 -3.0680697
-0.75798523 -0.043704383 -0.5835596 1.7729404 -1.8961952 1.1277018 -1.1605885 0.0040078
-0.9662155 -2.6170244 -1.2487919 0.24651718 0.12700544 1.0465027 -1.5684626 -0.93034524
0.37691426 -2.0046773 -0.22984064 1.7339766 -0.5502921 -1.3651541 0.032723274 -3.007548
-0.9177993 -0.12928963 -1.0535915 -1.4314625 -0.7011146 -0.08461829 0.5471833 -1.3581761
-0.5591738 -1.5452417 0.107860416 0.44825777 2.960923 3.8684092 0.47928533 -0.13099873
1.3630257 -0.75663745 0.20472673 -0.17926939 -0.6404405 -0.57565314 1.3389837 -2.7857273
-3.034923 -0.9828532 1.3856785 1.1506652 0.0511652 2.318003 -0.88613915 -0.4328289
-0.24596356 1.9260125 -0.0003798901 5.2706823 -0.08910584 0.72484374 1.122301 -0.9003497
1.0428091 -0.089933075 0.8459787 -0.54857004 2.233295 -0.7375438 0.38225988 -1.5314356
-1.092959 -0.6574524 1.3605638 -1.2600161 2.1364532 0.061327267 -1.0437125 0.48994982
1.4218458 -0.28889355 -0.2859253 -0.5342065 0.3417408 1.7355045 0.10368452 0.36145315
-1.3014439 0.95060235 -0.15102553 1.1270357 0.60420483 0.90274596 -0.5932276 0.66489965
0.5940337 -0.04995137 -0.12328732 -2.954575 1.6872079 -3.366418 1.857782 0.708113
1.2926015 -0.6376444 -1.2111607 1.255599 1.7958632 3.62496 -1.4870828 -0.17770143
-0.5864466 1.2809769 1.0809019 -0.94840455 2.205078 -4.7105994 0.96360314 -1.3857461
-1.1272545 -1.0543938 0.5463159 -0.6185898 3.8426323 -4.617354 1.5046573 2.3832896
-0.2223432 0.4912433 1.2294227 -2.7741275 2.5074904 1.2584318 1.0818259 1.259949
1.9334893 0.307499 0.4498675 3.1206377 -0.09395758 1.5175915 0.72449356 2.7497456
0.26433483 0.122691825 -0.20097287 1.7477244 0.820183 -0.44327644 2.0704908 1.339288
0.4386558 1.6354111 0.27434883 -0.32624942 -0.6678485 -1.9703523 -0.21252877 2.4800544
1.8021878 -0.8608085 0.34108096 1.7523524 1.3312806 1.0211964 0.98030835 0.09144308
0.065416835 -0.860171 0.44747716 1.3535364 1.7244432 -0.18950085 1.080016 0.7482245
0.79483944 2.5717425 -0.1213563 0.7543013 1.9711984 -1.1111317 -1.1499766 0.46115854
-0.33024454 -1.3167167 0.26671088 0.47035018 0.29462674 -0.86539686 -0.87421095 2.8406067
2.096467 -3.9823542 -2.4297621 0.4811016 -2.1708148 -0.790493 1.1575454 -1.0135028
-3.1033728 0.67782223 -1.7452925 -4.211817 1.5325503 0.11873634 -1.1084081 -3.3313982
-1.5249895 -0.4204764 -1.7770187 -2.1780636 -3.622111 -0.6812018 -2.2270525 -0.046388824
1.4537202 -4.9375205 -0.19185998 -0.64495873 -2.198905 -1.605356 0.0501772 -4.633077
-1.3732322 0.8330338 -1.5954397 -0.25103045 -1.4407691 0.4283325 -0.6844656 -0.1647824
00000000: b3fd 38c0 0483 ed3c 27f8 b63f e294 6fbf
00000010: 0caf 7e3f bfe6 2bc0 09b5 36c0 84fc dc3f
00000020: d722 c1bf 07f4 bdbf 22d6 643e e5c4 0cc0
00000030: 4235 4abe bce8 573e c7e0 00c0 5f31 4a3f
00000040: eef3 5fbd 8f47 c7bf 27c3 a63f 3a41 62bf
00000050: f8b7 8dbb 68cd 533f b556 b0bf 415b 44c0
00000060: 520b 42bf 5e03 33bd 2964 15bf b6ef e23f
00000070: 86b6 f2bf 8858 903f 2a8e 94bf dd53 833b
00000080: e659 77bf 547d 27c0 6ad8 9fbf 006f 7c3e
00000090: b70d 023e cdf3 853f 62c3 c8bf 1b2b 6ebf
000000a0: e8fa c03e a24c 00c0 585b 6bbe f2f2 dd3f
000000b0: f1df 0cbf 5fbd aebf d708 063d ab7b 40c0
000000c0: e5f4 6abf 8064 04be 16dc 86bf 2a3a b7bf
000000d0: 3f7c 33bf 5b4c adbd 3414 0c3f b7d8 adbf
000000e0: 0426 0fbf 7bca c5bf ece5 dc3d 0b82 e53e
000000f0: c37f 3d40 0494 7740 e364 f53e 8824 06be
00000100: a077 ae3f feb2 41bf e2a3 513e 6592 37be
00000110: e9f3 23bf 015e 13bf d163 ab3f 5b49 32c0
00000120: 2e3c 42c0 449c 7bbf ea5d b13f ff48 933f
00000130: 9a92 513d 295a 1440 04da 62bf c09b ddbe
00000140: dfdd 7bbe 9487 f63f fc2b c7b9 6ea9 a840
00000150: 1f7d b6bd 5c8f 393f 8fa7 8f3f 517d 66bf
00000160: c57a 853f d52e b8bd 0f92 583f 166f 0cbf
00000170: 4eee 0e40 accf 3cbf 91b7 c33e 1506 c4bf
00000180: 15e6 8bbf cd4e 28bf f426 ae3f 3548 a1bf
00000190: a6bb 0840 4d32 7b3d 5f98 85bf b4da fa3e
000001a0: 0bff b53f dbe9 93be cd64 92be c2c1 08bf
000001b0: a6f8 ae3e 0325 de3f 8d58 d43d 6310 b93e
000001c0: b795 a6bf ad5a 733f 70a6 1abe b542 903f
000001d0: 2bad 1a3f 5c1a 673f c4dd 17bf dd36 2a3f
000001e0: 9812 183f cf99 4cbd 107e fcbd c217 3dc0
000001f0: 6ef6 d73f 6473 57c0 cdcb ed3f e546 353f
00000200: f773 a53f aa3c 23bf 5007 9bbf 78b7 a03f
00000210: d8de e53f 58ff 6740 bb58 bebf 5df7 35be
00000220: 5d21 16bf 0df7 a33f fe5a 8a3f a4ca 72bf
00000230: ff1f 0d40 3bbd 96c0 b2ae 763f 2160 b1bf
00000240: e049 90bf 60f6 86bf 5cdb 0b3f e75b 1ebf
00000250: b0ed 7540 5dc1 93c0 9c98 c03f d187 1840
00000260: f0ad 63be 3e84 fb3e b95d 9d3f 4e8b 31c0
00000270: b97a 2040 4b14 a13f 4579 8a3f 0246 a13f
00000280: 947c f73f 8270 9d3e 0855 e63e 87b8 4740
00000290: d56c c0bd 7040 c23f 6978 393f d5fb 2f40
000002a0: e556 873e da45 fb3d d5cb 4dbe 6fb5 df3f
000002b0: 83f7 513f 21f5 e2be ec82 0440 ca6d ab3f
000002c0: 7e97 e03e 2755 d13f 7377 8c3e 2a0a a7be
000002d0: 1ff8 2abf 8134 fcbf 24a1 59be 36b9 1e40
000002e0: 17ae e63f f25d 5cbf 2aa2 ae3e 154d e03f
000002f0: 6767 aa3f 90b6 823f 7df5 7a3f 8246 bb3d
00000300: 43f9 853d 2b34 5cbf ba1b e53e ae40 ad3f
00000310: 8eba dc3f 830c 42be f73d 8a3f a48b 3f3f
00000320: 997a 4b3f 6e97 2440 a789 f8bd e419 413f
00000330: 3b50 fc3f 9039 8ebf 6f32 93bf f91c ec3e
00000340: d015 a9be 2c8a a8bf 548e 883e bdd1 f03e
00000350: 51d9 963e a68a 5dbf 4acc 5fbf 80cc 3540
00000360: 842c 0640 e4de 7ec0 3981 1bc0 f352 f63e
00000370: a1ee 0ac0 c05d 4abf 732a 943f 76ba 81bf
00000380: a99d 46c0 c285 2d3f bf65 dfbf 34c7 86c0
00000390: 9c2a c43f 0a2c f33d 51e0 8dbf a135 55c0
000003a0: db32 c3bf af48 d7be 5975 e3bf 6565 0bc0
000003b0: abd0 67c0 3e63 2ebf 0788 0ec0 3502 3ebd
000003c0: 8113 ba3f 2b00 9ec0 f176 44be 041c 25bf
000003d0: dcba 0cc0 4e7c cdbf 9c86 4d3d 2b42 94c0
000003e0: 13c6 afbf b441 553f 5e37 ccbf 1087 80be
000003f0: 1f6b b8bf 664e db3e 2339 2fbf b8bc 28be

fc.bias f4 [7]
0.29832235 -3.322277 0.053407926 0.21515071 0.32932836 1.0231153 -1.627945
00000000: b5bd 983e 30a0 54c0 45c2 5a3d 7850 5c3e
00000010: ba9d a83e 71f5 823f 8060 d0bf
