FaceExpressions_CNN/savemodel/model_60.pth (torch_old, 185408 bytes, 14 tensors)

layer1.0.weight f4 [16, 1, 5, 5]
0	0x3f5fc01c	0.8740251
1	0x400b2cf9	2.17462
2	0x4050caaa	3.2623696
3	0x4049a0c9	3.1504385
4	0x404994e9	3.1497138
5	0x40752609	3.8304465
6	0xbdb42a5a	-0.087971404
7	0xbf455e66	-0.77097166
8	0xbf046a73	-0.5172493
9	0xbe41538e	-0.1887953
10	0x3f5d60c7	0.86475796
11	0xc0053dd8	-2.0818996
12	0xbf98723d	-1.1909863
13	0xc0abda16	-5.370372
14	0xc0e206a8	-7.0633125
15	0x3fe0ae52	1.7553198
16	0xbf99210c	-1.196321
17	0xbd811953	-0.06303658
18	0xc054e815	-3.3266652
19	0xc009bc75	-2.1521275
20	0x3fa82470	1.313612
21	0xc0408ab4	-3.0084658
22	0x40071a02	2.1109624
23	0x3e893342	0.2679692
24	0x3ff1c04f	1.8886813
25	0xbe8a8e1c	-0.27061546
26	0xc039c8a6	-2.9028716
27	0xbf96eb64	-1.1790586
28	0x4030704e	2.7568545
29	0x40662c4c	3.5964537
30	0xbed56147	-0.4167578
31	0xbfdcda39	-1.7254096
32	0x3f396971	0.72426516
33	0x3fa3ffdd	1.2812458
34	0xbfc5b3fe	-1.5445554
35	0xbf263462	-0.6492368
36	0xc0094280	-2.1446838
37	0xbfa94035	-1.322272
38	0xc016cfa6	-2.3564239
39	0xc028492e	-2.6294665
40	0xc0eeac0b	-7.4585013
41	0xc014f229	-2.3272803
42	0xc0236314	-2.5529222
43	0xc0bcd189	-5.900578
44	0x3fa79fb4	1.3095613
45	0x3f858c5a	1.0433457
46	0x3e6ccc67	0.23124848
47	0xbf76aca5	-0.96357185
48	0x3f137674	0.5760262
49	0x3fe007f2	1.7502425
50	0xc0238baf	-2.5554006
51	0xc0037855	-2.0542195
52	0x400775e9	2.1165717
53	0x3e492c07	0.19645701
54	0xc06ffd87	-3.749849
55	0x3ffe3393	1.9859489
56	0x4020aeb4	2.510663
57	0x3fd6f8e7	1.6794709
58	0x40a3992f	5.112449
59	0xbc5762a9	-0.013146081
60	0x3e893bb1	0.26803353
61	0x407b86f1	3.9301112
62	0xbfefb7b1	-1.8727933
63	0x40c307ef	6.0947185
64	0x3f472540	0.77791214
65	0xc07713bc	-3.8605795
66	0x403d303f	2.9560697
67	0xbe700521	-0.23439457
68	0x40b6ca3c	5.712187
69	0x3f69772a	0.91197455
70	0xbfc9bc18	-1.5760527
71	0x3e97062c	0.29496896
72	0xbd61aa78	-0.055094212
73	0xbee9fec3	-0.4570218
74	0xc033153d	-2.7981713
75	0x4067bd13	3.6209152
76	0x3fb534ca	1.4156735
77	0xc023583f	-2.552261
78	0xbe800c57	-0.25009415
79	0x3de4d3c3	0.11173203
80	0x4033f46c	2.8117933
81	0xc09b77fb	-4.858396
82	0xc057d224	-3.372201
83	0x3f3315f5	0.6995538
84	0xbdf49b46	-0.119436786
85	0xc026f803	-2.6088874
86	0xc0cf1351	-6.471108
87	0x3df35c62	0.11882855
88	0xbe8370c5	-0.25671974
89	0xc0332d54	-2.7996416
90	0xc005eee0	-2.0927048
91	0x401f4efb	2.4891956
92	0x403a502e	2.9111438
93	0x403fd731	2.9975092
94	0x401dc977	2.4654214
95	0x3f105be2	0.563902
96	0x3fbcc222	1.4746745
97	0x3f06dade	0.52677715
98	0x3edaf41c	0.42764366
99	0x4002b0f7	2.042051
100	0x40101f79	2.251921
101	0xbfba1e64	-1.4540524
102	0xc009eb61	-2.1549914
103	0xc03b9e52	-2.931538
104	0x3fcb09ed	1.5862404
105	0x3fbe43ea	1.4864476
106	0xbff190e1	-1.8872339
107	0x3e9f5950	0.31122828
108	0xbfd56e5b	-1.6674303
109	0xbfe12a63	-1.759106
110	0xc04502f5	-3.0783055
111	0xbf49cdd4	-0.78829694
112	0x3fd55189	1.6665508
113	0xc086796c	-4.202322
114	0xc0bfa6bd	-5.989104
115	0x3f43089d	0.7618502
116	0x3f5c915a	0.8615929
117	0xbff6e637	-1.9289006
118	0xc0377ba8	-2.8669224
119	0xc0033dd3	-2.0506485
120	0x40855631	4.1667714
121	0x409fb4d2	4.990823
122	0x3fb6fc3f	1.4295729
123	0x3fe9b045	1.8256918
124	0x3f34fdcc	0.70699763
125	0xbf84a3a4	-1.0362439
126	0xc0b05455	-5.5102944
127	0xc0c93fa8	-6.2890205
128	0xc00cb886	-2.1987624
129	0xbfadce5c	-1.3578601
130	0xbb00a905	-0.0019631993
131	0xbf5a2384	-0.8521044
132	0xc01dcceb	-2.4656322
133	0xc0036a77	-2.053373
134	0xc020f714	-2.5150805
135	0x3f6126fd	0.87950116
136	0x3e9d6d12	0.30747277
137	0x3fee3b6f	1.8611888
138	0x4064fd76	3.57797
139	0xbf664f83	-0.89965075
140	0xbf756191	-0.95852
141	0x3ef18edf	0.47179314
142	0x402e1f0d	2.7206452
143	0x3f9a3027	1.2045945
144	0x3fa393c1	1.2779466
145	0x408c45ec	4.3835354
146	0x3fcc76fb	1.597381
147	0x3fdd5530	1.7291622
148	0x3d557f39	0.052123282
149	0x40895f5d	4.292891
150	0x3f27cb8c	0.6554496
151	0xbfdfa384	-1.7471776
152	0xbf54a9f3	-0.8307182
153	0x4020d88f	2.5132177
154	0x3e84b6c6	0.25920695
155	0x3faa2c3f	1.3294753
156	0xbf116b2c	-0.56804156
157	0xc0865893	-4.1983123
158	0x3eb503c7	0.35354444
159	0x408fb98b	4.4913993
160	0x3f896ace	1.0735719
161	0x401ad3a8	2.4191685
162	0xc09f4e65	-4.9783196
163	0xc09d033b	-4.9066443
164	0x40587547	3.382158
165	0xbeb4e5a5	-0.35331455
166	0x403ae374	2.9201326
167	0x3ff209c2	1.8909228
168	0xc08824e8	-4.254505
169	0xbfb75aaf	-1.432455
170	0xbee71740	-0.45134926
171	0x3efba80c	0.49151647
172	0x4021f22b	2.5304058
173	0x3e07eeab	0.13274638
174	0xbe0e2bfc	-0.13883966
175	0x3e3ee633	0.18642502
176	0x3e08a53a	0.13344279
177	0xc03cebc5	-2.9518902
178	0xc0247788	-2.5697956
179	0xbf868f2d	-1.0512444
180	0xbfeaf832	-1.8356993
181	0x3f233432	0.6375152
182	0xbf8c8739	-1.0978767
183	0x3f3bdb8e	0.7338189
184	0x3ee7e5db	0.45292553
185	0xc00f1ef7	-2.236265
186	0x40e03998	7.0070305
187	0x40d1227b	6.535459
188	0x40b40fd4	5.626932
189	0x4049ba42	3.1519933
190	0xbe968108	-0.29395318
191	0x40352457	2.830343
192	0xbf1addc2	-0.60494626
193	0x4058d593	3.3880355
194	0xc03fd44b	-2.9973323
195	0x401b2f7a	2.4247727
196	0x3f592a58	0.84830236
197	0xbec7d1ad	-0.39027157
198	0x3fbcf242	1.4761431
199	0xc07ba549	-3.9319632
200	0xc0032350	-2.0490303
201	0x3e080b51	0.13285567
202	0xbe9d77d1	-0.30755475
203	0xc062424c	-3.5352964
204	0xc0080500	-2.1253052
205	0x3ffa742f	1.9566706
206	0xbf0b77e1	-0.54479796
207	0xbf25028d	-0.6445702
208	0xbfa52ad1	-1.2903692
209	0x405ed554	3.4817705
210	0x3e351486	0.1768361
211	0x3fcb0eea	1.5863926
212	0x3fbb63ff	1.4639891
213	0x4079b41e	3.9016185
214	0xbecd2ca6	-0.40073127
215	0x3f202064	0.62549424
216	0x402b76a2	2.6791158
217	0x40469e28	3.103403
218	0x4046c62d	3.1058457
219	0xc09bd7dc	-4.8701
220	0x3eb2d199	0.34925535
221	0x3efc3524	0.49259293
222	0x402b6d37	2.678541
223	0x3fc57b83	1.5428318
224	0xc0b471d2	-5.638894
225	0x3f4f86d3	0.810651
226	0xbff9f0e1	-1.9526635
227	0xbef337df	-0.47503564
228	0x3ecc97f7	0.3995969
229	0x3b9a7c5c	0.004714532
230	0xbfc8bde0	-1.5682945
231	0xbfbdd29e	-1.48299
232	0x4081c01d	4.0547013
233	0x40152580	2.3304138
234	0x3ff35f96	1.9013546
235	0x3e97d33e	0.29653352
236	0x3f00f294	0.50370145
237	0x40d45dad	6.636435
238	0x3e1180ea	0.14209333
239	0xc088b917	-4.272594
240	0xbfcc299f	-1.5950202
241	0x40336951	2.803303
242	0x40c0c076	6.023494
243	0xc00c6651	-2.193745
244	0xc0977938	-4.733547
245	0xc01bfc4c	-2.437274
246	0x3e713ac8	0.2355758
247	0xbf205c40	-0.6264076
248	0xbf17da4f	-0.5931749
249	0xbfa3c357	-1.2793988
250	0x405d38fd	3.4566033
251	0x3f2ab3e8	0.66680765
252	0xc045aa53	-3.0885208
253	0xbfa7aaba	-1.3098977
254	0x40033973	2.0503814
255	0xbf0317e2	-0.5120832

layer1.0.bias f4 [16]
0	0x3e8fcec7	0.28087446
1	0x40cd29f3	6.4113708
2	0x3e561978	0.20908153
3	0xc0000f92	-2.0009503
4	0x404021bb	3.0020587
5	0xc047f722	-3.1244588
6	0x3dc77c60	0.097405195
7	0x3f4ad7ee	0.7923573
8	0x3f7c3995	0.98525363
9	0xbf1d0889	-0.6134115
10	0x3ef97a48	0.48726106
11	0xbd2bc76d	-0.041938234
12	0x407e87b6	3.9770331
13	0x3f48eb42	0.78483975
14	0x4014fb27	2.3278291
15	0x3e4adab2	0.19809988

layer1.1.weight f4 [16]
0	0x40568296	3.3517203
1	0x403b17ab	2.9233196
2	0x405aa8b5	3.416547
3	0x402ae934	2.6704836
4	0x402c96d2	2.6967053
5	0x40629f4b	3.5409725
6	0x403a9d0f	2.915836
7	0x403d00b6	2.9531684
8	0x3fc35e06	1.5263069
9	0x400c4b20	2.1920853
10	0x40389011	2.883793
11	0x403e2d18	2.9715023
12	0x40658066	3.5859618
13	0x4033ccaa	2.8093667
14	0x400fb0df	2.2451704
15	0x3ebbd677	0.3668706

layer1.1.bias f4 [16]
0	0xc0642085	-3.5644848
1	0xc0251b10	-2.5797768
2	0xc088abe3	-4.2709823
3	0xbde68f90	-0.11257851
4	0xc007802b	-2.1171978
5	0xc016b05b	-2.354514
6	0xbf88ce67	-1.0687989
7	0xc02273bf	-2.5383146
8	0x3f5d65ee	0.8648366
9	0xbf889fe7	-1.0673798
10	0xc083bc1b	-4.116712
11	0xc0107bc5	-2.2575543
12	0xc0854c0d	-4.1655335
13	0xbec98806	-0.3936159
14	0xbf8594e5	-1.0436064
15	0xbfaf32bc	-1.3687358

layer1.1.running_mean f4 [16]
0	0xbf84a966	-1.0364196
1	0xc0a6c520	-5.211563
2	0x40fff23a	7.9983187
3	0xc01f2544	-2.4866495
4	0xc01f68d0	-2.4907722
5	0xc0815df5	-4.0427194
6	0x3e676218	0.22596014
7	0x410cba95	8.795552
8	0x40833e3c	4.101347
9	0x3f9000de	1.1250265
10	0x3f19e5ca	0.60116255
11	0xbeacf729	-0.33782318
12	0xc0db2024	-6.8476734
13	0xbba1918c	-0.0049306806
14	0x405f4565	3.4886105
15	0xc06f3795	-3.7377675

layer1.1.running_var f4 [16]
0	0x4109ba64	8.608006
1	0x4208cbcf	34.19903
2	0x418fe633	17.987402
3	0x40829c71	4.081597
4	0x41802241	16.016726
5	0x4173a357	15.227378
6	0x4002dd96	2.0447745
7	0x4195a7b6	18.70689
8	0x40d6a8c5	6.7081017
9	0x40a1ec7c	5.0601177
10	0x40826a2a	4.0754595
11	0x414fd75b	12.990077
12	0x422ccd35	43.200397
13	0x410aa3d8	8.665001
14	0x40746c0a	3.8190942
15	0x405cf410	3.4523964

layer2.0.weight f4 [32, 16, 5, 5]
0	0xc066c914	-3.6060228
1	0xc06f7e73	-3.7420928
2	0xc0407d47	-3.0076463
3	0xc0bfd8f7	-5.995235
4	0xbfd4a0a4	-1.6611524
5	0xc0ad1d8c	-5.409857
6	0xc04ad3fb	-3.1691883
7	0xc0233e45	-2.5506756
8	0xc08cac10	-4.3960037
9	0x3fa2507a	1.268081
10	0x3ff467d7	1.909419
11	0x3d378c2d	0.044811416
12	0xc08f16ab	-4.471517
13	0x3f299755	0.6624654
14	0x400be6ec	2.1859694
15	0xbf5e2fbd	-0.8679159
16	0xbfda9304	-1.7076116
17	0x3eb3893b	0.35065636
18	0x3ffee630	1.9913998
19	0xbfd1b9a2	-1.6384776
20	0xc00a9b7b	-2.1657398
21	0xbfe97564	-1.823895
22	0x3f6d795a	0.9276329
23	0xbf9d0068	-1.2265749
24	0x3fe4fe0f	1.7890033
25	0xc08d8789	-4.422795
26	0xc00e2bd5	-2.2214253
27	0xc05d572e	-3.458446
28	0xc0396d91	-2.8973124
29	0x3ed1b5a5	0.40958896
30	0xbfab80a2	-1.3398631
31	0x3f562fc9	0.83666664
32	0xbf69e99f	-0.913721
33	0x3f9e4e70	1.2367687
34	0x40f0eb0a	7.5286913
35	0x3f300a88	0.6876607
36	0x4016f9de	2.3590007
37	0xbe9b0f71	-0.30285218
38	0xc0a91f4f	-5.285072
39	0x3f265187	0.6496815
40	0xbf99acf6	-1.2005908
41	0x4022d5cf	2.5442998
42	0x40633e2a	3.5506692
43	0xbf919d7f	-1.1376189
44	0x3f7fe9ce	0.9996613
45	0x400be86b	2.1860607
46	0x3f7fb10f	0.99879545
47	0xbfbe1e13	-1.4852928
48	0xc09f286e	-4.9736853
49	0x3fbc5e47	1.4716271
50	0x3ed4a455	0.41531625
51	0x40cd40a8	6.4141426
52	0xc00c71df	-2.1944501
53	0xbfc7ed2d	-1.5619255
54	0xc014686a	-2.318873
55	0xbe9d0546	-0.30668086
56	0xbeff1031	-0.4981704
57	0xc0b39cd1	-5.6128926
58	0xbf97dc03	-1.1864017
59	0x3ee3132c	0.44350564
60	0xc08843fc	-4.258299
61	0x3ff3c323	1.9043926
62	0xbe806254	-0.25075018
63	0x3ec62430	0.38699484
64	0xbf76d15d	-0.96413213
65	0xbf00ae76	-0.50266206
66	0x406982fd	3.64862
67	0x401e94cc	2.4778318
68	0x40626972	3.5376859
69	0xbe307fd4	-0.17236263
70	0xc03c2664	-2.9398432
71	0xc00da4a7	-2.2131746
72	0xbf8e4120	-1.1113625
73	0xc08821d0	-4.2541275
74	0xc0643a12	-3.5660443
75	0x3fa7cd30	1.3109493
76	0xbfafe026	-1.374028
77	0xbfc54f27	-1.541478
78	0xbf75bcba	-0.959911
79	0xc0587c17	-3.3825738
80	0xbff48e9f	-1.9106025
81	0xc082814f	-4.0782847
82	0xc0c1b8bf	-6.053802
83	0xbf000a90	-0.5001612
84	0x3e6bf8cb	0.23044126
85	0x40897df9	4.2966275
86	0x400acc7a	2.1687303
87	0xc1050e05	-8.315923
88	0xc0c3c822	-6.1181803
89	0x3f37e55a	0.7183434
90	0x3e4b262e	0.19838783
91	0x3fa38e25	1.2777754
92	0xc01e6672	-2.4750028
93	0x3fa9b090	1.3257008
94	0xbf8194ad	-1.0123497
95	0xbe721bc4	-0.23643404
96	0x401c6314	2.4435472
97	0xc007f4f3	-2.1243255
98	0x3cf3f4df	0.02977985
99	0x4024b9da	2.5738435
100	0x3d9e8987	0.07741075
101	0x407467ad	3.8188279
102	0xc00ae6f8	-2.1703472
103	0x3f4c6632	0.7984344
104	0xbf21a244	-0.6313822
105	0xc0435437	-3.052015
106	0xc0c1bca9	-6.05428
107	0xc02f148c	-2.735629
108	0xc01e39c7	-2.4722764
109	0xc0073bdb	-2.1130283
110	0xc02a42b5	-2.6603215
111	0xbfa82cfa	-1.3138726
112	0x3f8af2b2	1.0855315
113	0x3debb73b	0.11509558
114	0xc01e8524	-2.4768763
115	0x3d233b14	0.039851263
116	0x409fe874	4.9971256
117	0xbf2d14f1	-0.6761008
118	0xc0540523	-3.3128135
119	0xbf3493b8	-0.705379
120	0x4069fb10	3.6559486
121	0xbd62a941	-0.055337194
122	0xc0119f38	-2.275343
123	0x3ff2de45	1.8974081
124	0x3fff136f	1.9927806
125	0xbd3f3942	-0.046685465
126	0xc02c44fb	-2.6917102
127	0xc01bb8ad	-2.4331467
128	0x3f9b1226	1.2114913
129	0x3fdd0934	1.7268434
130	0x3fb7fa17	1.4373196
131	0x3edde820	0.4334116
132	0xbfd59408	-1.66858
133	0xbef018c7	-0.46893904
134	0x3f394b6f	0.7238073
135	0xc02d4f46	-2.7079635
136	0xbd256e10	-0.040388167
137	0xc011eccf	-2.2800786
138	0xbf92b8aa	-1.1462605
139	0xc0104504	-2.2542124
140	0x3e016ad7	0.12638412
141	0x402dcb9e	2.7155528
142	0xc0943adb	-4.6321845
143	0xbfcf93a5	-1.6216933
144	0x4020b1b7	2.5108469
145	0xbfded163	-1.740765
146	0x3fa27752	1.2692664
147	0xbf3be878	-0.73401594
148	0xc065dc0b	-3.5915554
149	0xbe460521	-0.19337894
150	0xc0564e23	-3.348519
151	0x40c0fec4	6.0310993
152	0xbed5bd08	-0.41745782
153	0x3f0b8ad8	0.54508734
154	0x3fed91a4	1.8560071
155	0xbee8694a	-0.4539283
156	0xc1205806	-10.02149
157	0xbf90e248	-1.1319056
158	0x3e99226b	0.2990907
159	0xc0f415b8	-7.627651
160	0x4086905d	4.2051225
161	0x3f63c8fe	0.88978565
162	0xbfe910c8	-1.8208246
163	0xc0e04568	-7.0084724
164	0x40013123	2.018624
165	0x3fb7f42b	1.4371389
166	0x3ffd36c8	1.9782343
167	0xbcf9282d	-0.030414665
168	0x400f5e2b	2.2401226
169	0xbf5dbd59	-0.86617047
170	0x3fba5118	1.4555998
171	0x3e990396	0.29885548
172	0xc02c5ade	-2.693046
173	0x3ea16a99	0.3152664
174	0xbfa12619	-1.2589751
175	0x3f9929ff	1.1965941
176	0xbfe2f769	-1.7731754
177	0xc01f74cc	-2.4915037
178	0x3fde0677	1.7345723
179	0x3f924db6	1.1429965
180	0x408c11bd	4.3771653
181	0x3f72ea19	0.94888455
182	0xbf7dce44	-0.9914286
183	0xbef91ed6	-0.48656338
184	0xc009e61e	-2.1546702
185	0xc1021e28	-8.132362
186	0xc0755197	-3.8331048
187	0xbfc3f40b	-1.5308851
188	0xc054e728	-3.3266087
189	0xbf23978f	-0.63903135
190	0xc04295d3	-3.0403945
191	0xbf2df8a0	-0.67957497
192	0xbf40309a	-0.7507416
193	0xbf8b3f37	-1.0878667
194	0x403ea4a3	2.9787986
195	0xbf36cf2b	-0.71409863
196	0x3e36b816	0.1784366
197	0x3f8c96e6	1.098355
198	0x3f71bdf0	0.94430447
199	0x40587d8f	3.3826635
200	0xbf937e65	-1.1522948
201	0xbd810567	-0.062998585
202	0xbd4e0498	-0.05029735
203	0x3f8f9d41	1.1219865
204	0xbf88fb71	-1.0701734
205	0xbfca0cf2	-1.57852
206	0xc049ef40	-3.1552277
207	0x40262ddd	2.5965493
208	0x3f81d520	1.0143166
209	0xbf7196e7	-0.94370884
210	0xc053fe1c	-3.3123846
211	0xc05a522b	-3.4112651
212	0xbd173b58	-0.03692183
213	0x4018d58b	2.3880336
214	0x40095995	2.1460927
215	0xbfac9717	-1.3483609
216	0xbf660437	-0.8985018
217	0xc01a00d5	-2.4063008
218	0xc0578c8d	-3.3679535
219	0x3fd2ce11	1.6469136
220	0xc03fb887	-2.9956377
221	0x3e7e78c5	0.24850757
222	0x3ff056ea	1.8776524
223	0x3e81300f	0.25231978
224	0x3f13f942	0.5780221
225	0xbfc54916	-1.5412929
226	0xbf1c63c7	-0.6108975
227	0xc03b707b	-2.9287403
228	0x4075a1fb	3.8380115
229	0xbfdf9a53	-1.7468971
230	0x3d0b598f	0.034020957
231	0xc0d678a8	-6.7022285
232	0x3f54d080	0.83130646
233	0xbeb57b74	-0.3544575
234	0xbe9bcf41	-0.3043156
235	0xbf7f8f2e	-0.9982785
236	0xc0408532	-3.0081296
237	0x3a6ca388	0.00090270536
238	0x40253ed4	2.5819597
239	0x3f94a3fc	1.1612544
240	0xc0a0171f	-5.0028224
241	0xc07d26f7	-3.9555032
242	0xc02e93dd	-2.7277749
243	0xbf0c918f	-0.54909605
244	0x3fad70e5	1.3550078
245	0xc0483b57	-3.1286218
246	0x3faa7886	1.3318031
247	0x3ff16fd9	1.8862258
248	0x3f4cf217	0.800569
249	0x3eede85d	0.46466342
250	0x408d2d17	4.411754
251	0xc07f4871	-3.9887965
252	0x3f9e4cbe	1.236717
253	0xc021790a	-2.5230126
254	0x3e5bc372	0.21461275
255	0x3ec6b4a0	0.3880968

layer2.0.bias f4 [32]
0	0x402a96b3	2.665448
1	0x3f8f70a0	1.1206245
2	0x3ff78769	1.9338199
3	0x3e4589c8	0.1929084
4	0x3ee31869	0.4435456
5	0x3f947300	1.1597595
6	0x401af50a	2.421206
7	0x3e9a44a9	0.3013051
8	0x3fdec5d6	1.7404125
9	0x3e82a424	0.25515854
10	0x3f8f9839	1.121833
11	0x3da02858	0.07820195
12	0x3e4841a4	0.1955629
13	0x3f5c4739	0.8604618
14	0x40178186	2.3672805
15	0x3f96e909	1.1789867
16	0x3e41b3c7	0.18916236
17	0x3e49ae07	0.19695292
18	0x3f98b96a	1.1931584
19	0x3fdb015f	1.7109793
20	0x3e077756	0.13229117
21	0x400dfe4e	2.2186465
22	0x400330fc	2.0498648
23	0x3ff385b2	1.9025176
24	0x3fe0c815	1.756106
25	0x3d02ff7c	0.03198193
26	0x3f8ca7a0	1.0988655
27	0x3fc9729b	1.57381
28	0x3e2cf512	0.16890362
29	0x4029ad4c	2.6512022
30	0x3f862e94	1.0482965
31	0x3e3090a3	0.17242675

layer2.1.weight f4 [32]
0	0x3f0accd1	0.54218775
1	0x3f1fcfa4	0.6242621
2	0x3f271b13	0.65275687
3	0x3e898bea	0.26864558
4	0x3e65964c	0.22420615
5	0x3f2f1d8a	0.6840445
6	0x3f3140af	0.69239324
7	0x3e11afbc	0.14227194
8	0x3eda38e5	0.42621532
9	0x3e67ea8b	0.22648065
10	0x3f0c08fc	0.5470121
11	0x3f7fa1d6	0.9985632
12	0x3e349fb1	0.17639042
13	0x3f5d2e50	0.8639879
14	0x3f4c1571	0.79720217
15	0x3f94e684	1.1632848
16	0x3e57a591	0.21059252
17	0x3e92c09f	0.28662583
18	0x3f57f76c	0.8436191
19	0x3f1327ac	0.5748241
20	0x3e2c4bc6	0.1682578
21	0x3f50accb	0.8151366
22	0x3f1a8d18	0.6037154
23	0x3ef3833e	0.47561067
24	0x3f3ffdaa	0.74996436
25	0x3e8b3ee2	0.27196413
26	0x3f48d897	0.7845549
27	0x3f3a6917	0.72816604
28	0x3e8abb8e	0.27096218
29	0x3f1916ac	0.5980022
30	0x3f14fe13	0.58200186
31	0x3e81d3cf	0.2535691

layer2.1.bias f4 [32]
0	0xbf145fdc	-0.5795877
1	0xbf141f84	-0.5786059
2	0xbf5c9f85	-0.8618091
3	0xbf3b77c2	-0.7322961
4	0xbf2fdf18	-0.6869979
5	0xbf617251	-0.8806506
6	0xbf4e13a7	-0.8049874
7	0xbf530b90	-0.8243952
8	0xbef3a9c4	-0.47590458
9	0xbf43ed8e	-0.76534355
10	0xbf0f64d4	-0.56013227
11	0xc00731c7	-2.1124132
12	0xbf68960b	-0.9085395
13	0xbfafba0d	-1.3728653
14	0xbf625233	-0.88406676
15	0xbfd991eb	-1.6997656
16	0xbf443094	-0.76636624
17	0xbf203ab7	-0.6258959
18	0xbf8bd995	-1.0925776
19	0xbf3200f1	-0.69532686
20	0xbf12cf92	-0.5734798
21	0xbf79bc37	-0.9755282
22	0xbf39feb5	-0.7265428
23	0xbeed665b	-0.46367154
24	0xbf8d60d2	-1.1045172
25	0xbf269fa7	-0.6508736
26	0xbf8e9dfc	-1.1141963
27	0xbf66bb04	-0.90129113
28	0xbf3042a4	-0.68851686
29	0xbf1e0d79	-0.6173931
30	0xbf3470d7	-0.7048468
31	0xbf52d3dc	-0.8235452

layer2.1.running_mean f4 [32]
0	0xc309ae2c	-137.68036
1	0xc2ca297b	-101.08102
2	0xc2c84bce	-100.148056
3	0xc25d54cb	-55.332806
4	0xc1e54ee0	-28.663513
5	0xc29ff197	-79.971855
6	0xc2c489ea	-98.26936
7	0xc21a5e56	-38.592125
8	0xc293d89a	-73.92305
9	0xc21ca1d7	-39.158047
10	0xc29f4c3b	-79.64889
11	0xc28eed78	-71.463806
12	0xc247a556	-49.91146
13	0xc2b79388	-91.78815
14	0xc3042add	-132.16743
15	0xc2ce6250	-103.19202
16	0xc1cf2542	-25.893192
17	0xc1ad53ba	-21.665882
18	0xc2a08d19	-80.27558
19	0xc31b0563	-155.02104
20	0xc24083b4	-48.128616
21	0xc2e48ddc	-114.27707
22	0xc2b979c3	-92.737816
23	0xc2cee686	-103.45024
24	0xc28737bc	-67.60886
25	0xc1e13af7	-28.153791
26	0xc28cc6af	-70.388054
27	0xc2c6a7fa	-99.32808
28	0xc2044fbd	-33.07787
29	0xc2fdd2cd	-126.91172
30	0xc2bb8fc7	-93.780815
31	0xc241e471	-48.473087

layer2.1.running_var f4 [32]
0	0x467560ff	15704.249
1	0x46952261	19089.19
2	0x461eb87c	10158.121
3	0x448ebadd	1141.8395
4	0x43b48059	361.00272
5	0x46208d1b	10275.276
6	0x462f95b2	11237.424
7	0x441b5781	621.36725
8	0x45f17325	7726.393
9	0x44235c07	653.4379
10	0x463ff123	12284.284
11	0x466049d6	14354.459
12	0x44a0ed89	1287.423
13	0x4649cbfe	12914.998
14	0x4671bbc5	15470.942
15	0x4643ad85	12523.38
16	0x43dab416	437.40692
17	0x43522b8e	210.17014
18	0x4629b6db	10861.714
19	0x466b800a	15072.01
20	0x44903988	1153.7979
21	0x464e9b70	13222.859
22	0x45fb0ff0	8033.992
23	0x46323f47	11407.819
24	0x45cda8bf	6581.0933
25	0x4395c398	299.52808
26	0x463e0931	12162.298
27	0x463a5052	11924.08
28	0x43d16f5e	418.87006
29	0x465102be	13376.686
30	0x464ed38b	13236.886
31	0x447507b9	980.12067

fc.weight f4 [7, 4608]
0	0xc0499a08	-3.1500263
1	0xbeb40bf4	-0.3516537
2	0x3fce67e1	1.6125451
3	0xbf402cfe	-0.7506865
4	0x3fb1813d	1.3867565
5	0xc03bbabc	-2.9332724
6	0xc012187c	-2.2827444
7	0x3fda10bb	1.7036356
8	0xc0026274	-2.037259
9	0xbff04cfe	-1.8773496
10	0x3e4d7fb7	0.2006825
11	0xc008ce2d	-2.137584
12	0xbf08b224	-0.5339682
13	0x3d43176a	0.04762975
14	0xc01db805	-2.4643567
15	0x3f56e4c3	0.8394281
16	0xbecb4c6a	-0.39706737
17	0xbfe2a196	-1.7705562
18	0x3fc8171a	1.563205
19	0xbf7ded8a	-0.9919058
20	0xbe3f0c96	-0.18657145
21	0x3edd8a28	0.43269467
22	0xbfc9c8c7	-1.5764397
23	0xc02f3a7d	-2.7379448
24	0xbf995b65	-1.1981016
25	0xbee2ad66	-0.44272918
26	0xbf238197	-0.63869613
27	0x3fe4bb9e	1.7869756
28	0xc00149fa	-2.0201402
29	0x3f912699	1.1339904
30	0xbfa023f4	-1.2510972
31	0x3e88eba3	0.26742277
32	0xbf80e44d	-1.0069672
33	0xc02531e1	-2.5811694
34	0xbf8d7b41	-1.1053239
35	0x3f4793e0	0.77960014
36	0x3e74dfca	0.23913494
37	0x3f7a1f61	0.9770413
38	0xbfc57395	-1.5425898
39	0xbf8fd576	-1.1237018
40	0x3e37fdd4	0.17967921
41	0xbffada0f	-1.9597796
42	0xbe7c94f6	-0.24666199
43	0x3fce4689	1.6115276
44	0xbf3d429f	-0.7392978
45	0xbfba03b2	-1.4532378
46	0x3e00d66b	0.12581794
47	0xc02533eb	-2.5812938
48	0xbfaf69db	-1.370418
49	0xbeece137	-0.46265575
50	0xbf95f296	-1.1714656
51	0xbff8b692	-1.9430716
52	0xbf1b3994	-0.6063473
53	0xbe4a7703	-0.19771962
54	0x3e9ef59a	0.31046754
55	0xbf8ec4fb	-1.1153864
56	0xbf7bd5ac	-0.9837291
57	0xbfe060e3	-1.7529567
58	0xbcc62787	-0.02418877
59	0x3e872beb	0.26400694
60	0x40580cd4	3.375783
61	0x406d0a11	3.7037394
62	0x3f05634c	0.5210464
63	0xbe2d8797	-0.16946255
64	0x3fa48388	1.285264
65	0xbf306e48	-0.68918276
66	0x3e919367	0.28432772
67	0xbe261d05	-0.16222008
68	0xbf28ee0a	-0.6598822
69	0xbf8f2b79	-1.1185142
70	0x3fa3bb1f	1.279148
71	0xc0348105	-2.8203747
72	0xc0491905	-3.142152
73	0xbf9105fc	-1.1329951
74	0x3f807fdb	1.0039018
75	0x3f801049	1.000497
76	0x3c204ddb	0.009784187
77	0x400c856e	2.195644
78	0xbf47c650	-0.78036976
79	0xbeed6adf	-0.463706
80	0xbe91da9e	-0.28487104
81	0x3fe46fdc	1.7846637
82	0x3e5118bb	0.2041959
83	0x40abb034	5.365259
84	0x3dc5dec8	0.09661633
85	0x3f16313a	0.58668864
86	0x3f77233f	0.96538156
87	0xbf23ff86	-0.6406177
88	0x3f864c58	1.0492048
89	0xbd07eea5	-0.033186574
90	0x3f3e6c36	0.74383867
91	0xbec38e1e	-0.38194364
92	0x3ff91ce4	1.9461942
93	0xbfa17c3e	-1.2616041
94	0x3e61d862	0.220552
95	0xbff21ea5	-1.8915602
96	0xbf9a1bc6	-1.2039726
97	0xbf546744	-0.8297007
98	0x3fae0d88	1.359788
99	0xbf77ea20	-0.9684162
100	0x402df3d1	2.7180064
101	0xbdd335d1	-0.10312999
102	0xbf70aad5	-0.9401067
103	0x3eec8990	0.46198702
104	0x3fbc7a48	1.4724817
105	0xbee05b9b	-0.4381989
106	0xbe8122c1	-0.25221828
107	0xbf069ccc	-0.52583003
108	0x3f273078	0.6530833
109	0x3fc99cef	1.5751017
110	0xbc2ca090	-0.010536328
111	0x3eaf37a3	0.34222135
112	0xbfbd6401	-1.4796144
113	0x3f9b3bfd	1.2127682
114	0xbeb8a10c	-0.3606037
115	0x3f8865a7	1.0656022
116	0x3ee25e2b	0.4421247
117	0x3f484c61	0.78241545
118	0xbef595b0	-0.47965765
119	0x3ea5c24b	0.32374796
120	0x3f984a69	1.1897708
121	0x3e81da37	0.25361797
122	0xbef289a6	-0.47370642
123	0xc0473c65	-3.1130612
124	0x3fdba746	1.7160423
125	0xc06716ef	-3.6107748
126	0x400a7853	2.163594
127	0x3f091e66	0.5356201
128	0x3fa5b994	1.2947259
129	0xbe3138a3	-0.17306761
130	0xbf8a8b49	-1.0823756
131	0x3f946087	1.1591958
132	0x3fb24c57	1.3929547
133	0x407ed679	3.9818404
134	0xbfc3ec26	-1.5306442
135	0xbe8ac052	-0.27099854
136	0xbf5a00bc	-0.8515737
137	0x3f970f69	1.1801578
138	0x3f88123d	1.0630566
139	0xbf7fcd79	-0.999229
140	0x4000aec1	2.0106661
141	0xc094b44a	-4.647008
142	0x3fb2f25a	1.398021
143	0xbfd5300f	-1.6655291
144	0xbfc20507	-1.5157784
145	0xbf75567f	-0.9583511
146	0x3f00a5a9	0.5025278
147	0xbe6950e7	-0.22784768
148	0x4092015c	4.562666
149	0xc07f97a6	-3.993631
150	0x3ff882b7	1.9414891
151	0x4021ea36	2.52992
152	0xbe0ffe17	-0.14061771
153	0x3f0c1ede	0.547346
154	0x3f6991f9	0.9123836
155	0xc059b0c6	-3.4014144
156	0x401a9e71	2.4159205
157	0x3f8f4e13	1.1195701
158	0x3f75d415	0.96026736
159	0x3f85a0da	1.0439713
160	0x3fdd7cfc	1.7303767
161	0x3e46397b	0.19357865
162	0x3ea6f76a	0.32610637
163	0x4046b776	3.1049476
164	0xbeae7db2	-0.34080273
165	0x3f9ed09d	1.2407414
166	0x3f5bb6cd	0.85825807
167	0x40501c6d	3.251735
168	0x3f0e3c61	0.5556088
169	0xbe57c919	-0.21072806
170	0xbc9a7ae0	-0.01885742
171	0x3fe85020	1.8149452
172	0x3f530d1d	0.82441884
173	0xbf2a2b07	-0.66471905
174	0x40026882	2.0376287
175	0x3fb140eb	1.3847936
176	0x3f637f5e	0.8886622
177	0x3fd46ebe	1.6596296
178	0x3de3860c	0.11109552
179	0x3d89a806	0.06721501
180	0xbf3eaf6b	-0.74486417
181	0xbffde1ee	-1.9834573
182	0xbe267d62	-0.16258767
183	0x40250730	2.5785637
184	0x3ff73383	1.9312595
185	0xbf906fbb	-1.1284097
186	0x3e91f62a	0.2850812
187	0x3fce2d31	1.6107541
188	0x3fbfcc33	1.4984192
189	0x3f98cce9	1.1937534
190	0x3f9407e0	1.1564903
191	0xbe5fd31f	-0.2185788
192	0x3e05f637	0.13082205
193	0xbfba2d02	-1.4544985
194	0x3ee275b4	0.44230425
195	0x3fa14192	1.2598135
196	0x3fd00cb7	1.625388
197	0xbe5c4569	-0.21510853
198	0x3f7045a5	0.9385627
199	0x3f70c915	0.94056827
200	0x3f205100	0.62623596
201	0x402b0e74	2.6727571
202	0x3e2d97f5	0.16952498
203	0x3f945e3c	1.1591258
204	0x3febb445	1.8414389
205	0xbfa20563	-1.2657894
206	0xbfb9c24b	-1.4512419
207	0x3f2e389c	0.6805513
208	0xbe957468	-0.29190373
209	0xbfab71d2	-1.339411
210	0x3f0902c1	0.5351983
211	0x3f2f7b42	0.6854745
212	0x3f115398	0.5676818
213	0xbf6c984b	-0.9241988
214	0xbf402e08	-0.7507024
215	0x40317db7	2.773298
216	0x400538ce	2.081592
217	0xc088ca5f	-4.2747035
218	0xc0418344	-3.0236368
219	0x3ee83caf	0.45358798
220	0xc0183a20	-2.3785477
221	0xbf66a009	-0.90087944
222	0x3f8e32e4	1.110928
223	0xbf90de8e	-1.1317918
224	0xc047819f	-3.1172864
225	0x3f5dc4be	0.8662833
226	0xbf8d9e2c	-1.1063895
227	0xc090b34a	-4.521886
228	0x3fd98549	1.69938
229	0xbc78d59a	-0.015187645
230	0xbf9fd518	-1.2486906
231	0xc04e0dee	-3.2196002
232	0xbfba13d1	-1.4537297
233	0xbefd5d0a	-0.49485046
234	0xbfded67c	-1.7409205
235	0xc011489b	-2.2700565
236	0xc065b469	-3.5891364
237	0xbf181350	-0.5940447
238	0xbff883b2	-1.941519
239	0x3e51a600	0.2047348
240	0x3f8c7c4b	1.0975431
241	0xc0a14e8c	-5.0408382
242	0xbe934b21	-0.28768256
243	0xbf6b1285	-0.91825134
244	0xc0024dd1	-2.0359995
245	0xbfc6d5ad	-1.5533959
246	0xbd599202	-0.05311776
247	0xc08f1778	-4.471615
248	0xbfc6e04b	-1.5537199
249	0x3f806dbc	1.0033488
250	0xc005d5e5	-2.09118
251	0xbe13417c	-0.14380449
252	0xbf839014	-1.0278344
253	0x3efc5c64	0.49289238
254	0xbf035d33	-0.51314086
255	0xbee7fb0d	-0.45308724

fc.bias f4 [7]
0	0x3ea95a15	0.3307654
1	0xc056181f	-3.3452222
2	0xbbb71bac	-0.0055880155
3	0x3e67e693	0.22646551
4	0x3eb060e0	0.3444891
5	0x3f8a491f	1.0803565
6	0xbfdcdf16	-1.725558
