FaceExpressions_CNN/savemodel/model_48.pth (torch_old, 185408 bytes, 14 tensors)

layer1.0.weight f4 [16, 1, 5, 5]
00000000: b5de 313f 170d e83f 791f 4040 e43e 2e40
00000010: 36d5 3640 faf5 6340 7499 f13c 0475 02bf
00000020: 375c 05bf 8c5d 813d 4d22 533f bb61 ffbf
00000030: f3be a1bf de5d 9ac0 9c37 d4c0 944a c13f
00000040: 0652 90bf 292f 6e3d 9f6a 41c0 6cb3 08c0
00000050: dc7b 8b3f 32ae 25c0 4124 e93f dbec 683e
00000060: 5bf2 cc3f 68eb 06bf 0787 13c0 2f34 13bf
00000070: 28f1 1f40 7551 4440 39d8 2abf a86f c9bf
00000080: b68d 003f 1558 aa3f 2053 8fbf d925 c3be
00000090: 8177 ebbf 7bb1 98bf afb6 15c0 dbb1 16c0
000000a0: e20b c7c0 1ca7 17c0 e1a1 45c0 6463 aec0
000000b0: bf9c a33f 6eaa 0a3f 1e4a 9e3d b499 80bf
000000c0: 943b da3e e535 e33f ff05 10c0 7953 abbf
000000d0: 5b94 0f40 d309 123e 05a9 64c0 fda5 b03f
000000e0: 9663 1040 944d f23f 0bf5 9140 470e a5bd
000000f0: 723e b23e 6188 6240 755b 42bf b6a6 b040
00000100: d079 503f 92f8 54c0 9080 1840 78d9 053e
00000110: f429 a440 ec83 d83e 3e3f c2bf 450f 4d3e
00000120: 225a 143e f920 dbbe dcbc 3ac0 75ef 5140
00000130: 94cb aa3f ad86 0cc0 5fa8 98be ddb7 fa3d
00000140: fe30 2b40 b736 8ec0 4ea5 39c0 7f37 fb3e
00000150: 6f67 a83d 216d 17c0 70c7 bdc0 cba8 0e3e
00000160: dc5f b2be 449b 28c0 15fc f6bf 4328 0d40
00000170: 05fe 2e40 01e6 2040 8d57 0b40 a173 063f
00000180: 7f20 b63f 49bd d53e 32fa af3e b901 e43f
00000190: b81b 0c40 3398 8ebf 8798 f6bf 8ed6 1fc0
000001a0: b837 d53f 199f c33f 4754 d4bf 13ef fe3e
000001b0: 5950 ecbf 2e68 e8bf f882 1bc0 b7a6 98be
000001c0: 2e12 ca3f 1c45 6fc0 d752 a4c0 e746 783f
000001d0: 3d8c 333f 2467 ddbf 20e9 2ec0 5329 09c0
000001e0: 5c2e 7d40 e4ac 8d40 e242 cb3f 3ae9 d83f
000001f0: f234 543f 50fc 8ebf 377d a0c0 5a33 b7c0
00000200: 0f0b 04c0 22b2 a4bf a61b 4bbc 6264 71bf
00000210: 436f 11c0 bb0e d7bf feb4 12c0 2b01 233f
00000220: cfe9 d63e e6b7 cc3f 984b 4040 2d93 6dbf
00000230: 355d 43bf a297 d13e 3243 1a40 1ec9 9b3f
00000240: eafa a23f fd71 7840 d145 c43f 2b90 d43f
00000250: 4e62 af3e d5e2 8040 3780 063f 7c89 c5bf
00000260: 6a13 41bf 9c47 0c40 a23b 933e c931 8e3f
00000270: 6a59 1ebf 0473 77c0 ea80 8b3e 6d12 8440
00000280: e6b8 793f ef9e 0a40 a7d6 91c0 d059 8fc0
00000290: 956d 4140 3714 babe 8785 2940 3dc9 cd3f
000002a0: 890a 7ac0 63f6 9fbf cb2f e1be bfcf c13e
000002b0: 7428 0e40 153d 233e 6d70 40bd dae7 e1bd
000002c0: f09a a0bc 7f0e 36c0 98c3 0fc0 4511 95bf
000002d0: 8b41 02c0 0f05 ca3e 5537 8cbf eaf1 0a3f
000002e0: c317 183f eb1b f8bf 8ff0 c640 476b be40
000002f0: 77df a140 1075 2b40 fc08 16bf cc6b 1240
00000300: 9d14 26bf e270 4640 ccc1 3fc0 88b1 0840
00000310: a2bd 423f 3475 5dbe 5c88 d33f 73fe 55c0
00000320: c7f1 dcbf 5de4 a7bd 7f5f 02bf ea3e 4dc0
00000330: a5aa f0bf d7c0 f93f a130 f3be d5e1 4cbf
00000340: 7cb9 8cbf d888 3a40 841e d33e 018f e03f
00000350: 997b 9e3f 07fa 5a40 f977 1cbf d1df 073f
00000360: d9d5 3240 d5e9 3b40 a5e5 2e40 520e 91c0
00000370: e4dd fa3e 6a1f 1c3f 1da1 2040 de39 d13f
00000380: 0dbf 9cc0 3191 6f3f f2a1 e8bf 7ae3 cdbe
00000390: 09c6 103e f4f2 df3d 6537 b9bf 6eaa c4bf
000003a0: bb54 7140 beb2 1840 4f0f b23f 2220 253c
000003b0: 2ac1 1d3f e6a1 c440 5796 383e 3b93 66c0
000003c0: 16a3 c4bf b7ec 3040 6cc4 ab40 eacb 06c0
000003d0: 6368 83c0 ec5a 1ec0 4cec 923d 7e65 a2be
000003e0: cda3 1dbf f895 a4bf a1e0 3f40 6d45 763f
000003f0: ec03 30c0 277e b8bf ca10 eb3f 3a6f cfbe
0.6948045 1.8128995 3.001921 2.7225885 2.8567634 3.5618882 0.029492117 -0.509598
-0.52093834 0.06316671 0.82474214 -1.99517 -1.2636398 -4.8239584 -6.6317883 1.5100884
-1.1275032 0.058150444 -3.0221326 -2.135951 1.0897174 -2.588757 1.8214189 0.22746603
1.6011461 -0.5270295 -2.3051164 -0.575015 2.499094 3.0674717 -0.6673618 -1.57372
0.50216234 1.330813 -1.1197243 -0.38114813 -1.8395845 -1.1929163 -2.3392751 -2.3546054
-6.2202005 -2.3695745 -3.0880053 -5.4496326 1.278221 0.54166305 0.077289805 -1.0046906
0.4262358 1.7750822 -2.250366 -1.3384849 2.24343 0.1426156 -3.5728161 1.3800656
2.2560782 1.8929925 4.5611625 -0.08059364 0.34813267 3.539574 -0.759208 5.5203505
0.8143587 -3.3276715 2.3828468 0.13071239 5.130121 0.42288148 -1.517555 0.20025356
0.14487508 -0.42798594 -2.917777 3.2802403 1.3343377 -2.19572 -0.29815957 0.122421004
2.6748652 -4.444179 -2.9007144 0.49065778 0.082228534 -2.3660357 -5.9305954 0.13931577
-0.3483876 -2.6344767 -1.9295679 2.2055824 2.7342541 2.5140383 2.1772187 0.52520186
1.4228667 0.41745976 0.3437057 1.7813026 2.1891918 -1.1140198 -1.9265298 -2.4974704
1.6657629 1.5282928 -1.658822 0.49791774 -1.846202 -1.8156793 -2.4298687 -0.29814693
1.5786798 -3.738593 -5.1351123 0.9698319 0.7013586 -1.7297101 -2.7329788 -2.1431472
3.9559546 4.427355 1.5879786 1.6946175 0.8289329 -1.117075 -5.015285 -5.7250185
-2.063175 -1.2866862 -0.012396729 -0.94293797 -2.2724159 -1.680137 -2.292297 0.6367366
0.41975257 1.5993621 3.0046139 -0.928027 -0.763141 0.40936 2.4103513 1.2170751
1.2732823 3.8819573 1.5333806 1.6606497 0.34254688 4.0276895 0.5253939 -1.5432582
-0.7542025 2.1918707 0.28756434 1.1108943 -0.61855185 -3.866395 0.2724679 4.1272492
0.9754776 2.1659505 -4.5574527 -4.4797134 3.0223134 -0.36343548 2.6487749 1.6077038
-3.906893 -1.2497066 -0.43981776 0.3785381 2.221219 0.1594127 -0.046982218 -0.1103055
-0.01960513 -2.8446348 -2.246313 -1.1645895 -2.0352504 0.39456984 -1.0954386 0.5427538
0.5941126 -1.938352 6.216865 5.9505954 5.0585284 2.67902 -0.5860746 2.2878294
-0.64875203 3.1006398 -2.9962034 2.1358356 0.76070607 -0.2162674 1.6525989 -3.3436553
-1.7261285 -0.08197854 -0.50926965 -3.206965 -1.8802077 1.9511975 -0.47498038 -0.8003209
-1.0994105 2.9146023 0.4123422 1.7543641 1.2381469 3.4215105 -0.61120564 0.5307589
2.7943022 2.936147 2.7327664 -4.532998 0.48997414 0.60985434 2.5098336 1.6345785
-4.8983216 0.9358092 -1.8174422 -0.40212613 0.14138044 0.109350115 -1.447003 -1.5364511
3.7707965 2.3859096 1.3910922 0.010078462 0.6162287 6.144763 0.180261 -3.6027362
-1.536227 2.764448 5.3677273 -2.106196 -4.1064925 -2.4742994 0.07173976 -0.31718057
-0.61578065 -1.2858267 2.9980853 0.96199685 -2.7502394 -1.4413499 1.8364499 -0.40514547

layer1.0.bias f4 [16]
00000000: 2c2c 15bf 6483 9940 e059 b53e 09f9 b2bf
00000010: 8325 d33f 21a9 2fc0 c6da da3e 9eab 883f
00000020: 1060 8a3f 7b37 c1bd a5e6 c83e 6136 1bbf
00000030: 24bf 4540 e3b9 ad3e fe65 1540 b2da 4a3e
-0.58270526 4.797289 0.35420132 -1.398225 1.6495823 -2.7446978 0.42745036 1.0677373
1.0810566 -0.0943441 0.39238468 -0.6062985 3.0897913 0.33930883 2.33435 0.19809988

layer1.1.weight f4 [16]
00000000: 6831 4d40 3bee 2540 ffe8 4740 dc30 2240
00000010: acf1 1f40 9a4b 4d40 4ae2 3040 3f5b 2e40
00000020: 2886 ba3f 4659 fb3f 9729 2740 6874 2b40
00000030: 2d5a 5440 82b2 2a40 7e06 0140 77d6 bb3e
3.2061405 2.5926654 3.123596 2.5342321 2.4991255 3.2077394 2.7638116 2.7243192
1.4572191 1.9636619 2.6119134 2.6789799 3.318004 2.6671453 2.0160213 0.3668706

layer1.1.bias f4 [16]
00000000: 7343 4ec0 367c 14c0 17ad 7fc0 0629 dbbd
00000010: 280e febf 26ad 06c0 c377 7fbf b31f 0ec0
00000020: 353e 453f 72b1 66bf 7cca 6fc0 080b 05c0
00000030: 8e8f 69c0 71ef aebe 8095 83bf bc32 afbf
-3.2228668 -2.3200812 -3.9949396 -0.10701184 -1.984807 -2.1043181 -0.99792117 -2.2206848
0.77048045 -0.9011451 -3.7467337 -2.0787983 -3.649387 -0.34167054 -1.0279999 -1.3687358

layer1.1.running_mean f4 [16]
00000000: 806f 00c0 4656 b9c0 9b39 f740 582d 11c0
00000010: 5e99 0ac0 5257 6fc0 5701 943e 2bba e340
00000020: 77f4 8640 840a 903f 732e 2b3d 09cd 28bf
00000030: f606 d1c0 f636 21be 692b 7a40 fbc1 69c0
-2.0068054 -5.7917814 7.725782 -2.2683926 -2.1656108 -3.7397046 0.28907272 7.1164756
4.217342 1.1253209 0.041792344 -0.6593786 -6.5320997 -0.15743622 3.9088995 -3.6524646

layer1.1.running_var f4 [16]
00000000: c476 e540 27cb ea41 3a5e 8241 7a57 4b40
00000010: 2736 3841 beb2 4e41 5c02 d73f 2c98 4241
00000020: 413d d140 7fc5 8140 e321 6140 50ef 2841
00000030: a595 0c42 3c06 e140 28d7 5840 7f30 5940
7.1707478 29.349195 16.29601 3.1772141 11.513221 12.918638 1.6797595 12.162151
6.5387273 4.0553584 3.5176933 10.558426 35.146137 7.032011 3.388132 3.393585

layer2.0.weight f4 [32, 16, 5, 5]
00000000: 7982 55c0 da94 83c0 1664 2ac0 9012 9fc0
00000010: 79d1 d3bf 8e63 a7c0 33a9 2ec0 281e 18c0
00000020: dfdf 8cc0 2cc6 883f 486c f53f d4cb 033e
00000030: 1433 62c0 7378 373e 19a2 0440 be8d 2abf
00000040: 003a afbf 50d3 37bd 7a3f 933f 6b02 99bf
00000050: a38e 20c0 da81 17c0 43e7 053f b697 bbbf
00000060: 4987 d13f 0f5a 84c0 81bd a7bf 7b8b 40c0
00000070: ea06 2cc0 4b34 e13e ed96 67bf 1e6d a03f
00000080: ca31 3abf 1390 a03f 0468 dc40 e4cd 0a3f
00000090: 265a 1b40 96f6 acbd f17e 97c0 1064 de3d
000000a0: 38d8 20bf c4df 3640 f215 4c40 e160 9ebf
000000b0: 6545 e33e 20ed 0140 aed6 7d3f 1f19 cbbf
000000c0: e456 87c0 203b db3f 4453 123e 8607 c640
000000d0: 8746 cbbf 88a7 d9bd fb48 8abf 018f c0bd
000000e0: 765a 8bbe b20b 98c0 590b 00bf ab58 043f
000000f0: 6dfc 6ac0 a25c d03f c96f b0be 6e9b d43e
00000100: 2e17 8bbf 6a84 afbf 45bb 6e40 5f47 dc3f
00000110: e697 1d40 5fef 333d 50c5 19c0 a89b c7bf
00000120: 4ee2 56bf b267 5fc0 b403 50c0 edcc ba3f
00000130: ecd0 b2bf e20f a7bf 21a8 edbe ecae 3fc0
00000140: d2e5 e1bf 79f3 6dc0 534b a9c0 dab4 41bf
00000150: 0d26 383e d9a7 7540 02fe d53f 71f9 f5c0
00000160: 44a4 bcc0 1456 233f 11c7 ef3e dc5f c23f
00000170: 20a5 06c0 6817 9d3f 52d1 3bbf 9571 e23b
00000180: 9eb8 fc3f 1a34 edbf 0be0 b0bc 4dd3 0040
00000190: 8a93 23bf f4a3 2240 cd34 19c0 39ae e03d
000001a0: ecc5 79bf c9ed 4bc0 0860 8fc0 4bd5 37c0
000001b0: 132c 0cc0 5367 d7bf b1cb 20c0 3566 dcbf
000001c0: 4c00 4cbd d60f ccbe ce6e 15c0 3e55 f93e
000001d0: b877 8e40 8e50 81bf e77b 19c0 31f2 adbe
000001e0: ba3b 5c40 5720 12bf 9640 dbbf a62f e43f
000001f0: 888a d63f 5e31 36be ed31 09c0 fb1e 01c0
00000200: 8b67 7f3f 1293 c43f 4b80 a43f 9102 d43e
00000210: 9fc0 aebf 627a 17bf 31f7 fa3e e3a9 23c0
00000220: a7f9 7a3f e2de 91bf 2995 8cbe 2c47 e3bf
00000230: 77e7 373f b14f 1040 976c 8cc0 2f4d d8bf
00000240: 2ea6 fd3f b6b1 85bf 050f 883f 4c67 0fbf
00000250: 5a42 5ac0 84c7 2d3c 6fc2 43c0 8d29 ae40
00000260: 842b 253e 3348 9e3f 8f2c ca3f a6d1 2abe
00000270: d28c 06c1 ace4 6cbf 1d38 4f3d adc2 d0c0
00000280: 0de1 6340 7e18 8e3f c34c aabf d7d9 c9c0
00000290: 0f59 a63f 1d44 a53f b55e fc3f 6e09 2cbd
000002a0: c18e f83f 9e26 59bf ac76 da3f cab9 123f
000002b0: cb60 19c0 4525 abbd 1b62 b2bf dc27 693f
000002c0: aa07 7cbf 32b9 26c0 5eae c33f 9e1d a93f
000002d0: f020 7040 ca42 453f 6473 94be e9e2 8abe
000002e0: 9eb8 0fc0 a72c e3c0 4152 54c0 ff94 aabf
000002f0: 7de8 14c0 515d 5fbf 63b9 3cc0 200b 1dbf
00000300: a0d2 4ebf d47c 8abf 1072 2840 eb38 08bf
00000310: 699d 113e a113 283f 42ac 523f 3eaa 4240
00000320: 4c00 90bf 1969 14bf af73 93be 3476 863f
00000330: aebd 73bf d3dc c7bf 60e1 44c0 113d 0e40
00000340: 38bc 8a3f c40d 22bf 5df2 4ac0 1356 42c0
00000350: 10ec 3dbe 205f cd3f 45ef c63f dc84 b9bf
00000360: b6c2 6cbf eff8 08c0 58a7 21c0 e48d 973f
00000370: 6462 28c0 f908 eb3e fbfd d33f 2683 f73e
00000380: 951e f73e 5e88 c1bf 49df bbbf d673 18c0
00000390: b8a5 6b40 e108 abbf 1e11 5c3d 0d60 c4c0
000003a0: 5a95 243f a783 4e3e 35d0 9dbe 1f1c 38bf
000003b0: 10af edbf 47bd 10be c467 1440 a3c2 803f
000003c0: a916 87c0 be57 70c0 ede8 1fc0 3c1f 50be
000003d0: cc19 8f3f 8e14 1cc0 e0fa b53f 1bf0 d53f
000003e0: 2e85 1b3f 7cbb 3f3f 9aa2 8c40 2713 9ec0
000003f0: 9a33 8b3f 8f32 4dc0 9058 6a3e 8194 c2be
-3.3360884 -4.1119204 -2.6623588 -4.971016 -1.6548301 -5.2309027 -2.729077 -2.3768406
-4.402328 1.0685477 1.917367 0.12870723 -3.5343676 0.17917041 2.0723937 -0.6662253
-1.3689575 -0.044879258 1.1503747 -1.1953863 -2.5087059 -2.3673005 0.52306 -1.4655674
1.6369411 -4.1359935 -1.3104707 -3.0085132 -2.687922 0.4398521 -0.9046467 1.25333
-0.7273222 1.2543968 6.887697 0.54220414 2.4273772 -0.0844547 -4.734246 0.10858929
-0.62829924 2.8574076 3.1888394 -1.2373315 0.4438888 2.030098 0.991557 -1.5867041
-4.229357 1.7127419 0.14289576 6.1884184 -1.5880898 -0.10627657 -1.0803522 -0.09402276
-0.27217454 -4.7514277 -0.50017315 0.51697797 -3.6716568 1.6278269 -0.34460285 0.41524833
-1.0866449 -1.3712285 3.73018 1.7209281 2.4623961 0.043929454 -2.402668 -1.5594378
-0.83939064 -3.490704 -3.250226 1.4593788 -1.3970008 -1.3051722 -0.46417335 -2.9950514
-1.764826 -3.7179854 -5.290445 -0.7566658 0.17983265 3.8383696 1.6718142 -7.6866994
-5.895052 0.6380322 0.46831563 1.5185504 -2.1038284 1.2272768 -0.7336627 0.0069105127
1.9743841 -1.8531525 -0.021591207 2.0128968 -0.63897 2.541257 -2.3938477 0.1097073
-0.9756763 -3.1863883 -4.4804726 -2.8723934 -2.19019 -1.6828407 -2.5124323 -1.7218691
-0.04980497 -0.39855832 -2.334888 0.48697847 4.452114 -1.0102708 -2.3981874 -0.3397384
3.4411454 -0.57080597 -1.7129085 1.7827041 1.6761026 -0.1779227 -2.1436722 -2.017516
0.9976737 1.5357382 1.2851652 0.41408208 -1.3652533 -0.59171116 0.49016717 -2.557244
0.9803719 -1.1396143 -0.2745755 -1.7756095 0.7183756 2.254864 -4.3882556 -1.6898555
1.9816339 -1.0444858 1.0629584 -0.56016994 -3.4102998 0.01060665 -3.0587423 5.442572
0.16129881 1.2365783 1.5794848 -0.16681537 -8.40938 -0.92536426 0.050590623 -6.523764
3.560611 1.1101224 -1.3304676 -6.307842 1.2995929 1.2911412 1.9716402 -0.04200118
1.9418565 -0.8482455 1.7067466 0.5731474 -2.3965328 -0.08356718 -1.393619 0.91076446
-0.98449194 -2.6050534 1.5287588 1.3212163 3.7520103 0.7705504 -0.28994286 -0.27126244
-2.2456431 -7.0992007 -3.3175204 -1.332672 -2.32669 -0.87251765 -2.948815 -0.613451
-0.8079014 -1.0819345 2.6319618 -0.5321185 0.14220203 0.6565495 0.82294095 3.0416408
-1.1250091 -0.57972866 -0.28799197 1.0504823 -0.95211303 -1.5614265 -3.0762558 2.2224772
1.083869 -0.63302255 -3.1710427 -3.0365036 -0.18547082 1.6044655 1.5541769 -1.449367
-0.92484605 -2.1401937 -2.5258389 1.1840177 -2.6310053 0.45905283 1.6561884 0.48342246
0.4826552 -1.5119741 -1.4677516 -2.38207 3.6819897 -1.3362085 0.05372726 -6.136725
0.6429039 0.20167409 -0.30822912 -0.7191791 -1.856905 -0.14134704 2.3188334 1.0059398
-4.221516 -3.7553554 -2.4985917 -0.20324415 1.1179748 -2.4387546 1.4217186 1.6713899
0.6075009 0.74895453 4.394849 -4.939838 1.0875123 -3.2062109 0.22885346 -0.38003924

layer2.0.bias f4 [32]
00000000: 1419 1540 883a 773f 6548 db3f c889 453e
00000010: 6918 e33e 3567 833f 53ff 0a40 a944 9a3e
00000020: 00b5 c83f 24a4 823e c2f0 843f 935b 443c
00000030: a441 483e 10d4 443f 4994 0940 5be3 7f3f
00000040: c7b3 413e 07ae 493e c8bc 903f ca6b b33f
00000050: 5677 073e beb5 0340 f62d e13f e0bd df3f
00000060: bc36 d83f 7cff 023d e8c0 7a3f ea53 b63f
00000070: 12f5 2c3e 60fa 1b40 8b3c 7d3f a390 303e
2.3296556 0.96573687 1.7131468 0.1929084 0.4435456 1.0265871 2.1718338 0.3013051
1.5680237 0.25515854 1.0385973 0.011984724 0.1955629 0.7688608 2.1496756 0.9995629
0.18916236 0.19695292 1.1307611 1.401727 0.13229117 2.0579677 1.7592151 1.747982
1.6891704 0.03198193 0.979506 1.4244359 0.16890362 2.4371567 0.98920506 0.17242675

layer2.1.weight f4 [32]
00000000: 8f50 033f 6ed9 0d3f 7047 193f ea8b 893e
00000010: 4c96 653e 0f53 253f 3b7b 223f bcaf 113e
00000020: 0a3d de3e 8bea 673e 478a 023f a4f4 843f
00000030: b19f 343e f091 493f fe37 363f a126 8c3f
00000040: 91a5 573e 9fc0 923e d123 533f e42b 103f
00000050: c64b 2c3e d98c 3d3f eb8f 053f eed1 e23e
00000060: d7e1 383f e23e 8b3e 1b1d 413f 54d8 2d3f
00000070: 8ebb 8a3e 700b 143f fb23 073f cfd3 813e
0.512948 0.55409896 0.5987463 0.26864558 0.22420615 0.6457986 0.63469285 0.14227194
0.43405944 0.22648065 0.50992244 1.0387158 0.17639042 0.7873831 0.7117919 1.0949289
0.21059252 0.28662583 0.82476526 0.5631697 0.1682578 0.7404304 0.52172726 0.4430079
0.72219604 0.27196413 0.75435036 0.67908216 0.27096218 0.5782995 0.52789277 0.2535691

layer2.1.bias f4 [32]
00000000: 1fbc 06bf 1464 14bf 19d3 4cbf c277 3bbf
00000010: 18df 2fbf d0ee 58bf 5e4c 3ebf 900b 53bf
00000020: 0577 f7be 8eed 43bf d906 02bf 70e9 05c0
00000030: 0b96 68bf 5d89 a8bf c0af 55bf eabe d1bf
00000040: 9430 44bf b73a 20bf 8e69 8cbf dd98 33bf
00000050: 92cf 12bf f390 68bf 1d0c 44bf 6bc5 f8be
00000060: 6a2c 81bf a79f 26bf 791c 85bf 450f 5cbf
00000070: a442 30bf c606 0cbf 7bd9 1fbf dcd3 52bf
-0.526308 -0.5796521 -0.8000961 -0.7322961 -0.6869979 -0.847394 -0.7433528 -0.8243952
-0.48332992 -0.76534355 -0.507917 -2.092373 -0.9085395 -1.316692 -0.834713 -1.6386387
-0.76636624 -0.6258959 -1.0969713 -0.70155126 -0.5734798 -0.90846175 -0.76580983 -0.48588118
-1.0091679 -0.6508736 -1.0399314 -0.859608 -0.68851686 -0.54697835 -0.62441224 -0.8235452

layer2.1.running_mean f4 [32]
00000000: 1d4b e6c2 038e aac2 12ef a2c2 9acc 4ec2
00000010: 8ee4 d3c1 432f 96c2 eea2 abc2 a75e 0fc2
00000020: 038b 8cc2 2f05 11c2 9ceb 8bc2 5dbc 83c2
00000030: 9ede 39c2 c909 a5c2 a999 dac2 a8ef b0c2
00000040: 3aef bec1 2b49 a0c1 d810 91c2 03ac 02c3
00000050: e0b3 33c2 4d09 c2c2 9920 a5c2 3eda acc2
00000060: 42cd 73c2 8c26 d1c1 856e 7bc2 b61a bac2
00000070: 2981 f6c1 9773 dbc2 ceaf a5c2 8c7e 34c2
-115.146706 -85.27737 -81.466934 -51.699806 -26.486599 -75.09231 -85.81822 -35.842434
-70.27151 -36.255062 -69.960175 -65.8679 -46.4674 -82.51911 -109.30012 -88.46808
-23.86681 -20.035727 -72.5329 -130.67192 -44.92566 -97.018166 -82.56367 -86.426254
-60.950447 -26.143822 -62.85793 -93.05217 -30.813066 -109.72576 -82.84337 -45.12358

layer2.1.running_var f4 [32]
00000000: f374 3a46 bf6d 5646 0db9 f845 f25b 8444
00000010: 399c a843 d65e ff45 6c94 1346 8e5c 1444
00000020: 6148 cd45 2f77 1a44 cc7f 1c46 3aa6 3e46
00000030: a581 9b44 d5cf 1546 cc76 3046 08d3 2046
00000040: ba17 d343 a4f8 4543 09c6 0846 166a 3046
00000050: d24e 8844 01a5 1846 5f7c d245 161b 0546
00000060: 56d8 af45 4fd2 9143 3096 1446 bf60 1046
00000070: 285b c843 6863 2846 91b8 1b46 b1c5 6d44
11933.237 13723.437 7959.1313 1058.8733 337.2205 8171.8545 9445.105 593.44617
6569.0474 617.86224 10015.949 12201.557 1244.0514 9587.958 11293.699 10292.758
422.18536 197.97125 8753.509 11290.521 1090.4631 9769.251 6735.5464 8518.771
5627.042 291.64304 9509.547 9240.187 400.71216 10776.852 9966.142 951.0889

fc.weight f4 [7, 4608]
00000000: 5fec 34c0 4b51 843e 7fa3 7e3f 1806 c4be
00000010: e069 c13f fe0a 2dc0 87d5 52c0 2bd2 f73f
00000020: 0f3e e0bf 4547 85bf ff49 0c3f d4dc eabf
00000030: fa58 35be c4c8 4dbe b4bd ddbf 2dab 153f
00000040: bb92 04bd 2d22 d0bf a851 a73f 6b50 83be
00000050: 8d71 9c3e 52cf 423f 1952 aebf a8bd 2fc0
00000060: 5aef 3abf 1040 a9bb db66 293e 78f0 bb3f
00000070: 0ba9 bebf ae4d 463f 2caa b0bf 56d4 793e
00000080: 7967 39bf 97ff 18c0 34ed 7bbf ce05 043e
00000090: d4d1 51be 7a88 453f 7bc4 b6bf acb0 49bf
000000a0: 9b02 0c3f df29 ccbf c37c a2be 8eb8 b23f
000000b0: 1f54 91be 4c3d a4bf 2a83 1f3d 8762 1dc0
000000c0: 5eed 1cbf deac 0abf 8e43 81bf 3df2 a8bf
000000d0: 11d9 c2be ff39 fdbd 3729 f13e 4812 9dbf
000000e0: bfcf 6ebf 7247 ddbf a0f0 91bd 5086 393f
000000f0: 6518 5440 6cc9 5040 0a28 533f b31c 1ebe
00000100: 95ac a93f 670c 38bf 4679 1b3f be2c 863d
00000110: c6eb 35bf f5a6 77bf f659 923f 2dbe 23c0
00000120: cf0d 0fc0 1295 20bf 6ed2 683f 2c8a 973f
00000130: 1b98 c03c be75 1240 5348 90bf 9ec5 e6be
00000140: 8e58 41bd a61e ee3f a7b5 5cbd 24ce 8a40
00000150: b392 01be 9602 0b3f 34db ad3f 7b55 30bf
00000160: 986e 8d3f bbc8 55be fd43 603f e46a dbbe
00000170: 18b7 0940 8604 5dbf 30bb 4f3f 2ee3 c8bf
00000180: 32f8 47bf 0534 43bf e77e c53f d543 76bf
00000190: 23ce 0840 3604 213e 59e2 66bf a481 473f
000001a0: 65fb cb3f 0046 59be f3c4 26bc 0086 35bf
000001b0: b141 483f 1557 db3f b35f 1dbe 2194 71bd
000001c0: ff20 98bf 925d 883f 4922 dcbe fd8d 733f
000001d0: 2f48 5a3f d514 733f 599d c6be bc4f fd3e
000001e0: 4e65 9e3e 3627 cc3e 9dfb a2be d7ed 2cc0
000001f0: 96c4 dd3f 1a87 38c0 a9f3 e03f 6328 383f
00000200: 8e3c 973f 5e44 96be db7b 7cbf aabb 8c3f
00000210: e398 b13f eccd 5940 3845 dcbf 7683 96be
00000220: 0f0c 1abf 6c5e 913f 1807 2e3f 321e 68bf
00000230: 1f19 0240 a480 82c0 c871 1d3f d1ed 98bf
00000240: c8e2 80bf f3cd 63bf 9b75 3b3f eaf1 1bbf
00000250: 8480 6140 9717 60c0 4960 da3f 4c00 e13f
00000260: b815 053e e688 ce3e 08ca 143f 85dd 28c0
00000270: 2064 1b40 d5f7 6a3f ea34 9a3f 6c0a 843f
00000280: 972c c23f 9d87 29bd 027d 013e 9513 2240
00000290: 598d 52be 0f4b ab3f 6cb1 483f 5054 1f40
000002a0: 0db2 8d3e e4f5 123d abcb 323e ab15 a73f
000002b0: 58ad 513f 2f92 07bf f431 0f40 0753 b23f
000002c0: f8c2 273f b86d 9a3f b578 b1bd 1a9c dabe
000002d0: 5405 ebbe 05e7 01c0 57f4 76be 70fe 2340
000002e0: 4cb1 fe3f a868 3fbf f098 ee3e 1c1c d63f
000002f0: 7ee1 833f 5558 aa3f 7264 6b3f 6cd4 2cbf
00000300: 1496 de3e f4d1 74bf d4ac 263f 7e17 b73f
00000310: 4af8 b03f cc53 dbbe 0bdb 853f 856a 3a3f
00000320: c235 053f f4aa 1040 157d 90bf 8a13 013f
00000330: 54ba 2340 ded8 56bf c5b4 41bf 800c 1e3f
00000340: 0fcb bfbe 1b7d 9bbf ae10 a03e 301c 893e
00000350: ea39 363e 02b2 81be 18dd 50bf ef5a 3f40
00000360: 5c22 0540 1e88 7bc0 a442 0bc0 7a06 d03e
00000370: 81ce 07c0 81e6 54bf 3580 a23f cd39 87bf
00000380: 5f9a 42c0 1d82 313f 93b3 9cbf 000d 86c0
00000390: 6f05 d13f 1724 aa3e 72bf 99bf 61b3 4ec0
000003a0: 55cc acbf 6a0e 1dbf 6c95 00c0 73b5 f1bf
000003b0: 8d4e 4cc0 55d6 20bf 749a 06c0 51a1 d5bd
000003c0: bdd7 713f 6d50 87c0 83d7 743d 7527 5abf
000003d0: 142b ffbf ca44 d7bf c444 c0be e5e6 8cc0
000003e0: 0db9 b3bf 7551 3c3f 0fb2 94bf 19a3 02bf
000003f0: a165 51bf 6a52 013f 7a30 39bf 444e b0bd
-2.826927 0.25843272 0.99468225 -0.382859 1.5110435 -2.703796 -3.2942827 1.9361013
-1.7518939 -1.0412375 0.5480041 -1.8348641 -0.17709723 -0.20096117 -1.7323518 0.5846432
-0.032366496 -1.626043 1.3071795 -0.25647292 0.30555382 0.76097596 -1.3618804 -2.7459507
-0.7302147 -0.0051651075 0.16543142 1.468276 -1.4895338 0.7746228 -1.3801932 0.24397406
-0.7242351 -2.3906 -0.9840882 0.1289284 -0.204902 0.7716137 -1.4278711 -0.78785205
0.54691476 -1.5950278 -0.3173581 1.3962572 -0.28384492 -1.2831206 0.038943447 -2.4591386
-0.61299694 -0.54170024 -1.0098741 -1.3198925 -0.38056234 -0.123645775 0.47101757 -1.2271204
-0.93285745 -1.7287428 -0.07125974 0.7247057 3.313989 3.2622938 0.8248297 -0.15440635
1.3255793 -0.71893924 0.60731924 0.06551503 -0.71062887 -0.9673913 1.1433704 -2.5584824
-2.2352178 -0.62727463 0.9094609 1.1839042 0.02351003 2.2884364 -1.1272072 -0.45072645
-0.047203593 1.8603103 -0.053884175 4.3376637 -0.12653618 0.5430082 1.358252 -0.6888043
1.1049376 -0.20877354 0.8760374 -0.4285499 2.1518002 -0.8633503 0.81145 -1.569433
-0.7811309 -0.7625125 1.5429353 -0.96197253 2.1375816 0.15724263 -0.9018913 0.7793219
1.5936095 -0.21218109 -0.010178792 -0.7090759 0.7822524 1.713595 -0.15368538 -0.058979157
-1.188507 1.0653555 -0.42994907 0.9513853 0.85266393 0.9495366 -0.38791922 0.49474895
0.30936664 0.39873666 -0.3183259 -2.7020166 1.7325618 -2.883246 1.7574359 0.71936625
1.1815355 -0.29349035 -0.9862649 1.099477 1.3874782 3.4031935 -1.7208624 -0.29397172
-0.6017465 1.135694 0.67979574 -0.90671074 2.0327833 -4.078203 0.6150174 -1.1947576
-1.0069208 -0.8898613 0.73226327 -0.60916007 3.523469 -3.5014398 1.7060634 1.7578216
0.12996566 0.4033882 0.58120775 -2.6385205 2.4279861 0.9178441 1.2047398 1.031568
1.5169858 -0.041389097 0.12645343 2.5324452 -0.20561732 1.3382281 0.78395724 2.489521
0.27674904 0.03587903 0.17460506 1.3053488 0.81905127 -0.52957433 2.237424 1.3931588
0.65531874 1.2064734 -0.08665601 -0.4269722 -0.45902503 -2.0297253 -0.24116646 2.5624046
1.9897857 -0.7476907 0.46601057 1.6727328 1.030319 1.3308207 0.9195014 -0.6751163
0.43473876 -0.95632863 0.65107465 1.4304044 1.3825772 -0.4283737 1.0457472 0.72818786
0.5203515 2.2604342 -1.1288172 0.5042044 2.5582476 -0.83924663 -0.7566646 0.61737823
-0.3745961 -1.2147554 0.31262726 0.26779318 0.1779553 -0.25331122 -0.8158736 2.9899251
2.0802221 -3.930183 -2.1759424 0.4062994 -2.121979 -0.8316422 1.2695376 -1.0564514
-3.040672 0.6933916 -1.2242302 -4.189087 1.6329783 0.3323066 -1.201155 -3.2296984
-1.3499857 -0.6135012 -2.00912 -1.8883499 -3.1922944 -0.62827045 -2.103177 -0.10431159
0.94469815 -4.2285676 0.05977584 -0.85216457 -1.9935021 -1.6817868 -0.37552464 -4.4031854
-1.4040848 0.73561794 -1.1616839 -0.5103012 -0.817957 0.5051638 -0.72339594 -0.08608678

fc.bias f4 [7]
00000000: 42e6 8f3e 19f4 3cc0 f9ef af3d db19 4b3e
00000010: 0ca0 803e 43a1 843f 4d68 d2bf
0.2810536 -2.9523985 0.08590693 0.19834082 0.25122106 1.0361713 -1.643808
