FaceExpressions_CNN/savemodel/model_46.pth (torch_old, 185408 bytes, 14 tensors)

layer1.0.weight f4 [16, 1, 5, 5]
0.7916857 1.7223525 3.04459 2.6918862 2.7596564 3.4780698 -0.039939374 -0.44458956
-0.389765 0.023045246 0.7548938 -2.1089556 -1.4428674 -4.65936 -6.6051884 1.508702
-1.0458721 -0.10920993 -2.9087508 -2.0985467 1.0651968 -2.4413414 1.789964 0.18640131
1.4318141 -0.6039779 -2.4339645 -0.64172864 2.3899353 3.0791233 -0.6867968 -1.6534468
0.5243583 1.134548 -1.1181365 -0.55071574 -1.8317809 -0.981584 -2.4324868 -2.5171432
-6.2249274 -2.3265247 -2.7203546 -5.186143 1.2535739 0.382317 -0.07086158 -0.7982626
0.5268856 1.5802424 -2.2484918 -1.3210143 2.118156 0.22794673 -3.2217 1.5062848
2.3746402 1.7448714 4.309077 0.06861835 0.39089283 3.6584642 -0.6960005 5.2069244
0.971959 -3.3282042 2.5359762 0.35184184 4.996445 0.58699965 -1.5566678 0.30974805
0.17421345 -0.40526116 -2.9500067 3.159079 1.093256 -2.3069668 -0.33526865 0.080198035
2.648848 -4.3744645 -2.9096115 0.4315339 0.08079824 -2.3241057 -5.8552957 0.16388689
-0.2112526 -2.530188 -1.9427203 2.096214 2.7767954 2.5309212 2.1350853 0.5356514
1.3074249 0.3565759 0.40409088 1.714482 1.9425013 -1.1368432 -1.9900852 -2.4763682
1.6130102 1.2595489 -1.653233 0.40113187 -1.877497 -1.9909269 -2.4683344 -0.39311787
1.355785 -3.7329516 -5.113745 0.92904043 0.68908346 -1.8081777 -2.7272034 -2.166535
3.813776 4.3125954 1.5405095 1.5944887 0.65185976 -1.0548658 -4.975661 -5.713995
-2.135152 -1.4222811 0.020055879 -1.0444888 -2.338021 -1.6420074 -2.341684 0.4954177
0.41003162 1.4904424 2.8579173 -1.02639 -0.8766572 0.28498235 2.3374333 1.177121
1.2492789 3.8184757 1.4543629 1.6100492 0.14349273 3.6875184 0.5506054 -1.5194398
-0.7084838 2.2019818 0.29020968 1.1320289 -0.57175046 -3.7279356 0.35873923 4.006229
0.9072127 2.1118574 -4.516021 -4.416891 2.9153452 -0.36021203 2.6900468 1.5624034
-3.7547822 -1.2510124 -0.43783784 0.432675 2.2005606 0.17226247 -0.1685256 0.052751746
-0.030250393 -2.818272 -2.160691 -1.2121967 -1.9221785 0.25787082 -1.1111943 0.6304244
0.55917025 -1.8266902 6.0453076 5.72755 5.1875057 2.868349 -0.46569782 2.4128482
-0.47582987 3.3641844 -2.6656065 1.940069 0.5533485 -0.22240217 1.6533241 -3.2520058
-1.8297757 -0.17613032 -0.48857322 -3.1109407 -1.8395975 1.7045077 -0.4440617 -0.66546476
-0.909283 3.017976 0.27533662 1.7624205 1.2076865 3.4337559 -0.52562785 0.3176173
2.7462754 2.9063184 2.8598433 -4.380061 0.24453874 0.5917324 2.392427 1.7389333
-4.760353 0.7413844 -1.8572841 -0.5507389 0.07428808 0.21308585 -1.4721519 -1.5225822
3.7356906 2.4124012 1.4546492 0.06038355 0.5707951 6.0129776 0.1254362 -3.6139412
-1.346572 2.7290807 5.116941 -2.1663785 -4.101056 -2.3966553 0.08561541 -0.23280561
-0.5930707 -1.2384821 2.9165916 1.0689298 -2.7486422 -1.4115986 1.907428 -0.5180387
00000000: eaab 4a3f 0c76 dc3f 90da 4240 dd47 2c40
00000010: 369e 3040 b298 5e40 7897 23bd 3ea1 e3be
00000020: 478f c7be 62c9 bc3c b840 413f 21f9 06c0
00000030: e1af b8bf 7a19 95c0 b45d d3c0 261d c13f
00000040: 23df 85bf 75a9 dfbd f928 3ac0 974e 06c0
00000050: 5e58 883f f03e 1cc0 8a1d e53f fcdf 3e3e
00000060: af45 b73f 4c9e 1abf 13c6 1bc0 5448 24bf
00000070: b3f4 1840 5b10 4540 ead1 2fbf 25a4 d3bf
00000080: 583c 063f de38 913f 191f 8fbf b5fb 0cbf
00000090: cc77 eabf 1749 7bbf ddad 1bc0 e018 21c0
000000a0: 9b32 c7c0 c8e5 14c0 4a1a 2ec0 e2f4 a5c0
000000b0: 1c75 a03f 0ebf c33e e01f 91bd f05a 4cbf
000000c0: fae1 063f 6245 ca3f 4ae7 0fc0 ff16 a9bf
000000d0: de8f 0740 de6a 693e 5530 4ec0 f1cd c03f
000000e0: 1bfa 1740 f257 df3f f5e3 8940 c787 8c3d
000000f0: 1b23 c83e 4724 6a40 172d 32bf 209f a640
00000100: 4ed2 783f 4c01 55c0 6f4d 2240 9d24 b43e
00000110: e1e2 9f40 9c45 163f e440 c7bf 4c97 9e3e
00000120: 0365 323e 647e cfbe e9cc 3cc0 5a2e 4a40
00000130: d0ef 8b3f 58a5 13c0 55a8 abbe de3e a43d
00000140: ba86 2940 9dfb 8bc0 1337 3ac0 03f2 dc3e
00000150: 8c79 a53d 26be 14c0 955e bbc0 f7d1 273e
00000160: 9a52 58be 9aee 21c0 0fab f8bf 5f28 0640
00000170: 04b7 3140 9dfa 2140 3da5 0840 7320 093f
00000180: b359 a73f 1e91 b63e 00e5 ce3e 2574 db3f
00000190: e2a3 f83f 1484 91bf 1dbb febf d17c 1ec0
000001a0: 1e77 ce3f e638 a13f 249d d3bf 2861 cd3e
000001b0: d251 f0bf b1d6 febf 31f9 1dc0 bf46 c9be
000001c0: 5d8a ad3f aee8 6ec0 cda3 a3c0 98d5 6d3f
000001d0: c667 303f 5e72 e7bf 808a 2ec0 82a8 0ac0
000001e0: e814 7440 c800 8a40 6a2f c53f 3518 cc3f
000001f0: 48e0 263f d805 87bf 9d38 9fc0 0cd9 b6c0
00000200: 55a6 08c0 4f0d b6bf 3a4c a43c cfb1 85bf
00000210: 23a2 15c0 4c2d d2bf 27de 15c0 64a7 fd3e
00000220: aaef d13e d1c6 be3f 1ee8 3640 bf60 83bf
00000230: 9b6c 60bf 35e9 913e 8298 1540 e7ab 963f
00000240: 5fe8 9f3f e861 7440 9028 ba3f 1816 ce3f
00000250: c2ef 123e 4d00 6c40 7af4 0c3f 017d c2bf
00000260: 325f 35bf 45ed 0c40 5d96 943e 53e6 903f
00000270: 3d5e 12bf 7f96 6ec0 abac b73e 0733 8040
00000280: 173f 683f ac28 0740 3e83 90c0 2c57 8dc0
00000290: 0495 3a40 b66d b8be ba29 2c40 d6fc c73f
000002a0: 5a4e 70c0 2d21 a0bf 482c e0be 9487 dd3e
000002b0: fcd5 0c40 9365 303e fa91 2cbe 3712 583d
000002c0: accf f7bc 925e 34c0 c348 0ac0 4329 9bbf
000002d0: f209 f6bf a507 843e 9d3b 8ebf 7e63 213f
000002e0: c825 0f3f fcd0 e9bf 2973 c140 1748 b740
000002f0: 0c00 a640 0893 3740 f26f eebe 1b6c 1a40
00000300: f99f f3be cc4e 5740 4c99 2ac0 2e54 f83f
00000310: 3fa8 0d3f 65bd 63be 20a0 d33f dd20 50c0
00000320: 1736 eabf 825b 34be 4526 fabe a719 47c0
00000330: ee77 ebbf 4f2d da3f 0e5c e3be e65b 2abf
00000340: c5c6 68bf 8526 4140 ecf8 8c3e ff96 e13f
00000350: 7995 9a3f a8c2 5b40 8c8f 06bf bc9e a23e
00000360: fac2 2f40 1f01 3a40 ac07 3740 7629 8cc0
00000370: 5d68 7a3e c67b 173f 861d 1940 5e95 de3f
00000380: d054 98c0 5ecb 3d3f 7cbb edbf 39fd 0cbf
00000390: 5924 983d 2d33 5a3e 796f bcbf f9e3 c2bf
000003a0: 8e15 6f40 c864 1a40 f231 ba3f be54 773d
000003b0: a11f 123f 506a c040 5972 003e d04a 67c0
000003c0: 795c acbf 42a9 2e40 fbbd a340 f2a5 0ac0
000003d0: da3b 83c0 cd62 19c0 2257 af3d 9864 6ebe
000003e0: 7bd3 17bf 9586 9ebf 70a9 3a40 b1d2 883f
000003f0: c1e9 2fc0 43af b4bf 9a26 f43f 2f9e 04bf

layer1.0.bias f4 [16]
-0.3304311 4.4196386 0.5044866 -1.4861069 1.7898772 -2.5852833 0.015271484 1.147844
1.364388 0.3238839 0.44993827 -0.8864265 2.986827 0.24856862 2.2662275 0.19809988
00000000: 442e a9be ae6d 8d40 0926 013f c038 bebf
00000010: b21a e53f 4875 25c0 3f35 7a3c 8dec 923f
00000020: 44a4 ae3f 1cd4 a53e 4f5e e63e d9ec 62bf
00000030: 2c28 3f40 c688 7e3e df09 1140 b2da 4a3e

layer1.1.weight f4 [16]
3.064872 2.533798 3.0623214 2.5000792 2.5091033 3.1979125 2.778631 2.574406
1.3337595 1.9310256 2.5804982 2.7706246 3.194847 2.6185243 1.8625021 0.3668706
00000000: dd26 4440 bf29 2240 13fd 4340 4c01 2040
00000010: 2695 2040 99aa 4c40 17d5 3140 11c3 2440
00000020: a2b8 aa3f d92b f73f e226 2540 ea51 3140
00000030: 6078 4c40 e795 2740 7866 ee3f 77d6 bb3e

layer1.1.bias f4 [16]
-3.1890903 -2.3247068 -3.9590623 -0.10152034 -1.8164287 -2.1055496 -1.0011945 -2.3537502
0.93047893 -0.90581656 -3.693861 -1.8982666 -3.6291065 -0.36229506 -1.0294831 -1.3687358
00000000: 0e1a 4cc0 ffc7 14c0 4761 7dc0 e5e9 cfbd
00000010: bc80 e8bf 53c1 06c0 2427 80bf d8a3 16c0
00000020: de33 6e3f 98e3 67bf 3868 6cc0 66fa f2bf
00000030: 4843 68c0 bd7e b9be 1ac6 83bf bc32 afbf

layer1.1.running_mean f4 [16]
-1.8897977 -6.5708513 8.620771 -2.1559877 -3.1282244 -4.0570216 0.017100956 8.14643
4.653896 1.6855538 0.56730217 -0.6650399 -6.825923 -0.33801514 3.7651143 -3.7466888
00000000: e4e4 f1bf 6a44 d2c0 aeee 0941 b4fb 09c0
00000010: d434 48c0 1fd3 81c0 4e17 8c3c c757 0241
00000020: b7ec 9440 3ac0 d73f b73a 113f 0e40 2abf
00000030: f66d dac0 5210 adbe a2f7 7040 c0c9 6fc0

layer1.1.running_var f4 [16]
7.2782288 29.61554 17.992567 3.2223902 13.202973 12.874797 1.6156687 14.311588
6.1808853 3.9760551 3.3360896 10.572901 34.585056 6.9832964 3.379264 3.374284
00000000: 40e7 e840 a0ec ec41 c7f0 8f41 a43b 4e40
00000010: 613f 5341 2bff 4d41 3bce ce3f 44fc 6441
00000020: d0c9 c540 b077 7e40 7e82 5540 9a2a 2941
00000030: 1957 0a42 2a77 df40 dd45 5840 45f4 5740

layer2.0.weight f4 [32, 16, 5, 5]
-3.5228343 -4.0374937 -2.3756003 -4.7363186 -1.6137077 -5.1897736 -2.8554776 -2.158068
-4.411515 0.9777297 1.871583 0.16942759 -3.4485824 0.13530907 2.3311915 -0.596425
-1.2569271 0.046376467 1.1143051 -1.1887892 -2.3230565 -2.0645432 0.79295844 -1.4217755
1.8183948 -3.8480325 -1.2602181 -2.8001785 -2.3191938 0.4970005 -0.7612937 1.1740719
-0.65062153 1.3567632 6.642228 0.5047828 2.2603729 -0.0113451695 -4.481204 0.18483399
-0.530344 2.8486826 3.358302 -1.2231177 0.07479819 2.2491562 1.1588645 -1.4842005
-4.209543 1.45696 0.12157389 6.4445763 -1.2998455 -0.21794698 -1.0814999 -0.016805416
-0.0313539 -4.3881674 -0.46889064 0.61984015 -3.442393 1.6450725 -0.51283324 0.2469516
-1.1055788 -1.0797136 4.1535954 1.8149263 2.8224428 0.324031 -2.41138 -1.3924017
-0.446752 -3.0555766 -3.0672069 1.5357223 -1.0584896 -0.9375254 -0.3163309 -2.815697
-1.808796 -3.8751035 -5.2573957 -0.92857045 0.061380737 3.8557131 1.7792926 -7.211728
-5.90291 0.6930372 0.26313207 1.3845057 -2.2146175 1.211188 -0.56206256 0.033363506
1.9886334 -1.5509064 0.057394248 2.1823514 -0.4085766 2.7593517 -2.0241868 0.19035718
-1.2309426 -2.9779239 -4.3880787 -2.7204714 -2.1121397 -1.8421143 -2.3036127 -1.420274
0.048632767 -0.5196098 -2.4019756 0.4892771 4.400736 -0.87852395 -2.2785738 -0.40475386
3.3158402 -0.6303419 -1.5703496 1.7229731 1.38622 -0.18873338 -2.1047049 -2.069038
0.8786237 1.5172943 1.1974025 0.24634776 -1.5597885 -0.7858277 0.28209543 -2.1286738
0.9793936 -1.0800995 -0.19327778 -1.7634497 0.5595862 2.0525162 -4.4049125 -1.7047861
2.1081579 -1.0695907 0.9790525 -0.46409047 -3.2744067 -0.004582596 -2.8512046 5.1060505
0.065847345 0.91596276 1.4081513 -0.18085805 -8.5639515 -1.2508302 -0.079626754 -6.577234
3.566788 1.1180655 -1.6328378 -6.4893365 1.3440716 1.2891679 1.8441181 0.0059294184
1.6670669 -0.6924138 1.4551855 0.32265267 -2.3704166 0.025505494 -1.4584271 0.8145228
-0.5543928 -2.5344458 1.3418695 1.234865 3.8282416 0.8062174 -0.46002147 -0.7867867
-2.386302 -6.815065 -3.012685 -1.6429638 -2.285278 -1.0257323 -2.9248478 -0.35594174
-0.78795934 -0.88127285 2.6908698 -0.27487683 0.093170814 0.7634116 1.0618353 3.0914795
-0.93474287 -0.45375142 -0.21171236 0.8505421 -1.0783215 -1.4284616 -2.9357877 2.0591776
0.82657737 -0.6909929 -2.925751 -2.7914708 -0.16817927 1.5767999 1.431095 -1.4687245
-0.77929187 -2.0074434 -2.2191448 1.1749799 -2.6917071 0.38968778 1.8106645 0.7093636
0.33935547 -1.4205931 -1.2833824 -2.6386101 3.3249974 -1.5214568 0.16290432 -5.8418636
0.6383656 -0.2538031 -0.24842413 -0.65902567 -1.7823172 -0.30788094 2.0003088 1.1349837
-4.3192654 -3.652661 -2.3901598 -0.03479412 1.3450484 -2.0615509 1.3674426 1.9389839
0.72346485 0.6819604 4.453512 -5.019198 1.0212666 -3.2919462 0.24694021 -0.7775848
00000000: 1e76 61c0 2633 81c0 d609 18c0 ec8f 97c0
00000010: f98d cebf a012 a6c0 25c0 36c0 c91d 0ac0
00000020: 222b 8dc0 7e4c 7a3f 0890 ef3f 6d7e 2d3e
00000030: 93b5 5cc0 768e 0a3e 3e32 1540 4faf 18bf
00000040: fde2 a0bf 40f5 3d3d 8da1 8e3f 3f2a 98bf
00000050: f5ac 14c0 7a21 04c0 53ff 4a3f bdfc b5bf
00000060: 29c1 e83f 2a46 76c0 d44e a1bf 2036 33c0
00000070: ac6d 14c0 d976 fe3e 25e4 42bf fd47 963f
00000080: 228f 26bf 6baa ad3f 228d d440 7239 013f
00000090: f3a9 1040 17e1 39bc 0666 8fc0 1f45 3d3e
000000a0: a0c4 07bf d150 3640 6cee 5640 1f8f 9cbf
000000b0: cb2f 993d 2df2 0f40 ac55 943f 48fa bdbf
000000c0: 94b4 86c0 aa7d ba3f bbfb f83d f839 ce40
000000d0: 5661 a6bf 7e2d 5fbe 976e 8abf 83ab 89bc
000000e0: f26c 00bd de6b 8cc0 6f12 f0be d8ad 1e3f
000000f0: 2b50 5cc0 bc91 d23f 0a49 03bf e1e0 7c3e
00000100: 9b83 8dbf 0e34 8abf 41ea 8440 814f e83f
00000110: e7a2 3440 64e7 a53e 0d54 1ac0 383a b2bf
00000120: aebc e4be 918e 43c0 1e4d 44c0 8c92 c43f
00000130: 967c 87bf aa01 70bf 20f6 a1be 6134 34c0
00000140: a186 e7bf b201 78c0 963c a8c0 cbb6 6dbf
00000150: 5e6a 7b3d 01c4 7640 dcbf e33f 7ac6 e6c0
00000160: a4e4 bcc0 e36a 313f 3fb9 863e 7c37 b13f
00000170: 4bbc 0dc0 3508 9b3f 55e3 0fbf 2ca8 083d
00000180: 8a8b fe3f 1a84 c6bf 3b16 6b3d a5ab 0b40
00000190: f430 d1be 3899 3040 478c 01c0 feec 423e
000001a0: 878f 9dbf 4e96 3ec0 246b 8cc0 341c 2ec0
000001b0: 4c2d 07c0 67ca ebbf 646e 13c0 8acb b5bf
000001c0: 2733 473d 2605 05bf f8b9 19c0 8782 fa3e
000001d0: d4d2 8c40 f2e6 60bf 27d4 11c0 e63b cfbe
000001e0: ba36 5440 165e 21bf 3701 c9bf 628a dc3f
000001f0: a86f b13f 5343 41be 7cb3 06c0 1e6b 04c0
00000200: 7ced 603f b336 c23f 7c44 993f 9642 7c3e
00000210: 26a7 c7bf 012c 49bf d06e 903e 313c 08c0
00000220: 8ab9 7a3f b340 8abf 9cea 45be b8b8 e1bf
00000230: 0b41 0f3f 6d5c 0340 0bf5 8cc0 6e36 dabf
00000240: 0fec 0640 59e8 88bf 2fa3 7a3f 449d edbe
00000250: e18f 51c0 9a29 96bb 237a 36c0 c464 a340
00000260: f9da 863d 897c 6a3f 4d3e b43f da32 39be
00000270: f205 09c1 341b a0bf 5a13 a3bd b378 d2c0
00000280: 4146 6440 c51c 8f3f d400 d1bf a5a8 cfc0
00000290: 8a0a ac3f 7403 a53f 100c ec3f 914b c23b
000002a0: 7362 d53f 0842 31bf 8543 ba3f bb32 a53e
000002b0: e8b4 17c0 e6f0 d03c bdad babf 9184 503f
000002c0: b0ec 0dbf 5c34 22c0 61c2 ab3f 0e10 9e3f
000002d0: e901 7540 4364 4e3f ef87 ebbe da6a 49bf
000002e0: 2cb9 18c0 0315 dac0 d5cf 40c0 a34c d2bf
000002f0: ff41 12c0 324b 83bf b530 3bc0 ff3d b6be
00000300: b4b7 49bf 199b 61bf 3637 2c40 a8bc 8cbe
00000310: 57d0 be3d f16e 433f 38ea 873f cdda 4540
00000320: 4f4b 6fbf 1b52 e8be 20cb 58be 21bd 593f
00000330: 7006 8abf d4d7 b6bf f2e3 3bc0 91c9 0340
00000340: 939a 533f e9e4 30bf 813f 3bc0 75a7 32c0
00000350: 3037 2cbe 94d4 c93f 1f2e b73f 2aff bbbf
00000360: ac7f 47bf f479 00c0 7806 0ec0 be65 963f
00000370: ee44 2cc0 2885 c73e dbc3 e73f da98 353f
00000380: 00c0 ad3e ffd5 b5bf e045 a4bf fdde 28c0
00000390: c2cc 5440 19bf c2bf 64d0 263e 8cf0 bac0
000003a0: ee6b 233f 7bf2 81be e562 7ebe e8b5 28bf
000003b0: f822 e4bf 92a2 9dbe 0f05 0040 2547 913f
000003c0: 6c37 8ac0 33c5 69c0 61f8 18c0 4784 0ebd
000003d0: 8c2a ac3f 73f0 03c0 5c08 af3f a030 f83f
000003e0: fe34 393f f594 2e3f 2c83 8e40 459d a0c0
000003f0: ddb8 823f 3faf 52c0 e5dd 7c3e cc0f 47bf

layer2.0.bias f4 [32]
2.2266138 0.93917847 1.659752 0.1929084 0.4435456 0.99896044 2.0829961 0.3013051
1.527415 0.25515854 1.0222158 0.019820297 0.1955629 0.7584604 2.0777931 0.9353602
0.18916236 0.19695292 1.1005771 1.3287913 0.13229117 2.000743 1.6989161 1.7731779
1.6580062 0.03198193 0.9754371 1.374624 0.16890362 2.3516414 0.9755804 0.17242675
00000000: d780 0e40 006e 703f c172 d43f c889 453e
00000010: 6918 e33e dfbb 7f3f cf4f 0540 a944 9a3e
00000020: 5682 c33f 24a4 823e f8d7 823f 2d5e a23c
00000030: a441 483e 762a 423f 90fa 0440 c473 6f3f
00000040: c7b3 413e 07ae 493e b6df 8c3f d515 aa3f
00000050: 5677 073e 2c0c 0040 1576 d93f 7ef7 e23f
00000060: 8c39 d43f 7cff 023d 3fb6 793f aef3 af3f
00000070: 12f5 2c3e 4b81 1640 a3bf 793f a390 303e

layer2.1.weight f4 [32]
0.5046195 0.5214349 0.6069662 0.26864558 0.22420615 0.6269922 0.65572363 0.14227194
0.42883292 0.22648065 0.48730224 1.0006213 0.17639042 0.7917117 0.71000415 1.0717674
0.21059252 0.28662583 0.78692406 0.55708957 0.1682578 0.7549038 0.51666224 0.4553261
0.71800506 0.27196413 0.7364893 0.64900017 0.27096218 0.5391691 0.53375924 0.2535691
00000000: be2e 013f c27c 053f 2362 1b3f ea8b 893e
00000010: 4c96 653e 9082 203f 81dd 273f bcaf 113e
00000020: fd8f db3e 8bea 673e ae7f f93e 5c14 803f
00000030: b19f 343e 9ead 4a3f d5c2 353f ad2f 893f
00000040: 91a5 573e 9fc0 923e db73 493f 6c9d 0e3f
00000050: c64b 2c3e 6041 413f fa43 043f 8120 e93e
00000060: 2ecf 373f e23e 8b3e 908a 3c3f e024 263f
00000070: 8ebb 8a3e fc06 0a3f 72a4 083f cfd3 813e

layer2.1.bias f4 [32]
-0.55090815 -0.56555593 -0.7731768 -0.7322961 -0.6869979 -0.8530074 -0.7693984 -0.8243952
-0.4608184 -0.76534355 -0.5099161 -2.079584 -0.9085395 -1.2954932 -0.8181744 -1.6521329
-0.76636624 -0.6258959 -1.0799664 -0.655809 -0.5734798 -0.87791955 -0.73033035 -0.46613005
-1.0069218 -0.6508736 -1.0568799 -0.82298404 -0.68851686 -0.5842065 -0.6499499 -0.8235452
00000000: 5108 0dbf 46c8 10bf eaee 45bf c277 3bbf
00000010: 18df 2fbf b15e 5abf 4bf7 44bf 900b 53bf
00000020: 64f0 ebbe 8eed 43bf dd89 02bf e717 05c0
00000030: 0b96 68bf b9d2 a5bf e173 51bf 1779 d3bf
00000040: 9430 44bf b73a 20bf 573c 8abf 19e3 27bf
00000050: 92cf 12bf 56bf 60bf eef6 3abf 99a8 eebe
00000060: d0e2 80bf a79f 26bf d747 87bf 15af 52bf
00000070: a442 30bf 8f8e 15bf 1e63 26bf dcd3 52bf

layer2.1.running_mean f4 [32]
-115.60081 -81.23929 -82.662315 -50.243645 -26.127918 -68.615616 -79.38101 -35.369682
-71.07545 -35.751297 -67.92764 -60.515778 -45.374496 -76.41056 -114.90237 -90.12919
-23.31661 -19.764591 -70.67988 -143.3428 -44.095573 -91.95795 -87.90173 -85.976395
-54.279686 -25.92789 -62.31004 -93.11942 -30.030117 -102.479866 -85.0927 -43.88431
00000000: 9d33 e7c2 847a a2c2 1b53 a5c2 7ef9 48c2
00000010: fa05 d1c1 323b 89c2 14c3 9ec2 8e7a 0dc2
00000020: a126 8ec2 5401 0fc2 f4da 87c2 2810 72c2
00000030: 7c7f 35c2 35d2 98c2 03ce e5c2 2542 b4c2
00000040: 6b88 bac1 e21d 9ec1 195c 8dc2 c257 0fc3
00000050: de61 30c2 78ea b7c2 b0cd afc2 eaf3 abc2
00000060: 661e 59c2 526c cfc1 7b3d 79c2 253d bac2
00000070: ae3d f0c1 b1f5 ccc2 762f aac2 8989 2fc2

layer2.1.running_var f4 [32]
10611.266 12484.238 7649.1367 947.1387 320.59924 7104.38 8060.7383 526.2061
6223.136 576.94763 9020.949 10767.729 1075.708 8269.019 10676.575 9543.65
348.85638 192.79808 8077.2534 12243.489 927.57434 8655.926 6774.42 8182.3677
4898.297 274.87668 9053.222 8300.666 356.3271 9546.691 9596.957 830.78925
00000000: 10cd 2546 f410 4346 1809 ef45 e0c8 6c44
00000010: b44c a043 0a03 de45 e8e5 fb45 318d 0344
00000020: 1779 c245 a63c 1044 ccf3 0c46 ea3e 2846
00000030: a876 8644 1334 0146 4dd2 2646 9a1e 1546
00000040: 9e6d ae43 4fcc 4043 076a fc45 f54d 3f46
00000050: c2e4 6744 b43f 0746 5cb3 d345 f1b2 ff45
00000060: 6012 9945 3770 8943 e374 0d46 aab2 0146
00000070: de29 b243 c42a 1546 d4f3 1546 83b2 4f44

fc.weight f4 [7, 4608]
-2.4632647 0.5677469 1.120842 -0.15703022 1.4058335 -2.873971 -3.3325367 1.7027657
-1.7015387 -1.4673427 0.31102204 -1.665626 -0.61449647 0.046021525 -1.9126273 0.44593966
0.19254816 -1.0797694 1.5427815 -0.33170405 0.34186593 0.8082799 -1.4284098 -2.7336316
-0.9939341 0.10335447 0.033146825 1.4676577 -1.4618517 0.93002486 -1.3091983 0.36019373
-0.6520227 -2.3681555 -1.1299375 0.14895985 -0.21644722 0.5031356 -1.5698024 -0.7315006
0.46441832 -1.6541413 -0.6656165 1.5591779 -0.24972206 -1.3006744 0.34724364 -2.5952191
-0.62729955 -0.21762337 -1.285638 -1.5422486 -0.48473608 -0.10746436 0.43520543 -1.5486468
-0.72817314 -1.8059522 0.29819295 0.69612086 3.177097 3.6501045 0.7823105 -0.099383995
1.6592544 -0.81054085 0.8707248 -0.14924873 -0.43719023 -0.7813794 1.1007707 -2.2992125
-1.8747634 -0.7733968 0.6374982 1.1767497 -0.26062953 2.349881 -1.0471933 -0.45422062
-0.062218346 1.9060385 -0.088244736 4.5072956 -0.09230999 0.50529575 1.3346757 -0.49609455
0.7426922 -0.27294523 0.72602826 -0.39203116 2.2500527 -0.7895881 0.6126986 -1.5992148
-0.7807691 -0.54216033 1.4213551 -0.7641976 2.0063653 0.13004506 -0.9464285 0.6676422
1.4816277 -0.056771036 -0.18764047 -0.6863796 0.6636575 1.7741518 -0.16288325 -0.014786997
-0.845032 0.8079014 -0.28293997 1.1043584 0.8554496 0.95548266 -0.3319444 0.5736129
0.030760298 0.27898604 -0.50688237 -2.8391016 1.4665062 -2.84631 1.5831506 0.98400414
1.2552129 -0.10696251 -0.6565728 0.92524844 0.9000015 3.4701428 -1.6724263 -0.4798335
-0.5948041 1.1308202 0.6563811 -0.9139439 2.155262 -4.3455853 0.82718813 -1.208215
-1.2454567 -0.3139487 0.7320969 -0.522713 3.466821 -3.4187052 1.5928403 1.6938459
0.41050047 0.5219682 0.63110745 -2.769496 2.34546 1.2990159 1.0025384 0.7629515
1.5822928 0.2142715 0.32360995 2.9374328 -0.20774893 1.2119584 0.429168 2.7675865
0.31180492 0.27011305 0.25147805 1.3036975 0.67744297 -0.50996363 2.1687868 1.3186392
0.73523957 1.2801957 -0.51461864 -0.5230391 -0.44595513 -2.2773228 -0.18037732 2.5864136
1.954652 -0.94618785 0.3291796 1.7059679 1.0608287 1.4936837 1.0243775 -0.34759212
0.14831264 -1.1588776 0.6048493 1.5438071 1.5351952 -0.26051447 1.1375422 0.5539126
0.5037581 2.5540962 -1.1884756 0.8626196 2.0863276 -0.6063948 -0.81250256 0.79639435
-0.4180787 -1.2194752 0.4019833 0.3351564 0.3306083 -0.21664913 -0.5888049 2.874515
2.3613193 -3.847679 -1.8798773 0.7159219 -2.0550423 -0.78928363 1.023346 -0.71341234
-3.0057728 0.8425765 -1.2072802 -3.7676725 1.8114295 0.2592387 -1.1328661 -3.1024423
-1.214854 -0.38892028 -2.0325572 -2.0647144 -2.9107497 -0.4515641 -2.2012205 0.05655328
0.9873128 -4.388431 0.2236179 -0.83860433 -1.9265174 -1.5371395 -0.54312557 -4.3544316
-1.313768 0.74284476 -1.1875738 -0.26068136 -0.903132 0.5688436 -0.6914745 -0.117034554
00000000: 21a6 1dc0 dc57 113f c077 8f3f 88cc 20be
00000010: 5af2 b33f 24ef 37c0 4848 55c0 3af4 d93f
00000020: 05cc d9bf e3d1 bbbf 483e 9f3e 3c33 d5bf
00000030: a44f 1dbf 1181 3c3d f9d0 f4bf 3452 e43e
00000040: 582b 453e e235 8abf dd79 c53f 1dd5 a9be
00000050: 0d09 af3e 6eeb 4e3f 22d6 b6bf d2f3 2ec0
00000060: 7772 7ebf 82ab d33d f7c4 073d 35dc bb3f
00000070: f51d bbbf 1c16 6e3f cf93 a7bf 506b b83e
00000080: f6ea 26bf dc8f 17c0 cba1 90bf ee88 183e
00000090: 57a4 5dbe 7fcd 003f 49ef c8bf a043 3bbf
000000a0: 3dc8 ed3e e7ba d3bf d865 2abf 2493 c73f
000000b0: 24b7 7fbe 807c a6bf ebc9 b13e 1218 26c0
000000c0: b496 20bf a9d8 5ebe c98f a4bf 6768 c5bf
000000d0: 542f f8be 4616 dcbd 3fd3 de3e 0f3a c6bf
000000e0: 8e69 3abf 7129 e7bf bfac 983e fa34 323f
000000f0: 8f55 4b40 509b 6940 8045 483f d689 cbbd
00000100: 7362 d43f 9b7f 4fbf d2e7 5e3f a9d4 18be
00000110: 66d7 dfbe 7b08 48bf 0ee6 8c3f 4c26 13c0
00000120: 3ff8 efbf 55fd 45bf 1533 233f bc9f 963f
00000130: 3c71 85be 7364 1640 6e0a 86bf 9b8f e8be
00000140: aad8 7ebd 12f9 f33f a8b9 b4bd c43b 9040
00000150: 050d bdbd 105b 013f a7d6 aa3f 1b00 febe
00000160: 1321 3e3f 7abf 8bbe fddc 393f 4fb8 c8be
00000170: dd00 1040 7222 4abf d1d9 1c3f 12b3 ccbf
00000180: 7ce0 47bf 05cb 0abf f7ee b53f 74a2 43bf
00000190: 4a68 0040 882a 053e 2349 72bf 99ea 2a3f
000001a0: faa5 bd3f bf88 68bd d324 40be 93b6 2fbf
000001b0: 75e5 293f 6817 e33f deca 26be 2945 72bc
000001c0: 0454 58bf a0d2 4e3f 82dd 90be 9e5b 8d3f
000001d0: bffe 5a3f 839a 743f 9ef4 a9be 4cd8 123f
000001e0: 05fd fb3c 42d7 8e3e 0bc3 01bf d7b3 35c0
000001f0: 7ab6 bb3f f129 36c0 aea4 ca3f b2e7 7b3f
00000200: d1aa a03f 290f dbbd 2815 28bf 15dd 6c3f
00000210: 8066 663f d216 5e40 1112 d6bf bdac f5be
00000220: 1545 18bf b7be 903f 9708 283f 3af8 69bf
00000230: d0ef 0940 090f 8bc0 9ac2 533f caa6 9abf
00000240: 206b 9fbf e2bd a0be b46a 3b3f 85d0 05bf
00000250: 65e0 5d40 11cc 5ac0 31e2 cb3f f1cf d83f
00000260: 1e2d d23e b59f 053f 4290 213f 6c3f 31c0
00000270: 041c 1640 2746 a63f 2e53 803f ca50 433f
00000280: 9288 ca3f fd69 5b3e 34b0 a53e e6fe 3b40
00000290: 23bc 54be 7421 9b3f e8bb db3e 2320 3140
000002a0: e5a4 9f3e 424c 8a3e bbc1 803e 8fdf a63f
000002b0: e76c 2d3f fa8c 02bf 67cd 0a40 2bc9 a83f
000002c0: a938 3c3f 74dd a33f 0cbe 03bf e4e5 05bf
000002d0: 3b54 e4be a8bf 11c0 d5b4 38be cd87 2540
000002e0: 0932 fa3f 5e39 72bf 3b8a a83e 285d da3f
000002f0: 3cc9 873f 0731 bf3f cd1e 833f 98f7 b1be
00000300: 45df 173e 1a56 94bf 67d7 1a3f 799b c53f
00000310: 4781 c43f 2762 85be fc9a 913f 37cd 0d3f
00000320: 4af6 003f 5076 2340 f81f 98bf a3d4 5c3f
00000330: 6486 0540 b13c 1bbf 2b00 50bf 80e0 4b3f
00000340: 690e d6be c317 9cbf c1d0 cd3e 9f99 ab3e
00000350: 7e45 a93e 45d9 5dbe ebbb 16bf 0ef8 3740
00000360: db1f 1740 5f40 76c0 d29f f0bf a846 373f
00000370: d085 03c0 7e0e 4abf 00fd 823f 31a2 36bf
00000380: 955e 40c0 18b3 573f 2888 9abf 8c21 71c0
00000390: ecdc e73f efba 843e c201 91bf 6a8e 46c0
000003a0: 5680 9bbf 8f20 c7be 6b15 02c0 4824 04c0
000003b0: b949 3ac0 6933 e7be cce0 0cc0 6aa4 673d
000003c0: 88c0 7c3f 076e 8cc0 17fc 643e c6ae 56bf
000003d0: 1f98 f6bf fdc0 c4bf 470a 0bbf 8157 8bc0
000003e0: 8d29 a8bf 132b 3e3f 6b02 98bf 0778 85be
000003f0: a933 67bf bc9f 113f 7904 31bf d0af efbd

fc.bias f4 [7]
0.16009009 -2.7002351 0.2431936 0.12723443 0.23766632 0.96429163 -1.5186036
00000000: a8ee 233e a7d0 2cc0 be07 793e be49 023e
00000010: cd5e 733e d1db 763f 9a61 c2bf
