FaceExpressions_CNN/savemodel/model_8.pth (torch_old, 185408 bytes, 14 tensors)

layer1.0.weight f4 [16, 1, 5, 5]
0	0x3f481042	0.7814981
1	0x3f6cf41c	0.9255998
2	0x3fe85705	1.8151556
3	0x3fa9f462	1.3277705
4	0x3fbe6e75	1.4877459
5	0x3fdfa1f8	1.7471304
6	0x3e5bb28e	0.21454832
7	0x3ec5ed46	0.38657588
8	0x3d5b1acd	0.053492356
9	0xbbba48b9	-0.0056849387
10	0x3f37d037	0.71802086
11	0xbf683709	-0.90708977
12	0xbfcd037d	-1.601669
13	0xc031e0db	-2.779349
14	0xc0551974	-3.3296785
15	0x3f715d3d	0.94282895
16	0xbf0aa69c	-0.54160476
17	0xbd8a1b32	-0.06743468
18	0xbfb9d5ee	-1.4518411
19	0xbfe22857	-1.7668561
20	0xbe3c56a1	-0.18392421
21	0xbf8fbeb9	-1.1230079
22	0x3f88b2a8	1.0679522
23	0x3e91424b	0.2837089
24	0x3ef698a9	0.48163345
25	0xbf45edb2	-0.7731582
26	0xbf65bbd7	-0.89739746
27	0xbdce85db	-0.10084125
28	0x3f404e84	0.75119805
29	0x3f9551c0	1.1665573
30	0xbd1e1ba0	-0.038600564
31	0xbf3a4fdf	-0.72778124
32	0xbe9a121a	-0.30091935
33	0x3c06b147	0.008220977
34	0x3d5d784c	0.054069802
35	0xbfcc2246	-1.594796
36	0xbf56a001	-0.83837897
37	0xbf7a8472	-0.97858346
38	0xbfb20c5f	-1.3910025
39	0xbf944dd3	-1.158625
40	0xc008a291	-2.1349223
41	0xc0159a3b	-2.3375385
42	0xc001c319	-2.0275328
43	0xc00921c3	-2.1426857
44	0xbc85b970	-0.016323775
45	0x3ec47171	0.383678
46	0xbebe7f0b	-0.372063
47	0xbe68b5fb	-0.2272567
48	0x3e1dfdea	0.15428892
49	0x3e500957	0.20316063
50	0xbf95d899	-1.1706725
51	0xbecb80d6	-0.39746732
52	0x3e3aae68	0.18230593
53	0xbe6a1d84	-0.22862822
54	0xbfcdcce6	-1.6078155
55	0x3e84a316	0.25905675
56	0x3fe42399	1.7823364
57	0x3f9a76a0	1.2067451
58	0x401c4d4c	2.4422178
59	0x3ed19d47	0.40940306
60	0x3d530611	0.051519457
61	0x3fc4c2e6	1.5371978
62	0x3f339635	0.7015107
63	0x40214202	2.5196538
64	0x3f05359b	0.5203492
65	0xbf846304	-1.0342717
66	0x3f27c469	0.65534073
67	0x3f360a7e	0.7110976
68	0x401db501	2.4641726
69	0x3e972f8c	0.29528463
70	0xbf4fd186	-0.8117908
71	0xbdb7e165	-0.089785375
72	0x3eedc926	0.46442527
73	0xbb672d2c	-0.0035274727
74	0xbfa3ff56	-1.2812297
75	0x3feca4c4	1.8487782
76	0x3f05e815	0.52307254
77	0xbfa2edab	-1.272878
78	0xbe3c3629	-0.18380035
79	0x3e1deb11	0.15421702
80	0x3fbe94e8	1.4889193
81	0xc014ff48	-2.3280811
82	0xbfcc81ce	-1.5977113
83	0x3e04d1e6	0.12970695
84	0x3e0cddbb	0.13756458
85	0xbfc01db9	-1.5009071
86	0xc05bbcd6	-3.4334006
87	0x3e5a8d9c	0.21343082
88	0xbe8c5ffb	-0.27416977
89	0xbfa87e39	-1.316352
90	0xbf887f6b	-1.0663885
91	0x3f7257df	0.9466533
92	0x3fd5aef8	1.6694021
93	0x3fa322a5	1.2744948
94	0x3f9b82bd	1.2149273
95	0x3cd4a7ee	0.025958981
96	0x3facb173	1.3491653
97	0x3ca96cfe	0.020681854
98	0x3ede614d	0.4343361
99	0x3f5b2516	0.85603464
100	0x3f580f59	0.8439842
101	0x3d89d1cf	0.06729471
102	0xbf74e37c	-0.95659614
103	0xc00edfda	-2.2324128
104	0x3e87098b	0.26374468
105	0x3e9b632c	0.303491
106	0xbee52761	-0.44756606
107	0x3e0302a0	0.1279397
108	0xbfd669c8	-1.6751032
109	0xbfdd954d	-1.7311188
110	0xbf19209d	-0.5981539
111	0xbd28b8d6	-0.0411919
112	0x3e9c6205	0.30543533
113	0xc018ef24	-2.389596
114	0xc001607f	-2.0215147
115	0x3f90c624	1.1310468
116	0x3f30ec8d	0.6911095
117	0xbeb29e19	-0.34886244
118	0xbfd4f247	-1.6636437
119	0xbfdce2ac	-1.7256675
120	0x3ff10d58	1.8832197
121	0x3feb00f8	1.8359671
122	0x3f7680af	0.96290106
123	0x3f1aa6b6	0.6041063
124	0x3f81d854	1.0144143
125	0xbf563d5d	-0.8368738
126	0xc033d75b	-2.8100193
127	0xc059829a	-3.3985963
128	0xbfd8dbb2	-1.6942046
129	0xbf21e7d7	-0.63244385
130	0x3eae8527	0.34085962
131	0xbf2469dc	-0.6422403
132	0xbf5ccc60	-0.8624935
133	0xbf8df002	-1.108887
134	0xbf952144	-1.1650777
135	0x3d2d581d	0.04232036
136	0x3e856fed	0.26061955
137	0x3f8b41a6	1.0879409
138	0x3f8fcaa4	1.1233716
139	0xbec054ff	-0.37564847
140	0xbe400603	-0.18752293
141	0x3f3746cd	0.7159241
142	0x3fa2384a	1.2673428
143	0x3f5194a4	0.8186743
144	0x3f8d30e6	1.1030548
145	0x3fce0699	1.6095763
146	0x3f5f3f77	0.87206215
147	0x3f99bfcb	1.2011656
148	0x3f38e68f	0.72226804
149	0x40056ed9	2.0848906
150	0x3e8799e7	0.26484606
151	0xbf688266	-0.9082397
152	0xbed1df96	-0.40990895
153	0x3fa2ebda	1.2728226
154	0x3e3ae0f5	0.18249877
155	0x3efaddd2	0.4899736
156	0xbef823ac	-0.48464715
157	0xc00d434e	-2.207233
158	0xbcbadb38	-0.02280961
159	0x401cfaaa	2.4527993
160	0x3f0da37c	0.5532758
161	0x3f84b82b	1.0368704
162	0xc01b3668	-2.4251957
163	0xc0213128	-2.5186253
164	0x3fd5ca64	1.670239
165	0xbdc1653d	-0.09443138
166	0x3fd621c2	1.6729052
167	0x3f2d7b23	0.67766017
168	0xc00d5700	-2.208435
169	0xbf561b47	-0.8363537
170	0xbebe78b2	-0.37201458
171	0x3eb28670	0.34868193
172	0x3fa809e5	1.312802
173	0x3e667b02	0.22507861
174	0xbe1cc2d4	-0.15308696
175	0xbef3abcf	-0.47592017
176	0xbe6b662e	-0.22988197
177	0xbfc1fc27	-1.5155076
178	0xbf56b66c	-0.83872104
179	0xbf9532e2	-1.1656153
180	0xbecf0c2d	-0.40438977
181	0x3f3e75d1	0.74398524
182	0xbeae6b70	-0.34066343
183	0x3da09585	0.078410186
184	0x3e43d71d	0.19125028
185	0xbf3506f3	-0.7071373
186	0x405c7432	3.444592
187	0x40526417	3.287359
188	0x405ffce2	3.4998097
189	0x3f93a816	1.1535671
190	0xbf300a46	-0.68765676
191	0x3fc63f42	1.5488055
192	0x3f56e7db	0.83947533
193	0x3ff5c30f	1.9200152
194	0xbf62d4a6	-0.88605726
195	0x3f2788bb	0.6544301
196	0x3f191b5d	0.5980738
197	0x3eac4d61	0.33652785
198	0x3edb1d4a	0.42795783
199	0xbfc1d2fe	-1.5142515
200	0xbf58758a	-0.8455435
201	0xbf202bbc	-0.62566733
202	0xbf48f1dd	-0.78494054
203	0xbfb7f609	-1.4371959
204	0xbfa3e554	-1.280436
205	0x3eb9b225	0.36268726
206	0xbdf08204	-0.117435485
207	0xbf0f84ee	-0.5606221
208	0xbd9f96d0	-0.07792437
209	0x3f962c5c	1.1732287
210	0x3eb6c522	0.35697275
211	0x3fc052ed	1.5025307
212	0x3f801244	1.0005574
213	0x3fe2e509	1.7726146
214	0xbea98ddd	-0.33116046
215	0xbe4587dd	-0.19290109
216	0x400a2ba8	2.1589146
217	0x3fe2c411	1.7716085
218	0x3fb3fde3	1.4061855
219	0xc0209db5	-2.5096257
220	0x3d3d912a	0.046281017
221	0x3f557a78	0.8339
222	0x3faf7c0d	1.3709732
223	0x3f6974a1	0.91193587
224	0xc024db08	-2.5758686
225	0x3d85b077	0.065277986
226	0xbf3dd759	-0.7415672
227	0xbe8e8ba9	-0.27840927
228	0xbe0fd51e	-0.14046142
229	0x3f2d0c5c	0.67596984
230	0xbf13d69b	-0.57749337
231	0xbf75230a	-0.9575659
232	0x400ea4e2	2.2288136
233	0x3f9f6935	1.2453982
234	0x3e0b8502	0.13624957
235	0xbe260c6e	-0.16215679
236	0x3f18783f	0.5955848
237	0x406cdde2	3.7010427
238	0x3ea55b7c	0.3229636
239	0xbfe2edf2	-1.7728865
240	0xbf52bb9a	-0.8231751
241	0x3fc05698	1.5026426
242	0x402aded8	2.6698513
243	0xbf934f31	-1.1508542
244	0xc024c304	-2.5744028
245	0xbf7bf882	-0.9842607
246	0xbe8a48b2	-0.27008587
247	0x3f130353	0.5742695
248	0xbecd533f	-0.40102574
249	0xbf6c1f8c	-0.92235637
250	0x3fad625b	1.3545641
251	0x3f522d5b	0.82100457
252	0xbfc7be47	-1.5604943
253	0xbf0f0dc9	-0.5588041
254	0x3f9931bd	1.1968304
255	0x3ee33177	0.44373676

layer1.0.bias f4 [16]
0	0xbf79275f	-0.973257
1	0x3f6bde21	0.92135817
2	0x3d6fc4da	0.05853734
3	0xbf300441	-0.6875649
4	0x3ef71a4b	0.48262247
5	0xbefff6c7	-0.49992964
6	0xbf7c9b4d	-0.9867447
7	0x3e2bcd6b	0.1677758
8	0x3f41bcef	0.75678915
9	0x3de38e35	0.11111108
10	0x3f415ba4	0.7553046
11	0xbf7e1250	-0.9924669
12	0x3f0bc2c3	0.5459406
13	0x3edc839e	0.43069166
14	0x3f411189	0.7541738
15	0x3e4ad92c	0.19809407

layer1.1.weight f4 [16]
0	0x3ff2913e	1.8950574
1	0x3fc66292	1.5498831
2	0x3fa42eeb	1.2826818
3	0x4009519a	2.1456056
4	0x3fc631a1	1.5483896
5	0x4006c32b	2.105662
6	0x40152081	2.330109
7	0x3fb04d50	1.3773594
8	0x3f6f93c3	0.9358484
9	0x3f9e03c1	1.2344896
10	0x3fa564aa	1.2921345
11	0x3fda85d4	1.7072091
12	0x3fb8c73e	1.4435804
13	0x3ff9989a	1.9499695
14	0x3fa118a8	1.258565
15	0x3ecd92b6	0.40150994

layer1.1.bias f4 [16]
0	0xc001ca83	-2.0279853
1	0xbfaa5846	-1.3308189
2	0xbfdf44de	-1.7442892
3	0xbb6aa37b	-0.0035803008
4	0xbfa29e47	-1.2704552
5	0xbfad2b81	-1.3528901
6	0xbf5ce077	-0.86280006
7	0xbfacfd5e	-1.3514822
8	0x3f0ee2e1	0.5581494
9	0xbf02a7f4	-0.51037526
10	0xbffc9a4a	-1.9734585
11	0xbfa04417	-1.2520779
12	0xbfd6536f	-1.6744212
13	0xbe83a620	-0.2571268
14	0xbf0bc89c	-0.5460298
15	0xbfacbb61	-1.3494684

layer1.1.running_mean f4 [16]
0	0xbff895a8	-1.9420671
1	0xc0d4b52b	-6.647115
2	0x409e010c	4.937628
3	0xbf8f8deb	-1.1215185
4	0xc0194aab	-2.3951824
5	0xbf114681	-0.56748205
6	0xbfa66584	-1.299973
7	0x40a82cc7	5.255466
8	0x4028954a	2.634112
9	0x3f9f7d49	1.2460109
10	0x3f424d90	0.758996
11	0xbf744cc3	-0.9542963
12	0xc098d5eb	-4.776113
13	0x3cdcb0c3	0.026939755
14	0x3ffc1a74	1.9695573
15	0xc0364b9f	-2.8483655

layer1.1.running_var f4 [16]
0	0x40294544	2.6448526
1	0x41603413	14.012713
2	0x40d399f5	6.6125436
3	0x3f80fb37	1.0076665
4	0x40ac1b71	5.37835
5	0x40917351	4.5453267
6	0x3f1261b3	0.5718033
7	0x40f11a25	7.5344415
8	0x40228410	2.5393105
9	0x3fc31d41	1.5243303
10	0x3f9d82eb	1.2305578
11	0x405d5aa9	3.4586585
12	0x412e27e2	10.884737
13	0x401b06d4	2.4222918
14	0x3fc9de0b	1.5770887
15	0x400eba20	2.2301102

layer2.0.weight f4 [32, 16, 5, 5]
0	0xc052a4ec	-3.291316
1	0xbfef3311	-1.8687459
2	0xbf81632a	-1.0108387
3	0xbfa94d83	-1.322678
4	0xbf415ce7	-0.7553238
5	0xbfed76b6	-1.8551853
6	0xbff50537	-1.9142216
7	0xbfbd8ebb	-1.4809183
8	0xc005bf46	-2.0897994
9	0xbf20fbc5	-0.6288417
10	0x3f6f61c9	0.93508583
11	0xbf5149f8	-0.8175349
12	0xc01b4271	-2.4259303
13	0xbfad8048	-1.3554773
14	0x3fdb9305	1.7154242
15	0x3fb10fe2	1.3832972
16	0xbeecfd26	-0.46286887
17	0xbfc0a92a	-1.5051625
18	0xbf2c3253	-0.6726429
19	0x3f1b7ff2	0.60742104
20	0xbf3d9b77	-0.74065346
21	0xbfe4970e	-1.7858598
22	0xbed2f5b8	-0.41203094
23	0x3da8ad53	0.08236184
24	0x3f8692f1	1.0513593
25	0xbf54b4f1	-0.83088595
26	0xbf8111ca	-1.0083554
27	0xbfe9c511	-1.8263265
28	0xbf2763e3	-0.6538679
29	0x3d943657	0.07236927
30	0x3f403793	0.750848
31	0xbe4e6ef8	-0.20159519
32	0xbfe10c68	-1.7581911
33	0x3d2d2903	0.04227544
34	0x3fc3ef9b	1.5307497
35	0x3f427750	0.75963306
36	0x3e78597e	0.24252889
37	0xbf8909d4	-1.0706124
38	0xbfd45261	-1.658764
39	0xbf7559fd	-0.95840436
40	0x3fc255be	1.5182416
41	0x3ff1bccb	1.888574
42	0xbe05c34a	-0.13062778
43	0xbf47d1e3	-0.78054637
44	0xbf845411	-1.0338155
45	0x400ca9e4	2.1978693
46	0x3f364060	0.7119198
47	0xbfa57239	-1.2925483
48	0xbfb1fbb7	-1.3904942
49	0x3dd770ac	0.10519537
50	0xbe82ad9f	-0.25523087
51	0x4038d786	2.8881545
52	0xbf189ff2	-0.5961906
53	0xbe1beee9	-0.15227856
54	0xbf820078	-1.0156393
55	0xbfa086a2	-1.2541087
56	0x3eb57b66	0.35445708
57	0xbf81d39e	-1.0142705
58	0xbf0a546a	-0.54035056
59	0xbf9aea57	-1.2102765
60	0xbf6d1983	-0.9261705
61	0x3da614a6	0.08109407
62	0xbd2a2def	-0.041547712
63	0xbdf18ead	-0.11794791
64	0xbfb59af9	-1.4187919
65	0xbf4cd4be	-0.8001212
66	0x3fe7a0f4	1.8095994
67	0xbf64ac31	-0.89325243
68	0x3e9a79bb	0.30170998
69	0xbef8fe29	-0.4863141
70	0xbf344796	-0.7042173
71	0x3d0a9086	0.033829235
72	0xbf9763bb	-1.182731
73	0xbfb29450	-1.3951511
74	0xbdd3cfae	-0.10342346
75	0x3f134bc6	0.57537496
76	0xbe834dac	-0.25645196
77	0xbdcd5e2f	-0.1002773
78	0xbef717d5	-0.4826037
79	0xbfa739c1	-1.30645
80	0xbf8f9966	-1.1218688
81	0xc02beae4	-2.6862116
82	0xc04c60e6	-3.1934142
83	0xc001ea92	-2.029942
84	0xbe6e5641	-0.23275091
85	0x3fad92d4	1.3560433
86	0x3f187cb8	0.59565306
87	0xc0885521	-4.2603917
88	0xc058ddb4	-3.3885317
89	0x3f171c72	0.5902778
90	0x3f2bcca4	0.6710913
91	0x3f59770f	0.84947294
92	0xbf14861f	-0.5801715
93	0xbe86c980	-0.26325607
94	0x3f1aa3b4	0.6040604
95	0x3ccbe235	0.024888137
96	0x3f8ca463	1.0987667
97	0xbebb9ce6	-0.36643142
98	0xbf5155db	-0.8177163
99	0x3fc7cfa4	1.5610242
100	0xbf88e32d	-1.0694329
101	0x3f82777c	1.0192714
102	0xbf446699	-0.7671905
103	0xbf6c492d	-0.9229916
104	0xbf97461c	-1.1818271
105	0xc00c5979	-2.192961
106	0xbe3d5968	-0.18491137
107	0xbf88cc80	-1.0687408
108	0xbf9cbf50	-1.2245884
109	0xbf83985f	-1.0280875
110	0x3d3b14a8	0.045673996
111	0xbedac059	-0.42724875
112	0xbfa27a9f	-1.2693671
113	0xbfb5cb05	-1.4202582
114	0xbfa3d65e	-1.2799795
115	0x3fdfa442	1.7472003
116	0x3f8ba5b1	1.090994
117	0xbf716c70	-0.9430609
118	0xbf5f1eda	-0.8715645
119	0x3e974d67	0.2955124
120	0x4002d672	2.0443387
121	0xbf7511f2	-0.9573051
122	0xbfaeb5ee	-1.364927
123	0x3f60f78d	0.8787773
124	0x3f9621ca	1.1729062
125	0x3e02c1c2	0.12769225
126	0xbf8751f7	-1.0571889
127	0xbf25e47c	-0.64801764
128	0x3f921955	1.1413981
129	0x3f0c300d	0.5476082
130	0x3ef30dc0	0.47471428
131	0xbe962ead	-0.29332486
132	0xbfa84107	-1.3144845
133	0xbf6b406d	-0.9189518
134	0xbdace028	-0.08441192
135	0xbf861339	-1.0474616
136	0x3e6672ef	0.22504781
137	0xbf3180ec	-0.69337344
138	0xbe5410e4	-0.20709568
139	0xbf9cb97e	-1.2244108
140	0x3f63ae75	0.88938075
141	0x3f97668d	1.1828171
142	0xbff71f5e	-1.9306448
143	0xbfa0d4e7	-1.2564973
144	0x3f32e257	0.6987662
145	0xbf362ce6	-0.7116226
146	0x3efe9c2a	0.4972852
147	0x3e4ff7a4	0.20309311
148	0xc002c560	-2.0432968
149	0xbef2ff97	-0.47460625
150	0xbf9d2152	-1.2275794
151	0x402a9ddb	2.6658847
152	0x3e4c242e	0.19935676
153	0x3f582207	0.8442692
154	0x3f5b3723	0.85631007
155	0xbee27265	-0.442279
156	0xc04868fe	-3.1314082
157	0xbf94f7a3	-1.1638073
158	0xc01465f5	-2.318723
159	0xc023ed48	-2.5613575
160	0x3fc3e5ae	1.5304468
161	0x3f85f385	1.0464941
162	0xbedf7881	-0.43646625
163	0xc07d632d	-3.9591782
164	0xbf0aa17f	-0.54152673
165	0x3ed67b74	0.41891062
166	0x3fb0ab58	1.380229
167	0xbeb3b8b6	-0.3510186
168	0x3e94b588	0.29044747
169	0xbe5cfe82	-0.21581462
170	0x3f0a143d	0.5393713
171	0x3e021a65	0.12705381
172	0xbf963273	-1.1734146
173	0x3e5a6ec4	0.21331316
174	0xbe62dda1	-0.22154857
175	0x3f61a21d	0.8813799
176	0x3f8e5eb2	1.1122649
177	0xbf9be853	-1.2180275
178	0x3f57028a	0.8398825
179	0x3e3e6034	0.18591386
180	0x3e7254d5	0.23665173
181	0x3ec537e4	0.38519204
182	0xbf025652	-0.50912964
183	0xbf3e5524	-0.74348664
184	0xbfbc8fe6	-1.4731414
185	0xbf5e2afc	-0.8678434
186	0xbf0bd6a0	-0.54624367
187	0xbf7301e7	-0.9492478
188	0x3d3859e9	0.04500762
189	0xbf618702	-0.8809663
190	0xbfeb64bb	-1.8390115
191	0xbecf78c5	-0.40521827
192	0xbef5e117	-0.48023292
193	0x3f1d78aa	0.61512244
194	0x3f4cc84d	0.79993135
195	0xbe1f2d53	-0.15544634
196	0xbe5b0584	-0.21388823
197	0xbf531ced	-0.8246601
198	0x3db33cd8	0.087518394
199	0x3fadb2fd	1.3570248
200	0xbf6fae9f	-0.93625826
201	0xbf4eacba	-0.8073231
202	0xbf38c725	-0.7217887
203	0x3e1760b1	0.14782979
204	0xbeaeaa17	-0.34114143
205	0xbf8d85a1	-1.1056405
206	0xbf8c6378	-1.0967855
207	0x3f4d98c1	0.8031121
208	0x3f10d2bf	0.56571573
209	0x3e89e3b1	0.26931527
210	0xbfc9c0b2	-1.5761931
211	0xbfb0dad5	-1.3816782
212	0xbccadc46	-0.024763238
213	0x3e8d0bdb	0.27548108
214	0x3f08391f	0.5321216
215	0xbf1d4195	-0.61428195
216	0xbf42d67f	-0.76108545
217	0xbf22df2d	-0.6362179
218	0xbf238bf5	-0.6388543
219	0xbe1eebdd	-0.15519662
220	0xbfd01ee3	-1.6259426
221	0xbe27b2ff	-0.16376875
222	0x3e5f2f24	0.21795326
223	0x3cf51b32	0.029920194
224	0xbf473278	-0.77811384
225	0xbfb0b054	-1.3803811
226	0xbfb15ed2	-1.3857062
227	0xbf4f8ce0	-0.81074333
228	0x3fc2954d	1.5201813
229	0x3eb6bc3e	0.35690492
230	0x3e58b88c	0.21164149
231	0xc036fd33	-2.859204
232	0xbf522aeb	-0.8209674
233	0x3f519aba	0.8187672
234	0xbeb920d6	-0.36157864
235	0x3f1af200	0.6052551
236	0xbeb428fd	-0.35187522
237	0xbf4042b7	-0.751018
238	0x3f6630f7	0.89918464
239	0x3cf12016	0.029434245
240	0xbf7e043d	-0.9922522
241	0xbf8a6095	-1.0810724
242	0xbfc3d9ef	-1.5300883
243	0x3f157f63	0.583975
244	0x3ed2c0d9	0.41162756
245	0xbf8771b1	-1.0581571
246	0x3ea79574	0.3273121
247	0x3f3a4a1e	0.72769344
248	0x3f58f207	0.84744304
249	0x3f9b7a23	1.2146648
250	0x3fbc984b	1.4733976
251	0xbfc905f6	-1.5704944
252	0x3db47311	0.0881101
253	0xbf5bc0a8	-0.85840845
254	0x3ee7f3cd	0.45303193
255	0xbf031959	-0.5121055

layer2.0.bias f4 [32]
0	0x3f76f22e	0.96463287
1	0x3eece5fa	0.46269208
2	0x3f48bd8c	0.78414226
3	0x3e4589c8	0.1929084
4	0x3ee31869	0.4435456
5	0x3f078f6b	0.52953213
6	0x3f873412	1.0562766
7	0x3e9a44a9	0.3013051
8	0x3f0bed64	0.54659104
9	0x3e82a424	0.25515854
10	0x3f205d46	0.62642324
11	0xbd3458d8	-0.04403004
12	0x3e4841a4	0.1955629
13	0x3edb04b9	0.4277704
14	0x3f857221	1.0425454
15	0x3e9a612c	0.3015226
16	0x3e41b3c7	0.18916236
17	0x3e49ae07	0.19695292
18	0x3ed31341	0.41225627
19	0x3ed92b59	0.42415884
20	0x3e077756	0.13229117
21	0x3f8fbebd	1.1230084
22	0x3f7ea88d	0.9947594
23	0x3f5a465d	0.85263616
24	0x3f61e938	0.8824649
25	0x3d02ff7c	0.03198193
26	0x3f1c4245	0.6103862
27	0x3f3709ed	0.7149952
28	0x3e2cf512	0.16890362
29	0x3f708f07	0.9396824
30	0x3ef01951	0.46894315
31	0x3e3090a3	0.17242675

layer2.1.weight f4 [32]
0	0x3ee6e248	0.45094514
1	0x3eb97f5e	0.36229986
2	0x3ef85151	0.4849954
3	0x3e898bea	0.26864558
4	0x3e65964c	0.22420615
5	0x3ee73984	0.45161068
6	0x3f041374	0.51592183
7	0x3e11afbc	0.14227194
8	0x3eb92797	0.36163017
9	0x3e67ea8b	0.22648065
10	0x3ec871b6	0.39149255
11	0x3f1d7703	0.6150972
12	0x3e349fb1	0.17639042
13	0x3f0976bd	0.53696805
14	0x3f045bac	0.5170238
15	0x3f42ba90	0.7606592
16	0x3e57a591	0.21059252
17	0x3e92c09f	0.28662583
18	0x3f1e2e8c	0.61789775
19	0x3ef29186	0.4737665
20	0x3e2c4bc6	0.1682578
21	0x3f106419	0.56402737
22	0x3ede3750	0.43401575
23	0x3ec77ec5	0.38963905
24	0x3f153be0	0.58294487
25	0x3e8b3ee2	0.27196413
26	0x3f0ddd7b	0.5541608
27	0x3f0474d5	0.5174077
28	0x3e8abb8e	0.27096218
29	0x3edec0e8	0.4350655
30	0x3ecdd1e2	0.4019919
31	0x3e81d3cf	0.2535691

layer2.1.bias f4 [32]
0	0xbee3d078	-0.44494987
1	0xbec18786	-0.3779871
2	0xbf190bf8	-0.5978389
3	0xbf3b77c2	-0.7322961
4	0xbf2fdf18	-0.6869979
5	0xbf272aa3	-0.65299433
6	0xbf235244	-0.637974
7	0xbf530b90	-0.8243952
8	0xbee081c9	-0.43849018
9	0xbf43ed8e	-0.76534355
10	0xbeca497a	-0.39509183
11	0xbfc2432c	-1.5176749
12	0xbf68960b	-0.9085395
13	0xbf80ab2c	-1.0052238
14	0xbf24d6a4	-0.64390016
15	0xbf9970f1	-1.1987592
16	0xbf443094	-0.76636624
17	0xbf203ab7	-0.6258959
18	0xbf5f0f70	-0.8713293
19	0xbefaa295	-0.48952165
20	0xbf12cf92	-0.5734798
21	0xbf36734d	-0.71269685
22	0xbf13ba65	-0.5770629
23	0xbed30c93	-0.4122053
24	0xbf7158d1	-0.9427615
25	0xbf269fa7	-0.6508736
26	0xbf5c168e	-0.85971916
27	0xbf290e55	-0.66037494
28	0xbf3042a4	-0.68851686
29	0xbee7a7a4	-0.45245087
30	0xbef00ea6	-0.46886176
31	0xbf52d3dc	-0.8235452

layer2.1.running_mean f4 [32]
0	0xc270965d	-60.14684
1	0xc20dea2e	-35.47869
2	0xc219e120	-38.46985
3	0xc20c0b98	-35.011322
4	0xc18707f2	-16.87888
5	0xc1ef78ce	-29.933987
6	0xc22f03ca	-43.7537
7	0xc1bc8fec	-23.570274
8	0xc1f4184e	-30.511868
9	0xc1c07d47	-24.06117
10	0xc2090a49	-34.260044
11	0xc224375b	-41.054058
12	0xc1ea120a	-29.258808
13	0xc2167c78	-37.62155
14	0xc24d967c	-51.396957
15	0xc2477c1e	-49.87121
16	0xc15982b6	-13.594412
17	0xc16550c0	-14.332214
18	0xc21c58cd	-39.08672
19	0xc288e6a4	-68.45047
20	0xc1e7472f	-28.909758
21	0xc22df1a9	-43.485996
22	0xc2005bbd	-32.08959
23	0xc221e706	-40.47561
24	0xc1ec6cde	-29.553158
25	0xc190c5a8	-18.096512
26	0xc216eae7	-37.729397
27	0xc241dfad	-48.468433
28	0xc1a4267e	-20.518795
29	0xc279bc0a	-62.43363
30	0xc21d55e0	-39.333862
31	0xc1ea5692	-29.29227

layer2.1.running_var f4 [32]
0	0x450ae559	2222.3342
1	0x44fd4bed	2026.3727
2	0x44b90ba0	1480.3633
3	0x43d87ad6	432.95966
4	0x430625ba	134.14737
5	0x449555e6	1194.6843
6	0x44e21678	1808.7021
7	0x43697d83	233.49028
8	0x44933847	1177.7587
9	0x43782713	248.15263
10	0x44c618eb	1584.7787
11	0x451c1748	2497.455
12	0x43df4373	446.52695
13	0x44be64ce	1523.1501
14	0x44d6743d	1715.6324
15	0x45075475	2165.2786
16	0x4315d554	149.83331
17	0x42b75f69	91.68635
18	0x44f157f7	1930.7489
19	0x451ca155	2506.0833
20	0x43c69ab9	397.20877
21	0x44ca87c8	1620.2432
22	0x4499a1ba	1229.054
23	0x44c812b9	1600.5851
24	0x447bdbdf	1007.4355
25	0x42f92134	124.56485
26	0x44db5e29	1754.9425
27	0x44cd5e01	1642.9376
28	0x431806a1	152.0259
29	0x45147cf2	2375.809
30	0x44d534a2	1705.6448
31	0x43b26ca0	356.84863

fc.weight f4 [7, 4608]
0	0xbecf510c	-0.4049152
1	0xbd7f4079	-0.062317345
2	0x3f1c5649	0.6106916
3	0x3f213ed6	0.62986505
4	0x3fa7834c	1.3086944
5	0xbfc3685a	-1.526622
6	0xbfce4e81	-1.6117707
7	0x3f82c2ae	1.0215662
8	0xbfc4f9db	-1.538875
9	0xbf062f9c	-0.52416396
10	0x3bf556b3	0.007487142
11	0xbe92af94	-0.2864958
12	0x3ed7c8dc	0.4214543
13	0xbe8e0dc9	-0.27744892
14	0xbf0f9af5	-0.5609582
15	0x3ebe5aa8	0.3717854
16	0x3d0f9b4c	0.035060212
17	0xbe567e37	-0.20946585
18	0x3f46e295	0.77689487
19	0x3d880b72	0.06642808
20	0x3e70ee04	0.23528296
21	0xbd8a867e	-0.067639336
22	0xbf9d88e7	-1.2307404
23	0xbf371050	-0.71509266
24	0x3ea23c2d	0.31686535
25	0x3ed9a66a	0.42509776
26	0x3f819fab	1.0126852
27	0x3e7fdaf5	0.24985869
28	0xbead1c9b	-0.33810887
29	0xbc081853	-0.008306581
30	0xbee4d09d	-0.4469041
31	0xbdb29d31	-0.08721388
32	0xbf2f8d2e	-0.685748
33	0xbfbbdabf	-1.4676131
34	0xbeeb165a	-0.4591549
35	0x3c122df8	0.008922093
36	0xbe7d16b7	-0.24715696
37	0xbe2bf713	-0.1679347
38	0xbfc01ec8	-1.5009394
39	0x3eb77927	0.3583462
40	0x3f098d5c	0.5373132
41	0xbf7c5fd1	-0.98583704
42	0xbed4811d	-0.41504756
43	0x3fc545b8	1.5411901
44	0xbef94c4b	-0.4869102
45	0xbf2b4217	-0.6689772
46	0x3e38cf71	0.18047883
47	0xbffaf769	-1.9606754
48	0xbe54f6cc	-0.2079727
49	0xbdf3272e	-0.11872707
50	0xbf6807ca	-0.90636885
51	0xbf5d02b3	-0.86332244
52	0xbe05225e	-0.13001391
53	0x3cedaef9	0.029014098
54	0x3f918122	1.1367533
55	0xbf87ff67	-1.0624818
56	0xbf126741	-0.571888
57	0xbf434b27	-0.7628655
58	0x3da24468	0.07923204
59	0xbd44bbd3	-0.048030686
60	0x3eece17b	0.46265778
61	0x3fcad7db	1.5847124
62	0x3f1a7661	0.6033688
63	0xbdf7fe72	-0.121090785
64	0x3f96acab	1.1771444
65	0x3e883220	0.26600742
66	0x3e4e3107	0.2013589
67	0xbf2c8580	-0.67391205
68	0xbd6ada71	-0.05733723
69	0xbee144f9	-0.43997934
70	0x3f386ceb	0.72041196
71	0xbd259c53	-0.040432286
72	0x3d08ebb2	0.0334279
73	0xbe4d417c	-0.20044512
74	0xbf02a6e6	-0.51035917
75	0x3ea33dba	0.3188303
76	0xbdce007c	-0.10058686
77	0x3fe10d5e	1.7582204
78	0xbeeb3a1e	-0.45942777
79	0xbe5ae3f7	-0.21376024
80	0x3f5451d4	0.8293736
81	0x3f81cb94	1.0140252
82	0xbe73e955	-0.23819478
83	0x3fc036bc	1.5016704
84	0xbd3c6621	-0.045995835
85	0x3e23a80d	0.15982075
86	0x3f2f1f6d	0.68407327
87	0xbea66ab2	-0.32503277
88	0x3fa01ddd	1.2509114
89	0xbf5dbcaa	-0.86616004
90	0x3f2253e0	0.63409233
91	0xbd3d8ee1	-0.046278838
92	0x3fbc6648	1.4718714
93	0xbf053548	-0.52034426
94	0xbddc4628	-0.10755569
95	0xbe69bdc7	-0.228263
96	0x3f9da71d	1.2316624
97	0x3cdd0c37	0.026983364
98	0x3f0e7f65	0.5566314
99	0x3de62a79	0.1123857
100	0x3fc78fb0	1.5590725
101	0xbda77f0f	-0.081785314
102	0xbf1129ba	-0.56704295
103	0x3e87c2dc	0.26515853
104	0x3f8b6527	1.0890244
105	0x3e6dac2c	0.2321021
106	0xbc23e1c5	-0.010002558
107	0xbf515755	-0.81773883
108	0xbdd00e0a	-0.10158928
109	0x3f99f704	1.2028508
110	0xbedc6139	-0.43042925
111	0x3f044418	0.516664
112	0xbf11f48d	-0.5701378
113	0xbc4d7e50	-0.012542322
114	0xbcf363b2	-0.029710624
115	0x3f2206c3	0.6329157
116	0x3fb17afc	1.3865657
117	0x3f865a5d	1.0496327
118	0x3f27f8c5	0.6561397
119	0x3f351c05	0.7074588
120	0xbf8a4b2b	-1.080419
121	0xbe97bdb6	-0.29636925
122	0xbeb33d5f	-0.3500776
123	0xbfbb3028	-1.4624071
124	0x3f0a3253	0.5398304
125	0xbf919c39	-1.13758
126	0x3f8fa4e4	1.1222196
127	0x3f543835	0.82898265
128	0x3ed0db0c	0.4079212
129	0xbe61c481	-0.22047617
130	0xbe5559cc	-0.20835036
131	0xbdcb464a	-0.09925516
132	0xbf7f3712	-0.99693406
133	0x3f5a116e	0.85182846
134	0xbe57e4ee	-0.21083423
135	0x3e6844be	0.22682473
136	0xbecef821	-0.40423682
137	0x3ea34206	0.3188631
138	0xbdcd70fa	-0.10031314
139	0xbf8849cb	-1.064752
140	0x3f28cacd	0.6593445
141	0xbf546557	-0.8296713
142	0xbf36901f	-0.7131366
143	0xbf05764f	-0.5213365
144	0x3e349fdb	0.17639105
145	0xbf058594	-0.5215695
146	0x3e668780	0.22512627
147	0x3ebcd38b	0.36880144
148	0x3fc58b60	1.5433159
149	0xbfb7bf40	-1.435524
150	0x3f3652ee	0.7122029
151	0x3f81be50	1.0136204
152	0x3f0330e8	0.512465
153	0x3f9bd65e	1.2174795
154	0xbfa1a833	-1.2629455
155	0xbfc6b36e	-1.5523508
156	0x3f848f6f	1.0356272
157	0xbd0377f0	-0.032096803
158	0x3fcde045	1.6084067
159	0xbd0cf5cf	-0.03441411
160	0x3f71b74a	0.944203
161	0x3ea906d0	0.3301301
162	0x3ed6313a	0.41834432
163	0x3fea44cf	1.8302249
164	0x3e731843	0.23739724
165	0x3f5c323c	0.8601415
166	0x3e5be9e4	0.21475941
167	0x400310a9	2.0478919
168	0x3e074b8a	0.1321241
169	0x3e93b4c4	0.2884885
170	0x3eba21c8	0.36353898
171	0x3f285472	0.65753853
172	0x3f3b0d70	0.7306738
173	0xbe43bf37	-0.19115911
174	0x3f8d5341	1.1041032
175	0x3f355735	0.7083619
176	0x3f591ed7	0.8481268
177	0x3f8a206a	1.0791142
178	0x3f6629a5	0.89907295
179	0xbeb3bb13	-0.35103664
180	0x3dafdc6f	0.08586966
181	0xbfa42605	-1.2824103
182	0x3d0415b8	0.032247275
183	0x3fef2b94	1.8685174
184	0x3fa6c59c	1.3029056
185	0xbecb815d	-0.39747134
186	0x3e657795	0.22408898
187	0x3f8ec0e1	1.1152612
188	0x3f058a40	0.5216408
189	0x3f7a4708	0.97764635
190	0x3ecb9efb	0.3976973
191	0xbf3bbe1f	-0.73336977
192	0x3f8dad33	1.1068481
193	0xbd3706db	-0.044684272
194	0x3e6a58d6	0.2288545
195	0x3f7d550a	0.98957884
196	0x3f8e0c13	1.1097435
197	0xbe1ec651	-0.15505339
198	0x3f958715	1.1681849
199	0x3ecf7e4f	0.40526053
200	0x3b16bd0d	0.0023000867
201	0x4010b3df	2.2609785
202	0xbf956471	-1.1671277
203	0x3ef0d953	0.47040805
204	0x3faf22d8	1.3682508
205	0x3d97e8df	0.074174635
206	0x3e423eb3	0.1896923
207	0x3f1b55fd	0.6067808
208	0x3e8ce216	0.2751624
209	0xbf83a5ce	-1.0284975
210	0x3e47e94c	0.1952259
211	0xbd4608a1	-0.048348073
212	0xbddc98b2	-0.10771312
213	0x3ea03221	0.31288245
214	0xbf6647ef	-0.8995351
215	0x400f8ebf	2.2430875
216	0x3f627523	0.88459986
217	0xc015875a	-2.3363862
218	0xbf726836	-0.94690263
219	0xbf03721f	-0.5134601
220	0xbf9df171	-1.2339307
221	0xbf38f9ea	-0.7225634
222	0x3f6c39d1	0.9227572
223	0xbefa8e39	-0.48936632
224	0xbfc47512	-1.5348227
225	0x3da98a33	0.082783125
226	0xbf4e4107	-0.80567974
227	0xbfe73934	-1.8064332
228	0x3fa50946	1.2893455
229	0x3e8647bf	0.26226613
230	0xbf716be0	-0.9430523
231	0xbff15699	-1.8854553
232	0xbf8040e0	-1.0019798
233	0xbdb384ea	-0.08765586
234	0xbf6fbcd9	-0.93647534
235	0xbfb781f0	-1.4336529
236	0xbfeeb8b2	-1.8650115
237	0x3d0dd765	0.034629244
238	0xbf8b53cf	-1.0884951
239	0x3f61b5dd	0.88168126
240	0x3f08244e	0.53180397
241	0xbfec1b8d	-1.8445908
242	0xbf3cfd28	-0.73823786
243	0xbf8b7e51	-1.0897924
244	0xbf67d60f	-0.90561
245	0xbf9d93e5	-1.2310759
246	0xbf1b408f	-0.60645384
247	0xc02db820	-2.714363
248	0xbf6f3d90	-0.9345331
249	0x3e7df77c	0.24801439
250	0x3dacdbeb	0.084403835
251	0x3df308d6	0.1186692
252	0xbf198f90	-0.59984684
253	0x3ec0f1cd	0.3768448
254	0xbcb628a7	-0.022236181
255	0x3f0f4ed1	0.5597964

fc.bias f4 [7]
0	0x3bfb84bc	0.0076757353
1	0xbfe9c9e4	-1.8264737
2	0x3d960031	0.07324255
3	0x3e522649	0.20522417
4	0x3e561693	0.20907049
5	0x3f3c6862	0.73596776
6	0xbf7556e5	-0.95835716
