FaceExpressions_CNN/savemodel/model_54.pth (torch_old, 185408 bytes, 14 tensors)

layer1.0.weight f4 [16, 1, 5, 5]
000000 5a a2 41 3f 0b 85 f1 3f 43 96 3f 40 d2 f6 42 40
       0.75638354 1.8868726 2.9935462 3.0463147
000010 c1 69 47 40 ab 00 6d 40 22 07 c3 bd f4 d3 5d bf
       3.1158297 3.7031658 -0.09522845 -0.8665154
000020 c9 04 00 bf 41 8d 40 bc f7 45 65 3f 5c 01 06 c0
       -0.500073 -0.011752428 0.8955988 -2.093833
000030 0b ae a7 bf 3b 05 a0 c0 a0 2d db c0 31 41 cb 3f
       -1.3099989 -5.0006385 -6.8493195 1.587927
000040 24 10 94 bf 4b 88 99 3d ef ab 47 c0 35 fe 06 c0
       -1.1567426 0.07496699 -3.119869 -2.1092656
000050 72 c8 a4 3f 10 3d 2c c0 00 dd 01 40 d4 42 b1 3e
       1.2873671 -2.691227 2.0291138 0.34621298
000060 63 7a f0 3f 46 3c d3 be 93 76 28 c0 48 74 81 bf
       1.878735 -0.41256922 -2.6322372 -1.0113611
000070 d8 88 29 40 19 85 66 40 0d 5a fd be 3d 01 b8 bf
       2.6489773 3.6018736 -0.49482766 -1.4375378
000080 57 9a de 3e 50 07 a5 3f c8 ea a1 bf b5 f2 8f be
       0.43477127 1.2892857 -1.2649775 -0.28114858
000090 88 66 df bf 96 c9 af bf 10 44 1c c0 92 1d 31 c0
       -1.7453165 -1.3733394 -2.4416542 -2.7674298
0000a0 d1 87 cc c0 bb da ea bf b4 2e 3d c0 6c 55 b6 c0
       -6.391579 -1.8348001 -2.9559755 -5.6979275
0000b0 73 39 a3 3f 9e b4 9a 3f 8d 9d 28 3f b6 ad 44 bf
       1.2751907 1.208637 0.65865403 -0.7682756
0000c0 e2 9b 12 3f 61 31 e8 3f 31 2c 21 c0 a3 8b e5 bf
       0.5726911 1.8140069 -2.5183222 -1.7933239
0000d0 06 30 0a 40 4a 4f 1e bc 78 8b 6b c0 b1 c4 c4 3f
       2.159181 -0.009662459 -3.6803875 1.5372525
0000e0 87 70 29 40 d8 5e db 3f 38 50 92 40 26 5b 19 be
       2.6474931 1.7138319 4.5722923 -0.14976177
0000f0 4d a4 fc 3d 87 cf 77 40 e2 b5 bb bf 41 ad b6 40
       0.123360254 3.8720415 -1.4664881 5.708649
000100 a5 6a 53 3f e2 63 6d c0 fb bd 2d 40 42 75 04 bd
       0.825846 -3.7092214 2.7147205 -0.03233839
000110 df 9a a9 40 93 11 30 3f b1 c4 cf bf dc 44 bc 3e
       5.300155 0.68776816 -1.62319 0.36771286
000120 15 bd 07 3e 97 4c aa be d5 fe 36 c0 1e 93 5b 40
       0.13255723 -0.33261558 -2.8593037 3.4308543
000130 74 3d a2 3f 57 a2 21 c0 4b e4 8d be 81 9c 4f 3e
       1.2675004 -2.5255334 -0.27713236 0.20274545
000140 f4 f1 33 40 e6 df 94 c0 e9 76 48 c0 c2 29 34 3f
       2.8116426 -4.6523314 -3.1322577 0.7037622
000150 48 46 4c 3c 25 22 1e c0 9b 4c c7 c0 cb 3b 2f 3e
       0.012467928 -2.470834 -6.2281013 0.17112653
000160 5d 36 84 be 6a c2 2f c0 2e 6f 01 c0 d5 f8 16 40
       -0.25822726 -2.746241 -2.0224109 2.3589375
000170 ba 9d 33 40 f3 fe 29 40 64 5f 0e 40 56 93 20 3f
       2.8065019 2.6561859 2.2245722 0.62724817
000180 49 b6 bb 3f 23 6e 04 3f 21 ac d2 3e 3d b6 ee 3f
       1.4665004 0.51730555 0.4114695 1.8649365
000190 50 ed 0f 40 5b 37 95 bf e6 c3 02 c0 11 44 2b c0
       2.2488594 -1.1657518 -2.0432067 -2.6760294
0001a0 05 7a c1 3f 1f d5 b2 3f ca 9f d9 bf 20 2a f6 3e
       1.5115362 1.3971289 -1.7001889 0.48079014
0001b0 15 12 e1 bf f8 4f e7 bf f1 63 2c c0 94 6c b1 be
       -1.7583643 -1.807128 -2.6936 -0.3465315
0001c0 e8 63 d8 3f 71 60 80 c0 81 a5 b4 c0 44 49 5f 3f
       1.6905489 -4.0117726 -5.645203 0.8722117
0001d0 17 e7 6c 3f 00 ed dd bf 8a be 33 c0 d5 1b 0d c0
       0.92540115 -1.7337952 -2.8085046 -2.2048237
0001e0 8b 0e 81 40 8e 4d 9a 40 2a de ce 3f b6 04 cc 3f
       4.0330253 4.821967 1.6161549 1.5938938
0001f0 e8 41 08 3f 17 a9 97 bf ac f7 a8 c0 3c 80 c0 c0
       0.53225565 -1.1848477 -5.2802334 -6.0156536
000200 c8 f6 03 c0 a9 bd ab bf fe 5f b5 ba af ea 70 bf
       -2.0619373 -1.3417255 -0.0013837812 -0.941081
000210 07 b9 1e c0 94 44 e2 bf 7a 83 24 c0 e2 42 1d 3f
       -2.4800432 -1.7677178 -2.5705247 0.6143018
000220 9c 3c e5 3e c1 48 dd 3f 88 3a 4e 40 a8 ae 7d bf
       0.44772804 1.7287828 3.2223225 -0.9909463
000230 41 26 7c bf 48 50 ea 3e 1b 59 1b 40 c7 a8 8f 3f
       -0.9849587 0.45764375 2.4273136 1.1223382
000240 e7 02 a6 3f 70 60 86 40 fa f2 cc 3f fc 87 da 3f
       1.2969636 4.199272 1.601165 1.7072749
000250 b5 70 12 3e 98 85 82 40 de 60 24 3f fc 69 d7 bf
       0.14300807 4.078808 0.6421031 -1.6829219
000260 04 85 51 bf aa 90 16 40 28 4c 69 3e f4 18 93 3f
       -0.8184359 2.3525796 0.22782958 1.149199
000270 8d bc 1a bf 73 16 80 c0 74 98 b5 3e 9f 35 8a 40
       -0.60443956 -4.0027404 0.35467875 4.3190455
000280 f1 f2 82 3f aa 8b 0e 40 b3 75 9b c0 04 0f 96 c0
       1.023039 2.2272744 -4.8581176 -4.689333
000290 28 8a 51 40 47 1a 91 be 2c 0f 34 40 02 0b d6 3f
       3.2740574 -0.2834036 2.813426 1.6722109
0002a0 e4 58 81 c0 5c bd bb bf 95 7e 00 bf 5d 4f e7 3e
       -4.042101 -1.4667163 -0.5019315 0.45177737
0002b0 8e ca 14 40 4a 8b e3 3d 41 59 ff bd 6d d4 4a 3c
       2.324863 0.11110552 -0.12468196 0.012379748
0002c0 b9 18 65 3d 10 82 31 c0 ef 88 1f c0 88 0b 96 bf
       0.05593178 -2.7735634 -2.4927328 -1.1722269
0002d0 31 f8 ed bf ec fe 0e 3f 35 38 87 bf 4a b2 1b 3f
       -1.8591367 0.5585773 -1.0564028 0.6081892
0002e0 c7 22 f7 3e 74 e1 ed bf d9 aa d8 40 a6 5f ca 40
       0.4826872 -1.8584428 6.7708554 6.324176
0002f0 c4 8b a9 40 bb 8e 2f 40 db 2c f8 be 24 34 21 40
       5.298311 2.7430866 -0.48471722 2.5188074
000300 fe b3 3c bf e1 df 59 40 14 b5 47 c0 86 dd 10 40
       -0.73712146 3.4042895 -3.1204271 2.2635207
000310 82 be 55 3f 68 bb be be 08 0c e7 3f 14 be 65 c0
       0.83493817 -0.37252355 1.8050547 -3.5897264
000320 c7 3f ff bf 55 3a fc 3c e7 3f ca be 21 a1 50 c0
       -1.9941338 0.030789534 -0.3950188 -3.2598345
000330 b1 98 ef bf f1 ff ed 3f d3 20 c1 be b4 4a 46 bf
       -1.8718473 1.8593732 -0.37720355 -0.7745774
000340 3e f2 8d bf a5 0c 53 40 64 75 6c 3e 34 cd e5 3f
       -1.1089551 3.2976468 0.23091656 1.7953248
000350 40 e6 ab 3f 86 35 6e 40 68 e3 ee be 8b 79 2b 3f
       1.3429642 3.7220168 -0.46657872 0.66982335
000360 bd fb 3e 40 87 f9 4b 40 43 d1 3c 40 f9 4b 94 c0
       2.984115 3.187105 2.9502723 -4.634274
000370 cc 2e a3 3e 37 8c 34 3f 66 b5 34 40 bb d8 d9 3f
       0.3187164 0.7052645 2.8235717 1.7019266
000380 97 d4 a2 c0 18 72 63 3f 04 42 eb bf 3d 1d ef be
       -5.088451 0.8884597 -1.8379521 -0.46701995
000390 01 32 7c 3e ba 75 9f bd cd 41 ce bf 01 03 c9 bf
       0.2462845 -0.077861264 -1.6113831 -1.5704042
0003a0 83 02 77 40 8a a4 18 40 4d 9d d5 3f 9f e0 7c 3e
       3.8595283 2.3850427 1.6688629 0.24695061
0003b0 d2 82 1e 3f 69 50 d0 40 60 4a 94 3e 3f 02 7a c0
       0.61918366 6.5098157 0.28962994 -3.906387
0003c0 f5 34 ba bf af 23 34 40 57 f8 b2 40 6a 88 09 c0
       -1.4547411 2.814678 5.592815 -2.148951
0003d0 bd 09 91 c0 e4 ec 19 c0 d6 38 01 3e 1c 7e 19 bf
       -4.5324388 -2.4050837 0.12619337 -0.5995805
0003e0 21 ea 0f bf 5a 90 9a bf 33 bb 4f 40 86 f9 33 3f
       -0.5621663 -1.2075303 3.2458007 0.7030262
0003f0 cb d8 44 c0 dc b4 a8 bf 29 4b 0b 40 d2 01 00 bf
       -3.075732 -1.3180194 2.1764624 -0.5000278

layer1.0.bias f4 [16]
000000 70 36 e9 be 01 e8 b6 40 54 ff 82 3d d1 3c 21 c0
       -0.45549345 5.715821 0.06396356 -2.519337
000010 20 0c e9 3f f9 92 3e c0 a4 47 63 be 5d 94 8e 3f
       1.8206825 -2.9777205 -0.22195297 1.1139027
000020 5c 61 aa 3f 4d 56 5b bf 31 f0 7a be 3a 8e 03 be
       1.3310962 -0.8567856 -0.24505688 -0.12847224
000030 97 9c 59 40 78 0d e5 3e d4 f9 14 40 b2 da 4a 3e
       3.4001825 0.44736838 2.3277483 0.19809988

layer1.1.weight f4 [16]
000000 a7 37 50 40 df 88 2d 40 dc b6 4c 40 5a dc 2b 40
       3.2533967 2.711479 3.1986609 2.6853242
000010 6a d8 2a 40 ae 10 57 40 ba f1 3a 40 7c 75 39 40
       2.6694589 3.360393 2.9210038 2.8977957
000020 dd 71 b8 3f a4 51 05 40 29 9f 34 40 30 14 36 40
       1.4409748 2.083108 2.8222144 2.8449821
000030 78 a0 57 40 e5 1e 27 40 e2 86 05 40 77 d6 bb 3e
       3.3691692 2.6112607 2.0863576 0.3668706

layer1.1.bias f4 [16]
000000 7b b2 59 c0 aa b1 1b c0 71 c4 87 c0 6b c6 16 be
       -3.4015186 -2.4327188 -4.2427297 -0.14724128
000010 aa ee 00 c0 97 59 12 c0 e1 64 79 bf db 53 11 c0
       -2.014567 -2.2867181 -0.97419554 -2.2707431
000020 62 a2 41 3f d9 ce 7c bf 14 c5 7f c0 0b 4e 0a c0
       0.756384 -0.98753124 -3.9964037 -2.1610134
000030 32 51 7f c0 c3 90 c3 be 3b 5c 89 bf bc 32 af bf
       -3.9893308 -0.38196382 -1.0731272 -1.3687358

layer1.1.running_mean f4 [16]
000000 39 25 f0 bf c0 98 82 c0 6a 8f e8 40 fd fa 4e c0
       -1.876136 -4.0811462 7.2675066 -3.234069
000010 71 77 28 c0 3d 88 78 c0 09 00 e9 be 6d a7 01 41
       -2.6322901 -3.8833153 -0.4550784 8.103375
000020 3c c4 a4 40 59 c6 23 3f 95 0f bb be 9c bc b1 be
       5.1489544 0.6397453 -0.36535326 -0.3471421
000030 a6 44 d5 c0 94 42 25 be bb dd 66 40 6b b8 67 c0
       -6.66463 -0.16138679 3.6072834 -3.620631

layer1.1.running_var f4 [16]
000000 6c 20 f1 40 5d a0 c6 41 73 bf 7d 41 a4 5c 60 40
       7.5352077 24.828302 15.859241 3.5056543
000010 c2 fc 56 41 5c 19 5c 41 e7 c9 ec 3f b9 b4 74 41
       13.436708 13.756191 1.8499116 15.294122
000020 ea e9 f7 40 11 01 90 40 33 bc 64 40 90 5c 39 41
       7.747304 4.50013 3.5739868 11.585098
000030 51 41 16 42 5b 77 f5 40 7f 2b 63 40 1f ae 50 40
       37.563786 7.6708198 3.5495298 3.2606275

layer2.0.weight f4 [32, 16, 5, 5]
000000 ee 7d 2c c0 df ec 4d c0 b5 ba 22 c0 ca f2 b2 c0
       -2.6951861 -3.2175825 -2.5426457 -5.5921373
000010 09 8b f6 bf 13 b8 ba c0 cf e0 34 c0 91 46 08 c0
       -1.926118 -5.83497 -2.8262212 -2.129307
000020 a7 27 8a c0 96 e8 8b 3f 6a 14 f6 3f ad d0 1a 3c
       -4.3173404 1.0930355 1.922498 0.009449166
000030 80 76 72 c0 51 bf eb 3e e8 4b 19 40 f3 b8 4a bf
       -3.7884827 0.460444 2.395258 -0.7918846
000040 d5 95 c1 bf 38 75 2d 3e a8 8b ba 3f c6 48 92 bf
       -1.512385 0.16939247 1.457387 -1.1428459
000050 8b 7f 0b c0 40 7f 04 c0 cb 10 00 3f e7 79 9a bf
       -2.1796596 -2.0702667 0.50025624 -1.2068452
000060 f0 8e c7 3f 47 66 72 c0 68 d9 cf bf ee 06 51 c0
       1.5590496 -3.7874925 -1.6238222 -3.266048
000070 8e 12 3a c0 aa 40 b0 3e 67 fa 90 bf 5c 4f 9d 3f
       -2.9073825 0.34424335 -1.1326417 1.2289844
000080 7b f1 62 bf ac 40 a2 3f 06 bb e2 40 68 cd 31 3f
       -0.8864972 1.2675986 7.08533 0.6945405
000090 92 e8 21 40 c2 c5 93 be 04 80 a3 c0 ea 95 a4 3e
       2.52982 -0.28861815 -5.109377 0.32145625
0000a0 5b 5a 4e bf 1e fa 35 40 05 20 67 40 9f ef 78 bf
       -0.8060662 2.843391 3.6113293 -0.9724063
0000b0 6f a0 7d 3f db 28 0d 40 ec a1 8a 3f f3 c5 b8 bf
       0.9907293 2.2056186 1.0830665 -1.4435409
0000c0 0b ea 97 c0 4e 87 a4 3f 5c 50 5e be 78 7b ce 40
       -4.7473197 1.2853792 -0.21710342 6.452572
0000d0 3b 11 01 c0 b5 a7 74 bf fe 20 b3 bf c1 e6 3f 3d
       -2.0166767 -0.955684 -1.3994443 0.046850923
0000e0 22 05 be bd e0 3e 9f c0 ca f7 19 bf 82 88 3f 3f
       -0.09278323 -4.976425 -0.6014372 0.7481767
0000f0 35 65 80 c0 c7 0e 06 40 67 50 86 be 56 c6 b4 3e
       -4.0123544 2.094652 -0.26233217 0.35307568
000100 49 79 8f bf 2c 63 51 bf 23 e5 7a 40 77 73 11 40
       -1.1208888 -0.8179195 3.9202354 2.2726724
000110 1f 7e 47 40 3c a8 73 bc 2c d3 10 c0 e0 7a b7 bf
       3.1170728 -0.014871653 -2.262889 -1.4334373
000120 0c c9 7b bf 3c c5 76 c0 5e 11 5c c0 b1 fa e6 3f
       -0.9835365 -3.8557882 -3.43856 1.8045255
000130 71 a1 ad bf 4b 87 cf bf 1e 07 76 bf f9 98 60 c0
       -1.3564893 -1.6213163 -0.9610461 -3.5093367
000140 f0 bd c7 bf 4a 58 79 c0 d3 01 c0 c0 fc 53 68 bf
       -1.5604839 -3.8960137 -6.0002227 -0.9075315
000150 a8 94 5d 3e 1d ad 87 40 dc 1e 0b 40 af 7d 00 c1
       0.21638739 4.239882 2.1737585 -8.030684
000160 fd f8 bc c0 1e d0 1f 3f ed 72 cb 3e 21 c0 bd 3f
       -5.905394 0.62426937 0.3973612 1.4824258
000170 3b 35 18 c0 f7 c4 9a 3f e9 f4 40 bf 9e ab b5 bd
       -2.378249 1.2091359 -0.75373703 -0.08870624
000180 a7 a0 0f 40 89 c0 ec bf 23 54 97 bd 1b fd 11 40
       2.2441804 -1.8496257 -0.07389095 2.2810733
000190 82 dd 98 bd f8 bb 37 40 f7 3e 10 c0 e5 c8 b9 3e
       -0.07464124 2.8708477 -2.253843 0.36286083
0001a0 8b b8 54 bf d4 75 58 c0 ea 21 b0 c0 04 0f 2c c0
       -0.8309409 -3.3821917 -5.50414 -2.6884165
0001b0 36 c5 16 c0 10 07 02 c0 fe 54 2a c0 71 da b9 bf
       -2.3557868 -2.031681 -2.6614375 -1.4519788
0001c0 69 49 08 3f 56 61 a2 bc 03 4f 1f c0 af fe 6a 3e
       0.53237015 -0.019821804 -2.4891975 0.22948717
0001d0 f7 6b 99 40 61 65 04 bf 40 e6 30 c0 62 c3 18 bf
       4.7944293 -0.5171719 -2.7640533 -0.5967313
0001e0 cc 2f 6f 40 f8 4d 07 3c 75 8f ea bf de 08 fc 3f
       3.7372923 0.008258335 -1.832503 1.9690206
0001f0 d8 1c dd 3f 85 d9 f4 bb 5a cb 28 c0 a2 d9 1b c0
       1.7274427 -0.0074722194 -2.6374116 -2.4351583
000200 6b 10 7a 3f 71 d8 d0 3f 9f 32 a1 3f b7 f3 d7 3e
       0.976813 1.6316053 1.2593573 0.42178127
000210 76 6c c3 bf 01 14 0c bf d0 51 e0 3e 3b e8 19 c0
       -1.5267475 -0.54718024 0.43812418 -2.4047992
000220 6c 2b 57 3f ed 74 bf bf f8 8a db be 57 ea d6 bf
       0.8405063 -1.4957558 -0.42879462 -1.6790265
000230 1d be d9 3e 85 59 21 40 46 5b 98 c0 f0 9c be bf
       0.42527857 2.5210888 -4.761142 -1.4891644
000240 17 38 25 40 1a 3f a5 bf 99 b2 9c 3f 31 d8 ef be
       2.5815485 -1.2909882 1.2242004 -0.46844628
000250 53 6b 5b c0 f1 8b a7 3d 16 6b 41 c0 8e 67 b3 40
       -3.4284256 0.081809886 -3.022161 5.606391
000260 6a 78 23 bd 27 7d 52 3f cb dd d0 3f 8a 65 dd be
       -0.039909758 0.8222222 1.6317686 -0.4324153
000270 30 cd 10 c1 32 5c 95 bf 2c 30 80 3e 54 e2 df c0
       -9.050095 -1.1668761 0.25036752 -6.996378
000280 e9 6f 7a 40 5e e4 98 3f dc c4 ec bf 26 71 cf c0
       3.9130805 1.1944692 -1.8497577 -6.482562
000290 8a 6a e6 3f 64 6e b6 3f de ec fd 3f 85 c2 ed 3d
       1.8001263 1.4252439 1.9837911 0.11609367
0002a0 cd b7 0a 40 a0 cd 8e bf f1 e1 d0 3f 93 90 fc 3e
       2.1674683 -1.1156502 1.6318952 0.4932905
0002b0 af da 1e c0 fe 13 bd 3e 1c 2f a8 bf 2c 7a ba 3f
       -2.4820974 0.36929315 -1.3139377 1.4568534
0002c0 e9 a6 9f bf dd c3 27 c0 24 0a d0 3f 05 67 95 3f
       -1.2472812 -2.6213295 1.6253095 1.1672064
0002d0 79 f3 87 40 a0 f8 84 3f fa 04 a3 be 15 d6 23 bd
       4.248471 1.0388374 -0.31839734 -0.039999086
0002e0 5d 84 07 c0 ad ce f1 c0 73 a0 63 c0 4c 39 c9 bf
       -2.1174538 -7.556479 -3.556668 -1.5720611
0002f0 8d 49 35 c0 f4 15 49 bf d6 fb 2b c0 bc bf f6 be
       -2.8326142 -0.7854912 -2.6872458 -0.48193157
000300 48 96 e1 be 7f f6 64 bf 4f ee 2c 40 3b e4 2d bf
       -0.44059968 -0.89438623 2.7020452 -0.6792638
000310 3c 3e 9a 3e 9c 7a 83 3f b1 b0 99 3f fc 41 46 40
       0.30125606 1.0271792 1.2007047 3.0977774
000320 04 c5 7e bf fc af 8f be b9 11 08 be 03 03 68 3f
       -0.9951937 -0.28063953 -0.1328801 0.90629596
000330 93 3a 91 bf e1 e2 ee bf 1e 33 48 c0 95 be 12 40
       -1.1346 -1.8662988 -3.12812 2.2928822
000340 3c 06 3d 3f 29 3f 86 bf 35 f5 5a c0 bb 1a 5c c0
       0.7383764 -1.0488025 -3.4212162 -3.4391315
000350 0c b6 2b be 6a c7 e7 3f 32 5f d6 3f dc 9d c1 bf
       -0.16768664 1.8107731 1.6747801 -1.51263
000360 dc be 70 bf 23 2b 0d c0 d3 88 41 c0 a4 f7 98 3f
       -0.9404123 -2.2057579 -3.023976 1.1950574
000370 3c 6d 29 c0 1d c1 cb 3e 88 e3 f7 3f f0 b8 0e 3f
       -2.6472921 0.3979577 1.9366312 0.5575094
000380 a6 8b a4 3e 7f 53 94 bf a3 32 73 bf 81 b3 38 c0
       0.32137793 -1.1587981 -0.9499914 -2.885956
000390 44 f0 52 40 b8 e6 ef bf e2 af d9 3c d1 cd c2 c0
       3.2959146 -1.8742285 0.026573125 -6.087624
0003a0 5e 29 6a 3f 8e 02 84 be 75 dd ea be dd a4 78 bf
       0.9146937 -0.257832 -0.45872083 -0.9712656
0003b0 4f 3c 22 c0 7f a9 af be 1c 7e 0a 40 7b 03 7e 3f
       -2.534931 -0.34309003 2.163947 0.9922406
0003c0 50 73 91 c0 e5 86 75 c0 7d f0 32 c0 5e 28 fc be
       -4.545326 -3.8363583 -2.7959282 -0.49249548
0003d0 41 85 a1 3f 98 ac 37 c0 53 ef b6 3f 7c 70 f8 3f
       1.2618791 -2.8699093 1.4291786 1.9409328
0003e0 ca 23 58 3f 6f 10 ab 3e de 07 8c 40 37 60 9c c0
       0.8442961 0.33410975 4.3759604 -4.886745
0003f0 9e c0 b2 3f 19 6b 3a c0 ee f3 d3 3d 69 dc 3e be
       1.3965032 -2.9127867 0.1034926 -0.18638767

layer2.0.bias f4 [32]
000000 4d 5c 1e 40 3d a1 85 3f 11 96 e5 3f c8 89 45 3e
       2.4743836 1.0439831 1.7936422 0.1929084
000010 69 18 e3 3e 6f 22 8d 3f 1f f5 11 40 a9 44 9a 3e
       0.4435456 1.1026133 2.280586 0.3013051
000020 09 96 dc 3f 24 a4 82 3e 91 69 8c 3f 6e 63 0a 3d
       1.7233287 0.25515854 1.0969716 0.03378623
000030 a4 41 48 3e 71 e3 52 3f d2 0d 13 40 e1 5a 8c 3f
       0.1955629 0.823783 2.2977185 1.0965234
000040 c7 b3 41 3e 07 ae 49 3e 6d 8d 95 3f d5 44 ca 3f
       0.18916236 0.19695292 1.1683785 1.5802256
000050 56 77 07 3e 6e 22 0b 40 6b 0a f1 3f 2b 0d f0 3f
       0.13229117 2.1739764 1.8831304 1.8754019
000060 0e 2c d9 3f 7c ff 02 3d 32 5b 87 3f cb e0 b9 3f
       1.696657 0.03198193 1.0574706 1.4521726
000070 12 f5 2c 3e 31 01 1e 40 42 b7 84 3f a3 90 30 3e
       0.16890362 2.4688227 1.0368426 0.17242675

layer2.1.weight f4 [32]
000000 18 09 08 3f dd 7b 10 3f 43 be 20 3f ea 8b 89 3e
       0.53138876 0.56439 0.62790316 0.26864558
000010 4c 96 65 3e b0 66 31 3f 66 6e 2d 3f bc af 11 3e
       0.22420615 0.69297314 0.6774658 0.14227194
000020 c2 94 e4 3e 8b ea 67 3e e7 44 0e 3f 52 c3 87 3f
       0.44644743 0.22648065 0.55573887 1.0606482
000030 b1 9f 34 3e dd 5e 5b 3f 4a 95 3c 3f ab 6b 92 3f
       0.17639042 0.85691625 0.736653 1.1439108
000040 91 a5 57 3e 9f c0 92 3e cd 64 56 3f 55 22 0f 3f
       0.21059252 0.28662583 0.8374756 0.5591176
000050 c6 4b 2c 3e 16 0c 48 3f b6 04 11 3f d3 7b dd 3e
       0.1682578 0.7814344 0.56647813 0.43258533
000060 34 6c 34 3f e2 3e 8b 3e 03 a9 3e 3f 2a 0a 30 3f
       0.70477605 0.27196413 0.7447664 0.6876551
000070 8e bb 8a 3e 98 a1 17 3f ae f0 0b 3f cf d3 81 3e
       0.27096218 0.5923095 0.54664123 0.2535691

layer2.1.bias f4 [32]
000000 e5 49 08 bf 50 6b 15 bf 19 21 49 bf c2 77 3b bf
       -0.53237754 -0.5836687 -0.7856613 -0.7322961
000010 18 df 2f bf eb f0 64 bf 3f df 45 bf 90 0b 53 bf
       -0.6869979 -0.8943011 -0.7729377 -0.8243952
000020 64 05 00 bf 8e ed 43 bf a6 da 03 bf 51 3f 04 c0
       -0.50008225 -0.76534355 -0.51505506 -2.0663645
000030 0b 96 68 bf f8 d9 aa bf bc 5f 59 bf 48 c2 d9 bf
       -0.9085395 -1.3347769 -0.84911704 -1.7012415
000040 94 30 44 bf b7 3a 20 bf 91 d5 89 bf ed b6 33 bf
       -0.76636624 -0.6258959 -1.07683 -0.70201
000050 92 cf 12 bf 0b 5c 6b bf 1d e3 45 bf 63 3d ff be
       -0.5734798 -0.9193732 -0.7729967 -0.49851522
000060 38 9a 86 bf a7 9f 26 bf 5f ec 8c bf 6f 76 66 bf
       -1.0515814 -0.6508736 -1.1009635 -0.90024465
000070 a4 42 30 bf 8a 01 0b bf e2 9f 2a bf dc d3 52 bf
       -0.68851686 -0.54299223 -0.6665021 -0.8235452

layer2.1.running_mean f4 [32]
000000 b9 b4 fb c2 dd fe c1 c2 0a 15 b5 c2 d6 b4 51 c2
       -125.852974 -96.99778 -90.54109 -52.426598
000010 f2 5b da c1 0c df 9c c2 ef 67 b1 c2 58 ca 13 c2
       -27.294895 -78.43564 -88.702995 -36.9476
000020 17 ca 95 c2 ae b3 15 c2 c9 0e 93 c2 0e fe 8f c2
       -74.89471 -37.42547 -73.52888 -71.9962
000030 4c ec 3c c2 a1 c4 9f c2 b5 c9 ef c2 51 58 ba c2
       -47.23076 -79.88404 -119.89396 -93.17249
000040 9d 19 c4 c1 2a cd a6 c1 ed 31 97 c2 b9 5a 16 c3
       -24.512506 -20.850178 -75.59751 -150.35439
000050 ec ce 37 c2 d2 e0 cd c2 a4 9f ac c2 c7 ae c7 c2
       -45.952072 -102.9391 -86.3118 -99.84136
000060 1f ff 75 c2 a0 21 d9 c1 53 95 81 c2 dc fc b5 c2
       -61.49914 -27.141418 -64.79165 -90.993866
000070 fd 28 fe c1 40 bc e1 c2 b2 cf bd c2 39 13 3a c2
       -31.770014 -112.867676 -94.905655 -46.518772

layer2.1.running_var f4 [32]
000000 5a 47 4f 46 e7 3a 81 46 a6 45 0e 46 ef 84 89 44
       13265.838 16541.451 9105.412 1100.1542
000010 a2 7e b0 43 56 41 0e 46 ec 0c 1f 46 82 75 1a 44
       352.98932 9104.334 10179.23 617.83606
000020 d3 4d f6 45 5b 92 21 44 d0 86 29 46 f1 f6 56 46
       7881.728 646.2868 10849.703 13757.735
000030 d2 ea 9f 44 97 19 27 46 77 71 4f 46 dc 3b 2b 46
       1279.3381 10694.397 13276.366 10958.965
000040 c8 2c dd 43 90 63 51 43 f3 d9 10 46 a8 12 5a 46
       442.34985 209.38892 9270.487 13956.664
000050 80 44 8f 44 63 2d 2e 46 c6 63 ea 45 97 74 21 46
       1146.1406 11147.347 7500.4717 10333.147
000060 00 a7 c1 45 8f 72 98 43 5b 66 2a 46 a9 84 20 46
       6196.875 304.895 10905.589 10273.165
000070 84 49 d2 43 78 97 2f 46 22 b9 3b 46 bd cd 73 44
       420.57434 11237.867 12014.283 975.21466

fc.weight f4 [7, 4608]
000000 2a e1 41 c0 05 0f fa bc 6b c6 9e 3f 94 c5 46 bf
       -3.029368 -0.03052474 1.2404302 -0.7764523
000010 38 f4 9b 3f 0e 49 35 c0 16 8b 57 c0 4b 8e dd 3f
       1.2183905 -2.832584 -3.3678641 1.7309049
000020 6e 54 ed bf 41 ce cc bf c3 3d d4 3e c7 ae 06 c0
       -1.8541391 -1.6000444 0.4145337 -2.1044176
000030 55 9a e4 be bd f6 7b 3e 2b 23 05 c0 9e 26 0a 3f
       -0.44648996 0.24605842 -2.0802715 0.53965175
000040 fc 20 3b 3d 2d 75 ca bf 25 85 d0 3f 3c 32 e7 be
       0.045685753 -1.5817009 1.6290632 -0.45155513
000050 d7 dd 8b 3e 33 d8 f5 3e 9b 40 9f bf d3 3b 40 c0
       0.27317688 0.4801651 -1.2441591 -3.0036514
000060 31 53 5a bf 48 9b d1 3d 55 af 67 be c7 c9 eb 3f
       -0.8528319 0.10234696 -0.22625478 1.8420953
000070 b1 7e e5 bf ef af 4a 3f 4a 2f a2 bf 65 7e 81 3e
       -1.7929288 0.79174703 -1.2670681 0.25291744
000080 e4 10 6a bf 5b 54 2f c0 16 76 99 bf 2d 83 32 3e
       -0.91432023 -2.7395236 -1.1989162 0.17432852
000090 32 1d 29 bd c3 86 94 3f 41 39 ba bf 49 b1 4c bf
       -0.04128761 1.1603626 -1.4548723 -0.79958016
0000a0 8c 5c db 3e b8 ae f6 bf 21 2b 13 be 5e 0c b5 3f
       0.42844045 -1.927207 -0.14371921 1.4144399
0000b0 61 c1 15 bf 59 cc 9b bf c9 77 49 3e 37 2b 42 c0
       -0.584982 -1.2171737 0.196746 -3.0338876
0000c0 8d d0 8d bf a9 0d 1d bf 45 53 4e bf 21 44 bb bf
       -1.107927 -0.6134897 -0.8059581 -1.4630166
0000d0 d8 6f 29 bf 1e 9d 08 3e 28 65 ca 3e 98 34 89 bf
       -0.66186285 0.13341185 0.395303 -1.0719175
0000e0 9c 87 5c bf 70 47 e2 bf b8 28 38 3e 1f fd 1e 3f
       -0.86144423 -1.7678051 0.17984283 0.6210498
0000f0 8f 83 46 40 2c 26 5f 40 52 30 b4 3e b2 0a 25 bf
       3.1017797 3.4867048 0.35193115 -0.64469445
000100 ed 12 90 3f 12 92 a7 bf 93 14 bf 3d ad a4 9d be
       1.1255776 -1.3091452 0.09330096 -0.307897
000110 fd a1 5e bf f0 f2 26 bf d8 b9 9f 3f 3b 61 16 c0
       -0.86965925 -0.65214443 1.247859 -2.3496845
000120 61 07 26 c0 4c 4b 80 bf df 35 90 3f 86 5d 71 3f
       -2.5942004 -1.0022979 1.126644 0.9428333
000130 d1 e5 1f 3e 8c 93 11 40 1d 98 6e bf 26 7c ee be
       0.15615012 2.2746305 -0.93200856 -0.46579093
000140 ba 4a af be 0c 0f f2 3f a6 ea 4a 3e f4 04 98 40
       -0.342367 1.8910842 0.19816074 4.7506046
000150 cc 2a 1b be be 91 1e 3f 50 e6 99 3f d9 93 3e bf
       -0.15153044 0.61941135 1.2023411 -0.7444435
000160 0a 0f 8a 3f 8d cb a7 be ba a4 57 3f 55 ab 8a be
       1.078584 -0.32772484 0.8423573 -0.2708384
000170 e9 25 04 40 5f 6b 75 bf 0d 4a 9b 3e 0c e2 f5 bf
       2.0648139 -0.9586696 0.30329934 -1.9209609
000180 75 09 68 bf 84 5b 66 bf 99 c2 c6 3f 0b 0f 3f bf
       -0.9063943 -0.8998339 1.5528136 -0.7463233
000190 ca a5 0d 40 22 d4 27 3e 88 71 9a bf a4 2b 09 3f
       2.213244 0.16389516 -1.2065897 0.53582215
0001a0 67 82 9e 3f a6 f5 2f be 06 5e 7f bd 0a fe 8d bf
       1.2383546 -0.17183551 -0.062345527 -1.1093152
0001b0 95 ab 1d 3f 4a 2a fb 3f 29 66 3b bd 02 21 ca 3e
       0.6158994 1.9622281 -0.045751724 0.39478308
0001c0 f2 23 b3 bf 3e 30 65 3f 2d 5a 9a be 77 6f 7a 3f
       -1.3995345 0.89526737 -0.30146924 0.9782633
0001d0 51 a3 47 3f 3f cb 73 3f 77 d3 d2 be aa a3 b9 3e
       0.77983576 0.95232004 -0.4117696 0.36257678
0001e0 6f 0e 55 3f de ab 42 be 79 6a 80 be 6e d4 2f c0
       0.8322515 -0.19010875 -0.25081232 -2.7473407
0001f0 1f 26 cc 3f f2 ae 4b c0 b4 9e cd 3f ba 35 09 3f
       1.5949134 -3.1825528 1.6064057 0.53597605
000200 eb e9 9c 3f 4e 2f c3 be 85 a8 86 bf e5 d9 a5 3f
       1.2258886 -0.38122028 -1.0520178 1.2957121
000210 03 12 d0 3f e2 aa 5d 40 c6 4c bd bf cc dc b7 be
       1.6255497 3.4635549 -1.4789054 -0.35910642
000220 de f8 27 bf 57 b6 8d 3f 90 19 58 3f 46 09 75 bf
       -0.65614116 1.1071271 0.84414005 -0.95717275
000230 63 74 0d 40 29 86 93 c0 45 81 8b 3f c4 26 9f bf
       2.2102287 -4.610127 1.0898825 -1.2433705
000240 2c cd 70 bf c2 91 73 bf c6 32 10 3f ff 8d 3a bf
       -0.9406307 -0.95144284 0.56327474 -0.7287292
000250 f0 7b 7a 40 e8 ac 7c c0 eb 17 cf 3f cb 40 09 40
       3.9138145 -3.9480534 1.6179174 2.1445796
000260 a2 a1 4b 3c a5 aa 32 3f 8c 98 51 3f dc de 3b c0
       0.012428673 0.6979163 0.81873393 -2.9354773
000270 e2 bf 19 40 69 36 6e 3f ad f2 6a 3f 89 8f 5d 3f
       2.4023366 0.93051773 0.91776544 0.8654714
000280 55 4c e2 3f 2c 10 6e 3e 58 77 ab 3d 70 6a 32 40
       1.7679545 0.23248357 0.083723724 2.7877464
000290 65 c5 5e 3b 4a 6e c0 3f 7c 5e 80 3f d6 ac 3f 40
       0.0033992168 1.5033658 1.0028834 2.994924
0002a0 a2 e0 81 3e 3d b8 0b 3f ae 3b 63 3e 7e d5 b0 3f
       0.25366694 0.54578 0.22190735 1.3815153
0002b0 3d 69 4b 3f 96 02 22 bf fd e9 05 40 c7 2f a1 3f
       0.79457456 -0.63285196 2.0924065 1.2592705
0002c0 8b f6 28 3f f5 fc ca 3f 18 1a e6 3d 2f 8b 83 be
       0.66001195 1.5858446 0.11235446 -0.25692126
0002d0 93 2e 7e be 58 be 0a c0 a3 11 02 be 4a 39 25 40
       -0.24822454 -2.1678677 -0.1270204 2.5816216
0002e0 63 57 fa 3f 2f 5f 78 bf 74 9e 9b 3e fd ec e5 3f
       1.9557918 -0.9702024 0.30394328 1.7962948
0002f0 1b 88 b0 3f 7f 14 b7 3f 3f a1 56 3f 65 49 96 bd
       1.3791536 1.430313 0.8383979 -0.07338218
000300 8f ca bc 3e 71 fd 31 bf f0 50 1c 3f 71 8b a6 3f
       0.3687329 -0.69527346 0.61061 1.3011304
000310 2a c6 ed 3f 7f 73 6f be b0 a8 a9 3f 76 f7 17 3f
       1.85761 -0.23383902 1.3254604 0.5936197
000320 74 39 23 3f 87 82 19 40 ba 7a e4 bd 43 bb 72 3f
       0.6375954 2.3985918 -0.11156221 0.9481699
000330 e3 7e 11 40 ec 1b 81 bf 62 d2 af bf 05 74 d9 3e
       2.2733696 -1.0086646 -1.3736079 0.42471328
000340 b5 7c da be ba 23 b3 bf e0 87 a8 3e 8b 5f 16 3f
       -0.4267327 -1.3995278 0.32916164 0.58739537
000350 7b b4 98 3e 99 39 13 bf 3d 53 79 bf 2b 0d 52 40
       0.29825196 -0.5750976 -0.97392637 3.2820537
000360 1c 73 13 40 9e 27 81 c0 65 88 26 c0 f2 d7 fa 3e
       2.3039007 -4.036086 -2.6020749 0.48992878
000370 4a 4c 12 c0 e9 5a 79 bf 8f 0e 89 3f 89 6d 94 bf
       -2.2859063 -0.9740434 1.0707568 -1.1595927
000380 d5 11 4b c0 a8 4a 8a 3f d4 ef a8 bf 16 78 86 c0
       -3.1729634 1.0804033 -1.319819 -4.202159
000390 f0 a3 e2 3f 9f 3f 8d 3d 9b dd 93 bf eb b1 56 c0
       1.770628 0.068969004 -1.1552004 -3.3546093
0003a0 e2 b6 d0 bf 27 b5 c8 be 20 c5 02 c0 50 f1 04 c0
       -1.6305811 -0.39200708 -2.0432816 -2.0772285
0003b0 b4 f1 68 c0 ec d9 57 bf aa f9 df bf 42 a2 60 be
       -3.6397524 -0.843169 -1.7498066 -0.21936896
0003c0 0a 02 9a 3f 53 57 99 c0 14 ca 15 be a2 3c 75 bf
       1.2031872 -4.7919097 -0.14627868 -0.95795643
0003d0 c3 fb 12 c0 15 ee c7 bf e0 b5 3b be f4 06 96 c0
       -2.2966163 -1.5619532 -0.18331099 -4.688349
0003e0 31 52 ac bf 7a 3f 74 3f 04 5e b9 bf 3f c7 02 bf
       -1.3462583 0.9540936 -1.4481816 -0.51085275
0003f0 87 a8 64 bf 0a b1 0f 3f c2 3b 6e bf 05 ad b7 be
       -0.8931965 0.56129515 -0.93059933 -0.3587419

fc.bias f4 [7]
000000 f6 d4 9a 3e 8f 0d 48 c0 ee 22 a5 3d 0f df 52 3e
       0.302406 -3.1258276 0.08063303 0.20592903
000010 af fc 91 3e d2 7c 83 3f a0 4c d5 bf
       0.28513095 1.0272467 -1.6664009
