FaceExpressions_CNN/savemodel/model_32.pth (torch_old, 185408 bytes, 14 tensors)

layer1.0.weight f4 [16, 1, 5, 5]
00000000: ba50 123f c7ef a33f a261 3d40 44e4 0f40
00000010: a61a 2340 e991 3840 5e58 21bd 17d6 81be
00000020: 5674 aebd 7f3c 1f3e 2ad0 6e3f cc87 c8bf
00000030: 1bc5 d7bf 0fb2 84c0 22f1 b1c0 0e22 a53f
00000040: 5020 69bf 7ed7 8cbb 21e7 13c0 0faf ebbf
00000050: bb26 433f 27b1 f2bf 632d d63f 5644 c93e
00000060: 911f a73f 0274 0bbf 4bf9 f8bf 05de 0ebf
00000070: 59ae 0340 b422 2640 ab85 49be 948d bcbf
00000080: 625e 98bd 0015 363f 624a 0dbf 4503 4fbf
00000090: 9a8a 84bf 1960 2ebf 1ac1 18c0 9515 10c0
000000a0: 470d 93c0 7d41 1fc0 9c98 30c0 d4ba 8dc0
000000b0: 9415 933f c004 a23f b2bb cbbd 14c7 b0be
000000c0: 60cb 233f 620f 913f d5f1 09c0 3e5c 94bf
000000d0: c88a c93f 203e b93e d9fa 30c0 3be7 373f
000000e0: 2670 0c40 e3cb c63f 0315 7e40 67fb a53d
000000f0: 4113 d93e 2bb3 4e40 8cfb 0abd 96e0 9140
00000100: d54c 0e3f 30cc 2ec0 47da d73f 893f 943e
00000110: 92d9 9440 17c7 d03e 5a21 b6bf 815a efbd
00000120: 4d85 883e 8ca9 42be 182c 0ec0 d45d 3b40
00000130: f010 533f 770e e7bf b1b3 65be a981 033e
00000140: 9066 1640 c497 67c0 632c 1fc0 535d 953e
00000150: d2d0 393e bd01 06c0 32db a0c0 8eaf 363e
00000160: 3828 bbbe fc17 09c0 bc55 d4bf eee9 da3f
00000170: fde7 1c40 d6c9 0940 2e4e ea3f f6b7 d73e
00000180: fff0 c53f 00f0 8d3e fbeb c43e b8ba ca3f
00000190: a42e c33f 7bb1 ffbe 4bba e2bf 2a56 1fc0
000001a0: 5aac ad3f 4b63 983f dd50 96bf 5ff6 ff3e
000001b0: 0d39 c9bf 9f85 fcbf 73c6 00c0 6780 41be
000001c0: 61fe 9c3f d27b 4bc0 2a80 83c0 f3b3 803f
000001d0: 1dc7 3f3f 239c a1bf 86b2 21c0 2c28 e0bf
000001e0: f879 5e40 7cd7 6840 3fdb 9a3f 17a0 bd3f
000001f0: 00dd 533f c371 97bf 86e7 8bc0 775a 99c0
00000200: 6e8b f7bf 0be1 61bf 207f 8c3e d1d9 80bf
00000210: 7741 d8bf a567 b7bf 3ed3 0ec0 8c94 a63e
00000220: 9e1f 123f 42e5 c03f 8b6b 0f40 7e76 51bf
00000230: e5af ebbe 23db ac3e c6e8 0040 9176 8a3f
00000240: e144 ab3f 7714 4f40 8f2b a43f 3dfe c93f
00000250: 9980 b53e 5c7a 4a40 8328 0e3f 5386 a5bf
00000260: e019 2ebf 258a e93f ba3d 993e 0a0c 7e3f
00000270: 75ae 0ebf 8c98 50c0 43e4 513e c954 6340
00000280: 47dd 5c3f f9ec ea3f 5402 77c0 459c 70c0
00000290: 85f4 2440 1791 9abe 125c 1a40 7cc1 983f
000002a0: 3fc4 57c0 e0b0 95bf e9fb cebe 919c a43e
000002b0: 5c2c f83f e621 ea3d d92f 3bbe 6848 3ebd
000002c0: c930 9cbe 5bc3 25c0 bad0 d1bf 66d9 b8bf
000002d0: 9bfe acbf 6567 a43e eb95 5fbf 1103 0b3f
000002e0: d90f c23e 9bec aebf 1343 a940 664e 9f40
000002f0: 5a23 9240 087e 1440 16a5 febe 2cbd 0e40
00000300: ed74 95bc d5d1 2740 3769 21c0 bcaf dc3f
00000310: 6cd4 d83e 9e92 babe b827 9d3f cfd0 29c0
00000320: 23e3 b4bf cbd4 a3be d11f efbe 41d4 2bc0
00000330: 13f2 cebf c611 953f de04 80be 0d3c 14bf
00000340: 84a6 4abf 03d5 1d40 0aba 003f 6135 de3f
00000350: 26ad 9f3f 3ccf 3b40 64c7 1bbf 27d6 dabb
00000360: f9be 2040 cf99 1f40 5c0d 1a40 26ff 7dc0
00000370: d2a9 963e c7e2 4c3f 8de9 0040 456c ba3f
00000380: a0a7 82c0 ae5b 253f 59e9 cdbf 9ba2 c9be
00000390: 553e 44bd c638 d13e 1727 92bf 4030 c8bf
000003a0: f14c 5140 d86a f03f 47d6 643f fa4b 813e
000003b0: 7a80 3b3f 7336 b240 06f8 713e 8d55 4ac0
000003c0: 09ec 7cbf d555 1740 a662 8f40 087c d9bf
000003d0: 42b1 63c0 c520 d6bf a0f1 febd c797 103e
000003e0: 654e 23bf f06b 7ebf a75c 1840 e8e8 5c3f
000003f0: 03f3 1ec0 a3b6 98bf 2c6b d93f 4bc7 46be
0.5715443 1.2807549 2.959084 2.2483072 2.5485015 2.8839056 -0.039390914 -0.2535865
-0.08518283 0.15550421 0.93286383 -1.5666442 -1.6857027 -4.1467357 -5.560685 1.2901018
-0.9106493 -0.0042981496 -2.310982 -1.8412799 0.76230973 -1.8960313 1.6732601 0.3930995
1.3056508 -0.5447389 -1.9451078 -0.55807525 2.0575163 2.595868 -0.19679897 -1.4730706
-0.07439877 0.71125793 -0.55191624 -0.80864364 -1.0354798 -0.68115383 -2.386786 -2.2513173
-4.595371 -2.488372 -2.7593145 -4.429056 1.149096 1.26577 -0.099479094 -0.34526885
0.639822 1.133282 -2.1553853 -1.159065 1.5745478 0.3618021 -2.7653105 0.71837205
2.194345 1.5530971 3.9700325 0.08104592 0.42397502 3.2296855 -0.0339313 4.5586653
0.55585986 -2.7312126 1.6863488 0.28954723 4.651559 0.40776893 -1.4228928 -0.11687184
0.266642 -0.1900999 -2.2214413 2.9276018 0.8244772 -1.8051289 -0.22431828 0.1284243
2.35001 -3.618638 -2.4870842 0.29172763 0.18146065 -2.093856 -5.0267572 0.17840406
-0.36554122 -2.142089 -1.6588664 1.710264 2.4516594 2.152944 1.8305109 0.4213254
1.5464171 0.27722168 0.3846129 1.5838232 1.5248609 -0.49940094 -1.7713102 -2.489634
1.3568223 1.1905302 -1.1743428 0.49992654 -1.5720536 -1.9728278 -2.0121124 -0.18896638
1.226513 -3.1794324 -4.109395 1.0054916 0.749132 -1.2625774 -2.5265212 -1.751226
3.4761944 3.6381521 1.2098159 1.481448 0.82759094 -1.1831592 -4.372012 -4.792293
-1.9339426 -0.88234013 0.2744074 -1.0066472 -1.6894978 -1.4328505 -2.2316432 0.32535207
0.57079494 1.5069964 2.240939 -0.8182143 -0.46032634 0.33760938 2.0142074 1.0817434
1.3380395 3.235624 1.2825793 1.5780712 0.35449675 3.1637182 0.55530566 -1.2931617
-0.6800823 1.8245283 0.29929906 0.9923712 -0.5573495 -3.2593107 0.20497231 3.5520499
0.8627514 1.8353568 -3.859517 -3.759538 2.5774243 -0.3018882 2.4118695 1.1934047
-3.371353 -1.1694603 -0.40426567 0.321507 1.9388537 0.11432247 -0.18279971 -0.04645577
-0.3050597 -2.5900486 -1.6391823 -1.4441345 -1.35152 0.32110134 -0.8733813 0.54301554
0.37902716 -1.3665956 5.289438 4.97832 4.5668154 2.3201923 -0.49735326 2.2302961
-0.018244231 2.6221821 -2.5220468 1.724113 0.42349565 -0.36439985 1.2277746 -2.6533697
-1.4131817 -0.31998286 -0.46703961 -2.68483 -1.6167625 1.1646049 -0.25003713 -0.5790413
-0.7916033 2.4661262 0.50283873 1.736004 1.2474716 2.9345236 -0.6085112 -0.006678361
2.511656 2.4937627 2.4070654 -3.968698 0.29426438 0.80033535 2.0142548 1.4564291
-4.082962 0.6459302 -1.6086837 -0.3938187 -0.047911007 0.40863627 -1.1418179 -1.5639725
3.2703211 1.8782606 0.8938946 0.25253278 0.73242915 5.5691466 0.2362977 -3.1614716
-0.9879766 2.3646138 4.480792 -1.6990976 -3.557694 -1.672875 -0.1244843 0.14120398
-0.63791496 -0.9938345 2.380655 0.86292887 -2.4835823 -1.1930736 1.6985831 -0.19411962

layer1.0.bias f4 [16]
00000000: 04f1 48bf 8ea7 2140 d529 8fbd 3ea6 5cbf
00000010: 398c 983f cad0 08c0 3275 d73e 71ce 5b3f
00000020: 7d4b d73e fb18 c73e b0e0 913e 2d66 59bf
00000030: 4c9f c03f 667d c7bd 53fa ea3f b2da 4a3e
-0.7849276 2.5258517 -0.06990401 -0.86191165 1.1917793 -2.1377435 0.420816 0.8586188
0.4204978 0.38886246 0.28491735 -0.8492153 1.5048614 -0.09740715 1.8357643 0.19809988

layer1.1.weight f4 [16]
00000000: 72e1 2f40 e259 0e40 f7d1 2340 eef9 1740
00000010: f1ff 0a40 5274 3640 3866 2340 44da 1140
00000020: 1c41 9b3f afbf df3f 1b2f 0a40 0e6c 2140
00000030: 76f9 2940 ab84 1240 fb0b db3f 77d6 bb3e
2.748135 2.224236 2.5596902 2.3746295 2.1718714 2.8508496 2.553114 2.2789469
1.2129245 1.7480372 2.159125 2.5222201 2.655851 2.2893474 1.7113031 0.3668706

layer1.1.bias f4 [16]
00000000: 8f54 34c0 2f81 08c0 4d16 4dc0 86f1 c1bd
00000010: 56c3 cdbf 1ea1 f6bf 5de0 69bf c32b fcbf
00000020: b007 2d3f 0bb9 38bf 0b58 4ec0 be59 efbf
00000030: 3c9a 40c0 39ea a2be 30f8 4abf bc32 afbf
-2.817661 -2.1328847 -3.2044861 -0.09469895 -1.6075237 -1.9267919 -0.91357976 -1.9700855
0.67589855 -0.72157353 -3.2241237 -1.8699262 -3.0094137 -0.31819323 -0.79284954 -1.3687358

layer1.1.running_mean f4 [16]
00000000: f164 f8bf 4a30 c7c0 f2f0 da40 7bc6 a8bf
00000010: 0374 1ac0 b817 4cc0 c9c8 073e 41f5 d040
00000020: 5d5d 5c40 353d 0540 9758 1d3f 1fab 63bf
00000030: b3a1 d9c0 fa95 94be 299e 3440 041d 6bc0
-1.9405805 -6.2246447 6.8419123 -1.3185571 -2.4133308 -3.1889477 0.13260187 6.529938
3.4431984 2.0818608 0.614633 -0.88932985 -6.8009887 -0.29020673 2.8221533 -3.673646

layer1.1.running_var f4 [16]
00000000: 8cc4 a540 b9d5 9c41 9338 6341 616e 1740
00000010: 8fa9 1541 1eb4 1d41 b1f9 a73f bac6 2641
00000020: 1565 ad40 4f8b 5b40 8142 3040 15f0 0041
00000030: d835 cf41 dd66 a940 41c3 2340 c9ae 5840
5.1802425 19.604357 14.201312 2.366112 9.353896 9.856474 1.3123075 10.423517
5.418589 3.4303777 2.754059 8.058614 25.90129 5.2938066 2.5587924 3.385668

layer2.0.weight f4 [32, 16, 5, 5]
00000000: 4371 5cc0 2952 64c0 090f e0bf e841 70c0
00000010: 629b dfbf 0288 99c0 14b5 16c0 1939 f1bf
00000020: 1d0b 80c0 8843 443f 286f ca3f 7f94 bebe
00000030: c123 38c0 e49c 0abf bbb8 1c40 f073 f13d
00000040: a97a a1bf b911 3cbf 0632 e03e 7067 c6be
00000050: 4416 04c0 1dcb 12c0 6b77 343f ab90 d0bf
00000060: 41b7 bb3f 2309 6dc0 bb34 8abf c04b 30c0
00000070: e6a8 0cc0 4471 133e a8c4 03bf c5a2 ca3e
00000080: 5f7d 9cbf 4186 2a3f efd3 9840 2b8f 303e
00000090: 6598 c73f 4dc1 bfbe 5e64 60c0 1a13 223e
000000a0: d961 9d3e 4380 3b40 f848 2540 a7d0 9ebf
000000b0: ab39 02bf 9a7f 0340 3514 013f 85d4 f2bf
000000c0: a5ce 66c0 6e57 8f3f b04e 99bd 4f9e ae40
000000d0: 7195 a7bf cf4a e93c 9de5 b9bf 2dba 14bf
000000e0: 8e5f 883e 081a 67c0 a34f d2be 55eb 6dbe
000000f0: 71c7 04c0 281e b43f 65d8 cabe 4e93 f7be
00000100: 86b5 9bbf 9603 4abf a6d3 6540 1d43 2f3f
00000110: 720a 993f 86cc f0be b426 cbbf 3545 93bf
00000120: 2a84 48bf 2a9b 2cc0 e2f5 11c0 3e0c 983f
00000130: f6e8 debe 41fd 8bbf ab25 b4be 2972 2bc0
00000140: bf46 c1bf 0dac 71c0 3e3d 92c0 3f8a 9abf
00000150: 28a9 713e 4368 4640 b864 a93f e18e d8c0
00000160: c978 aec0 2a25 bd3e d4be ba3e fe1d a53f
00000170: 58f3 d0bf d98e c23e cbbd c6bd 580c 4a3e
00000180: e46d e23f 1d6c 92bf 6733 aabe c436 ce3f
00000190: 053d 9dbd a0c6 1d40 047a f0bf 0d07 83be
000001a0: bcc3 b8bf aa11 33c0 7e9c 51c0 4a14 2ac0
000001b0: 41d3 d6bf 2782 b4bf ec89 f7bf cd1b a5bf
000001c0: 5892 6ebf 9336 58bf 565d 0ac0 3f01 4c3f
000001d0: 05d9 4840 c189 31bf 8f2b b6bf 8548 eabe
000001e0: 3982 2d40 43ab 6ebf 1f4a adbf d92d df3f
000001f0: ce39 be3f cc4b edbd dece e5bf fe1e dabf
00000200: cdcf 643f 899f 6f3f 7b74 803f a980 00be
00000210: a90f bcbf 05a7 69bf 7136 d93e 84d0 efbf
00000220: 795e c03f bd06 19be af3d 4a3f 2fb6 9cbf
00000230: cb3f 3f3f 396d b43f 9778 81c0 a569 0bc0
00000240: c8c8 c93f 1b50 6fbf a4e1 643f 3ec3 01bc
00000250: be51 5ac0 1420 8abe b137 1bc0 437e 9240
00000260: 2c6e 29be b4f3 8b3f a31e b13f 80b0 3abe
00000270: 656e cec0 9ff8 93bf 1d80 6fbf 021f a2c0
00000280: 1e25 2c40 3fc5 593f d477 d0bf d1d0 a5c0
00000290: 5671 463f c3ae 843f 4e19 c83f 35e9 56bd
000002a0: 8459 b63f 519f 28bf a637 a33f 621d 0c3f
000002b0: f33f f7bf c02f a03e 1eea 5bbf 034f 313f
000002c0: 4d37 af3e 6fbf 1bc0 8a0a c43f 4fb8 803f
000002d0: a52e 1640 93ef 453f 2114 b9be a52e 6abf
000002e0: 929b 08c0 b2a6 9bc0 8c30 0dc0 bcc4 ddbf
000002f0: 7698 dabf 7040 acbf a984 09c0 9e74 96be
00000300: dc33 0ebf c8de f9be 838b 1040 ca9c 16bd
00000310: ce81 873d 5529 2c3d d5db 6e3f 83c2 2a40
00000320: b0c4 39bf e2f4 40bf 22b1 f5be 4bc9 6a3f
00000330: 855a 3ebf ab02 a0bf d768 13c0 3158 cf3f
00000340: be71 9b3f 34b2 d6bc 55e1 46c0 d978 05c0
00000350: 985d 04be 85b4 9a3f 7c8a 8d3f b626 d9bf
00000360: 963e 08bf e4ff b8bf 8025 96bf b354 2f3f
00000370: ca83 33c0 32b7 963e e938 b73f 09c3 ec3e
00000380: 9967 32be 907d 85bf 303b a6bf 93a1 aebf
00000390: 0ee5 3640 e502 86bf 98ee 143f 0db5 91c0
000003a0: 2a88 3bbe 05ff 023e 92e4 75bd d388 11bf
000003b0: 42f1 e9be 01e5 87bf 344f c83f 62d6 303f
000003c0: 31a7 86c0 9980 50c0 e996 fdbf 5771 a33e
000003d0: 8eb4 e63f d149 22c0 6467 993f 10a9 bc3f
000003e0: eccc 623e 064a 853f 2ed8 6b40 ba63 51c0
000003f0: 69a7 6f3d 253b 01c0 4f8d e33e be63 7bbf
-3.444413 -3.5675147 -1.7504588 -3.7540226 -1.7469294 -4.7978525 -2.3548021 -1.884555
-4.0013566 0.76665545 1.5815172 -0.3722267 -2.8771822 -0.54145646 2.448775 0.117896914
-1.2615558 -0.7346454 0.43788165 -0.38750792 -2.063859 -2.293647 0.7049472 -1.6294149
1.46653 -3.7036827 -1.0797342 -2.7546234 -2.1978087 0.14398676 -0.5147195 0.39577308
-1.222576 0.66611105 4.775871 0.17242114 1.5593382 -0.37452164 -3.506126 0.15827599
0.30738714 2.9297035 2.5825787 -1.2407426 -0.50869244 2.0546632 0.5042146 -1.8971106
-3.6063626 1.1198556 -0.074857116 5.456825 -1.3092481 0.028478054 -1.4523197 -0.5809658
0.26635402 -3.6109638 -0.41076383 -0.23234303 -2.074673 1.4071703 -0.3961822 -0.48354572
-1.2164772 -0.7891172 3.591043 0.6846178 1.1956313 -0.4703104 -1.5871186 -1.1505495
-0.78326666 -2.6969705 -2.2806325 1.1878736 -0.4353711 -1.0936662 -0.35184988 -2.6788428
-1.5099715 -3.7761261 -4.569976 -1.2073439 0.23599684 3.1001136 1.3233862 -6.7674413
-5.4522443 0.36942416 0.36473715 1.2899778 -1.6324263 0.3799961 -0.09704169 0.19731271
1.7689786 -1.1439244 -0.33242342 1.6110463 -0.07677654 2.465248 -1.8787236 -0.25591317
-1.4434733 -2.7979531 -3.2751765 -2.6574883 -1.678322 -1.4102219 -1.9338965 -1.2899109
-0.9319205 -0.84458274 -2.1619468 0.796894 3.1382458 -0.6935082 -1.4232043 -0.45758453
2.7110732 -0.93230075 -1.3538245 1.7435867 1.486139 -0.11586723 -1.7953756 -1.7040708
0.8937958 0.93602806 1.0035547 -0.1254908 -1.4692279 -0.91270477 0.42424348 -1.8735509
1.5028831 -0.14943977 0.7900037 -1.2243098 0.74706715 1.4095832 -4.0459704 -2.178323
1.5764399 -0.93481606 0.894068 -0.0079200845 -3.4112391 -0.269776 -2.4252741 4.577913
-0.16545933 1.0933747 1.3837475 -0.18231392 -6.450976 -1.1560248 -0.9355486 -5.066285
2.6897655 0.850666 -1.6286569 -5.1817403 0.77516687 1.0365833 1.5632722 -0.052468497
1.4246068 -0.658681 1.2751358 0.54732335 -1.9316391 0.3128643 -0.8590411 0.6926119
0.3422188 -2.4335592 1.5315716 1.0056247 2.346597 0.77318686 -0.3614817 -0.91477424
-2.1344953 -4.8640985 -2.206088 -1.7325664 -1.7077777 -1.3457165 -2.148722 -0.29385847
-0.5554788 -0.4880278 2.2585151 -0.03677062 0.06616555 0.042031605 0.9330419 2.668122
-0.72565746 -0.7537366 -0.47986704 0.917134 -0.7435687 -1.2500814 -2.303274 1.6198789
1.2144086 -0.02620802 -3.1075032 -2.085501 -0.12926328 1.208634 1.1057887 -1.6964939
-0.532205 -1.4453092 -1.1730194 0.68488616 -2.8049188 0.29436642 1.4314243 0.4624255
-0.17422332 -1.0428944 -1.2986813 -1.3643059 2.8577304 -1.0469633 0.58176565 -4.553351
-0.18313661 0.12792595 -0.060032435 -0.568494 -0.45691878 -1.0616761 1.5649171 0.6907712
-4.207909 -3.257849 -1.9811679 0.3192241 1.8023851 -2.5357554 1.1984677 1.4739094
0.22148484 1.0413215 3.6850696 -3.2717118 0.058509264 -2.019235 0.44443747 -0.9819907

layer2.0.bias f4 [32]
00000000: 4ca0 ea3f a173 493f b364 b63f c889 453e
00000010: 6918 e33e 8043 613f 39ae da3f a944 9a3e
00000020: e74a a53f 24a4 823e 1008 843f 75d1 17bd
00000030: a441 483e 71b8 1d3f 8d5c db3f fda8 4a3f
00000040: c7b3 413e 07ae 493e 6abf 6c3f ec3f 743f
00000050: 5677 073e c556 e03f 0847 bf3f f2eb bc3f
00000060: 4917 b43f 7cff 023d c348 6d3f a216 943f
00000070: 12f5 2c3e fcd8 ed3f 11e7 543f a390 303e
1.8330169 0.7869206 1.4249481 0.1929084 0.4435456 0.8799362 1.7084419 0.3013051
1.2913483 0.25515854 1.031496 -0.03706499 0.1955629 0.6160956 1.7137619 0.79164106
0.18916236 0.19695292 0.92479575 0.9541004 0.13229117 1.752648 1.4943552 1.4759505
1.4069606 0.03198193 0.9268915 1.1569407 0.16890362 1.8581843 0.8316508 0.17242675

layer2.1.weight f4 [32]
00000000: 0eed fc3e bd24 fc3e 96b0 123f ea8b 893e
00000010: 4c96 653e a979 173f 48a6 153f bcaf 113e
00000020: fc5c d43e 8bea 673e f51a f63e c334 6a3f
00000030: b19f 343e 741b 3a3f d22c 233f bab7 823f
00000040: 91a5 573e 9fc0 923e f588 4e3f 6a94 0b3f
00000050: c64b 2c3e a208 263f 6e8a e53e 4d2f df3e
00000060: 4fc7 283f e23e 8b3e a64a 2d3f 2168 1c3f
00000070: 8ebb 8a3e 3775 0b3f 996b fb3e cfd3 813e
0.49399608 0.4924678 0.573007 0.26864558 0.22420615 0.59170014 0.5845685 0.14227194
0.4147719 0.22648065 0.48067442 0.9148676 0.17639042 0.7269814 0.63740265 1.0212319
0.21059252 0.28662583 0.8067773 0.54523337 0.1682578 0.6485692 0.44832176 0.43590775
0.6592912 0.27196413 0.6769203 0.6109639 0.27096218 0.5447573 0.49105528 0.2535691

layer2.1.bias f4 [32]
00000000: b912 04bf ec65 ffbe ebda 3ebf c277 3bbf
00000010: 18df 2fbf b40d 46bf 87b6 36bf 900b 53bf
00000020: c74e fcbe 8eed 43bf 544f 04bf 6519 00c0
00000030: 0b96 68bf 927a 9cbf 97d5 47bf 0465 c9bf
00000040: 9430 44bf b73a 20bf f542 81bf 9349 1ebf
00000050: 92cf 12bf d0d7 55bf b1c2 39bf 3284 e8be
00000060: fb30 83bf a79f 26bf cc37 7fbf 0aed 47bf
00000070: a442 30bf 6461 0abf 3427 2abf dcd3 52bf
-0.5159107 -0.49882448 -0.7455279 -0.7322961 -0.6869979 -0.7736466 -0.71372265 -0.8243952
-0.49278852 -0.76534355 -0.51683545 -2.00155 -0.9085395 -1.2224905 -0.7806029 -1.5733953
-0.76636624 -0.6258959 -1.0098559 -0.61831015 -0.5734798 -0.8353243 -0.725627 -0.45413357
-1.0249323 -0.6508736 -0.99694514 -0.7809607 -0.68851686 -0.54054856 -0.6646607 -0.8235452

layer2.1.running_mean f4 [32]
00000000: 1bc1 b1c2 0a63 86c2 6242 8dc2 12ee 32c2
00000010: b449 b8c1 a28a 60c2 d392 86c2 3043 fac1
00000020: 8493 5bc2 8276 ffc1 4b2c 5ec2 4de9 53c2
00000030: c476 1dc2 0ccf 80c2 cdbe b0c2 d990 98c2
00000040: 8ab9 9ec1 3dd6 90c1 af06 6bc2 5901 dec2
00000050: 2ae8 18c2 3d7d 8bc2 651d 87c2 3816 92c2
00000060: 49ce 2ac2 0751 bac1 4bb3 54c2 1b87 8bc2
00000070: 46bf d6c1 67bc c4c2 3abd 8ac2 92ba 1cc2
-88.87716 -67.193436 -70.629654 -44.73249 -23.035988 -56.135384 -67.286766 -31.282806
-54.89406 -31.932865 -55.543255 -52.977833 -39.365982 -64.40439 -88.37266 -76.282906
-19.840595 -18.104609 -58.756527 -111.00263 -38.226723 -69.744606 -67.55741 -73.043396
-42.70145 -23.289564 -53.17509 -69.76388 -26.843395 -98.36797 -69.36958 -39.182198

layer2.1.running_var f4 [32]
00000000: 1664 ca45 d77a e745 a3f8 9a45 8e7c 3f44
00000010: 36df 7443 e9ca 8f45 500a a845 9d3d d543
00000020: 9732 8045 cfa9 e143 9de7 b045 bc0c ea45
00000030: 1d3f 5644 ae87 b245 0e8a d045 9695 bd45
00000040: 87d0 9043 1f64 1343 2eaf a345 a912 e145
00000050: b551 3d44 dcb9 a545 eb0a 8445 7a25 aa45
00000060: e033 4545 592c 5543 0a50 b545 ec3f ab45
00000070: 608f 8e43 ea33 da45 09b7 bc45 4016 2744
6476.5107 7407.355 4959.0796 765.94617 244.87192 4601.364 5377.289 426.48135
4102.3237 451.32663 5660.9517 7489.592 856.98615 5712.96 6673.257 6066.698
289.62912 147.3911 5237.8975 7202.3325 757.2767 5303.2324 4225.3647 5444.6846
3155.2422 213.17323 5802.005 5479.99 285.12012 6982.4893 6038.8794 668.34766

fc.weight f4 [7, 4608]
00000000: ad0a 28c0 1bcc 933e 56cd 983e a087 9bbe
00000010: 4e01 ad3f c976 34c0 1bdb 5dc0 17d3 873f
00000020: f084 fcbf 2a83 a3bf 3436 c53e cb45 cabf
00000030: 39bc 7abf 70fc a0be 8a8e 14c0 051f a13e
00000040: 1040 0b3f 835f 4abf 61f8 9c3f 97ee 1dbd
00000050: 9df2 e43e f547 cc3e 20ed d0bf 3fd9 ffbf
00000060: c026 bebe 84cf 913e 2928 e13e 83d1 543f
00000070: e3e9 bfbf 1deb c63e 8dd3 5bbf 6659 82be
00000080: f693 56bf 8aa8 13c0 9553 40bf 16a2 893e
00000090: d662 03bd e387 3a3e b7f0 f6bf c129 10bf
000000a0: d712 1c3f 0f4a c9bf 52b8 f9be 377c ac3f
000000b0: 4924 f0be cc25 b3bf 7355 1d3d 0d91 f4bf
000000c0: 1f45 58be d64d 21ba 77af 88bf 6f19 9dbf
000000d0: 5701 a8be dd84 f8be 56b7 333f 2a49 9bbf
000000e0: 0d8e 19bf 6dee b8bf 0cea b03e d1d9 1e3f
000000f0: 8352 0c40 ee5a 3940 d262 783f d90c e5bd
00000100: a2cb db3f 19f1 00bf 2f35 043f 1907 5fbc
00000110: b77b 03bf 250c 93bf f329 ab3f 3137 bcbf
00000120: b39f ccbf 4d3f 9fbe 3b54 bc3e 4bea 5e3f
00000130: 17a7 c0bd 5b99 0d40 4ca2 85bf 656d babe
00000140: 4dd0 b6bd 4ddd e43f ca94 e3bd 4068 8540
00000150: 085a 97be 11f3 dd3e 1f78 953f 4d1f c7be
00000160: ff87 213f e518 e8bd a669 133f 171f 0cbe
00000170: f8d3 d73f 3fb1 1ebf 1671 9b3e 2547 57bf
00000180: 47e4 ab3d 6a90 d1be 3c84 973f f4aa dfbe
00000190: c18e 0a40 e748 b23d 9b47 01bf b736 0f3f
000001a0: 621e aa3f d2b2 b1bd 12bb 8ebc c2b6 e7be
000001b0: 6600 343f 4df5 de3f cbe0 b4be 0ca0 053f
000001c0: b088 81bf 4025 2a3f f7b2 c8bc 246f 693f
000001d0: 726f 6d3f 3df8 173f bbdf 31be e748 843f
000001e0: 6b84 63bf ece8 733d b9fd 0abf 3464 12c0
000001f0: e312 903f 3386 1bc0 d29a cc3f f9da 493f
00000200: 453f 973f f0d1 b9be 1409 f8be cbc3 073f
00000210: 2d0b 393f ac2e 3c40 4347 99bf b22d 07be
00000220: d8a9 e2be 3fb2 5d3f 0a5a 5c3f c22e 7abf
00000230: e733 913f eb93 45c0 1bdf 103f f0ed 9bbf
00000240: 4fb0 22bf 4791 d9be c00b 523c 98b0 11bf
00000250: 5646 4e40 44b6 3bc0 8d38 ce3f e3af b23f
00000260: 7f4c 023f 5054 743e c238 d2be 80f7 1cc0
00000270: 1ba2 0440 3edd 523f 8143 9c3f 25fe 883f
00000280: b783 b13f 7177 183f dec5 803e 61e1 2840
00000290: 29ad 9fbe c92a aa3f 5a90 243f 2890 2640
000002a0: 2b59 623e 8781 6f3e 8711 d13e 6552 503f
000002b0: d9a1 943f 1d5b 04bf e577 0240 cb48 b43f
000002c0: f5c0 603f 7e19 cb3f 782e 4fbd 67ad 81be
000002d0: 5192 d2bc ae26 edbf 1015 28be f783 2240
000002e0: df9a dd3f 5302 54bf 31a4 ba3e ad14 ca3f
000002f0: 3896 533f 8964 a43f 4d35 8c3f e3e0 183e
00000300: 7f74 243f 9183 17bf a38b ae3e 2cea 9d3f
00000310: 39f8 b93f 3821 07bf 4077 9a3f 5113 e63e
00000320: dc4d c73e f96c 2d40 1450 8ebf a34c d43e
00000330: 493b 0640 6537 983e 063f 1fbf ad6c 2a3f
00000340: 8307 c3be 2403 88bf 6501 bd3e bb86 afbc
00000350: 1d3e 003e ddf1 18bf b1a9 21bf a063 4740
00000360: cd10 c83f 74c1 57c0 0b98 d7bf 744f 893e
00000370: 0cfb dcbf 6150 44bf 34ef 753f 3334 13bf
00000380: c54f 37c0 cfe6 c33e 3249 3fbf 9ba0 75c0
00000390: 2e37 0140 2452 083f 034c 99bf b299 22c0
000003a0: 42af 7dbf ac20 bdbd 4a05 bbbf c80d 0dc0
000003b0: 7794 20c0 fa8c 783e 94cf 14c0 4570 a53e
000003c0: 9b9b a83f 9ec0 74c0 26cc 9cbe 79b9 4abf
000003d0: 9208 e0bf e721 b8bf fcd9 0abf f07e 5ec0
000003e0: bf86 b5bf 0b0c 703f 6361 76bf fa74 3ebf
000003f0: 60d7 92bf f2c6 ff3e 07e0 84be 360c a93d
-2.6256516 0.28866658 0.2984416 -0.3037691 1.3516023 -2.81975 -3.4664981 1.0611295
-1.9728069 -1.2774403 0.38517916 -1.5802549 -0.97943455 -0.31442595 -2.3212 0.3146898
0.54394627 -0.7905199 1.2263299 -0.038557615 0.4471635 0.3989865 -1.6322365 -1.9988173
-0.3713894 0.28478634 0.43975952 0.8313219 -1.4993252 0.38851252 -0.85869676 -0.2545883
-0.8381952 -2.3071618 -0.75127536 0.26881474 -0.03207668 0.18215899 -1.929221 -0.5631371
0.6096625 -1.5725726 -0.48773438 1.3475407 -0.46902683 -1.399591 0.03841157 -1.9106766
-0.21120118 -0.0006153261 -1.0678548 -1.2273387 -0.32813522 -0.48538867 0.70201623 -1.2131703
-0.5998238 -1.4447762 0.34553564 0.6205111 2.192536 2.896175 0.9702579 -0.11184091
1.7171519 -0.50367886 0.5164365 -0.013612532 -0.5136065 -1.1488081 1.3372177 -1.4704343
-1.5986236 -0.31102982 0.36783013 0.8707625 -0.0940687 2.212485 -1.0440154 -0.36411586
-0.08926449 1.7880036 -0.11112364 4.168976 -0.29560876 0.43349507 1.1677283 -0.38891068
0.6309814 -0.11332873 0.5758308 -0.13683735 1.6861563 -0.61989206 0.30359715 -0.8409293
0.0839315 -0.40930492 1.183723 -0.43685114 2.164963 0.08705311 -0.50499886 0.55942863
1.3290522 -0.086766854 -0.017423186 -0.4525662 0.7031311 1.741861 -0.35327753 0.5219734
-1.0119839 0.6646309 -0.0244994 0.9118521 0.9274818 0.59363157 -0.17370503 1.0334748
-0.8887393 0.059548303 -0.542934 -2.287366 1.1255764 -2.4300659 1.5984747 0.7884975
1.1816183 -0.36292982 -0.48444426 0.5303313 0.7228268 2.9403486 -1.1974872 -0.13201025
-0.44270205 0.86600107 0.8607489 -0.97727597 1.1343964 -3.0871532 0.5659043 -1.2181988
-0.63550276 -0.4249365 0.012820184 -0.56910086 3.223043 -2.9329996 1.6111008 1.3959926
0.50897974 0.23860288 -0.41058928 -2.4526062 2.0723941 0.8236884 1.22081 1.0702559
1.3868321 0.59557253 0.2515096 2.638756 -0.31186798 1.3294307 0.64282763 2.6025486
0.22104327 0.23389255 0.40833685 0.81375724 1.1611892 -0.5170153 2.0385678 1.4084715
0.8779443 1.5867155 -0.050581425 -0.25327608 -0.025704535 -1.8527429 -0.16414285 2.5393045
1.7312888 -0.82816046 0.36453393 1.578756 0.8265109 1.2843181 1.0953766 0.14929537
0.6424026 -0.5918513 0.3409091 1.2337089 1.4528877 -0.5278506 1.2067642 0.44936612
0.3892659 2.7097762 -1.1118188 0.4146472 2.0973685 0.29729763 -0.6220554 0.66572076
-0.38091668 -1.0625958 0.36915126 -0.02142655 0.12523694 -0.59744054 -0.63149554 3.1154556
1.5630127 -3.3711824 -1.6843275 0.2681843 -1.7264113 -0.7668515 0.9606812 -0.57501525
-2.8642437 0.3826203 -0.7472106 -3.8379276 2.018993 0.53250337 -1.1976322 -2.5406308
-0.9909555 -0.09234747 -1.4610989 -2.2039661 -2.5090616 0.24272528 -2.3251696 0.32312217
1.3172487 -3.8242564 -0.30624503 -0.7918926 -1.7502615 -1.4385346 -0.5423887 -3.4764977
-1.4181746 0.93768376 -0.9624235 -0.7439724 -1.1471977 0.4995647 -0.2595217 0.08254282

fc.bias f4 [7]
00000000: a4ff 723e 6c3b 27c0 20bf 8e3d 4c13 953d
00000010: d16b 803e 1281 7a3f 0cc7 adbf
0.23730332 -2.6130018 0.06970048 0.07279071 0.25082257 0.97853196 -1.3576369
