FaceExpressions_CNN/savemodel/model_78.pth (torch_old, 185408 bytes, 14 tensors)

layer1.0.weight f4 [16, 1, 5, 5]
000000 27 c5 40 3f f5 fa 17 40 ac b8 66 40 28 37 63 40
       0.7530083 2.3746922 3.6050215 3.5502415
000010 6b 21 68 40 43 ac 88 40 54 d2 a2 be 5f 22 21 bf
       3.6270397 4.271028 -0.31801093 -0.6294307
000020 84 b1 10 bf 81 63 16 be a9 6c 8e 3f 84 92 36 c0
       -0.5652087 -0.14686395 1.112691 -2.8526926
000030 ca a1 a7 bf 90 d2 bd c0 d1 30 fe c0 e6 ad ef 3f
       -1.3096249 -5.9319534 -7.943459 1.8724945
000040 55 56 ad bf 44 4c 73 3e 65 2d 69 c0 2a 98 1c c0
       -1.3541971 0.23759562 -3.6433957 -2.4467874
000050 5b a1 cf 3f fb 78 55 c0 ba 3b 14 40 a7 26 73 3e
       1.6221117 -3.335509 2.3161454 0.23745213
000060 a5 c6 03 40 af ad 6f bd 83 f1 70 c0 36 6f be bf
       2.0589993 -0.058515247 -3.7647407 -1.4877689
000070 41 cc 51 40 bf 82 8d 40 fb ad 51 bf 9d e7 d1 bf
       3.2780917 4.42221 -0.819061 -1.6398808
000080 78 ba b3 3f b9 cf ae 3f 34 7d c2 bf 54 22 b8 be
       1.4041281 1.3657142 -1.5194459 -0.3596369
000090 9e bd 0b c0 06 df d7 bf 50 3b 01 c0 dd 94 1e c0
       -2.1834483 -1.6864936 -2.0192451 -2.477836
0000a0 68 49 05 c1 88 19 2a c0 dc 37 1f c0 5c 18 d5 c0
       -8.330421 -2.6578083 -2.4877844 -6.6592236
0000b0 8f 28 c8 3f b3 6b 7f 3f c5 ba 23 3f ca 1e 8f bf
       1.5637378 0.9977371 0.6395686 -1.1181271
0000c0 7d 20 84 3f 38 c2 ff 3f 0c 33 2c c0 5a 28 11 c0
       1.0322415 1.9981146 -2.6906157 -2.2680879
0000d0 9d 0e 2a 40 ea 7f df 3e 6a 93 87 c0 c4 e0 00 40
       2.657142 0.43652278 -4.236745 2.0137186
0000e0 cc 9d 3f 40 9f f8 fa 3f ba 0c b3 40 be 83 4b be
       2.9940062 1.9607123 5.5953035 -0.19874474
0000f0 97 a1 07 be 11 a5 94 40 4d a3 1d c0 52 a8 d1 40
       -0.13245235 4.6451497 -2.463092 6.551797
000100 47 0a 30 3f 32 cc 8f c0 e8 e7 5b 40 38 3d 82 bd
       0.6876568 -4.493676 3.4360294 -0.06359333
000110 8c 8f cf 40 1f ea 8a 3f 2f 97 e8 bf a8 f1 db 3e
       6.486273 1.0852698 -1.8171138 0.42957807
000120 95 f9 80 bd 29 23 dc be 14 aa 3f c0 01 96 82 40
       -0.06297604 -0.42995575 -2.9947557 4.080811
000130 a0 50 cc 3f db ba 3e c0 4b 68 ee be cc e6 9d 3e
       1.5962105 -2.9801548 -0.46563944 0.30840147
000140 da 50 46 40 d2 62 ac c0 41 7c 72 c0 21 5d 4e 3f
       3.0986848 -5.387063 -3.7888339 0.80610853
000150 5e 36 0c be ce e6 35 c0 16 66 ed c0 72 a1 63 3e
       -0.13692614 -2.8422122 -7.4187117 0.22229555
000160 05 a4 b2 be 67 8a 4c c0 35 0a 0d c0 05 c1 31 40
       -0.34890762 -3.1959474 -2.203748 2.777406
000170 3d b7 4e 40 75 ad 4e 40 58 cc 23 40 8c c8 28 3f
       3.229934 3.229337 2.5593472 0.6593101
000180 37 e6 c2 3f cf dd 34 3f 4f d4 be 3e ed 59 0b 40
       1.5226506 0.70650953 0.37271354 2.1773636
000190 c5 80 1c 40 49 13 d6 bf c3 b6 16 c0 99 4c 50 c0
       2.4453595 -1.6724635 -2.354905 -3.2546751
0001a0 4e 8e d6 3f 6f 4b cd 3f 34 cf f1 bf 40 8e bd 3e
       1.6762178 1.6038646 -1.8891358 0.3702259
0001b0 92 aa d8 bf 92 34 f3 bf e0 79 4e c0 21 5e 6f bf
       -1.6927054 -1.9000418 -3.2261887 -0.93503004
0001c0 c8 8a 05 40 df c3 9a c0 6c 1e e7 c0 b9 8e 40 3f
       2.0865955 -4.83641 -7.2224636 0.7521778
0001d0 32 c8 6a 3f 29 30 f0 bf 49 c0 3c c0 c2 1a 0b c0
       0.91711724 -1.8764697 -2.9492362 -2.1735082
0001e0 bf ee 9c 40 e4 35 b3 40 cd a3 eb 3f 9e f9 f1 3f
       4.904144 5.6003284 1.8409363 1.8904302
0001f0 9d a6 fa 3e 01 78 90 bf dd 6b c3 c0 1b 07 dd c0
       0.4895524 -1.1286622 -6.106917 -6.9071174
000200 5b 74 11 c0 c3 1d cb bf d6 41 b4 3c 20 62 58 bf
       -2.2727268 -1.5868458 0.02200405 -0.84524727
000210 cd 60 3c c0 68 03 2c c0 ad 39 30 c0 b8 8a 9f 3f
       -2.9434083 -2.687708 -2.7535203 1.2464209
000220 8e e2 c4 3e 24 6c 00 40 fd 14 85 40 34 27 91 bf
       0.38454098 2.0066004 4.158812 -1.1340089
000230 51 13 89 bf da 37 dc 3e 35 49 4a 40 40 89 6e 3f
       -1.070902 0.4301136 3.1607182 0.93178177
000240 fd 56 99 3f f5 36 9a 40 7f 6d e5 3f fd ef 00 40
       1.1979672 4.8192086 1.792404 2.0146477
000250 c4 c0 6f be 78 c6 9d 40 04 1f 06 3f ab 37 02 c0
       -0.23413378 4.930477 0.52391076 -2.0346477
000260 06 59 67 bf bc c6 36 40 58 de 8d 3d ec d4 a7 3f
       -0.90370214 2.8558798 0.06927174 1.3111854
000270 41 0c 3e bf c5 32 99 c0 d1 20 df 3e bc 75 9e 40
       -0.7423745 -4.7874475 0.43579724 4.951872
000280 79 25 9a 3f 32 23 23 40 bf ab b4 c0 5b eb b7 c0
       1.2042686 2.5490232 -5.645965 -5.74748
000290 81 a7 6f 40 3b dd c8 be 5b 51 4c 40 49 21 0c 40
       3.7445986 -0.39231285 3.1924655 2.1895316
0002a0 fd 3f 97 c0 3f 8d cd bf 83 a2 f5 be 2b 72 12 3f
       -4.726561 -1.605873 -0.4797555 0.57205456
0002b0 d4 8b 2d 40 57 13 5a 3e ad 96 65 be f0 03 80 3e
       2.7116594 0.2129644 -0.2242076 0.25003004
0002c0 03 3b d9 3e 67 f5 55 c0 2b 4c 51 c0 38 0b 67 bf
       0.42427835 -3.3431032 -3.270274 -0.90251493
0002d0 75 00 0d c0 87 3b 20 3f d5 85 b5 bf 6a 87 5a 3f
       -2.203153 0.6259083 -1.4181467 0.85362875
0002e0 14 a5 55 3f 2f fb 34 c0 fa 14 f2 40 2b c7 ea 40
       0.83455014 -2.827831 7.5650606 7.3368125
0002f0 20 a6 ca 40 05 f0 71 40 96 f8 df be f8 08 3a 40
       6.332779 3.7802746 -0.43744344 2.9067974
000300 26 20 d0 be 8a 33 7f 40 fd 7d 50 c0 dd 56 18 40
       -0.40649527 3.9875207 -3.2576897 2.3803017
000310 23 36 5e 3f fb ca fa bd 85 43 eb 3f e1 1c 83 c0
       0.86801356 -0.12245747 1.837998 -4.0972753
000320 a6 e3 1a c0 32 13 33 bd a7 21 83 be 41 f7 71 c0
       -2.4201446 -0.043719478 -0.25611612 -3.7807162
000330 4c 88 1d c0 24 e6 0f 40 b7 12 84 bf e8 6e 24 bf
       -2.461444 2.2484217 -1.0318211 -0.6423173
000340 83 b1 e1 bf 17 7b 7c 40 6e 6f ae 3c 1d aa bc 3f
       -1.7632297 3.9450128 0.021293368 1.4739414
000350 ec b4 ee 3f 98 a9 87 40 a7 4a b0 be fa 35 8b 3f
       1.8648963 4.2394524 -0.34431955 1.0875847
000360 d6 8e 47 40 df a3 64 40 1b c8 5c 40 38 0c ad c0
       3.118093 3.572502 3.4497135 -5.4077415
000370 68 c1 e0 3e a8 69 2a 3e 38 b5 56 40 7f f9 e7 3f
       0.43897557 0.16641867 3.3548107 1.8123015
000380 72 ac c9 c0 34 ed 92 3f 0d 6d 04 c0 82 85 10 bf
       -6.3023005 1.1478639 -2.069156 -0.56453717
000390 7e b9 18 3f 43 54 07 be 87 0b e7 bf ac b9 c0 bf
       0.5965804 -0.13215737 -1.8050393 -1.5056663
0003a0 51 84 8f 40 1b 88 28 40 a6 9e 12 40 9f 92 d0 3e
       4.484902 2.6333072 2.2909331 0.40736863
0003b0 b2 0a b4 3e bd 8e eb 40 96 1b a1 3e 44 3f 98 c0
       0.3516441 7.361174 0.3146636 -4.757723
0003c0 13 85 eb bf c5 32 3d 40 ab e2 d8 40 b8 cb 1f c0
       -1.8399986 2.9562237 6.7776694 -2.496809
0003d0 76 c1 a9 c0 a5 48 30 c0 04 70 c5 3e 46 80 aa bf
       -5.304866 -2.7544339 0.38562024 -1.3320396
0003e0 6e 8a 66 bf b4 75 94 bf 69 06 7b 40 e0 8d 32 3f
       -0.90054977 -1.159842 3.9222662 0.69747734
0003f0 13 e4 55 c0 3e b6 d4 bf 11 e1 0f 40 a2 cc 56 bf
       -3.3420455 -1.6618116 2.248112 -0.83905995

layer1.0.bias f4 [16]
000000 a7 1d 85 3e 7b 41 18 41 a6 a7 8a 3e d3 22 5d c0
       0.25999185 9.515986 0.2708103 -3.4552505
000010 85 cc 64 40 04 ad 2c c0 bd ac 99 bd e3 38 09 40
       3.574983 -2.69806 -0.0750365 2.144097
000020 14 9a cc 3f 4d fe 6b bf 63 6b 95 3e b0 db 42 3f
       1.5984521 -0.9218491 0.29183492 0.76116467
000030 80 90 c3 40 37 77 40 bf 71 5f 1e 40 b2 da 4a 3e
       6.111389 -0.7518191 2.4745753 0.19809988

layer1.1.weight f4 [16]
000000 bc f5 72 40 91 42 49 40 11 d3 72 40 3c 4d 3a 40
       3.7962484 3.144688 3.7941325 2.910964
000010 1c e4 46 40 59 c8 7c 40 a0 b8 46 40 1b 37 53 40
       3.1076727 3.9497283 3.1050186 3.3002384
000020 4e 71 e3 3f b5 07 1c 40 aa f1 4b 40 89 59 4e 40
       1.7768953 2.4379704 3.186625 3.2242148
000030 13 b7 81 40 64 28 42 40 83 c6 1e 40 77 d6 bb 3e
       4.053598 3.0337152 2.4808662 0.3668706

layer1.1.bias f4 [16]
000000 b6 df 77 c0 9d b4 36 c0 b5 97 98 c0 15 a5 c3 bd
       -3.8730292 -2.8547738 -4.768519 -0.09552971
000010 38 83 1c c0 70 7e 27 c0 eb f3 85 bf af 66 33 c0
       -2.445509 -2.6170921 -1.0465063 -2.8031423
000020 f0 56 82 3f 40 e6 9a bf a8 a1 94 c0 2d 02 27 c0
       1.0182781 -1.2101517 -4.6447334 -2.6095078
000030 ea b5 96 c0 4a 4a cd be 1a 8c a1 bf bc 32 af bf
       -4.7097063 -0.4009574 -1.2620881 -1.3687358

layer1.1.running_mean f4 [16]
000000 93 ad b2 bf 54 6b d6 bf 9c 61 0f 41 ea 64 88 c0
       -1.3959221 -1.6751504 8.96133 -4.2623186
000010 36 14 0b c0 be a6 75 c0 3d ec 0b bf 5f 0c 2f 41
       -2.1731086 -3.8383021 -0.54657346 10.94052
000020 2a 10 a3 40 41 bd 6e 3f 2c f9 04 3e e1 ef 11 3f
       5.095723 0.9325753 0.12985677 0.5700665
000030 01 bd ba c0 d1 e6 99 bf 12 da 74 40 ac c1 6a c0
       -5.835572 -1.2023565 3.82581 -3.6680708

layer1.1.running_var f4 [16]
000000 a4 25 26 41 d9 e4 06 42 60 1c b5 41 bd 43 9c 40
       10.38419 33.723484 22.638855 4.883269
000010 3d 4f 9b 41 d4 25 90 41 8e 6b 23 40 81 d2 b5 41
       19.41369 18.01847 2.5534396 22.727785
000020 bd bf 06 41 05 e9 c4 40 96 c6 ab 40 42 25 7e 41
       8.421811 6.153445 5.3679914 15.884096
000030 6c ef 4f 42 ed 39 28 41 70 ec 97 40 a2 25 57 40
       51.98381 10.514142 4.747612 3.361672

layer2.0.weight f4 [32, 16, 5, 5]
000000 54 ce 7c c0 52 81 37 c0 bd 48 6c c0 db 26 fb c0
       -3.9500933 -2.867268 -3.6919396 -7.848493
000010 7b 7d 8d bf e4 ea ba c0 05 b2 65 c0 85 89 1d c0
       -1.1053919 -5.841173 -3.5889904 -2.4615185
000020 7d c1 95 c0 71 f2 df 3f ad e6 f8 3f 82 61 b8 3e
       -4.679869 1.7495862 1.9445397 0.36011893
000030 79 fb ab c0 16 ea 10 3f 72 17 f1 3f 73 e3 86 bf
       -5.3744473 0.56607187 1.883528 -1.0538162
000040 8c 9c 46 c0 da 4a 1f 3f 6f bb 3a 40 58 69 ed bf
       -3.1033049 0.6222359 2.91769 -1.8547773
000050 cb 86 23 c0 c3 1e 19 c0 df b3 b3 3f d6 f9 a3 bf
       -2.555102 -2.3925025 1.4039267 -1.2810619
000060 66 81 09 40 b1 29 83 c0 27 6c fa bf d0 00 56 c0
       2.1485229 -4.0988393 -1.9564255 -3.3437996
000070 da 8b 1b c0 bd 50 52 3f 2b 01 00 c0 f6 ee 7d 3f
       -2.4304109 0.82154447 -2.0000713 0.9919275
000080 1b 15 1c bf f3 eb b3 3f 38 4c 01 41 97 40 a5 3f
       -0.60969704 1.4056381 8.081108 1.2910336
000090 d4 eb 1d 40 4f 8b b8 bc 57 43 af c0 e1 ec b0 3f
       2.4675188 -0.022527365 -5.47697 1.382229
0000a0 33 f3 9f bf 33 55 2a 40 7a d0 84 40 b8 90 a3 bf
       -1.2496094 2.6614501 4.150449 -1.277854
0000b0 3e 9d 77 3f b4 94 e4 3f ac 08 9b 3f d0 d3 76 bf
       0.9672431 1.785788 1.2112021 -0.9641695
0000c0 75 f0 c5 c0 20 e6 89 3f 91 82 cb 3e e5 2a ce 40
       -6.1856027 1.0773354 0.39748052 6.442736
0000d0 66 a3 1c c0 29 1d 03 c0 c3 9e 15 c0 53 86 04 bf
       -2.447473 -2.0486548 -2.337815 -0.5176746
0000e0 8d 1e 8c bf 01 4a e6 c0 79 0e c1 be f8 59 a9 3f
       -1.0946823 -7.1965337 -0.37706354 1.3230581
0000f0 be 3f ad c0 27 b8 3c 40 2c bd 85 be ea ab 70 3f
       -5.414031 2.9487398 -0.2612089 0.9401232
000100 3b 5f 27 bf e1 8e 52 bf 60 e7 18 40 75 33 12 40
       -0.65379685 -0.82249266 2.389122 2.2843907
000110 6e 7d 6d 40 12 cd f4 3e 4d a1 29 c0 3f 66 df bf
       3.7107806 0.47812706 -2.65047 -1.7453078
000120 b3 13 07 bf 1e 52 b8 c0 5e d4 7a c0 d4 f3 b0 3f
       -0.52764434 -5.760024 -3.9192119 1.382441
000130 e7 c5 87 bf 3b d8 03 c0 36 18 a8 bf d5 5b 7b c0
       -1.060727 -2.0600727 -1.3132389 -3.92748
000140 83 ee 14 c0 aa 81 84 c0 59 50 e7 c0 1d 87 75 be
       -2.3270576 -4.140828 -7.228558 -0.23977323
000150 cd 3b c9 3e 28 35 99 40 63 19 15 40 de c4 12 c1
       0.39303437 4.787739 2.3296745 -9.173063
000160 dc 44 e6 c0 6a 90 62 3f 53 98 cd be 78 b7 87 3f
       -7.1959057 0.8850161 -0.40155277 1.0602865
000170 9b 3b 21 c0 5b 91 b2 3f c0 ad af bf c5 9e ad 3d
       -2.519263 1.3950609 -1.3724899 0.084775485
000180 fa db 24 40 37 4b 32 c0 0c 59 8f 3e a3 00 2a 40
       2.5759263 -2.7858407 0.27997625 2.6562889
000190 f0 3a c2 3d 1c 61 91 40 8f bd 4d c0 a8 0c 52 3f
       0.09483898 4.543104 -3.2146947 0.8205056
0001a0 35 33 9d be 66 1f 34 c0 aa 6a d9 c0 17 f5 2a c0
       -0.3070313 -2.8144164 -6.7942705 -2.671209
0001b0 2c 2a 46 c0 5a a8 0d c0 b5 55 35 c0 44 80 e5 bf
       -3.096324 -2.2134004 -2.8333561 -1.7929769
0001c0 a7 09 0d 40 4f b1 d1 be 15 8c 07 c0 43 1f c0 3e
       2.2037141 -0.40955588 -2.117925 0.3752385
0001d0 34 04 b6 40 dc e2 ad bd d4 a7 9d c0 3c e4 5e bf
       5.688013 -0.084905356 -4.926737 -0.8706701
0001e0 a1 f0 94 40 38 7b eb 3e d2 eb 20 c0 e2 e1 ef 3f
       4.6543736 0.45992446 -2.5143933 1.8740809
0001f0 f3 c9 ed 3f 1e 01 49 be 04 3b 5f c0 dd 67 32 c0
       1.8577255 -0.19629332 -3.487977 -2.7875893
000200 26 bd bd 3f 94 40 15 40 7f 68 fc 3f 4c bb d6 3e
       1.4823349 2.3320665 1.971939 0.4193977
000210 dd d7 00 c0 0d c5 9f be ba 2a 46 3f f4 81 25 c0
       -2.0131752 -0.31205025 0.77408946 -2.5860567
000220 bb 3e 0d bf e0 e6 61 c0 ff 51 26 c0 1f 90 5c c0
       -0.55173844 -3.5297165 -2.5987546 -3.4462965
000230 e5 48 2e 3d 2f 61 5b 40 da 4e a8 c0 64 03 22 c0
       0.042549986 3.4278066 -5.2596254 -2.531457
000240 17 61 6c 40 0c 16 12 c0 b3 38 ba 3f 48 5b 5a bf
       3.693426 -2.2825956 1.4548553 -0.85295534
000250 07 bc 7c c0 28 e9 d9 be 9d 35 83 c0 37 25 d2 40
       -3.9489763 -0.42560697 -4.1002946 6.567043
000260 2d 4e 1d bf 33 ae 70 3f 07 05 ec 3f 5c 6c ee be
       -0.6144741 0.94015807 1.8439034 -0.46567047
000270 bf 9c 2c c1 09 5a b6 bf d4 99 af 3e cd 8f 18 c1
       -10.788268 -1.4246227 0.3429705 -9.535108
000280 f8 c6 9a 40 f9 0e 1c 3f 45 06 d7 bf 3c da f2 c0
       4.836788 0.60960346 -1.6798788 -7.58914
000290 0f 76 1d 40 44 a7 e0 3f 29 7d 0c 40 25 29 73 bc
       2.4603307 1.7551045 2.1951392 -0.014841353
0002a0 00 d6 36 40 e8 d7 aa bf 51 a8 e1 3f 23 cd 1d 3f
       2.8568115 -1.3347139 1.7629491 0.6164114
0002b0 44 bc 24 c0 82 86 95 3e 82 4a db bf a6 76 be 3f
       -2.5739908 0.29204184 -1.7132113 1.4879959
0002c0 50 02 2f c0 76 6b 25 c0 22 45 18 40 8a 06 d2 3f
       -2.7345161 -2.584684 2.3792195 1.6408246
0002d0 ae d7 b6 40 24 9a 9a 3f f3 c5 8e bf 7c c6 d9 be
       5.713828 1.207829 -1.1154159 -0.42534244
0002e0 cd 63 06 c0 6d 37 29 c1 49 b5 85 c0 8b cb a5 bf
       -2.0998414 -10.576032 -4.1783795 -1.2952741
0002f0 68 e4 8d c0 e7 fd 3e bc a2 1e 17 c0 d5 97 0a bf
       -4.4341316 -0.011657215 -2.3612447 -0.5413793
000300 51 fb c3 bf 4b 5d 42 bf 1f 11 5d 40 9a 2c 16 bf
       -1.5311071 -0.75923604 3.45417 -0.58661807
000310 b4 d7 57 3f d0 34 6e 3f cf 00 49 3f 56 f2 88 40
       0.8431351 0.93049335 0.7851686 4.279582
000320 9f 64 a1 bf 04 41 11 3d ca 79 94 3e 7e 71 c1 3f
       -1.2608832 0.035462394 0.28999168 1.511276
000330 2f b1 9d bf 08 df aa bf 50 6c 5b c0 a9 ef 2a 40
       -1.2319697 -1.3349314 -3.4284859 2.6708777
000340 07 22 a7 3e b2 ed f9 bf 27 f7 6e c0 c8 32 37 c0
       0.32643148 -1.9525664 -3.733835 -2.8624744
000350 82 61 80 3d 58 7f 36 40 f3 3d 13 40 45 48 cf be
       0.06268598 2.8515224 2.300656 -0.40484825
000360 77 4b 35 bf 24 e4 2b c0 57 c7 8b c0 fb e8 06 40
       -0.70818275 -2.6857996 -4.3680835 2.10797
000370 d1 cc 4f c0 51 52 e2 3d 3b 22 e3 3f 70 18 0f be
       -3.246876 0.11050857 1.7744821 -0.13974166
000380 1e bf 96 3f 7b 95 2d c0 55 50 1a 3f 89 1e 49 c0
       1.1777074 -2.7122486 0.60278827 -3.1424887
000390 ee f9 87 40 90 c3 ca bf d9 5c 4f be ba 65 e7 c0
       4.249259 -1.5840931 -0.20250262 -7.231168
0003a0 0a c5 c0 3f 5b 30 88 bf d6 e5 2a be e7 d4 a0 bf
       1.5060132 -1.0639757 -0.16689238 -1.2564973
0003b0 5e 54 6a c0 55 d5 b8 3e 40 c6 37 40 5b 7e ed 3f
       -3.6613994 0.3610026 2.8714752 1.8554186
0003c0 97 cb ab c0 bb c6 6e c0 de be 47 c0 c0 8c 87 bf
       -5.3686023 -3.7308795 -3.1210246 -1.0589828
0003d0 2d 01 a8 3f 39 a0 52 c0 e4 8e f6 3f 11 82 04 40
       1.3125359 -3.2910292 1.9262357 2.0704386
0003e0 f0 b8 ae 3f 36 cb 35 3f da 11 83 40 07 e0 92 c0
       1.3650188 0.710132 4.095929 -4.589847
0003f0 4b c8 0d 40 e7 d4 19 c0 67 fe 5f 3e 6b 04 61 3f
       2.21535 -2.4036195 0.2187439 0.87897366

layer2.0.bias f4 [32]
000000 07 d4 41 40 0f ea 9b 3f 90 9e 12 40 c8 89 45 3e
       3.0285661 1.2180804 2.290928 0.1929084
000010 69 18 e3 3e 3e a8 ad 3f dc c7 31 40 a9 44 9a 3e
       0.4435456 1.3566968 2.7778234 0.3013051
000020 9b ec ef 3f 24 a4 82 3e 3c d0 b2 3f 5a 62 06 3e
       1.8744081 0.25515854 1.3969798 0.13123456
000030 a4 41 48 3e 1b 92 7b 3f 3c 42 28 40 d8 7f b4 3f
       0.1955629 0.98269814 2.6290426 1.4101515
000040 c7 b3 41 3e 07 ae 49 3e 01 66 b9 3f ab 64 02 40
       0.18916236 0.19695292 1.4484254 2.0373943
000050 56 77 07 3e 29 64 20 40 46 0c 11 40 28 8f 0e 40
       0.13229117 2.5061133 2.266374 2.2274876
000060 ea 7e 06 40 7c ff 02 3d 6b 6c 9e 3f 1c 9a e6 3f
       2.1014962 0.03198193 1.2376837 1.801578
000070 12 f5 2c 3e 20 49 42 40 d6 ef 99 3f a3 90 30 3e
       0.16890362 3.0357132 1.2026317 0.17242675

layer2.1.weight f4 [32]
000000 1e 77 1c 3f 5e f5 21 3f de 20 2c 3f ea 8b 89 3e
       0.6111926 0.63265026 0.6723765 0.26864558
000010 4c 96 65 3e eb 6c 37 3f 47 14 35 3f bc af 11 3e
       0.22420615 0.7165057 0.70734066 0.14227194
000020 f1 67 ef 3e 8b ea 67 3e 28 5d 16 3f 00 0f 8d 3f
       0.46758988 0.22648065 0.58735895 1.1020203
000030 b1 9f 34 3e fa af 6a 3f 9d 88 45 3f 8e ca 9e 3f
       0.17639042 0.9167477 0.7716158 1.2405565
000040 91 a5 57 3e 9f c0 92 3e d3 c8 69 3f 57 ef 1f 3f
       0.21059252 0.28662583 0.9132206 0.6247458
000050 c6 4b 2c 3e 4c 85 62 3f 5e c3 1e 3f 1d d7 f6 3e
       0.1682578 0.88484645 0.62016857 0.48210993
000060 34 e1 4c 3f e2 3e 8b 3e 9e 10 53 3f 3c b1 47 3f
       0.8003113 0.27196413 0.8244723 0.78004813
000070 8e bb 8a 3e be 6a 22 3f 35 6d 2c 3f cf d3 81 3e
       0.27096218 0.63444126 0.67354137 0.2535691

layer2.1.bias f4 [32]
000000 ac 84 10 bf 21 48 25 bf de 60 58 bf c2 77 3b bf
       -0.5645244 -0.64563185 -0.8452281 -0.7322961
000010 18 df 2f bf a2 83 6e bf 0c e7 54 bf 90 0b 53 bf
       -0.6869979 -0.93169606 -0.8316505 -0.8243952
000020 fa dd 09 bf 8e ed 43 bf 74 f0 04 bf 2d 82 0a c0
       -0.53854334 -0.76534355 -0.519294 -2.1641953
000030 0b 96 68 bf 15 b7 be bf c5 3a 6b bf 02 91 de bf
       -0.9085395 -1.4899622 -0.9188655 -1.7388003
000040 94 30 44 bf b7 3a 20 bf 2f 8f 8d bf 5e ca 44 bf
       -0.76636624 -0.6258959 -1.1059321 -0.7687129
000050 92 cf 12 bf 91 93 83 bf e6 08 4b bf 37 63 fe be
       -0.5734798 -1.0279409 -0.7931045 -0.4968507
000060 66 af 92 bf a7 9f 26 bf 15 49 97 bf 6f d2 79 bf
       -1.1459777 -0.6508736 -1.1819178 -0.9758672
000070 a4 42 30 bf 6e 9c 22 bf 6d 65 3c bf dc d3 52 bf
       -0.68851686 -0.6351994 -0.73592263 -0.8235452

layer2.1.running_mean f4 [32]
000000 a0 97 23 c3 9b ef ed c2 11 7c f5 c2 7d cc 73 c2
       -163.59229 -118.96798 -122.74232 -60.949696
000010 30 e8 fa c1 dc 93 b9 c2 9d 32 dd c2 01 f3 29 c2
       -31.363373 -92.78879 -110.598854 -42.48731
000020 53 f3 a7 c2 2d 54 2a c2 6d 47 c4 c2 20 c1 a8 c2
       -83.97524 -42.582203 -98.1395 -84.3772
000030 6a 8d 5d c2 c6 29 d5 c2 eb 10 17 c3 ec aa f2 c2
       -55.3881 -106.58159 -151.06609 -121.33383
000040 05 d3 e5 c1 0b 68 ba c1 42 92 c2 c2 1b 8e 3c c3
       -28.728037 -23.300802 -97.28566 -188.5551
000050 74 77 57 c2 30 87 02 c3 9b 5f e8 c2 22 e7 f6 c2
       -53.866653 -130.52808 -116.18673 -123.45143
000060 8f c0 a1 c2 46 75 f4 c1 63 57 a4 c2 4e 75 f0 c2
       -80.87609 -30.557262 -82.17068 -120.22911
000070 4c c8 10 c2 ee d1 10 c3 89 fe e0 c2 c4 07 55 c2
       -36.195602 -144.82004 -112.49714 -53.257584

layer2.1.running_var f4 [32]
000000 96 f8 b5 46 34 92 e1 46 4c ce 73 46 73 4c b4 44
       23292.293 28873.102 15603.574 1442.389
000010 8b 28 e4 43 eb 81 66 46 b5 69 7f 46 d9 01 44 44
       456.31674 14752.4795 16346.427 784.0289
000020 67 a5 30 46 b4 ef 4e 44 85 4b 90 46 d2 34 a3 46
       11305.351 827.74536 18469.76 20890.41
000030 ef 97 d4 44 19 65 94 46 f1 42 b8 46 0c 0c 8f 46
       1700.7479 18994.549 23585.47 18310.023
000040 2b 01 11 44 f9 a6 84 43 17 14 82 46 0b ea a3 46
       580.01825 265.30447 16650.045 20981.021
000050 81 a6 b9 44 3e 03 8e 46 1b 30 46 46 39 eb 84 46
       1485.2032 18177.621 12684.026 17013.611
000060 2b 69 1c 46 e7 70 c0 43 5b bc 86 46 8c 13 8a 46
       10010.292 384.88205 17246.178 17673.773
000070 93 bf 04 44 43 df 92 46 60 00 9e 46 c8 65 9a 44
       530.99335 18799.63 20224.188 1235.1807

fc.weight f4 [7, 4608]
000000 68 10 20 c0 d4 80 b2 be 07 ef bc 3f 47 26 a9 bf
       -2.5010014 -0.34863913 1.4760445 -1.3214806
000010 a8 23 20 3f 8d 61 42 c0 4f 57 06 c0 61 e5 1f 40
       0.6255441 -3.037204 -2.099079 2.4983752
000020 d6 4c 1f c0 43 3a 6b bf be c0 b5 3e 36 d4 38 c0
       -2.4890647 -0.91885775 0.35498613 -2.8879523
000030 6f ea a9 bf 33 b4 dd be 6b 72 4d c0 3c 71 27 3f
       -1.3274668 -0.43301544 -3.2101085 0.65407157
000040 98 a9 1d be 45 94 05 c0 5c e4 e5 3f 5d b1 c7 bf
       -0.15396726 -2.0871747 1.7960315 -1.5601002
000050 d9 6b 5f 3e fc b3 47 3f d3 f7 e1 bf d8 39 51 c0
       0.21818484 0.7800901 -1.7653755 -3.2691555
000060 16 81 b5 bf c8 98 e3 bd 8e cd 58 bf e0 26 fb 3f
       -1.4180019 -0.11113125 -0.8468865 1.9621239
000070 fd 45 0b c0 7d aa a0 3f 8f 7d bb bf 01 33 16 3f
       -2.1761467 1.2552029 -1.4647692 0.58671576
000080 b8 11 82 bf 9c bf 3a c0 02 01 b6 bf 70 88 ef 3d
       -1.0161657 -2.917945 -1.4219058 0.11695945
000090 74 dd 24 3f 91 ea 6e 3f b7 6e f6 bf f0 19 86 bf
       0.6440041 0.9332667 -1.9252537 -1.0476665
0000a0 ea 83 19 3d 15 c0 03 c0 26 81 d9 be 42 a5 d7 3f
       0.03747932 -2.0585988 -0.42481345 1.6847308
0000b0 de 85 dc be 14 f8 7e bf 63 fc a1 3b 35 ca 1f c0
       -0.43070883 -0.9959729 0.004943417 -2.4967167
0000c0 ab 17 66 bf 8b e0 84 be ce f9 c1 bf 05 92 0a c0
       -0.89879864 -0.25952563 -1.5154359 -2.1651623
0000d0 c1 30 64 bf 91 75 af 3e d1 df a3 3e 0f 7e 7f bf
       -0.8913689 0.34269384 0.32006696 -0.99801725
0000e0 a6 41 b3 bf 0b 58 ca bf f1 16 dc 3b 29 80 14 3f
       -1.4004409 -1.5808119 0.006716602 0.58008057
0000f0 9b 4d 7d 40 03 01 80 40 b4 cb 3e 3e 98 0f 96 be
       3.9578617 4.0001235 0.18632394 -0.29308772
000100 de fa 75 3f ab 55 38 bf 60 dd 8b 3e 7b c1 bc be
       0.9608592 -0.7200572 0.27317333 -0.36866364
000110 c7 ae 3c bf 8b eb 9a bf 94 03 8c 3f 54 63 69 c0
       -0.7370419 -1.2103132 1.0938592 -3.6466875
000120 c4 e6 53 c0 87 19 96 bf 30 82 a4 3f 13 25 d0 3e
       -3.3109598 -1.172654 1.285223 0.40653285
000130 1c db 91 3d 6f 08 1f 40 6a 6d f2 bf a5 88 39 bf
       0.0712187 2.4848897 -1.893964 -0.7247413
000140 7b d4 b0 be 82 d9 c2 3f af 68 bd 3e 8f a1 b8 40
       -0.3453711 1.5222628 0.3699393 5.7697215
000150 47 b2 cc 3f 3a 22 54 3f 7c 7a a1 3f ac 6e 67 bf
       1.5991906 0.82864726 1.2615504 -0.90403247
000160 ee dd 91 3f 11 ee af 3e e8 ed 69 3f 7e 78 da be
       1.1395853 0.34361318 0.9137864 -0.42670053
000170 99 6f 12 40 86 90 6b bf 19 b4 43 3d d6 9b 2b c0
       2.2880614 -0.920174 0.047779176 -2.6813865
000180 6b a2 2a bf 35 53 4b bf a0 42 bd 3f b8 85 c0 bf
       -0.6665408 -0.7942384 1.4785957 -1.5040808
000190 43 d8 11 40 93 28 d0 bd 9f f6 c3 bf ee a5 35 3f
       2.2788246 -0.10163989 -1.5309638 0.70956314
0001a0 b2 0a ad 3f f2 71 86 be 1e 7d 4c 3c 5b f4 9a be
       1.3518889 -0.26258808 0.012481002 -0.30264553
0001b0 a1 40 b4 3f 60 41 04 40 b6 7a 1e be 31 09 96 3d
       1.4082223 2.0664902 -0.15476498 0.07325972
0001c0 89 f6 b6 bf bf ba 60 3f cc 9a 56 be fb d0 a2 3f
       -1.4293987 0.8778495 -0.20957488 1.2720026
0001d0 e3 fc 4d 3f 13 ff 62 3f 37 af 3b bf 9d 5c 5d 3e
       0.80464 0.8867046 -0.7331423 0.2161736
0001e0 24 a9 3d 40 b8 9c 02 3e 7e 28 0c bf 36 e9 45 c0
       2.9634485 0.12755096 -0.54749286 -3.092359
0001f0 fc 73 e3 3f 80 63 7d c0 de 72 05 40 21 97 48 3f
       1.7769771 -3.959198 2.085136 0.78355604
000200 00 20 b8 3f 8f 00 3f bf fc 39 a6 bf 74 f6 cd 3f
       1.4384766 -0.7461023 -1.2986445 1.6090837
000210 8b 54 dd 3e c7 a0 6d 40 8c 94 49 bf bd 96 d2 be
       0.43228564 3.712938 -0.7874229 -0.4113063
000220 59 00 7d bf ef ba b6 3f 15 0d 80 3f 9f 0f 9d bf
       -0.98828655 1.4275798 1.0003992 -1.2270392
000230 7b 86 22 40 66 85 91 c0 8f 71 07 40 78 4a 98 bf
       2.539458 -4.547534 2.116306 -1.1897726
000240 6f 85 ce bf 57 c1 4b bf 26 9e 69 3f 3b f8 4e bf
       -1.6134471 -0.7959189 0.9125694 -0.8084752
000250 9d 8d 8f 40 ce 3f 90 c0 0d 6b e8 3f e2 a8 fa 3f
       4.486037 -4.5077887 1.8157669 1.9582789
000260 18 c1 e6 be ea f7 ba bd 25 25 88 3f a4 11 88 c0
       -0.45069194 -0.09129317 1.0636336 -4.2521534
000270 83 6a 42 40 a5 7c 4e 3f a6 1f f0 3e 38 2e 8d 3f
       3.037751 0.8065894 0.46899146 1.102973
000280 fa 57 00 40 5d 1c b7 bc 9c de 1b 3f 87 ab 3c 40
       2.0053697 -0.022352392 0.6088655 2.9479692
000290 84 5a 19 bd ed 9a db 3f f8 37 b9 3f 20 0d 33 40
       -0.037439838 1.7156655 1.4470205 2.797676
0002a0 e1 0c 22 be d9 a8 45 3e 06 69 3b 3e 83 1b ef 3f
       -0.15825225 0.19302692 0.18301782 1.8680271
0002b0 25 81 88 3f 3b a2 9b be 15 8a 06 40 12 6a b9 3f
       1.0664412 -0.3039721 2.1021779 1.4485495
0002c0 06 6a 26 3f f3 0b cc 3f 61 2c d8 bd bc db 88 be
       0.6500553 1.5941147 -0.105553396 -0.26730144
0002d0 48 94 20 bf 54 b3 11 c0 cc 62 9a be db 8d 30 40
       -0.6272626 -2.2765703 -0.301535 2.7586582
0002e0 23 0a 0b 40 7d 19 99 bf 9a 64 a9 3e d1 5b e1 3f
       2.1724937 -1.1960903 0.33084565 1.7606145
0002f0 7f 9b ca 3f 3b e4 b1 3f c7 b5 98 3f dd b6 7f bf
       1.5828704 1.3897775 1.1930474 -0.998884
000300 45 97 fa 3e 7d c0 01 c0 18 3a 04 3f 8f 97 db 3f
       0.48943534 -2.0273736 0.51651144 1.7155627
000310 aa 50 a4 3f 06 58 ad bc 10 8f 86 3f f9 e5 90 3f
       1.2837117 -0.021160137 1.0512409 1.1320182
000320 a3 75 87 3f 3b a9 0b 40 d1 f8 83 3e 66 7d 4c 3f
       1.0582775 2.182204 0.2577577 0.7987884
000330 f8 4c fe 3f 42 6a c0 bf 4d 2b 42 bf fd fb 45 3f
       1.9867239 -1.5032427 -0.7584732 0.7733763
000340 c6 b2 0a bf 7c 74 dc bf 3c 7a c0 3e e2 91 19 3f
       -0.54179037 -1.7223048 0.37593257 0.59988225
000350 db 87 b4 3e 59 dc 7c bf fa 15 4f 3e 71 6c 2d 40
       0.352599 -0.98773724 0.20223227 2.7097437
000360 14 00 16 40 5a 85 8a c0 4e 76 49 c0 ac c9 4d 3e
       2.3437548 -4.3287783 -3.1478457 0.20096463
000370 fb 9f 0d c0 1e 49 64 bf 20 23 7f 3f 13 dd cc bf
       -2.2128894 -0.8917407 0.9966297 -1.6004966
000380 7e ff 47 c0 e5 b7 51 3f ce 43 8e bf 0d 0f a7 c0
       -3.124969 0.81921226 -1.1114442 -5.2205873
000390 0d 04 cf 3f eb 19 1d bf 6d 7e df bf 9d ac 6b c0
       1.6173111 -0.6136767 -1.7460457 -3.6824105
0003a0 5a ff ce bf a6 8c 0c bf 0e 7e 13 c0 ce f7 20 c0
       -1.6171677 -0.5490211 -2.3045688 -2.5151248
0003b0 e4 7c 72 c0 de c2 81 bf 59 37 ea bf de 4b 0b 3d
       -3.7888727 -1.0137594 -1.8298141 0.0340079
0003c0 88 4c f6 3f fd 9d a1 c0 55 5f c0 be c7 3f 7b bf
       1.9242105 -5.0505357 -0.37572733 -0.9814419
0003d0 41 ca 1b c0 4e f3 e8 bf 29 86 0f 3e c4 a1 99 c0
       -2.4342196 -1.8199251 0.14016022 -4.800997
0003e0 9e 46 08 c0 58 dd bb 3f c3 d7 df bf 54 3f 87 be
       -2.1293101 1.4676924 -1.748772 -0.26415503
0003f0 85 ca 8c bf 3e 09 04 3f d4 ad 41 bf 47 10 ce bd
       -1.0999304 0.515766 -0.75655866 -0.100616984

fc.bias f4 [7]
000000 c6 e6 c0 3e 6f eb 74 c0 2f 12 9b 3d 90 9f 46 3e
       0.37676066 -3.8268697 0.075718276 0.19396806
000010 d7 5b dd 3e e5 0b 8c 3f 50 17 fd bf
       0.4323413 1.094113 -1.977274
