FaceExpressions_CNN/savemodel/model_76.pth (torch_old, 185408 bytes, 14 tensors)

layer1.0.weight f4 [16, 1, 5, 5]
0.97668386 2.534288 3.4375365 3.2827487 3.521065 4.3409624 -0.12991099 -0.5906198
-0.64066523 -0.060889617 1.0355418 -2.686155 -1.2025541 -5.8855977 -7.6672277 2.036221
-1.4519708 0.026210323 -3.755941 -2.4434056 1.5014386 -3.4736316 2.2811534 0.19167706
2.1600723 -0.029242631 -3.5815115 -1.3984315 3.1652768 4.2530837 -0.7245109 -1.6248089
1.4499854 1.3587954 -1.504893 -0.38807005 -2.1312625 -1.5732661 -2.05736 -2.619308
-8.22049 -2.4939854 -2.6043696 -6.6221986 1.5815182 1.1336815 0.7757101 -1.1627625
0.9961774 2.1301932 -2.4363735 -2.2338018 2.6804233 0.6782499 -4.1647105 2.0883527
2.7271955 1.8755705 5.8181925 -0.24907953 -0.13775092 4.4343715 -2.5371485 6.6184144
0.5354886 -4.3949122 3.325829 -0.14331421 6.3300333 0.78359103 -1.7209387 0.26672924
-0.17515628 -0.48024234 -3.2142465 3.928644 1.4525634 -2.9698482 -0.4465277 0.27593628
3.1346138 -5.3738103 -3.714832 0.80485684 -0.21455531 -2.8282795 -7.272347 0.23736654
-0.2670838 -3.0615783 -2.212148 2.8065472 3.2089279 3.2299478 2.7084002 0.6620121
1.5553513 0.7318713 0.24253367 2.187476 2.5710514 -1.58358 -2.1444974 -3.2766113
1.6791481 1.653079 -1.8812296 0.36275554 -1.7969501 -1.7879578 -3.1132405 -0.9532111
1.9304705 -4.9956594 -6.9034357 0.8940503 0.9109194 -1.9284444 -3.0634127 -2.1013553
4.8380938 5.560744 1.7778039 1.8947027 0.6018178 -1.3956696 -6.13858 -6.859246
-2.2863643 -1.4960207 -0.09044218 -0.90486085 -2.861315 -2.422695 -2.5799868 1.1024
0.21162152 1.8645183 4.0862703 -0.9800398 -1.0581731 0.3350592 3.0604892 0.9347565
1.282255 4.88054 1.7618304 2.045701 -0.17054789 4.9019136 0.67927545 -1.9446718
-0.8257009 2.8778849 0.18655922 1.388405 -0.6850365 -4.686628 0.40471223 4.9923844
1.1601216 2.6641192 -5.4271283 -5.5819154 3.7271695 -0.36275396 3.28681 2.202396
-4.6299014 -1.569271 -0.5089079 0.6052341 2.7523713 0.2794745 -0.16148117 0.2008127
0.30681896 -3.3677027 -3.3473735 -1.082994 -2.0841012 0.59753764 -1.3431169 0.6319863
0.6160939 -2.618973 7.60224 7.277323 6.0974197 3.6599739 -0.21532828 3.0884113
-0.43888098 3.7123263 -3.3332837 2.4383922 0.9012783 -0.22524606 1.7000307 -4.0794606
-2.4197164 -0.019525059 -0.20242725 -3.6869159 -2.4082916 2.257572 -0.88831747 -0.4902486
-1.655387 3.8489542 0.043200232 1.5163747 1.8704003 4.271446 -0.4174387 0.92688614
3.1679258 3.5122082 3.3143005 -5.3834085 0.19230732 0.30625778 3.3570025 1.9534851
-6.1596084 1.028704 -2.0103784 -0.512901 0.5293089 -0.19344425 -1.7936468 -1.5410284
4.3751135 2.5105448 2.2197526 0.2623198 0.5372982 7.2226076 0.115377724 -4.7707148
-1.8676363 3.0829718 6.901055 -2.4008038 -5.218171 -2.6423008 0.515103 -0.99859536
-0.735471 -1.1320975 3.8364873 0.55219835 -3.3429708 -1.6823545 2.122429 -0.70813686
00000000: f407 7a3f c631 2240 9900 5c40 8e18 5240
00000010: 2159 6140 2ae9 8a40 6307 05be dc32 17bf
00000020: a302 24bf 6467 79bd a28c 843f f7e9 2bc0
00000030: 4bed 99bf d156 bcc0 ee59 f5c0 7251 0240
00000040: 2eda b9bf 08b7 d63c 5661 70c0 c260 1cc0
00000050: 242f c03f fb4f 5ec0 6bfe 1140 fe46 443e
00000060: a03e 0a40 3e8e efbc 7c37 65c0 ceff b2bf
00000070: e593 4a40 4319 8840 8c79 39bf bdf9 cfbf
00000080: 1f99 b93f 02ed ad3f 55a0 c0bf 1eb1 c6be
00000090: 9b66 08c0 c960 c9bf c9ab 03c0 bea2 27c0
000000a0: 2187 03c1 759d 1fc0 fead 26c0 0de9 d3c0
000000b0: 306f ca3f 7a1c 913f f094 463f 67d5 94bf
000000c0: 7b05 7f3f 1655 0840 8bed 1bc0 9cf6 0ec0
000000d0: 0e8c 2b40 c9a1 2d3f 4f45 85c0 92a7 0540
000000e0: 5f8a 2e40 b212 f03f a22e ba40 b40e 7fbe
000000f0: 940e 0dbe 5fe6 8d40 a460 22c0 0dca d340
00000100: c815 093f 1fa3 8cc0 62da 5440 f6c0 12be
00000110: a28f ca40 6c99 483f b847 dcbf bc90 883e
00000120: 2b5c 33be 53e2 f5be 37b6 4dc0 e76e 7b40
00000130: 99ed b93f fe11 3ec0 479f e4be 8547 8d3e
00000140: 839d 4840 41f6 abc0 cfbf 6dc0 190b 4e3f
00000150: 63b4 5bbe 8802 35c0 11b7 e8c0 3710 733e
00000160: 35bf 88be e6f0 43c0 d593 0dc0 789e 3340
00000170: 135f 4d40 77b7 4e40 6e56 2d40 a079 293f
00000180: c015 c73f eb5b 3b3f bf5a 783e 9bff 0b40
00000190: 1b8c 2440 c0b2 cabf 723f 09c0 00b4 51c0
000001a0: 53ee d63f 1898 d33f 22cc f0bf 18bb b93e
000001b0: 7602 e6bf cddb e4bf 553f 47c0 a505 74bf
000001c0: a819 f73f 71dc 9fc0 f2e8 dcc0 7be0 643f
000001d0: 0432 693f 44d7 f6bf f40e 44c0 9b7c 06c0
000001e0: aad1 9a40 9df1 b140 148f e33f 9e85 f23f
000001f0: bb10 1a3f 4da5 b2bf 3f6f c4c0 f17e dbc0
00000200: cb53 12c0 9b7d bfbf c039 b9bd f6a4 67bf
00000210: c91f 37c0 6f0d 1bc0 811e 25c0 711b 8d3f
00000220: 50b3 583e 89a8 ee3f bac2 8240 e3e3 7abf
00000230: 3772 87bf e18c ab3e 0edf 4340 344c 6f3f
00000240: ef20 a43f 622d 9c40 a983 e13f c4ec 0240
00000250: 1ba4 2ebe 7adc 9c40 ffe4 2d3f 01eb f8bf
00000260: 2261 53bf 442f 3840 6109 3f3e 41b7 b13f
00000270: 8d5e 2fbf dbf8 95c0 7136 cf3e 9dc1 9f40
00000280: dd7e 943f ee80 2a40 09ab adc0 0d9f b2c0
00000290: f289 6e40 e3ba b9be 185b 5240 0ef4 0c40
000002a0: 2728 94c0 dfdd c8bf ca47 02bf 9ff0 1a3f
000002b0: da26 3040 4817 8f3e 525b 25be d8a1 4d3e
000002c0: 6017 9d3e 7188 57c0 5e3b 56c0 8c9f 8abf
000002d0: ea61 05c0 3af8 183f 41eb abbf dbc9 213f
000002e0: 54b8 1d3f 419d 27c0 8d45 f340 d4df e840
000002f0: 101e c340 033d 6a40 047f 5cbe 88a8 4540
00000300: 02b5 e0be c196 6d40 8554 55c0 9e0e 1c40
00000310: 2dba 663f e7a6 66be 9b9a d93f f18a 82c0
00000320: a2dc 1ac0 04f3 9fbc 1749 4fbe 6ef6 6bc0
00000330: 7321 1ac0 0f7c 1040 c668 63bf dd01 fbbe
00000340: b9e3 d3bf 4455 7640 baf2 303d 9118 c23f
00000350: 4769 ef3f b0af 8840 86ba d5be 6948 6d3f
00000360: 4cbf 4a40 05c8 6040 801d 5440 e244 acc0
00000370: 36ec 443e d2cd 9c3e 21d9 5640 cd0b fa3f
00000380: 831b c5c0 93ac 833f 0aaa 00c0 7b4d 03bf
00000390: ca80 073f 4016 46be 3896 e5bf 6b40 c5bf
000003a0: ee00 8c40 c4ac 2040 6d10 0e40 c84e 863e
000003b0: 608c 093f 9a1f e740 284b ec3d b2a9 98c0
000003c0: b50e efbf 694f 4540 71d5 dc40 c5a6 19c0
000003d0: 42fb a6c0 751b 29c0 cadd 033f f2a3 7fbf
000003e0: d447 3cbf 92e8 90bf 0289 7540 df5c 0d3f
000003f0: 3cf3 55c0 6457 d7bf e0d5 0740 7548 35bf

layer1.0.bias f4 [16]
0.0601632 9.1432295 0.18622676 -3.694241 3.619687 -2.83425 0.31527448 2.0141711
1.3307236 -0.67267185 0.36730587 0.98758507 5.900107 -0.56937975 2.6924636 0.19809988
00000000: b06d 763d ab4a 1241 3ab2 3e3e 726e 6cc0
00000010: f4a8 6740 5a64 35c0 a86b a13e 2ee8 0040
00000020: 2755 aa3f 3934 2cbf 840f bc3e 60d2 7c3f
00000030: adcd bc40 dfc2 11bf 5351 2c40 b2da 4a3e

layer1.1.weight f4 [16]
3.7229972 3.1178977 3.6961956 2.8646936 2.979631 3.8757932 3.0573332 3.4174068
1.7211921 2.3460343 3.145408 3.2940364 4.091859 3.0174887 2.4927335 0.3668706
00000000: 9645 6e40 a38b 4740 788e 6c40 2457 3740
00000010: 46b2 3e40 ff0c 7840 59ab 4340 cbb6 5a40
00000020: 0650 dc3f 6d25 1640 5d4e 4940 7ed1 5240
00000030: 82f0 8240 891e 4140 f288 1f40 77d6 bb3e

layer1.1.bias f4 [16]
-3.8687375 -2.8218336 -4.8200965 -0.119836874 -2.4029932 -2.6117234 -1.118358 -2.7520332
0.9526259 -1.2055703 -4.5247526 -2.4898832 -4.566395 -0.474764 -1.2577448 -1.3687358
00000000: 6599 77c0 ec98 34c0 3b3e 9ac0 096d f5bd
00000010: a4ca 19c0 7a26 27c0 5b26 8fbf 5021 30c0
00000020: 4adf 733f 2150 9abf c6ca 90c0 3f5a 1fc0
00000030: e81f 92c0 4414 f3be c8fd a0bf bc32 afbf

layer1.1.running_mean f4 [16]
-1.5817604 -1.7552106 8.355101 -4.6097736 -1.9673098 -4.000634 0.32816392 10.484561
4.993678 1.3136698 0.36430126 0.88420206 -5.9467716 -1.5429801 4.314151 -3.6396987
00000000: 2077 cabf beaa e0bf 7eae 0541 4483 93c0
00000010: cfd0 fbbf 3205 80c0 1a05 a83e c3c0 2741
00000020: 36cc 9f40 5526 a83f b285 ba3e 115b 623f
00000030: f44b bec0 5f80 c5bf 860d 8a40 d3f0 68c0

layer1.1.running_var f4 [16]
10.390552 33.119823 20.999897 4.8273025 18.93906 18.014544 2.4011543 22.389088
8.640925 6.069885 5.2449584 15.503958 52.505672 10.295515 4.8609724 3.45433
00000000: b33f 2641 b37a 0442 caff a741 4379 9a40
00000010: 3283 9741 c91d 9041 83ac 1940 da1c b341
00000020: 3b41 0a41 7f3c c240 b3d6 a740 3610 7841
00000030: cf05 5242 6eba 2441 168d 9b40 be13 5d40

layer2.0.weight f4 [32, 16, 5, 5]
-3.654665 -2.9118328 -4.070298 -7.2881794 -1.2178736 -5.9814935 -3.7453182 -2.8676596
-4.1678624 1.9103016 1.9162056 0.22263923 -5.3791766 0.5886832 1.8628737 -0.7743037
-3.034237 0.4352424 2.847553 -1.8931271 -2.7963316 -2.4440043 1.0694818 -1.2044119
2.2159863 -4.316099 -2.241825 -3.3143356 -2.4396186 0.8967497 -1.8674845 0.88382876
-0.7357471 1.3085855 8.048978 1.280914 2.3585088 -0.2122579 -5.4683237 1.3163275
-1.0236521 2.5354576 3.9379673 -1.1701043 1.1117636 1.7889968 1.234083 -0.8609278
-5.9869704 1.3066986 0.5097479 6.7692413 -2.4210525 -1.8331442 -2.1427755 -0.51807046
-0.7941559 -6.7121687 -0.3934017 1.4103538 -5.4078217 2.9188685 -0.22646253 0.9204425
-0.73782486 -0.8713657 2.560694 2.4855309 4.092458 0.5064105 -2.8675516 -1.7097255
-0.41092047 -5.620409 -3.976438 1.612996 -1.1946648 -1.724514 -1.1652731 -4.032351
-2.2523046 -3.9974742 -6.9826775 -0.38307264 0.16114847 4.892912 2.2919707 -9.0938635
-6.925695 0.932442 -0.01669483 1.1573577 -2.2060535 1.5568367 -1.2419968 0.0692573
2.2735524 -2.7630084 0.21033618 2.746606 0.5565084 4.83626 -3.1886811 1.18749
-0.41067427 -2.8859763 -6.793055 -2.697919 -2.645332 -2.2672467 -2.887114 -2.1454163
2.1210577 -0.18365546 -2.3549716 0.118980736 5.4740114 -0.2695488 -4.600641 -0.89392024
4.340633 0.47155064 -2.8191903 1.9006126 1.9553459 -0.08796948 -3.293123 -2.6928835
1.4786004 2.375494 1.894636 0.43507975 -2.010615 -0.3950259 0.8019972 -2.9618504
-0.6537642 -3.5408442 -2.486343 -3.238438 -0.09656073 3.2532573 -5.2587647 -2.5059779
3.4366446 -2.422891 1.2395456 -1.1068437 -4.0280113 -0.44578373 -3.6884627 6.4368706
-0.55314225 1.1318399 1.8954281 -0.46749613 -10.948401 -1.4901882 0.73566175 -9.251867
4.7723584 0.7731138 -2.0093048 -7.461644 2.3259864 1.6591761 2.3807895 0.12396755
3.0227013 -1.0775716 1.5330247 0.51727057 -2.6627972 0.39457384 -1.3921161 1.5552953
-2.4493685 -2.351687 2.576495 1.8786912 5.3688383 1.226747 -1.1218567 -0.39347446
-2.0088134 -10.519261 -4.080534 -1.2381086 -4.152087 -0.09285444 -2.6693878 -0.7374762
-1.2607961 -0.8106742 3.3771892 -0.5336808 0.6188252 1.1406327 0.71202606 4.1406565
-1.2636654 0.060873434 0.22019076 1.646982 -1.324759 -1.409866 -3.365061 2.7099833
0.59019953 -1.9912032 -4.0961666 -2.9772296 0.14446804 2.9248822 2.1536098 -0.72531563
-0.8166524 -2.5817602 -3.993441 2.1850424 -3.0837936 -0.0011359735 1.9961387 0.25164357
1.4171991 -2.334926 0.3851655 -3.4295576 4.275793 -1.6757488 -0.02180221 -7.2249637
1.3191996 -0.75140643 -0.3003351 -1.4638844 -3.6149337 0.43199256 2.8659792 1.375015
-5.5097632 -3.8330493 -2.8375165 -0.73446673 1.212585 -3.091271 1.9162878 2.1860876
1.627801 0.885847 4.1305623 -4.779651 2.0920522 -2.4363065 0.22213234 0.9344699
00000000: 08e6 69c0 785b 3ac0 e23f 82c0 c438 e9c0
00000010: 48e3 9bbf 6568 bfc0 4bb3 6fc0 bc87 37c0
00000020: 215f 85c0 c384 f43f 3a46 f53f 8afb 633e
00000030: 3722 acc0 f1b3 163f a572 ee3f c438 46bf
00000040: f030 42c0 18d8 de3e 4f3e 3640 fd51 f2bf
00000050: 19f7 32c0 916a 1cc0 c8e4 883f 2b2a 9abf
00000060: b8d2 0d40 7c1d 8ac0 107a 0fc0 131e 54c0
00000070: b622 1cc0 6391 653f bb09 efbf 9a42 623f
00000080: ec59 3cbf bb7f a73f 9dc8 0041 fdf4 a33f
00000090: cff1 1640 235a 59be 82fc aec0 6b7d a83f
000000a0: 0807 83bf f044 2240 a807 7c40 fac5 95bf
000000b0: 454e 8e3f d9fd e43f 6ff6 9d3f c465 5cbf
000000c0: 4395 bfc0 e641 a73f d77e 023f a09d d840
000000d0: 86f2 1ac0 78a4 eabf 3c23 09c0 44a0 04bf
000000e0: cd4d 4bbf 16ca d6c0 f36b c9be 7986 b43f
000000f0: e00c adc0 bece 3a40 cbe5 67be 1fa2 6b3f
00000100: 17e2 3cbf d311 5fbf 69e2 2340 f012 1f40
00000110: 6af5 8240 1ea4 013f f785 37c0 49d8 dabf
00000120: 2b64 d2be 64da b3c0 f67d 7ec0 a776 ce3f
00000130: c7ea 98bf e0bc dcbf ab27 95bf 0509 81c0
00000140: c225 10c0 9ed6 7fc0 1872 dfc0 1922 c4be
00000150: 1b04 253e bc92 9c40 a6af 1240 7780 11c1
00000160: 4b9f ddc0 85b4 6e3f 99c3 88bc 4c24 943f
00000170: fb2f 0dc0 6d46 c73f c0f9 9ebf c5d6 8d3d
00000180: e281 1140 21d5 30c0 5e62 573e 65c8 2f40
00000190: 5677 0e3f a4c2 9a40 5a13 4cc0 acff 973f
000001a0: e643 d2be d6b3 38c0 b560 d9c0 b4aa 2cc0
000001b0: 1f4d 29c0 921a 11c0 7ac6 38c0 804e 09c0
000001c0: 69bf 0740 2d10 3cbe dbb7 16c0 2cac f33d
000001d0: 1a2b af40 4d02 8abe 7338 93c0 f5d7 64bf
000001e0: 77e6 8a40 166f f13e 9d6d 34c0 4647 f33f
000001f0: c648 fa3f 5829 b4bd 87c2 52c0 3458 2cc0
00000200: c742 bd3f 1808 1840 6f83 f23f c6c2 de3e
00000210: ebad 00c0 d640 cabe b04f 4d3f f58e 3dc0
00000220: 175d 27bf 319d 62c0 3e20 1fc0 9142 4fc0
00000230: a2c1 c5bd 5e35 5040 cd47 a8c0 f161 20c0
00000240: fcf1 5b40 a510 1bc0 6ea9 9e3f 0ead 8dbf
00000250: 78e5 80c0 c43d e4be c60f 6cc0 d8fa cd40
00000260: bb9a 0dbf 21e0 903f 639d f23f a75b efbe
00000270: a72c 2fc1 7dbe bebf 5454 3c3f a607 14c1
00000280: 29b7 9840 c9ea 453f 7398 00c0 cac5 eec0
00000290: f6dc 1440 e25f d43f db5e 1840 b3e2 fd3d
000002a0: f073 4140 deed 89bf 273a c43f d86b 043f
000002b0: 456b 2ac0 9505 ca3e dc30 b2bf eb13 c73f
000002c0: 74c2 1cc0 0a82 16c0 4be5 2440 f478 f03f
000002d0: 86cd ab40 0c06 9d3f 0099 8fbf 7c75 c9be
000002e0: 6690 00c0 e54e 28c1 bc93 82c0 587a 9ebf
000002f0: e6dd 84c0 782a bebd 40d7 2ac0 3ecb 3cbf
00000300: c461 a1bf 5888 4fbf de23 5840 4e9f 08bf
00000310: 546b 1e3f 4100 923f 5747 363f 4280 8440
00000320: cabf a1bf 6c56 793d b079 613e 4ed0 d23f
00000330: b491 a9bf 7d76 b4bf 295d 57c0 5e70 2d40
00000340: 5117 173f bfdf febf cc13 83c0 ee8a 3ec0
00000350: 6eef 133e 4531 3b40 bed4 0940 49ae 39bf
00000360: 2210 51bf 8f3b 25c0 8a94 7fc0 bcd7 0b40
00000370: e05c 45c0 f2e4 94ba 7981 ff3f 6dd7 803e
00000380: c866 b53f 6d6f 15c0 6a34 c53e df7d 5bc0
00000390: 4cd3 8840 f07e d6bf 8c9a b2bc e732 e7c0
000003a0: 88db a83f 2c5c 40bf 86c5 99be 9060 bbbf
000003b0: 135b 67c0 212e dd3e 346c 3740 7e00 b03f
000003c0: fb4f b0c0 ae50 75c0 df99 35c0 0306 3cbf
000003d0: fc35 9b3f 62d7 45c0 eb48 f53f dce8 0b40
000003e0: c85b d03f dec6 623f 912d 8440 e7f2 98c0
000003f0: 2fe4 0540 72ec 1bc0 a976 633e 6b39 6f3f

layer2.0.bias f4 [32]
2.995755 1.1955657 2.2487185 0.1929084 0.4435456 1.3452817 2.74376 0.3013051
1.873351 0.25515854 1.3548547 0.13413471 0.1955629 0.9816553 2.5806515 1.3894241
0.18916236 0.19695292 1.4476217 1.9703975 0.13229117 2.4304233 2.235501 2.1874723
2.0424047 0.03198193 1.2252965 1.763629 0.16890362 3.0169058 1.1872066 0.17242675
00000000: 73ba 3f40 4c08 993f 01eb 0f40 c889 453e
00000010: 6918 e33e 3132 ac3f c499 2f40 a944 9a3e
00000020: f7c9 ef3f 24a4 823e e16b ad3f 9c5a 093e
00000030: a441 483e c34d 7b3f 6529 2540 a6d8 b13f
00000040: c7b3 413e 07ae 493e ab4b b93f fc35 fc3f
00000050: 5677 073e 0e8c 1b40 7312 0f40 8cff 0b40
00000060: c2b6 0240 7cff 023d 84d6 9c3f 98be e13f
00000070: 12f5 2c3e fc14 4140 63f6 973f a390 303e

layer2.1.weight f4 [32]
0.5922892 0.6185828 0.66819024 0.26864558 0.22420615 0.72128826 0.72326523 0.14227194
0.43063933 0.22648065 0.5582975 1.0836567 0.17639042 0.92663944 0.819316 1.2001069
0.21059252 0.28662583 0.8911194 0.6422145 0.1682578 0.86886835 0.60305035 0.51268226
0.8093943 0.27196413 0.8166662 0.79294467 0.27096218 0.6406885 0.64116204 0.2535691
00000000: 44a0 173f 715b 1e3f 840e 2b3f ea8b 893e
00000010: 4c96 653e 59a6 383f e927 393f bcaf 113e
00000020: c27c dc3e 8bea 673e 96ec 0e3f 43b5 8a3f
00000030: b19f 343e 3e38 6d3f b2be 513f 1a9d 993f
00000040: 91a5 573e 9fc0 923e 6720 643f 2b68 243f
00000050: c64b 2c3e 286e 5e3f 8261 1a3f 253f 033f
00000060: 7734 4f3f e23e 8b3e 0911 513f 6cfe 4a3f
00000070: 8ebb 8a3e 2904 243f 3223 243f cfd3 813e

layer2.1.bias f4 [32]
-0.57496357 -0.65887046 -0.8844026 -0.7322961 -0.6869979 -0.93915 -0.8201539 -0.8243952
-0.53042734 -0.76534355 -0.551232 -2.1869876 -0.9085395 -1.4822173 -0.88740134 -1.7811778
-0.76636624 -0.6258959 -1.12442 -0.74286646 -0.5734798 -1.018099 -0.80585754 -0.52608544
-1.1478438 -0.6508736 -1.1683435 -0.95934 -0.68851686 -0.61583036 -0.722046 -0.8235452
00000000: d030 13bf bcab 28bf 3568 62bf c277 3bbf
00000010: 18df 2fbf 226c 70bf 9bf5 51bf 900b 53bf
00000020: 16ca 07bf 8eed 43bf 8a1d 0dbf 9bf7 0bc0
00000030: 0b96 68bf 4cb9 bdbf bc2c 63bf a2fd e3bf
00000040: 9430 44bf b73a 20bf ffec 8fbf 7f2c 3ebf
00000050: 92cf 12bf 1151 82bf ae4c 4ebf 89ad 06bf
00000060: 8cec 92bf a79f 26bf 488c 95bf 4e97 75bf
00000070: a442 30bf 0fa7 1dbf 02d8 38bf dcd3 52bf

layer2.1.running_mean f4 [32]
-156.56061 -116.86886 -114.04811 -59.982296 -30.76832 -96.99472 -114.03952 -41.718513
-76.46865 -41.908943 -91.465935 -90.828674 -54.580254 -102.56862 -144.14888 -120.16101
-28.637484 -22.939219 -96.28427 -186.90714 -52.924534 -126.6102 -113.19664 -116.46874
-81.403336 -30.201313 -84.963524 -113.88743 -35.85221 -136.4599 -107.91774 -52.13899
00000000: 848f 1cc3 dbbc e9c2 a218 e4c2 dfed 6fc2
00000010: 8525 f6c1 4cfd c1c2 3c14 e4c2 c2df 26c2
00000020: f3ef 98c2 c2a2 27c2 8fee b6c2 48a8 b5c2
00000030: 2e52 5ac2 2223 cdc2 1d26 10c3 7052 f0c2
00000040: 9119 e5c1 8583 b7c1 8c91 c0c2 3ae8 3ac3
00000050: b9b2 53c2 6c38 fdc2 ae64 e2c2 ffef e8c2
00000060: 82ce a2c2 4a9c f1c1 53ed a9c2 5dc6 e3c2
00000070: aa68 0fc2 bc75 08c3 e2d5 d7c2 538e 50c2

layer2.1.running_var f4 [32]
21954.588 26936.576 14303.359 1377.4968 443.92267 14893.903 16290.38 768.6205
10665.205 814.92126 18269.012 21451.31 1677.6427 17505.133 21265.648 17879.852
574.5221 259.06482 16464.33 21820.39 1476.094 17379.705 11634.275 15703.797
9899.791 377.37015 17818.174 16337.35 526.0071 17401.93 19639.654 1205.5632
00000000: 2d85 ab46 2771 d246 707d 5f46 e62f ac44
00000010: 1af6 dd43 9db7 6846 8589 7e46 b627 4044
00000020: d2a4 2646 f6ba 4b44 06ba 8e46 9f96 a746
00000030: 91b4 d144 44c2 8846 4c23 a646 b4af 8b46
00000040: 6aa1 0f44 4c88 8143 a9a0 8046 c878 aa46
00000050: 0283 b844 69c7 8746 1ac9 3546 305f 7546
00000060: 2aaf 1a46 61af bc43 5934 8b46 6645 7f46
00000070: 7480 0344 dcf3 8746 4f6f 9946 06b2 9644

fc.weight f4 [7, 4608]
-2.8058376 -0.36048147 1.3109068 -1.0287737 1.068047 -3.173905 -2.150092 2.9320464
-2.1832232 -1.0361687 0.46289888 -2.8960037 -1.4510012 0.0112907775 -3.269883 0.8403089
0.08762294 -1.6090839 1.5872139 -1.344162 0.21672413 0.9282377 -1.4424357 -3.319804
-1.5845704 0.25919434 -0.5980201 1.9718174 -2.280218 0.9746014 -1.7142221 0.29771778
-0.96850693 -3.0968974 -1.2262723 0.19365565 0.6543212 0.98071903 -1.7156328 -1.1176261
0.36850238 -1.9524201 -0.34553692 1.9691298 -0.28439856 -1.152258 0.2585711 -2.1791136
-0.7304639 -0.643354 -1.1599731 -2.093902 -0.74850076 -0.055131204 0.16801351 -1.0660229
-1.3334763 -1.7459334 -0.005779393 0.32878596 3.7710428 3.8870716 0.48418027 -0.44531268
1.0656475 -0.6898534 0.18049143 -0.0068946905 -0.37168238 -0.6940411 1.1546971 -3.566811
-2.8550243 -0.7005606 1.3615433 1.0161159 0.05101681 2.5009751 -1.5758677 -0.27696598
-0.29426354 1.7729175 0.47205743 5.455765 1.0813019 0.8628393 1.1787409 -0.7578548
1.4548141 0.4614293 0.9194962 -0.13473067 2.4274848 -0.88149685 0.34680745 -2.6082528
-1.0137123 -0.6920908 1.6479279 -1.4822828 2.1587646 -0.26092887 -1.4820333 0.57760924
1.363086 -0.18962254 0.24668287 -0.17720099 1.3263742 2.170702 0.0034224547 0.11513069
-1.5429919 0.5402939 -0.40796527 1.3130292 0.66414624 1.0520756 -0.7996606 0.43062174
3.1351209 0.09190233 -0.31172106 -3.192243 1.9000095 -3.6588488 2.174511 0.6520348
1.4728328 -0.8940915 -1.2557586 1.4524567 0.9307096 3.5853841 -0.8788939 -0.26853094
-0.8913724 1.1344621 1.2096386 -0.8317406 2.5988278 -4.4526415 1.8263682 -1.2692193
-2.0332732 -0.5493642 0.7633151 -0.68391824 4.571395 -4.809987 1.5853933 1.8989265
-0.8154064 -0.08722302 1.1352513 -4.3472056 3.06715 1.0246404 0.5214285 0.8965759
2.2119527 0.16772217 0.6661885 3.0841384 0.142562 1.843853 1.1638131 2.8719144
-0.12950474 0.37446833 0.13587159 1.9964236 0.89068025 -0.46412015 2.1512856 1.4800742
0.544802 1.5060828 0.0809833 -0.07108411 -0.68716097 -2.088753 -0.31723005 2.7058196
2.1682856 -1.221229 0.47102523 1.941219 1.5290089 1.3657987 1.2921544 -1.1325588
0.24985334 -2.1285272 0.3607803 1.5909889 1.403086 -0.6068577 1.1760025 1.1827836
0.9751142 2.2998264 -0.063944995 0.7074666 1.7324474 -1.6711557 -1.0062834 0.8854045
-0.36668676 -1.718914 0.08944237 0.5802017 0.50203717 -0.6548722 -0.15277201 2.6050513
2.4591475 -4.071997 -2.8860834 0.13609193 -2.1991708 -1.0422394 1.1038148 -1.3403083
-3.1895978 0.5331566 -1.0206921 -4.7626486 1.4017205 -0.49653274 -1.2189723 -3.8244293
-1.4251754 -0.55309206 -2.043002 -2.174868 -3.6083744 -1.021176 -2.0713286 0.026758093
1.8680946 -5.0828533 -0.2775149 -0.9465984 -2.2700202 -1.7844187 0.22042006 -4.7181416
-1.8619502 1.3764042 -1.5450293 -0.05716213 -1.0795382 0.6132759 -0.96208113 -0.19171585
00000000: d892 33c0 0791 b8be cbcb a73f dbae 83bf
00000010: c4b5 883f 4221 4bc0 1b9b 09c0 a6a6 3b40
00000020: eeb9 0bc0 2da1 84bf 1501 ed3e 2058 39c0
00000030: 68ba b9bf f4fc 383c c345 51c0 7c1e 573f
00000040: a873 b33d 76f6 cdbf d329 cb3f 800d acbf
00000050: eeec 5d3e fca0 6d3f bca1 b8bf ab77 54c0
00000060: 34d3 cabf 1fb5 843e d817 19bf 8364 fc3f
00000070: 17ef 11c0 7a7f 793f a16b dbbf 776e 983e
00000080: 12f0 77bf 9133 46c0 7ef6 9cbf ab4d 463e
00000090: 9881 273f 6710 7b3f db99 dbbf 5f0e 8fbf
000000a0: 58ac bc3e e7e8 f9bf 37ea b0be 720c fc3f
000000b0: b09c 91be 317d 93bf 6e63 843e 9976 0bc0
000000c0: afff 3abf d9b2 24bf 007a 94bf 7e02 06c0
000000d0: bf9d 3fbf 42d1 61bd bc0b 2c3e 7073 88bf
000000e0: 5aaf aabf bf7a dfbf 1061 bdbb a256 a83e
000000f0: c458 7140 c8c5 7840 7ae6 f73e 0600 e4be
00000100: 2367 883f 3c9a 30bf bfd2 383e dbec e1bb
00000110: 274d bebe adac 31bf 1dcd 933f a246 64c0
00000120: b8b8 36c0 f157 33bf 0d47 ae3f 1610 823f
00000130: 01f7 503d fa0f 2040 08b6 c9bf 7cce 8dbe
00000140: b6a9 96be f6ee e23f 83b1 f13e a095 ae40
00000150: 1a68 8a3f 09e3 5c3f fbe0 963f c602 42bf
00000160: 5937 ba3f 7640 ec3e 1a64 6b3f d6f6 09be
00000170: e95b 1b40 c7a9 61bf bf90 b13e 9ded 26c0
00000180: 53c1 81bf dd2c 31bf 4def d23f 71bb bdbf
00000190: 3329 0a40 7898 85be 44b3 bdbf 33de 133f
000001a0: 9a79 ae3f 692c 42be 6f9a 7c3e 2d74 35be
000001b0: a1c6 a93f c8ec 0a40 434b 603b a4c9 eb3d
000001c0: c280 c5bf b350 0a3f d3e0 d0be 5711 a83f
000001d0: 7d05 2a3f 6aaa 863f 8fb6 4cbf 747a dc3e
000001e0: d2a5 4840 4a37 bc3d e799 9fbe b64d 4cc0
000001f0: 8333 f33f 942a 6ac0 302b 0b40 c1eb 263f
00000200: c985 bc3f 2ee3 64bf b3bc a0bf 1aea b93f
00000210: fc42 6e3f ef76 6540 31ff 60bf e37c 89be
00000220: fb30 64bf 0e36 913f 70d5 9a3f f4ec 54bf
00000230: 3253 2640 0a7c 8ec0 6fc6 e93f c775 a2bf
00000240: 2621 02c0 22a3 0cbf 9e68 433f 4415 2fbf
00000250: de48 9240 6aeb 99c0 2bee ca3f 0610 f33f
00000260: 79be 50bf fca1 b2bd ea4f 913f 4f1c 8bc0
00000270: 304c 4440 6b27 833f 577c 053f 0086 653f
00000280: a290 0d40 5cbf 2b3e 548b 2a3f 8662 4540
00000290: c6fb 113e 6003 ec3f d4f7 943f 72cd 3740
000002a0: e49c 04be 50ba bf3e ec21 0b3e cf8a ff3f
000002b0: 9f03 643f 28a1 edbe aaae 0940 1273 bd3f
000002c0: 2578 0b3f 52c7 c03f 93da a53d 8c94 91bd
000002d0: c8e9 2fbf 21ae 05c0 fa6b a2be 262c 2d40
000002e0: 31c5 0a40 3b51 9cbf 382a f13e dd79 f83f
000002f0: 90b6 c33f 7ed2 ae3f 5165 a53f b0f7 90bf
00000300: 8ed9 7f3e ca39 08c0 32b8 b83e 86a5 cb3f
00000310: 5298 b33f 075b 1bbf 4087 963f 7465 973f
00000320: 16a1 793f 5b30 1340 98f5 82bd 881c 353f
00000330: d6c0 dd3f 6ee8 d5bf e5cd 80bf dfa9 623f
00000340: 5ebe bbbe 6005 dcbf 902d b73d 1988 143f
00000350: 8285 003f b4a5 27bf 4470 1cbe 29b9 2640
00000360: ac62 1d40 cd4d 82c0 97b5 38c0 af5b 0b3e
00000370: 37bf 0cc0 1a68 85bf ce49 8d3f 398f abbf
00000380: 5f22 4cc0 f37c 083f 0aa6 82bf 9e67 98c0
00000390: 946b b33f 8a39 febe 4907 9cbf 73c3 74c0
000003a0: 266c b6bf 7197 0dbf 8bc0 02c0 0a31 0bc0
000003b0: 9bef 66c0 e5b5 82bf a690 04c0 ca33 db3c
000003c0: b91d ef3f bca6 a2c0 6f16 8ebe 4654 72bf
000003d0: 0348 11c0 d567 e4bf ccb5 613e 04fb 96c0
000003e0: 6254 eebf 032e b03f 85c3 c5bf d622 6abd
000003f0: 4f2e 8abf a6ff 1c3f f34a 76bf 2951 44be

fc.bias f4 [7]
0.4195862 -3.7858043 -0.0009025596 0.14380737 0.36364537 1.1734172 -1.8820134
00000000: 01d4 d63e 9e4a 72c0 c099 6cba 3d42 133e
00000010: ba2f ba3e 8932 963f d1e5 f0bf
