FaceExpressions_CNN/savemodel/model_22.pth (torch_old, 185408 bytes, 14 tensors)

layer1.0.weight f4 [16, 1, 5, 5]
0.76160675 1.2419127 2.8204837 1.9023691 2.1221662 2.3080986 -0.18511613 -0.13015182
-0.08421547 -0.021168668 0.9495273 -1.365151 -1.8409609 -3.5588567 -4.5799594 1.1859243
-0.82237625 -0.1717622 -1.9642907 -1.662116 0.3549688 -1.6075038 1.6248655 0.38861686
1.2055944 -0.93295306 -1.6848241 -0.37845004 1.5518708 2.16082 -0.2692649 -0.85955006
-0.1419266 0.35006794 -0.24358961 -1.2924805 -0.91541314 -0.7717273 -2.2729156 -2.0520418
-3.9687302 -2.1960738 -2.3174126 -3.5596604 0.77012795 1.0173764 0.08261928 -0.10867026
0.46885836 0.9215661 -1.9661351 -0.9381802 0.90319103 -0.059672356 -2.3179975 0.33083364
2.4179308 1.5290349 3.5589004 0.5583897 0.12932305 2.6926024 0.74363136 3.8476775
0.8069694 -2.4360576 0.9683299 0.30564022 3.6771767 0.36046767 -1.1164924 0.13339506
0.3904698 -0.088475786 -1.7261269 2.5175977 0.7582422 -1.6697321 -0.2348502 0.010272024
2.0184999 -3.21152 -2.1754112 0.2316734 0.055645335 -1.8524961 -4.484427 0.22138791
-0.39838126 -1.8669808 -1.4729809 1.3190573 2.1996052 1.7301837 1.5385901 0.27794483
1.4410497 0.1419802 0.3444313 1.3170425 0.99794257 -0.5395877 -1.5937407 -2.34962
1.0928626 0.72259074 -1.1462358 0.07163902 -1.5916419 -1.9957963 -1.7387687 -0.2791978
0.6389863 -2.9088593 -3.561674 0.9284336 0.670048 -0.8906808 -2.0821471 -1.814055
2.892477 3.0085793 0.78077763 1.2338606 1.2256427 -1.0650835 -3.8501573 -4.1773734
-1.816746 -0.76931775 0.28399432 -0.89546055 -1.5264748 -1.3900976 -1.7806922 0.038366597
0.5956925 1.4308261 1.7469978 -0.8236599 -0.57828325 0.41490522 1.7617252 0.90926415
1.1214327 2.837935 1.2042736 1.4012169 0.4188562 2.846768 0.58269095 -1.1483073
-0.49080515 1.5657425 0.32846433 0.84593487 -0.47595048 -2.8391378 0.07701768 3.0117495
0.7346095 1.6576302 -3.3599477 -3.2688658 2.2203882 -0.31989712 2.2424867 1.0355123
-2.9570155 -1.0760945 -0.34098062 0.40161285 1.7251973 0.21085267 -0.16327196 -0.24197687
-0.22492187 -2.409313 -1.2919773 -1.3444059 -1.0114825 0.3751543 -0.6377716 0.48051414
0.24492969 -1.3249394 4.561697 4.4208217 4.218897 1.8363241 -0.52034724 2.0252187
0.17191017 2.142739 -1.9265223 1.3778269 0.6476334 -0.029595781 0.8390837 -2.1745243
-1.1091264 -0.55287766 -0.62715334 -2.2595491 -1.5884378 0.77172077 -0.033738393 -0.54990226
-0.5177505 1.9061638 0.4795373 1.8316381 1.1201082 2.4889066 -0.64516646 -0.089226715
2.5439625 2.230147 2.0703888 -3.4253623 0.16368793 0.7346134 1.4142267 1.2457871
-3.6663048 0.4302941 -1.3868111 -0.3019715 -0.12155019 0.48429197 -1.048154 -1.2519614
3.0285385 1.7567545 0.64980245 0.1952179 0.8946805 4.8174977 0.374251 -2.4334598
-0.9669659 2.0990298 3.9451268 -1.427237 -3.2106826 -1.5073975 -0.45626152 0.28609684
-0.5393696 -1.014952 2.1022773 0.76368177 -2.2350857 -1.1060551 1.4911424 0.23148096
00000000: a9f8 423f fff6 9e3f ce82 3440 d580 f33f
00000010: 92d1 0740 e3b7 1340 158f 3dbe 8546 05be
00000020: 2979 acbd ea69 adbc 3914 733f 45bd aebf
00000030: 9ba4 ebbf 4fc4 63c0 078f 92c0 5ecc 973f
00000040: 4087 52bf 6ee2 2fbe e16d fbbf 38c0 d4bf
00000050: 78be b53e afc2 cdbf 98fb cf3f caf8 c63e
00000060: eb50 9a3f 03d6 6ebf 51a8 d7bf 34c4 c1be
00000070: b4a3 c63f e04a 0a40 17dd 89be 790b 5cbf
00000080: 3555 11be 1b3c b33e 8e6f 79be 0070 a5bf
00000090: 8458 6abf ec8f 45bf 7377 11c0 a754 03c0
000000a0: adff 7dc0 798c 0cc0 7d50 14c0 7ad1 63c0
000000b0: 1b27 453f 6439 823f 4c34 a93d 838e debd
000000c0: 340e f03e c2eb 6b3f 51aa fbbf 942c 70bf
000000d0: 8737 673f 006b 74bd 125a 14c0 0763 a93e
000000e0: 61bf 1a40 6ab7 c33f 06c5 6340 a1f2 0e3f
000000f0: 436d 043e 9953 2c40 a05e 3e3f 5940 7640
00000100: 8c95 4e3f 5ee8 1bc0 78e4 773f e07c 9c3e
00000110: dd56 6b40 388f b83e 39e9 8ebf b798 083e
00000120: a8eb c73e cb32 b5bd baf1 dcbf 5220 2140
00000130: 291c 423f c8b9 d5bf 927c 70be fe4b 283c
00000140: 1a2f 0140 8b89 4dc0 f039 0bc0 cb3b 6d3e
00000150: 5dec 633d 981e edbf 6d80 8fc0 83b3 623e
00000160: a1f8 cbbe 3af9 eebf a38a bcbf dfd6 a83f
00000170: 55c6 0c40 a976 dd3f 85f0 c43f c94e 8e3e
00000180: 5174 b83f 4263 113e 4d59 b03e d994 a83f
00000190: 2a79 7f3f 6b22 0abf b2ff cbbf 2d60 16c0
000001a0: ece2 8b3f b5fb 383f dbb7 92bf 7bb7 923d
000001b0: ecba cbbf 4176 ffbf f98f debf 04f3 8ebe
000001c0: 9b94 233f c02a 3ac0 78f2 63c0 d3ad 6d3f
000001d0: 4488 2b3f a803 64bf e641 05c0 f432 e8bf
000001e0: 581e 3940 908c 4040 0be1 473f 25ef 9d3f
000001f0: dce1 9c3f a854 88bf fa68 76c0 0bad 85c0
00000200: 228b e8bf 02f2 44bf b467 913e e73c 65bf
00000210: 8763 c3bf b8ee b1bf b9ed e3bf 4b26 1d3d
00000220: 4e7f 183f 4f25 b73f a09d df3f 60db 52bf
00000230: 5f0a 14bf 756e d43e 3680 e13f 89c5 683f
00000240: 1b8b 8f3f baa0 3540 a325 9a3f 135b b33f
00000250: 5274 d63e 7231 3640 3c2b 153f bcfb 92bf
00000260: d04a fbbe 406a c83f 7a2c a83e 308f 583f
00000270: c8af f3be 6fb4 35c0 72bb 9d3d 81c0 4040
00000280: 5e0f 3c3f 3a2d d43f 6209 57c0 1935 51c0
00000290: d71a 0e40 8ec9 a3be e784 0f40 ab8b 843f
000002a0: be3f 3dc0 77bd 89bf 0395 aebe 33a0 cd3e
000002b0: 44d3 dc3f c3e9 573e c430 27be c9c8 77be
000002c0: eb51 66be 2f32 1ac0 835f a5bf 7e15 acbf
000002d0: 4278 81bf 3914 c03e 0045 23bf f305 f63e
000002e0: d9ce 7a3e 9d97 a9bf 6cf9 9140 5f77 8d40
000002f0: 3401 8740 ab0c eb3f 7a35 05bf 2f9d 0140
00000300: 3809 303e a322 0940 4898 f6bf a25c b03f
00000310: 4dcb 253f da72 f2bc 30ce 563f 682b 0bc0
00000320: dbf7 8dbf 6489 0dbf 1f8d 20bf 749c 10c0
00000330: ee51 cbbf 7e8f 453f 4531 0abd 65c6 0cbf
00000340: 4c8b 04bf 2dfd f33f ea85 f53e 1e73 ea3f
00000350: b55f 8f3f 3f4a 1f40 a129 25bf 7fbc b6bd
00000360: 48d0 2240 baba 0e40 4081 0440 2339 5bc0
00000370: cf9d 273e a00f 3c3f 6105 b53f f475 9f3f
00000380: bda4 6ac0 824f dc3e 0783 b1bf 029c 9abe
00000390: 4eef f8bd 1ef5 f73e e929 86bf 4540 a0bf
000003a0: 93d3 4140 55dd e03f 7459 263f 34e7 473e
000003b0: c809 653f f128 9a40 d49d bf3e cebd 1bc0
000003c0: 148b 77bf 8156 0640 f57c 7c40 b4af b6bf
000003d0: d37b 4dc0 67f2 c0bf 1c9b e9be 497b 923e
000003e0: 2014 0abf f2e9 81bf b68b 0640 a680 433f
000003f0: a50b 0fc0 3793 8dbf c1dd be3f 5809 6d3e

layer1.0.bias f4 [16]
-1.3954424 2.0240595 -0.1682296 -0.43904456 1.4463252 -1.4294075 0.16524008 0.13957728
0.4023198 0.086394705 0.064666644 -0.87533784 0.9871426 0.4494902 1.6385428 0.19809988
00000000: db9d b2bf 318a 0140 6144 2cbe 73ca e0be
00000010: 2f21 b93f d3f6 b6bf b234 293e 59ed 0e3e
00000020: dcfc cd3e b5ef b03d f26f 843d 2416 60bf
00000030: 61b5 7c3f 9423 e63e c5bb d13f b2da 4a3e

layer1.1.weight f4 [16]
2.4387097 1.90784 2.1034086 2.2463136 1.8111277 2.579854 2.46046 1.9852563
1.1119882 1.6142198 1.8837218 2.1783035 2.222363 2.260316 1.5237237 0.3668706
00000000: d213 1c40 1a34 f43f 3f9e 0640 9ac3 0f40
00000010: 08d3 e73f 541c 2540 2d78 1d40 e11c fe3f
00000020: a155 8e3f c19e ce3f cc1d f13f 5369 0b40
00000030: 323b 0e40 04a9 1040 6109 c33f 77d6 bb3e

layer1.1.bias f4 [16]
-2.57006 -1.7367957 -2.6480782 -0.057505652 -1.4722149 -1.6791452 -0.8738986 -1.7826008
0.61667323 -0.72297823 -2.8107646 -1.657155 -2.6204803 -0.244388 -0.7783155 -1.3687358
00000000: dd7b 24c0 524f debf 1d7a 29c0 0c8b 6bbd
00000010: 8a71 bcbf 3bee d6bf d2b7 5fbf 432c e4bf
00000020: 4cde 1d3f 1a15 39bf 91e3 33c0 a81d d4bf
00000030: f3b5 27c0 d940 7abe af3f 47bf bc32 afbf

layer1.1.running_mean f4 [16]
-2.1367507 -6.0741744 6.370712 -1.1671108 -2.4517124 -2.2003996 -0.07357482 5.344233
2.8258078 1.7097989 0.17304242 -1.0282896 -6.67798 -0.08773612 2.2307813 -3.6615636
00000000: 86c0 08c0 a35f c2c0 dfdc cb40 e363 95bf
00000010: dbe8 1cc0 59d3 0cc0 65ae 96bd f503 ab40
00000020: 09da 3440 b1da da3f 0832 313e fe9e 83bf
00000030: 03b2 d5c0 ffae b3bd 1fc5 0e40 0f57 6ac0

layer1.1.running_var f4 [16]
3.828124 15.966168 12.003111 1.8324724 8.192109 7.5214396 0.97085434 8.429536
3.9921699 2.7477663 2.0459538 5.807514 20.860039 4.1123047 1.929816 3.2857292
00000000: fcff 7440 6d75 7f41 be0c 4041 758e ea3f
00000010: e112 0341 a2af f040 e989 783f 61df 0641
00000020: b67f 7f40 67db 2f40 e8f0 0240 28d7 b940
00000030: 5ce1 a641 0098 8340 3604 f73f 6349 5240

layer2.0.weight f4 [32, 16, 5, 5]
-3.7287931 -2.7620103 -1.1034559 -2.7446268 -1.3802788 -3.818604 -2.272395 -1.4341396
-3.519592 0.033768117 1.154695 -0.43342113 -1.9970888 -0.9702086 2.269666 0.8100401
-1.0730942 -1.0052352 -0.6566435 -0.35078853 -1.4390483 -2.15433 0.3850684 -0.83712
0.84728414 -2.3153968 -0.8477323 -2.6778538 -1.3336359 0.3415807 -0.23097351 0.21780595
-1.6601018 0.7105288 3.845358 0.39539528 1.046228 -0.6821116 -2.3130875 -0.06386299
0.91869956 2.5481353 1.289215 -0.9722424 -0.92915297 2.284879 0.5332671 -2.264181
-2.5061073 0.6871085 -0.024364827 4.9812903 -1.1440551 -0.39875403 -1.4369243 -0.95390534
0.339837 -2.6581805 -0.32345292 -0.5999385 -1.8646053 0.8880172 -0.017954366 -0.29474744
-1.3220268 -0.98087496 2.4509969 -0.23576273 0.8246514 -0.6448705 -1.4225363 -0.64649194
-0.34801477 -1.8082129 -1.5636971 0.94313496 -0.5172734 -0.7116011 -0.08216391 -1.8377911
-1.3934873 -3.3310916 -4.0250387 -1.684465 -0.23057981 2.4103174 1.1804236 -5.7136083
-4.34653 0.16654234 0.6674368 1.3977809 -1.2718707 0.026561975 0.39503235 0.41290462
1.6745151 -0.8181711 -0.6046018 1.4231915 -0.37634176 1.5444295 -1.4524957 -0.6767878
-1.5445449 -2.3382535 -1.3452295 -1.8420098 -1.6661514 -1.5070566 -0.9524884 -0.59794044
-1.0567455 -0.99292785 -1.9300061 1.2672544 2.4216008 -0.9289851 -1.051818 -0.34459198
2.454244 -1.2585435 -1.0958064 1.7197489 0.8712552 0.10356995 -1.7468256 -1.7384964
0.9660924 0.889462 0.8857247 -0.470934 -1.5669436 -0.98901594 0.42565653 -1.7802566
1.0073154 -0.2716822 0.5783977 -1.1724527 0.6650689 0.936206 -3.8148096 -1.6895739
1.4297736 -0.8445657 0.8619756 0.18543495 -2.9589388 -0.36005145 -1.9958696 3.808832
-0.048989367 0.7355133 1.0045944 -0.25903893 -5.61749 -1.1610436 -1.1628765 -4.3428764
2.1876953 1.1108918 -1.7394204 -4.7528725 0.49745834 1.0422789 1.4203521 -0.1581479
1.0088087 -0.38223875 1.0236428 -0.037997805 -1.5937463 0.4460081 -0.6590704 1.2681046
1.1291347 -2.1329918 1.3488647 0.62441003 1.55956 0.69554853 -0.26811588 -0.88166016
-2.397118 -2.993188 -1.5594729 -0.95245576 -0.73833203 -1.6226621 -1.9008001 -0.49663407
-0.90415126 0.24776365 1.3975044 -0.08707014 -0.29414892 -0.21029633 0.95532614 2.727514
-0.6376938 -1.0915341 -0.898762 0.55181235 -0.6192493 -1.0115722 -2.139143 1.3452226
0.9183102 0.0731118 -2.6429875 -2.2270927 -0.38453546 0.6076589 0.5987053 -1.2158328
-0.7094449 -1.0747545 -1.2131642 0.26977846 -2.359637 0.05459475 1.2999213 0.23659718
-0.72787255 -1.1761696 -1.2259431 -1.1581277 2.3636255 -0.5658267 0.66625845 -4.151663
-0.3003479 0.69561255 -0.61204 -0.34839025 -0.68879974 -0.7194961 1.2847633 0.023160892
-3.0415072 -2.5218728 -1.7694732 0.027627531 1.2913029 -2.1387146 0.6763101 1.5538583
0.04236985 0.99309236 3.257395 -2.867594 0.25544262 -1.621476 -0.30269182 -0.81556016
00000000: 8ca4 6ec0 c7c4 30c0 0b3e 8dbf f7a7 2fc0
00000010: faac b0bf 0264 74c0 eb6e 11c0 e391 b7bf
00000020: ff40 61c0 7050 0a3d 0ccd 933f 60e9 ddbe
00000030: 9ba0 ffbf 975f 78bf 3542 1140 ca5e 4f3f
00000040: 275b 89bf 8cab 80bf ca19 28bf 8e9a b3be
00000050: bc32 b8bf 8be0 09c0 af27 c53e 7f4d 56bf
00000060: 9de7 583f 762f 14c0 fc04 59bf f561 2bc0
00000070: 95b4 aabf aae3 ae3e 5284 6cbe 8608 5f3e
00000080: 377e d4bf 37e5 353f 581a 7640 4071 ca3e
00000090: cdea 853f de9e 2ebf a009 14c0 99ca 82bd
000000a0: e52f 6b3f a614 2340 ff04 a53f e1e4 78bf
000000b0: f8dc 6dbf 753b 1240 3184 083f 57e8 10c0
000000c0: 1064 20c0 58e6 2f3f bf98 c7bc bb66 9f40
000000d0: 6670 92bf 7d29 ccbe 23ed b7bf 2433 74bf
000000e0: 1eff ad3e a11f 2ac0 9f9b a5be 9295 19bf
000000f0: 63ab eebf 1855 633f 0915 93bc 23e9 96be
00000100: 2d38 a9bf 9f1a 7bbf 22dd 1c40 c96b 71be
00000110: 5b1c 533f 3c16 25bf ab15 b6bf 7f80 25bf
00000120: fe2e b2be 8573 e7bf 3a27 c8bf 4b71 713f
00000130: 086c 04bf 7d2b 36bf 8d45 a8bd bd3c ebbf
00000140: cb5d b2bf 9b30 55c0 1ecd 80c0 8d9c d7bf
00000150: 1d1d 6cbe a442 1a40 1f18 973f e1d5 b6c0
00000160: c616 8bc0 138a 2a3e 23dd 2a3f 7cea b23f
00000170: a9cc a2bf 8098 d93c ae41 ca3e 3c68 d33e
00000180: 8356 d63f a973 51bf 2fc7 1abf 242b b63f
00000190: deaf c0be deaf c53f 61eb b9bf f741 2dbf
000001a0: a6b3 c5bf f2a5 15c0 7b30 acbf fac6 ebbf
000001b0: 7344 d5bf 3be7 c0bf 48d6 73bf a012 19bf
000001c0: 7043 87bf 8530 7ebf 710a f7bf 6435 a23f
000001d0: 82fb 1a40 f8d1 6dbf f9a1 86bf 5c6e b0be
000001e0: 5512 1d40 f417 a1bf 6243 8cbf bb20 dc3f
000001f0: 950a 5f3f 7b1c d43d fb97 dfbf 0d87 debf
00000200: d551 773f c8b3 633f dbbe 623f 431e f1be
00000210: 9c91 c8bf 2630 7dbf a7ef d93e 73df e3bf
00000220: b6ef 803f ee19 8bbe df11 143f ee12 96bf
00000230: f541 2a3f 32ab 6f3f d725 74c0 f543 d8bf
00000240: d202 b73f 7535 58bf 6faa 5c3f a9e2 3d3e
00000250: 415f 3dc0 aa58 b8be a878 ffbf e7c3 7340
00000260: 13a9 48bd 9a4a 3c3f 8d96 803f c0a0 84be
00000270: 7ac2 b3c0 149d 94bf 23d9 94bf d8f8 8ac0
00000280: 3303 0c40 b431 8e3f 54a5 debf 8817 98c0
00000290: dcb2 fe3e 6569 853f 19ce b53f 86f1 21be
000002a0: a520 813f ccb4 c3be ba06 833f 96a3 1bbd
000002b0: e1ff cbbf 2c5b e43e d6b8 28bf 4051 a23f
000002c0: 7c87 903f f082 08c0 99a7 ac3f 56d9 1f3f
000002d0: a99f c73f 780f 323f 7c46 89be 7bb4 61bf
000002e0: 626a 19c0 6490 3fc0 cf9c c7bf 24d4 73bf
000002f0: 5403 3dbf 64b3 cfbf 6b4d f3bf d246 febe
00000300: 7576 67bf c1b5 7d3e 6de1 b23f d451 b2bd
00000310: b09a 96be ec57 57be 4190 743f 978f 2e40
00000320: e73f 23bf 64b7 8bbf 4415 66bf 9343 0d3f
00000330: 1f87 1ebf 337b 81bf b8e7 08c0 4130 ac3f
00000340: 6116 6b3f a4bb 953d b526 29c0 b088 0ec0
00000350: d5e1 c4be 898f 1b3f c044 193f 69a0 9bbf
00000360: 2e9e 35bf 8e91 89bf f748 9bbf 6720 8a3e
00000370: 4b04 17c0 bf9e 5f3d d263 a63f 8846 723e
00000380: db55 3abf ba8c 96bf b4eb 9cbf 873d 94bf
00000390: a445 1740 05da 10bf ea8f 2a3f 6cda 84c0
000003a0: 33c7 99be aa13 323f a7ae 1cbf 3560 b2be
000003b0: 2e55 30bf e530 38bf 2073 a43f e9bb bd3c
000003c0: 0ea8 42c0 5d66 21c0 197e e2bf 2253 e23c
000003d0: 6a49 a53f b3e0 08c0 a922 2d3f d4e4 c63f
000003e0: 028c 2d3d 4d3b 7e3f 2979 5040 a986 37c0
000003f0: 60c9 823e 878c cfbf 6cfa 9abe 8dc8 50bf

layer2.0.bias f4 [32]
1.5578171 0.6583588 1.1990389 0.1929084 0.4435456 0.7202887 1.4872464 0.3013051
1.0612508 0.25515854 0.85938877 -0.020526119 0.1955629 0.60752106 1.4490008 0.55508775
0.18916236 0.19695292 0.7664104 0.6990327 0.13229117 1.5328709 1.2841401 1.3306222
1.311157 0.03198193 0.85874516 0.94175726 0.16890362 1.422519 0.8018993 0.17242675
00000000: 8d66 c73f 348a 283f 1b7a 993f c889 453e
00000010: 6918 e33e d764 383f 175e be3f a944 9a3e
00000020: 11d7 873f 24a4 823e e700 5c3f 6426 a8bc
00000030: a441 483e 8086 1b3f dc78 b93f 3b1a 0e3f
00000040: c7b3 413e 07ae 493e 7933 443f cff3 323f
00000050: 5677 073e 1d35 c43f b45e a43f d451 aa3f
00000060: fed3 a73f 7cff 023d b9d6 5b3f 0117 713f
00000070: 12f5 2c3e 1a15 b63f 4649 4d3f a390 303e

layer2.1.weight f4 [32]
0.47234565 0.42472476 0.57677794 0.26864558 0.22420615 0.52475595 0.5684106 0.14227194
0.3531363 0.22648065 0.4303085 0.86072767 0.17639042 0.6553535 0.6113928 0.9888372
0.21059252 0.28662583 0.70204324 0.5311442 0.1682578 0.63632536 0.47628495 0.41632608
0.6408602 0.27196413 0.6525899 0.6038668 0.27096218 0.4977725 0.42753342 0.2535691
00000000: 4ad7 f13e 8675 d93e b8a7 133f ea8b 893e
00000010: 4c96 653e 6856 063f 5b83 113f bcaf 113e
00000020: 48ce b43e 8bea 673e 6551 dc3e a658 5c3f
00000030: b19f 343e 3fc5 273f 3d84 1c3f 6f24 7d3f
00000040: 91a5 573e 9fc0 923e 1bb9 333f 11f9 073f
00000050: c64b 2c3e 38e6 223f 9fdb f33e b128 d53e
00000060: 6a0f 243f e23e 8b3e 2210 273f 0497 1a3f
00000070: 8ebb 8a3e 0adc fe3e a9e5 da3e cfd3 813e

layer2.1.bias f4 [32]
-0.4525711 -0.4603915 -0.68592757 -0.7322961 -0.6869979 -0.70770013 -0.66198564 -0.8243952
-0.4841623 -0.76534355 -0.4890917 -1.8076246 -0.9085395 -1.1374464 -0.67575353 -1.4296681
-0.76636624 -0.6258959 -0.97121066 -0.5942597 -0.5734798 -0.81291264 -0.63019127 -0.45302984
-1.0279042 -0.6508736 -0.9420577 -0.704478 -0.68851686 -0.4922881 -0.5935957 -0.8235452
00000000: 66b7 e7be 6fb8 ebbe f398 2fbf c277 3bbf
00000010: 18df 2fbf d62b 35bf e477 29bf 900b 53bf
00000020: 1fe4 f7be 8eed 43bf 3a6a fabe 3e60 e7bf
00000030: 0b96 68bf d897 91bf 2ffe 2cbf 5dff b6bf
00000040: 9430 44bf b73a 20bf 43a1 78bf 6721 18bf
00000050: 92cf 12bf 0b1b 50bf 3754 21bf 87f3 e7be
00000060: 5d92 83bf a79f 26bf b22a 71bf ac58 34bf
00000070: a442 30bf 300d fcbe e3f5 17bf dcd3 52bf

layer2.1.running_mean f4 [32]
-80.95614 -53.97562 -56.01165 -41.4504 -20.712559 -44.178024 -63.59421 -28.325684
-41.8789 -29.084198 -45.80922 -43.35497 -35.97738 -53.47666 -70.53749 -60.654404
-17.38825 -16.646425 -49.110294 -88.58912 -34.744385 -59.123123 -54.97478 -60.206833
-39.143322 -21.107067 -40.925526 -60.355747 -24.464529 -83.42836 -56.707222 -35.686283
00000000: 8be9 a1c2 09e7 57c2 ee0b 60c2 36cd 25c2
00000010: 52b3 a5c1 4cb6 30c2 7960 7ec2 009b e2c1
00000020: fe83 27c2 70ac e8c1 a43c 37c2 7d6b 2dc2
00000030: d6e8 0fc2 1ae8 55c2 3213 8dc2 1c9e 72c2
00000040: 231b 8bc1 e12b 85c1 f170 44c2 a12d b1c2
00000050: 40fa 0ac2 147e 6cc2 2de6 5bc2 ccd3 70c2
00000060: c392 1cc2 46db a8c1 bdb3 23c2 496c 71c2
00000070: 5bb7 c3c1 52db a6c2 32d4 62c2 c1be 0ec2

layer2.1.running_var f4 [32]
4665.6753 4925.6533 3322.9485 645.93994 206.67564 3018.9392 4040.5015 351.6584
2474.9175 376.466 3950.3665 4828.506 685.1376 3700.4358 4182.2334 3869.0222
226.93015 132.70047 4061.102 5123.1313 590.30176 3518.6147 2825.241 3699.49
2242.1033 182.92223 3819.8335 3695.7573 232.42433 5322.965 3992.9238 553.8366
00000000: 67cd 9145 3aed 9945 2daf 4f45 287c 2144
00000010: f7ac 4e43 07af 3c45 0688 7c45 46d4 af43
00000020: aeae 1a45 a63b bc43 dde5 7645 0ce4 9645
00000030: ce48 2b44 f946 6745 deb1 8245 5bd0 7145
00000040: 1eee 6243 52b3 0443 a2d1 7d45 0d19 a045
00000050: 5093 1344 d6e9 5b45 db93 3045 d737 6745
00000060: a721 0c45 17ec 3643 56bd 6e45 1efc 6645
00000070: a16c 6843 b857 a645 c88e 7945 8b75 0a44

fc.weight f4 [7, 4608]
-1.2162135 -0.204349 0.72352946 0.6984938 1.9348264 -2.0594766 -2.8068535 1.2182485
-2.0582745 -1.1765254 0.17805032 -0.91378075 -0.3088662 -0.74417865 -1.8289931 0.66889477
0.7056931 -0.8933564 0.86917275 -0.24106683 0.31061003 0.24619631 -1.147826 -1.3902553
0.10715281 0.57908624 1.0878814 0.7978402 -1.1956779 0.27317345 -0.9309382 -0.34685963
-0.95115006 -1.9566596 -0.43525133 0.15319383 -0.17218319 -0.31010035 -1.3077003 -0.18531655
0.4592962 -1.1847942 -0.6120477 1.6607381 -0.22458059 -0.9421008 0.23463273 -1.8183446
-0.4649025 0.04512453 -0.78556556 -0.89971364 -0.22091204 -0.500053 0.97743076 -0.9293504
-0.70364505 -1.3413951 0.14158005 0.39009476 1.8465735 2.075327 0.81026417 -0.33400607
1.4742007 -0.40256077 0.71136063 0.09051112 -0.52806157 -1.4180552 1.2380782 -0.903119
-1.0822723 -0.5434461 -0.2148623 0.1134786 -0.048528362 1.6552162 -0.98413813 -0.1036825
0.4518267 1.7885584 -0.22842036 3.4284735 -0.68854004 0.2874153 0.88636863 -0.3936061
0.8843881 -1.022111 0.33980986 -0.34214503 1.8437116 -0.7295142 0.06178254 -0.4151831
0.24584582 -0.53813845 1.0080051 0.04656763 2.1750455 -0.13881913 -0.40194106 0.4036518
1.2663355 0.22771049 -0.055087455 -0.33152327 0.23566215 1.5103523 -0.13166896 0.5803152
-1.0113921 0.46013406 -0.2153559 0.911545 1.157471 1.1206499 0.04669021 1.1225749
-0.45383418 0.09832498 -0.39467692 -2.1684282 0.8505201 -2.0721967 1.2860278 0.9524904
1.043726 -0.41487554 -0.8186279 0.40600443 -0.1067559 2.4929352 -0.88724536 0.0229553
-0.49542266 0.30235612 0.19583504 -1.1504074 1.2119116 -2.1469533 -0.23732392 -0.52407306
-0.44465828 -0.44500425 0.16464047 0.054632068 2.7308028 -2.4432402 1.3066639 1.1882908
0.84483105 0.40291786 -0.8514129 -2.6457734 1.7146436 0.45830268 1.1456091 0.9294549
0.9179899 0.5879397 0.37766257 2.374055 -0.5811961 0.83849007 0.77919304 1.9730116
0.0006144874 -0.018950807 0.5143151 0.63059014 1.2954104 -0.07859594 1.8334155 1.0116929
0.45154357 1.3878226 0.2195793 -0.050297603 -0.07853698 -2.0321083 -0.09329117 2.2304726
1.4860232 -0.5378504 0.106259026 1.137127 0.6956242 1.517421 0.8849097 -0.37831932
0.75863343 -0.48261437 0.16475888 1.0110606 1.5452315 -0.3843727 1.1652316 0.38780817
0.21296136 2.511386 -1.4786721 0.39416853 2.2328832 0.11367597 -0.6292401 0.32974374
-0.43534333 -1.1929402 0.3115236 -0.1817301 0.09356617 -0.30282775 -0.44520867 3.0640032
1.3875235 -3.240342 -1.5759717 -0.18395185 -1.3906504 -0.8631874 1.0973877 -0.59185314
-2.2426074 0.22604969 -0.8960138 -2.9987175 2.138552 0.18402492 -1.3945853 -2.3122535
-1.2321492 -0.121178135 -1.5218991 -1.5838246 -2.0717084 0.06354737 -2.00159 0.67630076
0.8409428 -3.2305377 -0.7363701 -1.0200828 -1.349323 -1.2176236 -0.91060257 -3.2367203
-1.4962559 0.7826118 -0.55024946 -0.43076804 -0.80822206 0.6519862 -0.40891626 0.29567823
00000000: e2ac 9bbf dd40 51be 3a39 393f 7dd0 323f
00000010: 64a8 f73f 77ce 03c0 7da3 33c0 91ef 9b3f
00000020: c5ba 03c0 6298 96bf d352 363e 89ed 69bf
00000030: b623 9ebe 7e82 3ebf 721c eabf b03c 2b3f
00000040: 4ea8 343f 01b3 64bf 1b82 5e3f 39da 76be
00000050: 4708 9f3e e31a 7c3e f6eb 92bf e3f3 b1bf
00000060: ef72 db3d ff3e 143f b33f 8b3f 413f 4c3f
00000070: f90b 99bf 64dd 8b3e f751 6ebf 9697 b1be
00000080: 927e 73bf d273 fabf 43d9 debe d8de 1c3e
00000090: ca50 30be 79c5 9ebe b962 a7bf 9fc3 3dbe
000000a0: df28 eb3e 56a7 97bf 28af 1cbf 1193 d43f
000000b0: 74f8 65be 852d 71bf 9043 703e 84bf e8bf
000000c0: b307 eebe 80d4 383d d31a 49bf a253 66bf
000000d0: c436 62be 7903 00bf e738 7a3f e8e9 6dbf
000000e0: 1522 34bf d6b2 abbf 5cfa 103e 80ba c73e
000000f0: 855c ec3f 28d2 0440 796d 4f3f d802 abbe
00000100: 9cb2 bc3f 721c cebe bb1b 363f e55d b93d
00000110: 0b2f 07bf d582 b5bf 5979 9e3f cf32 67bf
00000120: e687 8abf 491f 0bbf dd04 5cbe 7867 e83d
00000130: adc5 46bd 20de d33f 7af0 7bbf 7e57 d4bd
00000140: d455 e73e 7bef e43f 07e7 69be 1c6c 5b40
00000150: 2944 30bf 1928 933e 0ee9 623f bd86 c9be
00000160: 4267 623f 89d4 82bf 8ffb ad3e a22d afbe
00000170: befe eb3f 71c1 3abf b00f 7d3d e192 d4be
00000180: 02bf 7b3e 71c3 09bf 5006 813f b3bd 3e3d
00000190: f233 0b40 9a26 0ebe 38cb cdbe 73ab ce3e
000001a0: 4817 a23f f02c 693e 62a3 61bd 6bbd a9be
000001b0: 6b51 713e 3953 c13f 3ad4 06be 898f 143f
000001c0: 4c75 81bf b196 eb3e 4286 5cbe 035b 693f
000001d0: 0228 943f 7571 8f3f 3c3e 3f3d 89b0 8f3f
000001e0: f45c e8be 9b5e c93d 1813 cabe 87c7 0ac0
000001f0: afbb 593f df9e 04c0 8f9c a43f 69d6 733f
00000200: d098 853f 916a d4be 9991 51bf d0df cf3e
00000210: d6a2 dabd 408c 1f40 8322 63bf c10c bc3c
00000220: 0aa8 fdbe 6cce 9a3e fb88 483e 8d40 93bf
00000230: eb1f 9b3f af67 09c0 0b05 73be a729 06bf
00000240: 40aa e3be 99d7 e3be 8397 283e e0c5 5f3d
00000250: 79c5 2e40 0c5e 1cc0 c340 a73f ea19 983f
00000260: d946 583f 404b ce3e 32f6 59bf 5a54 29c0
00000270: 7179 db3f a6a6 ea3e 52a3 923f c2f0 6d3f
00000280: 6301 6b3f 3783 163f fd5c c13e 84f0 1740
00000290: 45c9 14bf 49a7 563f 3279 473f a58b fc3f
000002a0: 8d15 213a b93e 9bbc 28aa 033f 5b6e 213f
000002b0: 02d0 a53f e8f6 a0bd 5cad ea3f 277f 813f
000002c0: b830 e73e 2ca4 b13f 65d9 603e dc04 4ebd
000002d0: ffd7 a0bd 100e 02c0 710f bfbd 10c0 0e40
000002e0: 0236 be3f 90b0 09bf 559e d93d 618d 913f
000002f0: 6d14 323f da3a c23f 7189 623f 12b3 c1be
00000300: cd35 423f 3b19 f7be 8db6 283e 6f6a 813f
00000310: 25ca c53f 80cc c4be 4f26 953f cb8e c63e
00000320: 8b12 5a3e 8cba 2040 2145 bdbf 75d0 c93e
00000330: 8fe7 0e40 f2ce e83d e115 21bf 2cd4 a83e
00000340: 52e5 debe 44b2 98bf 0580 9f3e 7517 3abe
00000350: 9f9f bf3d 3d0c 9bbe 64f2 e3be a118 4440
00000360: 5f9a b13f c361 4fc0 71b9 c9bf e05d 3cbe
00000370: d500 b2bf d9f9 5cbf 3377 8c3f b083 17bf
00000380: e186 0fc0 9279 673e 2961 65bf fdea 3fc0
00000390: 09de 0840 0771 3c3e c581 b2bf f6fb 13c0
000003a0: 11b7 9dbf 3e2c f8bd 97cd c2bf c4ba cabf
000003b0: df96 04c0 2025 823d 0d1a 00c0 0c22 2d3f
000003c0: 0748 573f 21c1 4ec0 c082 3cbf 1392 82bf
000003d0: 9eb6 acbf 17db 9bbf 401d 69bf 6d26 4fc0
000003e0: 5085 bfbf 3f59 483f 26dd 0cbf a18d dcbe
000003f0: a4e7 4ebf 91e8 263f 795d d1be 2363 973e

fc.bias f4 [7]
0.15799479 -2.3746145 0.07855994 0.15492527 0.23666579 0.8324256 -1.1392663
00000000: 63c9 213e aff9 17c0 09e4 a03d bba4 1e3e
00000010: 8458 723e d819 553f 7ad3 91bf
