FaceExpressions_CNN/savemodel/model_0.pth (torch_old, 185408 bytes, 14 tensors)

layer1.0.weight f4 [16, 1, 5, 5]
00000000: 2524 6a3f 484c 3c40 9a3a 7d40 0d93 7740
00000010: 1705 7f40 61ee 9b40 7f43 99be a8c5 46bf
00000020: b091 3cbf 8fcd 39be 3a2d 953f ff26 49c0
00000030: 7138 b3bf cc00 d1c0 5e4b 07c1 dcc5 0840
00000040: 7bda cbbf 6ce2 a43e 10ba 8ac0 6e26 37c0
00000050: 955f e13f 014d 7bc0 6265 2340 26ce 823e
00000060: 053a 1340 0ba8 853e cad6 8dc0 5b76 f9bf
00000070: a300 6840 02d1 9640 6e1f 81bf 32da b4bf
00000080: fa08 0d40 21d8 bc3f 6dbd e3bf f2b4 41be
00000090: a9cc 19c0 29ea 2bc0 ecd7 0fc0 766f 2ec0
000000a0: 9a14 12c1 cf17 3cc0 b990 25c0 8387 f6c0
000000b0: 62b4 0340 3633 b73f ee0a 893f 72c4 babf
000000c0: 324d 8b3f 5c6b 0b40 c6aa 2dc0 f6de 37c0
000000d0: 11d9 3d40 5d9d 883f b5bb a0c0 2b3b 1d40
000000e0: b7fe 5040 1693 0f40 25aa ba40 aa90 b2be
000000f0: 0514 8dbe 5ab3 9840 0581 45c0 db5f e640
00000100: 41f8 833f 5a62 a5c0 6e3e 7740 4932 d63e
00000110: c2ce d540 02db 5b3f ff9e f0bf 0af6 cd3e
00000120: 9bb4 a6be 30e5 b4be 2921 55c0 8efa 9240
00000130: a123 ec3f ec94 59c0 ad1b a2be 4ce7 d43e
00000140: 5748 5140 d232 c0c0 8ac8 8bc0 8e24 823f
00000150: 5a36 64be efe2 4ec0 1155 04c1 0435 e23e
00000160: 23dc 8dbe 0f34 5ec0 e7bd 1cc0 f673 4b40
00000170: 3cdb 5440 1395 6240 3b8d 3540 ac53 343f
00000180: b057 c73f 8efd 523f a7ea c73e c663 1940
00000190: 54d5 3c40 d525 f5bf 9d9f 13c0 c5c9 72c0
000001a0: 79f7 f63f 3a05 e13f f361 edbf 57f9 983e
000001b0: 11f3 09c0 0b04 a5bf 863e 60c0 6502 7bbf
000001c0: 4b3c 2e40 0ee7 bac0 6bbd fdc0 ca62 573f
000001d0: 61cc 933f ef3f 0bc0 a116 3cc0 a49b 0cc0
000001e0: c229 b040 23f5 c940 9272 0140 ee37 0a40
000001f0: 1baf 213f 9d0d 95bf 5161 d1c0 0022 fbc0
00000200: 0e4d 2cc0 d5b1 dabf a93b 05be deb2 83bf
00000210: de64 49c0 0ba0 3dc0 8b4c 37c0 8c1d a03f
00000220: 136b e43e f3aa 0240 64b4 9f40 734f 89bf
00000230: 9e28 a7bf aa25 dd3e ad65 6240 fbff 763f
00000240: 2e9e 913f 0f5e a840 ac78 0940 7423 0e40
00000250: d675 12be 30ef ad40 0709 3b3f b349 17c0
00000260: 21e0 58bf f505 5440 9b42 333e 330b c53f
00000270: 4962 4ebf f6d6 aac0 1725 e43e 9c45 b140
00000280: 2750 ab3f 39e2 2d40 a904 c3c0 cfa9 cfc0
00000290: a900 8840 f885 a7be 2813 6140 2630 2040
000002a0: bfd1 a7c0 0ad9 dcbf a2b9 13bf 06bb 273f
000002b0: 7e5e 3d40 6ff0 423e 6a19 85be 00c8 703e
000002c0: 9dc8 a63e ab59 63c0 4853 60c0 8bcc 7fbf
000002d0: 9e14 1dc0 da4b 423f 9a3a e2bf 1a40 253f
000002e0: 31f4 483f e4e1 56c0 a179 0941 ecea f440
000002f0: 6b37 d640 f428 8640 3385 53be 4459 5c40
00000300: bfcf 4bbf 1426 8240 9b92 73c0 54d5 3940
00000310: 5e39 463f 89c2 01be 6405 e13f bece 9dc0
00000320: ec7a 2ec0 3d4e f13d c3a9 90be ffe2 82c0
00000330: 3cfc 2cc0 89bb 2040 32fa 90bf 0fbf 9cbe
00000340: e713 fabf 1bcd 8e40 b927 b23e 73f6 a93f
00000350: 7d34 2040 0e10 9440 5ba8 03bf 986c 8e3f
00000360: e4c9 6540 0034 7240 59c2 6c40 1b37 c3c0
00000370: e9cc d03e 1b7c 4e3d 0401 8040 548a fe3f
00000380: 2834 dfc0 9471 973f 84df 17c0 106c 26bf
00000390: ad38 163f 4570 dfbd ff56 12c0 77ba c0bf
000003a0: 5b97 9840 e4f3 3340 6dc9 2b40 815a df3e
000003b0: 6ffd 4e3e 84f9 fc40 b4e1 b03c b06f aac0
000003c0: 5c74 13c0 b2d3 5140 3ea3 fc40 b05b 27c0
000003d0: 73d7 b9c0 1424 3cc0 1fff 103f 6080 c4bf
000003e0: bb54 5fbf dd56 95bf 943f 9240 aea4 043f
000003f0: bb03 6fc0 0717 e9bf fa51 2940 a6b9 96bf
0.914614 2.9421558 3.9567018 3.8683503 3.9846857 4.872849 -0.29934308 -0.7764535
-0.736598 -0.1814482 1.1654427 -3.1430051 -1.40016 -6.5313473 -8.4559 2.1370764
-1.592605 0.32203996 -4.3352127 -2.8617206 1.7607294 -3.926575 2.553063 0.25547904
2.3004162 0.2610477 -4.4324694 -1.9489244 3.6250389 4.7130136 -1.0087717 -1.4129088
2.203673 1.4753457 -1.7792183 -0.18916681 -2.4031165 -2.686167 -2.2475538 -2.725553
-9.13003 -2.9389532 -2.5869582 -7.704042 2.0578847 1.4312503 1.070646 -1.45912
1.0882933 2.1784277 -2.7135482 -2.8729835 2.9663737 1.0673023 -5.0229135 2.4567363
3.2655466 2.2433524 5.8332696 -0.34875995 -0.27554336 4.7718935 -3.0859997 7.199201
1.0310136 -5.168256 3.8631854 0.4183524 6.681489 0.85881054 -1.8798522 0.40226775
-0.32559666 -0.35331106 -3.330149 4.5930853 1.8448373 -3.3997145 -0.3166174 0.41582716
3.2700403 -6.0062037 -4.36823 1.0167406 -0.22286358 -3.232601 -8.270768 0.44181073
-0.27707013 -3.4719274 -2.4490907 3.1789527 3.325881 3.5403488 2.836745 0.70440173
1.5573635 0.82418144 0.39046213 2.3967147 2.9505205 -1.915217 -2.306617 -3.793565
1.9294273 1.757972 -1.8545517 0.2987773 -2.1554606 -1.2891859 -3.5038161 -0.9805053
2.72243 -5.840705 -7.9293723 0.84135115 1.1546746 -2.1757772 -2.9388812 -2.1969995
5.5050974 6.311174 2.0226178 2.1596637 0.63157815 -1.164478 -6.5431294 -7.8479004
-2.692203 -1.708552 -0.1301104 -1.0288961 -3.1467814 -2.9628932 -2.8640468 1.2509017
0.4461294 2.041684 4.9907703 -1.0727371 -1.305927 0.43192798 3.5374558 0.96484345
1.1376398 5.261482 2.1479902 2.220914 -0.14302763 5.4354477 0.7306065 -2.3638732
-0.84716994 3.3128636 0.17505877 1.5394043 -0.8061872 -5.3387403 0.44559547 5.539747
1.3383836 2.7169325 -6.094319 -6.4894786 4.2500806 -0.32719398 3.5167942 2.5029387
-5.244354 -1.7253735 -0.5770513 0.6551975 2.9588923 0.1903703 -0.25995952 0.23513794
0.3257493 -3.552348 -3.505083 -0.9992148 -2.4543834 0.7589699 -1.7674134 0.64550936
0.78497607 -3.3575373 8.592195 7.653677 6.694265 4.192499 -0.2065628 3.4429483
-0.7961387 4.067148 -3.805823 2.9036455 0.77431285 -0.12671866 1.757977 -4.931487
-2.7262526 0.11782501 -0.28254518 -4.0902095 -2.7028952 2.5114462 -1.1326354 -0.30614516
-1.9537324 4.4625373 0.3479593 1.3278335 2.5032036 4.62696 -0.51428765 1.112689
3.5904474 3.7844238 3.699362 -6.1004767 0.40781334 0.050411325 4.000124 1.9885964
-6.9751167 1.1831536 -2.3730173 -0.6500864 0.5868023 -0.109100856 -2.2865598 -1.5056905
4.768476 2.811761 2.684169 0.43623737 0.20213865 7.9054585 0.021591999 -5.3261337
-2.303977 3.2785459 7.894927 -2.6149712 -5.80755 -2.939702 0.56639284 -1.5351677
-0.87238663 -1.1667134 4.570261 0.5181378 -3.7346027 -1.8210152 2.6456285 -1.1775405

layer1.0.bias f4 [16]
00000000: afae ab3d b9d6 4841 43b2 c4be e0f2 67c0
00000010: 814e b140 e05b 5bc0 3d86 6e3f 4482 c53f
00000020: d0f6 553e 010f a2bf b39f d03d b428 ed3e
00000030: c9fb fe40 dc63 8cbf 6e7c 4840 b2da 4a3e
0.083829276 12.552423 -0.38417253 -3.624199 5.540833 -3.4274826 0.9317358 1.5430379
0.20894933 -1.2660829 0.1018671 0.46320117 7.9682355 -1.0967975 3.1325946 0.19809988

layer1.1.weight f4 [16]
00000000: 19dc 8140 dee1 6340 5939 8640 0593 4140
00000010: 3063 5640 6732 8940 04d6 5240 9f5c 6740
00000020: 4e13 fc3f da7a 2540 9c86 6b40 02f8 6740
00000030: 1b2a 9240 8cb1 5340 dece 2640 77d6 bb3e
4.0581174 3.5606608 4.1945004 3.0245984 3.349804 4.2874026 3.2943125 3.6150281
1.9693391 2.5856233 3.680091 3.6245122 4.56764 3.3077116 2.6063762 0.3668706

layer1.1.bias f4 [16]
00000000: d6b2 8ac0 cc54 4dc0 08b1 aac0 7a97 babd
00000010: 6e1e 2fc0 5bbd 40c0 2288 8ebf ae83 46c0
00000020: 078d 9c3f b3a7 babf 7f3f a2c0 90eb 2ec0
00000030: acaf a4c0 15c3 07bf abe2 b5bf bc32 afbf
-4.3343306 -3.2083006 -5.3341103 -0.09110923 -2.7362323 -3.0115573 -1.1135294 -3.101787
1.2230538 -1.4582428 -5.070251 -2.7331276 -5.1464443 -0.53032047 -1.4209799 -1.3687358

layer1.1.running_mean f4 [16]
00000000: 4da8 c8bf df14 36be 46ff 0741 61a7 8ec0
00000010: 860e 29bd 02ba 9ac0 f9dd 263f 7ce2 2a41
00000020: dc14 8a40 1727 e53e 8478 0c3e 7fe8 833e
00000030: 8148 94c0 2b13 e2bf 28a2 9340 6fc8 6bc0
-1.5676361 -0.17781399 8.499823 -4.457932 -0.041273616 -4.835206 0.65182453 10.680294
4.3150463 0.44756386 0.13717848 0.25763318 -4.6338506 -1.76621 4.6135445 -3.6841085

layer1.1.running_var f4 [16]
00000000: 7a95 4e41 fdef 2942 0a13 bc41 fc64 b940
00000010: 1495 a441 71b8 b241 dc5c 4540 30e3 c441
00000020: 79e1 2b41 f0fa d940 c4c4 cf40 b88d 9541
00000030: 6b37 6b42 293c 4f41 1ceb b940 6882 5540
12.911493 42.484364 23.509296 5.793577 20.572792 22.34006 3.0837927 24.610931
10.742547 6.811882 6.4927692 18.694199 58.80412 12.952188 5.80995 3.3360844

layer2.0.weight f4 [32, 16, 5, 5]
00000000: aa89 6cc0 5b49 09c0 e71c 9fc0 dd11 14c1
00000010: f378 9fbf 14f1 cbc0 2c6c 90c0 0f7b 09c0
00000020: 1e00 95c0 0a69 2740 8863 1740 65f3 de3e
00000030: ad2b b2c0 89e8 b83e 9bc5 1a40 1633 bfbf
00000040: f983 81c0 ff39 4d3e 00a1 6440 59b9 1bc0
00000050: 9e70 5bc0 1f98 54c0 254e d63f 2795 80bf
00000060: 61c5 f73f 67e1 7dc0 b61f 07c0 ab4a 57c0
00000070: a790 debf 143a 7a3f 7708 19c0 bb2c c03f
00000080: 997b 96bf c747 b93f 8771 f740 266e c93f
00000090: 200e 0340 d475 02be 26fd c3c0 b70e ba3f
000000a0: 29fe 96bf 931d 0f40 61b1 9240 dd1d c5bf
000000b0: 1d2d b13f 0691 f83f 0b03 7b3f d2e9 09bf
000000c0: c045 d0c0 3f1c de3f 9088 d03c 74b3 fb40
000000d0: d3a6 0bc0 c863 39c0 4e04 1ac0 1fde 12bf
000000e0: d0f8 b6bf 6cf8 f1c0 e9a0 6b3f eed1 e13f
000000f0: eca0 00c1 3f3f 3540 f4ac b33e 5742 ce3f
00000100: 70d9 26bf 4b6e c4be abd8 1e40 4598 5040
00000110: 858e 5840 6b74 8b3f f25c febf e29d 57bf
00000120: 28db 8bbe 0efb d1c0 a868 86c0 1fe0 c53f
00000130: d822 84bf 3ce3 dcbf e2f1 cdbf 4426 a0c0
00000140: 5a93 1ac0 4d9e 8ec0 3df5 eec0 0098 d13e
00000150: 9361 0b3e 72c2 b540 5fe7 2740 54c3 29c1
00000160: 0a51 fbc0 fbc4 7e3f 3224 bdbe c9c6 813f
00000170: f5d5 1fc0 fffe a73f 63bd ccbf ae59 0a3e
00000180: 1b40 3840 47b4 52c0 e623 073e 9394 4e40
00000190: 7acd 383f ea8a aa40 7ece 4dc0 d028 c13f
000001a0: 0082 b0bd 6449 11c0 fbf2 eac0 cd7b 11c0
000001b0: 2aa7 6bc0 586d 23c0 f973 5fc0 82fa 2fc0
000001c0: 3865 5440 333c d7be 0e9c d4bf 0284 103f
000001d0: 2c62 d240 17c7 243e 9f91 bec0 c39f 28bf
000001e0: 7efe aa40 8d65 fd3e 56d8 3dc0 28ed 1240
000001f0: 1590 ac3f e36d eabc 34ed 80c0 bc1e 31c0
00000200: a3a3 f03f ffb3 1d40 c247 0d40 de61 3c3f
00000210: 0278 01c0 c359 c63d 8d80 8e3f d5f4 4cc0
00000220: 9a7d a4bf 4d44 a2c0 1b0f 74c0 2f4e 9ec0
00000230: bd49 09bf 2bb7 6e40 8b96 a2c0 6242 0fc0
00000240: 5b4e 9340 362e 28c0 eff5 dc3f 450f cabf
00000250: 4c0d 95c0 bbb0 47bf cace 8cc0 035b dd40
00000260: e0be 36bf 4252 513f 2105 0e40 51fc 33bf
00000270: eef7 36c1 b2ec d7bf 93f3 ca3f 1661 21c1
00000280: cb62 ac40 fa94 9c3e cf70 f1bf 9958 03c1
00000290: d060 7340 0bc1 0240 663b 3340 1082 c33e
000002a0: 51cf 4440 f73b 8fbf 974b e13f 922c 193f
000002b0: 3eec 43c0 d289 ce3c 5032 10c0 d208 0940
000002c0: f938 63c0 f357 0ac0 3a12 3340 8149 1b40
000002d0: f348 d340 98f6 e53e 7d59 a8bf 9859 da3e
000002e0: a458 11c0 911a 45c1 bfc7 afc0 9528 9bbf
000002f0: bd22 a5c0 a5e5 9dbe a9b9 0bc0 4d49 13bf
00000300: fed8 89bf b7f7 45be f807 7540 f1bb 80bf
00000310: 4552 983f bb98 39bd 70f3 443f 98ea 8f40
00000320: 1339 afbf d77e 143f 7031 9d3f 0671 e63f
00000330: 3938 a6bf 0151 a8bf 65cc 6bc0 0dc9 4440
00000340: 468b 8b3e 73b8 4cc0 3c77 88c0 fbe7 1fc0
00000350: fbb7 eb3d 3d9f 5240 68d1 1040 a8f1 063d
00000360: eb6c 52bf c975 13c0 e727 94c0 9771 2940
00000370: 8f71 73c0 4434 80be bde0 2640 7676 333d
00000380: 27f9 9d3f e47e 60c0 6088 0d40 98f7 3fc0
00000390: 6bce 9740 8a5c 05c0 14f5 923d d10b 05c1
000003a0: 126c 1b40 af62 aabf 8be9 1d3e e6e5 aabf
000003b0: 1f69 82c0 88ab e53e ab00 4940 ad20 ea3f
000003c0: 09fb bac0 b4e6 60c0 359d 71c0 0be1 b1bf
000003d0: 3419 d03f d933 92c0 95a0 0840 bf8a 2140
000003e0: 0501 a53f f383 683f 64fb a340 dcc0 a1c0
000003f0: 8fbf 3140 1bea f9bf c5cb 88be 45b9 a33f
-3.6959023 -2.1451023 -4.972278 -9.254361 -1.2458786 -6.3731785 -4.5132046 -2.148136
-4.6562643 2.615786 2.36545 0.4354507 -5.5678315 0.3611491 2.4183109 -1.4937465
-4.04736 0.20041655 3.5723267 -2.4331877 -3.4287486 -3.3217847 1.6742598 -1.0045518
1.935711 -3.9668825 -2.1113105 -3.3639324 -1.7387894 0.9774487 -2.3911417 1.5013651
-1.1756469 1.447503 7.7326083 1.573674 2.0477371 -0.1274026 -6.124652 1.4535741
-1.1796314 2.23618 4.5841527 -1.5399739 1.3841892 1.9419258 0.9805152 -0.53872406
-6.5085144 1.735237 0.025455743 7.865656 -2.1820571 -2.8967152 -2.4065127 -0.5737018
-1.4294682 -7.561575 0.92042404 1.764219 -8.039288 2.8319852 0.3509289 1.6113995
-0.65175533 -0.38365397 2.4819744 3.2592938 3.3836987 1.0894903 -1.9872115 -0.84225285
-0.2731564 -6.5618963 -4.2002754 1.5459021 -1.0323133 -1.7256846 -1.6089442 -5.004671
-2.4152436 -4.456824 -7.4674363 0.4093628 0.1361144 5.679986 2.6234968 -10.610188
-7.8536425 0.9951932 -0.36941677 1.013879 -2.497434 1.3124694 -1.5995296 0.13510773
2.8789127 -3.2922533 0.13197288 3.2278183 0.7218853 5.3294573 -3.2157283 1.509058
-0.086185455 -2.2701044 -7.3421607 -2.2731812 -3.682078 -2.5535488 -3.4914534 -2.7496648
3.318678 -0.42038116 -1.6610124 0.5645143 6.574484 0.16091572 -5.955276 -0.6586878
5.343566 0.4949154 -2.966329 2.2957249 1.348147 -0.028616851 -4.0289555 -2.7675009
1.8799938 2.464111 2.2075047 0.73586833 -2.0229497 0.096850894 1.113298 -3.2024434
-1.285083 -5.0708375 -3.813422 -4.947044 -0.5362814 3.7299297 -5.080877 -2.2384267
4.603315 -2.6278205 1.7262553 -1.578591 -4.657873 -0.78004044 -4.400243 6.91736
-0.71385 0.8176614 2.219063 -0.7030688 -11.43553 -1.6869109 1.5855583 -10.086203
5.3870597 0.3058241 -1.8862551 -8.20913 3.802784 2.0430324 2.8005004 0.38185167
3.0751536 -1.1190175 1.7601193 0.59833634 -3.061294 0.025212202 -2.2530708 2.1411633
-3.5503523 -2.161618 2.7979875 2.4263613 6.602655 0.449147 -1.315231 0.4264648
-2.2710352 -12.318986 -5.493133 -1.212176 -5.1604905 -0.30839267 -2.1832068 -0.57533723
-1.0769346 -0.19332777 3.8286114 -1.0057355 1.1900107 -0.04531167 0.76933956 4.497387
-1.3689293 0.5800604 1.2280712 1.8003242 -1.2985908 -1.314972 -3.6843503 3.0747712
0.27254695 -3.198758 -4.264555 -2.498534 0.11509701 3.2909691 2.2627811 0.032945305
-0.82197446 -2.304064 -4.629871 2.647558 -3.803806 -0.25039876 2.607467 0.043814145
1.234166 -3.5077448 2.2114487 -2.999487 4.7439475 -2.0837731 0.07175651 -8.315385
2.428471 -1.3311366 0.15421121 -1.335141 -4.075332 0.4485743 3.1406658 1.8291222
-5.843144 -3.514081 -3.7752202 -1.3896803 1.6257691 -4.568829 2.1348011 2.5240934
1.2890936 0.9082634 5.1244373 -5.0547924 2.7773168 -1.9524568 -0.26717964 1.2790915

layer2.0.bias f4 [32]
00000000: d680 5540 c79c a33f a030 2140 c889 453e
00000010: 6918 e33e 16a7 ae3f a512 4840 a944 9a3e
00000020: 34cd 0040 24a4 823e 0123 ae3f e9d5 f93d
00000030: a441 483e 0651 913f a455 3c40 8b74 cc3f
00000040: c7b3 413e 07ae 493e df8b d73f 425c 1d40
00000050: 5677 073e 2bc6 3540 4523 1c40 ac67 1d40
00000060: e203 1540 7cff 023d 00dc b03f 20d4 f33f
00000070: 12f5 2c3e 085a 5940 2a18 9f3f a390 303e
3.3359885 1.278222 2.5185928 0.1929084 0.4435456 1.364474 3.126138 0.3013051
2.0125246 0.25515854 1.3604432 0.12199003 0.1955629 1.1352851 2.942727 1.5973066
0.18916236 0.19695292 1.683956 2.458756 0.13229117 2.8402202 2.4396527 2.4594526
2.328362 0.03198193 1.3817139 1.904911 0.16890362 3.39612 1.2429249 0.17242675

layer2.1.weight f4 [32]
00000000: 4694 2b3f 394d 2b3f bf50 423f ea8b 893e
00000010: 4c96 653e 37b0 443f 0994 423f bcaf 113e
00000020: f4c1 e03e 8bea 673e 015f 163f d960 993f
00000030: b19f 343e 73ca 803f 3a8f 5d3f 9568 a23f
00000040: 91a5 573e 9fc0 923e d588 713f 535c 263f
00000050: c64b 2c3e 18f2 6e3f e39b 2f3f 1e27 083f
00000060: f64f 4e3f e23e 8b3e 9788 5f3f f915 533f
00000070: 8ebb 8a3e b818 333f bcd1 2a3f cfd3 813e
0.6702312 0.6691471 0.7590446 0.26864558 0.22420615 0.7683138 0.76007134 0.14227194
0.43897974 0.22648065 0.58738714 1.198268 0.17639042 1.0061783 0.8654667 1.2688166
0.21059252 0.28662583 0.94349414 0.64984626 0.1682578 0.93338156 0.6859724 0.5318469
0.8059076 0.27196413 0.87317795 0.824554 0.27096218 0.6995959 0.6672628 0.2535691

layer2.1.bias f4 [32]
00000000: 40a2 1fbf 457a 30bf 4f38 61bf c277 3bbf
00000010: 18df 2fbf 6be3 81bf fdc4 65bf 900b 53bf
00000020: f1c5 11bf 8eed 43bf 8b3d 0fbf 9d2a 0cc0
00000030: 0b96 68bf a318 c3bf 64f5 70bf 7b66 e7bf
00000040: 9430 44bf b73a 20bf 2e1a 9abf 0c24 54bf
00000050: 92cf 12bf d74a 87bf 267a 60bf 3388 05bf
00000060: e7a4 98bf a79f 26bf b478 96bf 3f11 78bf
00000070: a442 30bf 0947 25bf 2d5a 49bf dcd3 52bf
-0.6235695 -0.6893657 -0.87976545 -0.7322961 -0.6869979 -1.0147527 -0.89753705 -0.8243952
-0.5694266 -0.76534355 -0.5595328 -2.190101 -0.9085395 -1.5241894 -0.94124436 -1.807815
-0.76636624 -0.6258959 -1.203924 -0.82867503 -0.5734798 -1.0569714 -0.87686384 -0.5216095
-1.1925324 -0.6508736 -1.1755586 -0.96901315 -0.68851686 -0.64561516 -0.7865322 -0.8235452

layer2.1.running_mean f4 [32]
00000000: 25c0 3cc3 0631 08c3 f45d 08c3 bd59 86c2
00000010: aa0e 0cc2 c093 f1c2 9880 0dc3 eb03 3ec2
00000020: c171 cfc2 e130 3cc2 6614 d3c2 dfce bdc2
00000030: d4a7 7ac2 611a fcc2 334f 37c3 e346 16c3
00000040: ca06 04c2 9cea cac1 a214 e6c2 a952 6ac3
00000050: 5723 74c2 3032 19c3 8885 08c3 174f 14c3
00000060: 33b1 c1c2 8e34 07c2 67b0 c9c2 d053 0fc3
00000070: 24a3 20c2 5c69 2bc3 504b 0bc3 e086 6cc2
-188.75056 -136.1915 -136.367 -67.17527 -35.01432 -120.788574 -141.50232 -47.503826
-103.722176 -47.047733 -105.53984 -94.904045 -62.663895 -126.05152 -183.30937 -150.2769
-33.00663 -25.364555 -115.0403 -234.32289 -61.03451 -153.19604 -136.5216 -148.30894
-96.84609 -33.801323 -100.844536 -143.3274 -40.159317 -171.41156 -139.29419 -59.131714

layer2.1.running_var f4 [32]
00000000: cee6 0a47 a7ac 2347 75f0 b246 0e34 de44
00000010: 3a29 1244 ed77 ae46 2e5d c046 deed 7a44
00000020: 90e7 7946 9730 8544 3e1c d446 ae17 e846
00000030: 252c 0445 435d d046 162b 0c47 f42e d246
00000040: 8b6b 3844 bd54 a843 e542 bf46 964d 0347
00000050: 4531 ec44 82a1 d246 6eae 9346 d674 c646
00000060: 3dd4 6b46 70d5 f643 4087 c546 137f d246
00000070: df36 2944 3ddb e046 9e1c 0147 6000 c444
35558.805 41900.652 22904.229 1777.6267 584.64417 22331.963 24622.59 1003.7167
15993.891 1065.5184 27150.121 29707.84 2114.759 26670.63 35883.086 26903.477
737.68036 336.66202 24481.447 33613.586 1889.5397 26960.754 18903.215 25402.418
15093.06 493.66748 25283.625 26943.537 676.85736 28781.62 33052.617 1568.0117

fc.weight f4 [7, 4608]
00000000: e8ad 7ec0 500b ccbf 59f6 b23f a7b2 d4bf
00000010: 2896 803d 9faa 5fc0 7333 2ec0 788c 5940
00000020: 8408 56c0 44b4 98bd 4abb 19be 5e57 4bc0
00000030: 9318 e4bf f018 f13e ba74 78c0 6cc1 433f
00000040: d78f a5bd 1e6b bfbf 9076 c73f c6a9 00c0
00000050: 85b5 593e 71d0 293f f698 b4bf 43c7 6ec0
00000060: 167f 46c0 7978 7ebe e245 bcbf 630e 0140
00000070: 2b51 03c0 87f4 6e3f 6f5f d1bf e4da 023f
00000080: eed3 5dbf 0462 62c0 ef43 b5bf d5d9 193e
00000090: 3943 cf3f fde3 e63f 5a88 04c0 2ea1 a7bf
000000a0: e88d 883e 89e8 04c0 5749 e7be 91e7 f23f
000000b0: ffcb 1fbf 49d6 a1bf 9411 f13c d519 35c0
000000c0: 9a7c a9be 1fe5 91bf bc37 ebbf fa8a 12c0
000000d0: 0878 4ebf d520 e43d b6c6 e8bd 5705 53bf
000000e0: a6f7 96bf e881 01c0 4a2c b23d c1b4 283f
000000f0: 5ef4 3540 8b04 8740 2df8 e33e 02de 30bf
00000100: 4676 d63f 1093 64bf e955 893e a895 f6bd
00000110: 1dad 5ebf b40b 9fbf b566 483f 9a13 97c0
00000120: 53b4 25c0 0795 40bf ac1a c43f 097d cf3e
00000130: ec0d 5e3f 656e 1f40 f562 f3bf 1d7d 9cbe
00000140: 7bc4 62be 1daa ec3f 6e52 233f 4c0c c040
00000150: 5b42 803e 37ab d13e ed60 ab3f 38f0 87bf
00000160: 6070 de3f 4291 2e3f 2113 9b3f 6077 33bf
00000170: e157 1e40 ff8f 8fbf 33c6 1bbe c2dd 4ac0
00000180: 6d37 90be 3633 67bf cecb d23f b0d9 aebf
00000190: ef85 4940 d9f1 15bf cb8b e9bf 2a31 523f
000001a0: 979f e53f 431f 92be a59f 413f 35e1 2dbf
000001b0: c501 8f3f 4104 d53f 8bb6 57be f678 23be
000001c0: 8721 fdbf 5ca8 0b3f c325 9fbe 9d14 943f
000001d0: ebb4 303f 0ce6 693f b79e 86bf 6ccb 483d
000001e0: 77cc a840 694e b5bd a438 39bf 1143 51c0
000001f0: c370 0b40 ea4e 97c0 559a 1740 2ed8 2b3f
00000200: a53d 8f3f a31b 88bf d409 e2bf b5a9 9c3f
00000210: 2ca0 2fbe 5fb2 8240 4e51 d2bf 4e95 b7be
00000220: 80b3 94bf 7090 dc3f 48d0 a23f 7689 d1bf
00000230: a5c3 7940 ba7c 9ac0 ab71 eb3f 0ce6 fbbf
00000240: d8a6 9ebf ffdc 91bf 22a2 fd3e af23 e7be
00000250: 167e 9640 6f9c a2c0 4e7e 0840 04ac 1b40
00000260: 1c4a 37bf abd5 06bf 84b4 9b3f 7ff3 b4c0
00000270: 070d 3140 86e4 6b3f cb72 853e d332 2a3f
00000280: 772a 0e40 e72e 0a3f 87ba ea3e d80d 4640
00000290: 146c d83d 0f78 ca3f 73be af3f b639 6440
000002a0: 01ef 4f3f 8d3e f03d 88ff 8cbd 3156 1240
000002b0: 537e 2e3f 796e c43c 5d74 0a40 269e ed3f
000002c0: 812f 643f a3f3 d83f 0c7c 503e cca0 ce3c
000002d0: ccf3 7dbf 855e 13c0 2545 f0be 56b5 3b40
000002e0: 4de5 1a40 32da b3bf 0a39 fb3e 7902 f13f
000002f0: 0998 fc3f 47fd c53f 9179 2a3f e569 a9bf
00000300: 0a6f 893e b5af 09c0 30ac 363e 141f 0140
00000310: 2797 823f a85e c2be 4768 463f 0b67 ad3f
00000320: a4da 5e3f 25b5 1840 aacf b93e 54e8 7d3f
00000330: b4fc dd3f 6ada 04c0 9a35 bebf 1e7b 643f
00000340: ca7d 13bf 33bc e4bf aea1 ec3e a017 263f
00000350: 0f80 8f3b 933b 89bf b890 143e 7591 5340
00000360: 4bf0 f23f 2cd6 90c0 538a 52c0 2388 6d3e
00000370: cad3 16c0 14a6 80bf 9142 883f 1764 b9bf
00000380: 74a7 40c0 2d69 273f f608 9abf fcd7 b6c0
00000390: e86f bd3f b866 9ebd e656 c8bf 9374 81c0
000003a0: c6d1 f1bf 9a4f 7dbf 9c37 24c0 a069 f0bf
000003b0: d968 84c0 3f66 b9bf d711 30c0 3e3a dabe
000003c0: 6c78 1d40 132f bec0 e4f1 f3be 9907 98bf
000003d0: 8d1a 17c0 1931 d2bf eb6f 003d 20c7 9ec0
000003e0: 6ac1 11c0 e5bf 4b3f a039 1fc0 e506 12be
000003f0: 12b2 dcbf b291 cd3e a897 b1bf 70bf 39be
-3.9793644 -1.5940952 1.3981429 -1.661702 0.0627864 -3.494789 -2.7218902 3.3991985
-3.3442698 -0.07456258 -0.15012851 -3.1772075 -1.782 0.47089338 -3.8821244 0.76467013
-0.08084076 -1.4954565 1.5583057 -2.0103621 0.2126065 0.6633368 -1.410918 -3.730912
-3.1015067 -0.24850644 -1.4708827 2.016503 -2.051829 0.9334187 -1.6357249 0.5111525
-0.86651504 -3.5372324 -1.4161357 0.15024503 1.619239 1.8038327 -2.0708222 -1.3096063
0.26670766 -2.0766928 -0.4517314 1.8976918 -0.6242065 -1.264352 0.029427327 -2.8297017
-0.33102876 -1.1398047 -1.8376384 -2.2897325 -0.80651903 0.11139075 -0.11366026 -0.8243002
-1.1794326 -2.0235538 0.08699854 0.6590081 2.84304 4.2193046 0.4452528 -0.6908876
1.6754844 -0.892869 0.26823357 -0.120402634 -0.869829 -1.2425447 0.7828172 -4.721143
-2.589131 -0.752274 1.532064 0.40525082 0.86739993 2.491113 -1.9014574 -0.30564204
-0.22145264 1.8489414 0.6379765 6.001501 0.25050625 0.4095094 1.3388954 -1.0620184
1.7378044 0.68190396 1.2115213 -0.70104027 2.4741137 -1.1215819 -0.15212326 -3.169785
-0.28167287 -0.90312517 1.6468446 -1.3660183 3.1487997 -0.58572155 -1.8245786 0.8210627
1.7939328 -0.28539476 0.75634223 -0.67921764 1.1172415 1.6641923 -0.21065728 -0.15964112
-1.9775857 0.5455377 -0.31083497 1.1568791 0.6902606 0.9136665 -1.0517186 0.049022123
5.274959 -0.08852846 -0.7235205 -3.2697184 2.1787574 -4.728383 2.3687947 0.6712674
1.1190687 -1.0633434 -1.7659249 1.223929 -0.17150944 4.084274 -1.6431062 -0.35856098
-1.1617279 1.7231579 1.2719812 -1.6370075 3.9025662 -4.8277254 1.8394064 -1.967958
-1.2394667 -1.1395568 0.4953776 -0.45144412 4.7028913 -5.081596 2.132709 2.432374
-0.71597457 -0.5266978 1.2164464 -5.6547236 2.7664201 0.92145574 0.26064143 0.664838
2.2213418 0.5397782 0.45845434 3.094595 0.10567489 1.5817889 1.3729995 3.5660224
0.81224066 0.117306806 -0.06884676 2.2865107 0.68161505 0.023978459 2.1633523 1.8563888
0.89134985 1.6949352 0.2035982 0.025223158 -0.9920013 -2.302644 -0.46927753 2.9329429
2.4202454 -1.4050963 0.49066955 1.882888 1.9733897 1.5467919 0.66591746 -1.3235441
0.2684253 -2.1513493 0.17839122 2.0175219 1.0202378 -0.37962842 0.77502865 1.3547071
0.8705237 2.3860562 0.36291248 0.9918263 1.7342744 -2.075831 -1.4860108 0.8925036
-0.57613814 -1.7869934 0.46217102 0.648798 0.0043792794 -1.0721306 0.14508331 3.305753
1.8979582 -4.526144 -3.2896926 0.23196463 -2.3566766 -1.0050683 1.0645314 -1.448367
-3.0102205 0.6539486 -1.2033985 -5.7138653 1.4799776 -0.07734436 -1.5651519 -4.0454803
-1.8892143 -0.9894959 -2.5658941 -1.8782234 -4.137799 -1.4484328 -2.7510889 -0.4262256
2.460475 -5.9432464 -0.47645485 -1.1877319 -2.3609955 -1.6421233 0.031356733 -4.9618073
-2.27743 0.7958968 -2.4878922 -0.14260443 -1.7241843 0.4015022 -1.3874407 -0.18139434

fc.bias f4 [7]
00000000: 1076 c73e 6461 85c0 0da0 8d3d 2b97 493d
00000010: a3fd e23e 644e a43f 961e 05c0
0.38957262 -4.1681385 0.06915293 0.04921643 0.44334134 1.2836423 -2.0799918
