FaceExpressions_CNN/savemodel/model_98.pth (torch_old, 185408 bytes, 14 tensors)

layer1.0.weight f4 [16, 1, 5, 5]
0	0x3f7606b3	0.9610397
1	0x403ca5ce	2.94762
2	0x407b5c57	3.927511
3	0x40769354	3.8527422
4	0x407ff900	3.9995728
5	0x409bb102	4.8653574
6	0xbe9425d0	-0.289351
7	0xbf3ae000	-0.72998047
8	0xbf4b7a2e	-0.79483306
9	0xbe48feb3	-0.1962841
10	0x3f97bc9b	1.1854433
11	0xc0489f6d	-3.1347306
12	0xbfaee4e2	-1.36636
13	0xc0d0fe8d	-6.531073
14	0xc1053eb9	-8.327813
15	0x400a177d	2.1576836
16	0xbfc8c5ed	-1.5685402
17	0x3ed274f7	0.41104862
18	0xc08907a5	-4.282183
19	0xc0319fb3	-2.7753723
20	0x3fe30570	1.7736034
21	0xc07a64b4	-3.9123964
22	0x40278ad4	2.6178484
23	0x3e925c6a	0.2858613
24	0x40157eb5	2.3358586
25	0x3e7b4149	0.24536623
26	0xc08da7db	-4.42674
27	0xc0031cea	-2.0486398
28	0x405d1bb7	3.4548166
29	0x4091ba9f	4.554031
30	0xbf853189	-1.0405742
31	0xbfb7841c	-1.4337192
32	0x400ad254	2.1690874
33	0x3fb960fb	1.4482721
34	0xbfee0335	-1.8594729
35	0xbec36e23	-0.38169965
36	0xc01d70f4	-2.460019
37	0xc0299e62	-2.650292
38	0xc0075e5f	-2.115135
39	0xc0300766	-2.7504516
40	0xc113e6ab	-9.243815
41	0xc047244f	-3.111591
42	0xc024d604	-2.5755625
43	0xc0eeba76	-7.4602613
44	0x3ffeb47a	1.9898827
45	0x3fa2777a	1.2692711
46	0x3f5067d2	0.8140842
47	0xbfc5fa29	-1.5466968
48	0x3f8e460f	1.111513
49	0x400093a2	2.0090108
50	0xc02ca93c	-2.6978292
51	0xc03a56e4	-2.9115534
52	0x403b1c4f	2.9236028
53	0x3f7f0ea5	0.9963172
54	0xc0a2a4ad	-5.082602
55	0x401de21f	2.4669263
56	0x404f42ad	3.2384446
57	0x400d22a9	2.2052405
58	0x40b95459	5.7915463
59	0xbea1df33	-0.316156
60	0xbe9c3c6d	-0.3051485
61	0x40976c9e	4.732009
62	0xc045a93a	-3.0884538
63	0x40e66af4	7.200556
64	0x3f89d79d	1.0768925
65	0xc0a7e57e	-5.246764
66	0x40719201	3.7745364
67	0x3ed68b7f	0.41903302
68	0x40d6a0ba	6.70712
69	0x3f664dd1	0.8996249
70	0xbffeadaa	-1.9896748
71	0x3e82df14	0.2556082
72	0xbeb04d6e	-0.34434074
73	0xbeabbe16	-0.33543462
74	0xc0543023	-3.315438
75	0x4094091e	4.626113
76	0x3ff33362	1.9000056
77	0xc054c4d9	-3.3245146
78	0xbe881618	-0.26579356
79	0x3ee0e41b	0.4392403
80	0x40524624	3.285531
81	0xc0be4b00	-5.9466553
82	0xc088f2ab	-4.2796226
83	0x3f8c7938	1.0974493
84	0xbe35cd99	-0.1775421
85	0xc04ab70c	-3.1674223
86	0xc1036134	-8.211231
87	0x3ef9b270	0.4876895
88	0xbe589b86	-0.21153077
89	0xc05c8620	-3.4456863
90	0xc014f9a0	-2.327736
91	0x40511bd1	3.2673228
92	0x4058fe2f	3.3905141
93	0x406701ff	3.6094968
94	0x4036f499	2.858679
95	0x3f492533	0.78572387
96	0x3fce5b9c	1.6121707
97	0x3f5b41e5	0.8564742
98	0x3ee0e601	0.4392548
99	0x401c0d91	2.438328
100	0x4030fac4	2.7653055
101	0xbffd6079	-1.9795066
102	0xc0110e92	-2.2665143
103	0xc07350b8	-3.8018017
104	0x3fed0617	1.8517483
105	0x3fc1d9ed	1.5144631
106	0xbffc1575	-1.9694048
107	0x3ecc337f	0.39883038
108	0xc0008fea	-2.0087838
109	0xbfa03958	-1.25175
110	0xc06d50cc	-3.7080564
111	0xbf89f332	-1.0777342
112	0x402ec205	2.730592
113	0xc0ba7fe1	-5.82811
114	0xc10004b1	-8.001145
115	0x3f375b0d	0.7162331
116	0x3f92fd4d	1.1483551
117	0xc0036721	-2.0531695
118	0xc03a71e0	-2.9132004
119	0xc00bd5dc	-2.184928
120	0x40abca0f	5.3684154
121	0x40c7c82e	6.243186
122	0x4007e925	2.123605
123	0x400d065f	2.2035139
124	0x3f2e2d48	0.68037844
125	0xbf956d77	-1.1674031
126	0xc0d07446	-6.5141935
127	0xc0f9a65a	-7.8015566
128	0xc02e4ff7	-2.7236307
129	0xbfde618e	-1.7373521
130	0xbdd79452	-0.10526337
131	0xbf841bd2	-1.032099
132	0xc04cb0fe	-3.1983027
133	0xc0406302	-3.006043
134	0xc03b6fa3	-2.9286888
135	0x3fa86895	1.3156916
136	0x3efc0660	0.49223614
137	0x40048065	2.0703366
138	0x409e87fe	4.9541006
139	0xbf9082f9	-1.128997
140	0xbf9e2216	-1.2354152
141	0x3effead8	0.4998386
142	0x40656c5a	3.5847383
143	0x3f683a05	0.9071353
144	0x3f889df0	1.0673199
145	0x40a7ad75	5.239924
146	0x400897ac	2.1342573
147	0x400e754d	2.2259095
148	0xbe33c1f7	-0.1755446
149	0x40ab9f8a	5.363225
150	0x3f306035	0.688968
151	0xc017ef99	-2.3739989
152	0xbf66a33b	-0.9009282
153	0x404b72b2	3.1788754
154	0x3dc3ca54	0.095600754
155	0x3fc4a1fd	1.5361935
156	0xbf475b87	-0.77874035
157	0xc0ab485c	-5.352583
158	0x3ec6fd3e	0.38865083
159	0x40b13cf9	5.538693
160	0x3fa76e6d	1.3080574
161	0x402dd104	2.7158823
162	0xc0c2443b	-6.070829
163	0xc0ce7e28	-6.4529
164	0x4089aace	4.3021
165	0xbe930568	-0.28715062
166	0x40622e56	3.5340781
167	0x40217572	2.5227933
168	0xc0a6a75f	-5.207931
169	0xbfd84c7b	-1.689834
170	0xbf0c5a45	-0.5482524
171	0x3f34ac16	0.7057508
172	0x403f15d4	2.9857073
173	0x3e6866f8	0.2269553
174	0xbe6ed5a6	-0.23323688
175	0x3e9af142	0.3026219
176	0x3ebe350f	0.37149855
177	0xc05d3483	-3.45633
178	0xc05afa19	-3.4215147
179	0xbf7ecf92	-0.9953548
180	0xc019b8d2	-2.4019055
181	0x3f41c275	0.7568734
182	0xbfd99d5a	-1.7001145
183	0x3f36e808	0.714478
184	0x3f35686d	0.70862466
185	0xc05495c3	-3.3216407
186	0x4108f9c0	8.560974
187	0x40f5c806	7.680667
188	0x40d77dfd	6.7341294
189	0x4085bc45	4.179232
190	0xbe486662	-0.19570306
191	0x405e56a2	3.4740376
192	0xbf34b262	-0.7058469
193	0x408408ca	4.126073
194	0xc075086b	-3.8286388
195	0x4038cc12	2.8874555
196	0x3f42ebd3	0.7614109
197	0xbde3279c	-0.11091539
198	0x3fdcd44d	1.7252289
199	0xc0a03dfa	-5.0075655
200	0xc0318a6e	-2.774074
201	0x3ca76224	0.02043254
202	0xbeb3c1c0	-0.35108757
203	0xc081d75f	-4.0575404
204	0xc0276194	-2.6153307
205	0x401df30b	2.4679592
206	0xbf998e4c	-1.199655
207	0xbec290fe	-0.38001245
208	0xc0016cd8	-2.0222683
209	0x408f9e2e	4.488059
210	0x3e9657be	0.29363817
211	0x3fa78940	1.308876
212	0x401b914b	2.430743
213	0x4092a13d	4.5821824
214	0xbf02b346	-0.510548
215	0x3f8e3dc0	1.1112595
216	0x4065f0c3	3.59282
217	0x4071f90f	3.7808263
218	0x406ca619	3.6976378
219	0xc0c2ef15	-6.091685
220	0x3ec70e6e	0.38878196
221	0x3d8df1d1	0.069308884
222	0x407f8af0	3.992855
223	0x40018a5c	2.0240698
224	0xc0de41de	-6.9455404
225	0x3fa04b35	1.2522951
226	0xc0172ead	-2.3622239
227	0xbf3093e0	-0.6897564
228	0x3f0433f2	0.5164176
229	0xbdf0b6b2	-0.11753596
230	0xc00cf7b7	-2.2026193
231	0xbfc1f935	-1.5154177
232	0x409808f3	4.7510924
233	0x40337c90	2.8044777
234	0x402b8508	2.6799946
235	0x3ee6c233	0.45070037
236	0x3e4d7a50	0.2006619
237	0x40fd2f13	7.9119964
238	0x3d8276ac	0.06370291
239	0xc0aa600b	-5.324224
240	0xc010af87	-2.2607133
241	0x405386c7	3.3051012
242	0x40fc93c1	7.8930364
243	0xc0269e3c	-2.6034079
244	0xc0b93393	-5.7875457
245	0xc03cbd79	-2.9490645
246	0x3f074042	0.52832425
247	0xbfcdd978	-1.6081991
248	0xbf838427	-1.0274705
249	0xbfa68ff9	-1.3012687
250	0x4090d204	4.5256367
251	0x3efa0022	0.48828226
252	0xc069aefc	-3.6513052
253	0xbfe2cdad	-1.7719017
254	0x4028054e	2.6253238
255	0xbf945e19	-1.1591216

layer1.0.bias f4 [16]
0	0x3e5185a5	0.20461138
1	0x41499746	12.599432
2	0xbe8ab830	-0.2709365
3	0xc06ad902	-3.669495
4	0x40b26411	5.574715
5	0xc0561f5a	-3.3456635
6	0x3f78926d	0.9709843
7	0x3fccaefb	1.59909
8	0x3e470f02	0.19439319
9	0xbf9376d3	-1.1520637
10	0x3d057cff	0.03258991
11	0x3ef77270	0.48329496
12	0x40fec829	7.9619336
13	0xbf88548d	-1.0650803
14	0x404c3814	3.1909227
15	0x3e4adab2	0.19809988

layer1.1.weight f4 [16]
0	0x4083cf8c	4.1190853
1	0x40620103	3.5313118
2	0x4085389d	4.163161
3	0x40471233	3.1104858
4	0x405560f9	3.3340437
5	0x408ba217	4.3635364
6	0x40591d95	3.3924305
7	0x40684b2e	3.6295886
8	0x400411c2	2.0635839
9	0x402b8fbd	2.680648
10	0x4064d188	3.5752888
11	0x406626ae	3.5961108
12	0x4091024c	4.5315304
13	0x40559dc1	3.3377535
14	0x402c06a1	2.6879046
15	0x3ebbd677	0.3668706

layer1.1.bias f4 [16]
0	0xc08725f6	-4.223384
1	0xc04af1e3	-3.1710136
2	0xc0a76452	-5.230996
3	0xbe168517	-0.14699207
4	0xc02db228	-2.7139988
5	0xc03c0c7e	-2.9382625
6	0xbf8a7324	-1.0816388
7	0xc0438853	-3.0551956
8	0x3f98ee92	1.1947806
9	0xbfad95de	-1.3561361
10	0xc0a4dbf7	-5.151851
11	0xc02e4707	-2.7230852
12	0xc0a52798	-5.161083
13	0xbf01cb57	-0.50700897
14	0xbfb0b77c	-1.3805995
15	0xbfaf32bc	-1.3687358

layer1.1.running_mean f4 [16]
0	0xbfc8a84d	-1.5676361
1	0xbe3614df	-0.17781399
2	0x4107ff46	8.499823
3	0xc08ea761	-4.457932
4	0xbd290e86	-0.041273616
5	0xc09aba02	-4.835206
6	0x3f26ddf9	0.65182453
7	0x412ae27c	10.680294
8	0x408a14dc	4.3150463
9	0x3ee52717	0.44756386
10	0x3e0c7884	0.13717848
11	0x3e83e87f	0.25763318
12	0xc0944881	-4.6338506
13	0xbfe2132b	-1.76621
14	0x4093a228	4.6135445
15	0xc06bc86f	-3.6841085

layer1.1.running_var f4 [16]
0	0x414e957a	12.911493
1	0x4229effd	42.484364
2	0x41bc130a	23.509296
3	0x40b964fc	5.793577
4	0x41a49514	20.572792
5	0x41b2b871	22.34006
6	0x40455cdc	3.0837927
7	0x41c4e330	24.610931
8	0x412be179	10.742547
9	0x40d9faf0	6.811882
10	0x40cfc4c4	6.4927692
11	0x41958db8	18.694199
12	0x426b376b	58.80412
13	0x414f3c29	12.952188
14	0x40b9eb1c	5.80995
15	0x40558268	3.3360844

layer2.0.weight f4 [32, 16, 5, 5]
0	0xc06ccf72	-3.7001615
1	0xc00c5475	-2.1926548
2	0xc0a5f34e	-5.1859503
3	0xc116dd7a	-9.429071
4	0xbf90b73a	-1.1305916
5	0xc0d27518	-6.5767937
6	0xc08ab039	-4.3340116
7	0xc02064f3	-2.5061615
8	0xc09ddad4	-4.9329624
9	0x4023abdb	2.5573642
10	0x401d114b	2.4541805
11	0x3f030526	0.5117973
12	0xc0af109f	-5.470779
13	0x3e8e700f	0.2781987
14	0x400f6bc9	2.2409537
15	0xbfae64a1	-1.362446
16	0xc078fafb	-3.8903186
17	0x3e9ab6dd	0.3021764
18	0x40653596	3.5813956
19	0xc01308bd	-2.2974083
20	0xc057d60e	-3.3724399
21	0xc042cee8	-3.0438786
22	0x3fd3fa89	1.6560832
23	0xbf8a8811	-1.0822774
24	0x400892a6	2.1339507
25	0xc07ad2d4	-3.919118
26	0xc013c038	-2.308607
27	0xc05b4d19	-3.4265807
28	0xbfe75581	-1.8072969
29	0x3f4465ef	0.7671804
30	0xc0195da8	-2.3963413
31	0x3fb37722	1.4020731
32	0xbf828895	-1.0197932
33	0x3fd6c41a	1.6778595
34	0x40f9f809	7.8115277
35	0x3fccea9d	1.6009098
36	0x4005b824	2.089364
37	0x3d0bfa68	0.034174353
38	0xc0bec7ae	-5.961875
39	0x3fbf3f1d	1.4941136
40	0xbf8bb68f	-1.0915087
41	0x4013342e	2.3000598
42	0x4097260e	4.7233953
43	0xbfbba279	-1.4658958
44	0x3fb763d2	1.4327338
45	0x40056c9e	2.0847545
46	0x3f6190da	0.8811165
47	0xbf0ff03d	-0.5622595
48	0xc0c819df	-6.253158
49	0x4007e255	2.1231892
50	0x3e7d493e	0.24734971
51	0x40fd12de	7.908553
52	0xc0059cff	-2.0877073
53	0xc02e6e72	-2.725491
54	0xc015a322	-2.3380818
55	0xbf23bdb2	-0.6396133
56	0xbfbc1b8c	-1.4695907
57	0xc0efb0f1	-7.4903493
58	0x3f563644	0.8367655
59	0x3fdf22b0	1.7432461
60	0xc0f302c9	-7.59409
61	0x4030be62	2.76162
62	0x3e2a3ee6	0.16625556
63	0x3fbf9ff5	1.497069
64	0xbf254de7	-0.64571995
65	0xbf0e94a3	-0.5569555
66	0x402ad652	2.669331
67	0x404d8027	3.2109468
68	0x40676179	3.6153243
69	0x3f7bbf58	0.9833884
70	0xc00d4a24	-2.2076502
71	0xbf6b1eff	-0.9184417
72	0xbed1b2b0	-0.4095664
73	0xc0d48b02	-6.6419687
74	0xc0867719	-4.2020383
75	0x3fc8250e	1.5636308
76	0xbf92dd51	-1.147379
77	0xbfeb26d5	-1.8371226
78	0xbfd9882f	-1.6994685
79	0xc09c4ebf	-4.8846126
80	0xc02d5568	-2.7083378
81	0xc090beb6	-4.52328
82	0xc0ec6532	-7.387353
83	0x3f01c2f7	0.5068812
84	0x3d8512fd	0.06497762
85	0x40ae853c	5.453764
86	0x401e6eeb	2.47552
87	0xc12d62c9	-10.836617
88	0xc0fb88d7	-7.860454
89	0x3f71ea47	0.94498104
90	0xbec70301	-0.3886948
91	0x3f829836	1.0202701
92	0xc00e02e0	-2.2189255
93	0x3fbcf350	1.4761753
94	0xbfc7a208	-1.5596323
95	0x3d882b64	0.06648901
96	0x4037c4ac	2.871379
97	0xc04e3627	-3.2220552
98	0x3e34fcc3	0.17674546
99	0x4056d98b	3.3570278
100	0x3f1a25b1	0.6021376
101	0x40a55f7d	5.1679063
102	0xc05a2379	-3.408415
103	0x3fa85d10	1.31534
104	0x3da379ae	0.07982193
105	0xc009dac2	-2.153977
106	0xc0dcecd7	-6.903911
107	0xc01b32c5	-2.4249737
108	0xc06ee226	-3.732553
109	0xc019129b	-2.3917606
110	0xc05c1aab	-3.4391277
111	0xc02398d2	-2.5562024
112	0x4046345d	3.096946
113	0xbf03c7b5	-0.51476604
114	0xbfcc126d	-1.5943123
115	0x3f122233	0.57083434
116	0x40d2881f	6.5791163
117	0x3d8f8f5a	0.07009764
118	0xc0befcfc	-5.968382
119	0xbf172168	-0.5903535
120	0x40a43375	5.1312814
121	0x3e5ea1db	0.2174143
122	0xc0452b0b	-3.0807521
123	0x40095f2a	2.1464334
124	0x3fcd029e	1.6016424
125	0xbd003f73	-0.03131051
126	0xc0807286	-4.01398
127	0xc030c6ab	-2.7621257
128	0x3ffdeb72	1.9837477
129	0x402d4e23	2.707894
130	0x4014ef38	2.3271008
131	0x3f2521c4	0.6450465
132	0xc006f9ac	-2.1089888
133	0x3c0ec024	0.008712802
134	0x3f7bd40c	0.9837043
135	0xc05099b7	-3.259382
136	0xbfd66edb	-1.675258
137	0xc0a698fc	-5.206175
138	0xc083897f	-4.110534
139	0xc09ebacc	-4.9603024
140	0xbf19946a	-0.59992087
141	0x4069e48f	3.654575
142	0xc09ec0af	-4.961021
143	0xc00e7705	-2.2260144
144	0x4089259d	4.2858415
145	0xc0259a48	-2.5875416
146	0x3fef67dd	1.8703572
147	0xbfaa2703	-1.3293155
148	0xc08dfebe	-4.4373465
149	0xbf1a9770	-0.60387325
150	0xc095cb85	-4.6810937
151	0x40e31649	7.0964704
152	0xbf1fafb5	-0.6237748
153	0x3f27e767	0.65587467
154	0x4006b617	2.104864
155	0xbf3e4f1e	-0.74339473
156	0xc133cca7	-11.237464
157	0xbfdfbe31	-1.7479917
158	0x3fc9c21b	1.5762361
159	0xc11bf094	-9.746235
160	0x40a6dc7c	5.2144146
161	0x3ec16173	0.3776966
162	0xbfe012ba	-1.7505715
163	0xc104c42e	-8.297895
164	0x4061cc21	3.528084
165	0x3fee3f06	1.8612983
166	0x40339ff9	2.806639
167	0x3f076393	0.52886313
168	0x40448061	3.0703356
169	0xbf9cbf72	-1.2245924
170	0x3fe43fdc	1.7831988
171	0x3f0450ef	0.51685995
172	0xc04c5a86	-3.193025
173	0xbc75a255	-0.014992316
174	0xc016ccc0	-2.356247
175	0x3ffeda52	1.9910376
176	0xc063632c	-3.552928
177	0xc00d3f5f	-2.2069929
178	0x403961ca	2.8965936
179	0x40202a64	2.5025873
180	0x40ce65f8	6.4499474
181	0x3eadff7c	0.33983982
182	0xbfbcd459	-1.4752303
183	0x3e47f746	0.19527921
184	0xc01f3ca8	-2.4880772
185	0xc1476bb1	-12.463792
186	0xc0b3b217	-5.6154895
187	0xbfaa1bc8	-1.3289728
188	0xc0a4b62d	-5.1472383
189	0xbe9465a8	-0.28983808
190	0xc01bfdbd	-2.437362
191	0xbf3d601e	-0.7397479
192	0xbf90cd60	-1.1312675
193	0xbdb0e81c	-0.08638021
194	0x407362ed	3.802913
195	0xbfa1d939	-1.2644416
196	0x3f749840	0.95544815
197	0x3e0bce75	0.13652976
198	0x3f5eac2c	0.86981463
199	0x408be904	4.3721943
200	0xbfa2d9c4	-1.2722707
201	0x3f150870	0.58216
202	0x3f90f8aa	1.1325886
203	0x3fe63a37	1.7986516
204	0xbf8f0e91	-1.117632
205	0xbf904a3b	-1.1272653
206	0xc0628c91	-3.5398295
207	0x403d30b8	2.9560986
208	0x3e6583c9	0.22413553
209	0xc044cab8	-3.074873
210	0xc08711dc	-4.22093
211	0xc01638b1	-2.3472102
212	0x3cb69bef	0.022291152
213	0x404dcb46	3.2155318
214	0x401b75e8	2.4290714
215	0xbe09589d	-0.1341271
216	0xbf5fe682	-0.874611
217	0xc01bace0	-2.4324265
218	0xc09516e3	-4.659044
219	0x402fec37	2.7487924
220	0xc0748135	-3.8203862
221	0xbe835977	-0.25654194
222	0x402526d9	2.580496
223	0xbc7236b5	-0.014783551
224	0x3fa1f1ba	1.2651894
225	0xc05509aa	-3.3287148
226	0x40099e20	2.1502762
227	0xc0588a5f	-3.3834455
228	0x408f5ae0	4.479843
229	0xbff4ae72	-1.9115736
230	0xbb063ffc	-0.0020484915
231	0xc1062e83	-8.386355
232	0x400a86b7	2.1644723
233	0xbfb2b21a	-1.3960602
234	0x3e8d7c8d	0.27634087
235	0xbfc316c1	-1.5241319
236	0xc07b9590	-3.9310036
237	0x3f065197	0.52468246
238	0x404986d9	3.1488554
239	0x3fff8f06	1.9965522
240	0xc0be6096	-5.9492903
241	0xc05d75e9	-3.4603217
242	0xc06886ba	-3.633223
243	0xbfaf5f46	-1.370095
244	0x3fe7723e	1.8081739
245	0xc094763d	-4.6394334
246	0x400ca408	2.1975117
247	0x40233108	2.5498676
248	0x3fb1eab1	1.3899747
249	0x3f760694	0.9610379
250	0x40a09a49	5.0188336
251	0xc0a0b494	-5.022043
252	0x402276bb	2.5384967
253	0xc0049fd9	-2.0722563
254	0xbd33f2e9	-0.04393283
255	0x3fa5b852	1.2946875

layer2.0.bias f4 [32]
0	0x4057acdf	3.3699262
1	0x3faab8a7	1.3337601
2	0x4025fbcc	2.5934935
3	0x3e4589c8	0.1929084
4	0x3ee31869	0.4435456
5	0x3fbac843	1.4592365
6	0x404aede3	3.1707695
7	0x3e9a44a9	0.3013051
8	0x4006727a	2.100737
9	0x3e82a424	0.25515854
10	0x3fba2620	1.4542885
11	0x3df63d4b	0.120234095
12	0x3e4841a4	0.1955629
13	0x3f95acd5	1.1693369
14	0x403cc841	2.9497225
15	0x3fd00597	1.6251706
16	0x3e41b3c7	0.18916236
17	0x3e49ae07	0.19695292
18	0x3fdcc484	1.7247472
19	0x4021c2c7	2.5275133
20	0x3e077756	0.13229117
21	0x40392c8a	2.8933434
22	0x40209294	2.5089464
23	0x4023ca3a	2.559218
24	0x40195013	2.3955123
25	0x3d02ff7c	0.03198193
26	0x3fae632f	1.3624018
27	0x4000e6d5	2.0140889
28	0x3e2cf512	0.16890362
29	0x405cbe8b	3.4491298
30	0x3facd1b5	1.3501498
31	0x3e3090a3	0.17242675

layer2.1.weight f4 [32]
0	0x3f23ac1f	0.6393451
1	0x3f3c05c6	0.7344631
2	0x3f3e0f3a	0.74241984
3	0x3e898bea	0.26864558
4	0x3e65964c	0.22420615
5	0x3f4a1290	0.78934574
6	0x3f42bc62	0.760687
7	0x3e11afbc	0.14227194
8	0x3efb10fe	0.49036402
9	0x3e67ea8b	0.22648065
10	0x3f142521	0.57869154
11	0x3f93b95e	1.1540945
12	0x3e349fb1	0.17639042
13	0x3f74ce5c	0.9562738
14	0x3f54ad40	0.8307686
15	0x3fa3840f	1.2774676
16	0x3e57a591	0.21059252
17	0x3e92c09f	0.28662583
18	0x3f724686	0.9463886
19	0x3f287ce4	0.6581557
20	0x3e2c4bc6	0.1682578
21	0x3f69e741	0.9136849
22	0x3f2d01e7	0.6758103
23	0x3f05b92c	0.52235675
24	0x3f52fa86	0.8241352
25	0x3e8b3ee2	0.27196413
26	0x3f522599	0.8208862
27	0x3f5ce6c4	0.8628962
28	0x3e8abb8e	0.27096218
29	0x3f3682b2	0.71293175
30	0x3f393d9e	0.72359645
31	0x3e81d3cf	0.2535691

layer2.1.bias f4 [32]
0	0xbf253832	-0.6453887
1	0xbf2dc962	-0.6788541
2	0xbf5d6788	-0.864861
3	0xbf3b77c2	-0.7322961
4	0xbf2fdf18	-0.6869979
5	0xbf780575	-0.96883327
6	0xbf67dcd2	-0.9057132
7	0xbf530b90	-0.8243952
8	0xbf11b9b7	-0.56924003
9	0xbf43ed8e	-0.76534355
10	0xbf0db126	-0.5534843
11	0xc00e643d	-2.224868
12	0xbf68960b	-0.9085395
13	0xbfc547b9	-1.5412513
14	0xbf79f664	-0.9764159
15	0xbfe860e0	-1.8154564
16	0xbf443094	-0.76636624
17	0xbf203ab7	-0.6258959
18	0xbf9a8fd1	-1.2075139
19	0xbf4e98dc	-0.80701995
20	0xbf12cf92	-0.5734798
21	0xbf86b6c7	-1.0524529
22	0xbf6041c5	-0.87600356
23	0xbf008282	-0.5019914
24	0xbf96a461	-1.1768914
25	0xbf269fa7	-0.6508736
26	0xbf9e19e2	-1.2351649
27	0xbf67cbac	-0.90545154
28	0xbf3042a4	-0.68851686
29	0xbf26a480	-0.6509476
30	0xbf3f20a0	-0.74659157
31	0xbf52d3dc	-0.8235452

layer2.1.running_mean f4 [32]
0	0xc33cc025	-188.75056
1	0xc3083106	-136.1915
2	0xc3085df4	-136.367
3	0xc28659bd	-67.17527
4	0xc20c0eaa	-35.01432
5	0xc2f193c0	-120.788574
6	0xc30d8098	-141.50232
7	0xc23e03eb	-47.503826
8	0xc2cf71c1	-103.722176
9	0xc23c30e1	-47.047733
10	0xc2d31466	-105.53984
11	0xc2bdcedf	-94.904045
12	0xc27aa7d4	-62.663895
13	0xc2fc1a61	-126.05152
14	0xc3374f33	-183.30937
15	0xc31646e3	-150.2769
16	0xc20406ca	-33.00663
17	0xc1caea9c	-25.364555
18	0xc2e614a2	-115.0403
19	0xc36a52a9	-234.32289
20	0xc2742357	-61.03451
21	0xc3193230	-153.19604
22	0xc3088588	-136.5216
23	0xc3144f17	-148.30894
24	0xc2c1b133	-96.84609
25	0xc207348e	-33.801323
26	0xc2c9b067	-100.844536
27	0xc30f53d0	-143.3274
28	0xc220a324	-40.159317
29	0xc32b695c	-171.41156
30	0xc30b4b50	-139.29419
31	0xc26c86e0	-59.131714

layer2.1.running_var f4 [32]
0	0x470ae6ce	35558.805
1	0x4723aca7	41900.652
2	0x46b2f075	22904.229
3	0x44de340e	1777.6267
4	0x4412293a	584.64417
5	0x46ae77ed	22331.963
6	0x46c05d2e	24622.59
7	0x447aedde	1003.7167
8	0x4679e790	15993.891
9	0x44853097	1065.5184
10	0x46d41c3e	27150.121
11	0x46e817ae	29707.84
12	0x45042c25	2114.759
13	0x46d05d43	26670.63
14	0x470c2b16	35883.086
15	0x46d22ef4	26903.477
16	0x44386b8b	737.68036
17	0x43a854bd	336.66202
18	0x46bf42e5	24481.447
19	0x47034d96	33613.586
20	0x44ec3145	1889.5397
21	0x46d2a182	26960.754
22	0x4693ae6e	18903.215
23	0x46c674d6	25402.418
24	0x466bd43d	15093.06
25	0x43f6d570	493.66748
26	0x46c58740	25283.625
27	0x46d27f13	26943.537
28	0x442936df	676.85736
29	0x46e0db3d	28781.62
30	0x47011c9e	33052.617
31	0x44c40060	1568.0117

fc.weight f4 [7, 4608]
0	0xc06117cd	-3.5170777
1	0xbfcc78a0	-1.5974312
2	0x3fc10e8d	1.5082566
3	0xbfa54f57	-1.2914838
4	0x3ed48128	0.41504788
5	0xc0516e5c	-3.2723608
6	0xc01eb5ed	-2.4798539
7	0x40525497	3.286413
8	0xc04eb45b	-3.229758
9	0x3d60520d	0.05476575
10	0xbde750ff	-0.11294746
11	0xc04257f5	-3.0366185
12	0xbfd4501a	-1.6586945
13	0x3f127120	0.57203865
14	0xc075cd77	-3.8406656
15	0x3f1eba19	0.6200271
16	0xbddb0480	-0.10694218
17	0xbfe2cc69	-1.7718631
18	0x3fcdd2b3	1.6079925
19	0xc0023ccc	-2.0349607
20	0x3daa59b2	0.08317889
21	0x3f4b02c9	0.79301125
22	0xbfc1fcdc	-1.5155292
23	0xc064fb47	-3.5778368
24	0xc03a0452	-2.9065137
25	0xbe74574b	-0.23861425
26	0xbfb47f00	-1.4101257
27	0x4006ed93	2.1082504
28	0xc006853c	-2.101882
29	0x3f85895d	1.0432545
30	0xbfa775ed	-1.3082863
31	0x3eba4082	0.3637734
32	0xbf799e4f	-0.97507185
33	0xc062ce77	-3.5438516
34	0xbfafa52f	-1.3722285
35	0x3e80c817	0.25152656
36	0x3fd69f53	1.6767372
37	0x3fd4d062	1.6626093
38	0xc00086e7	-2.0082338
39	0xbf6c790d	-0.9237221
40	0x3e206074	0.15661794
41	0xc00cf606	-2.202516
42	0xbee0d3bc	-0.4391154
43	0x3ff37565	1.9020201
44	0xbf00b23c	-0.50271964
45	0xbf989169	-1.1919376
46	0xbd1508fd	-0.036385525
47	0xc0330975	-2.7974522
48	0xbe660ffe	-0.22467038
49	0xbf97b30c	-1.1851516
50	0xbfef420c	-1.8692031
51	0xc0123b48	-2.2848682
52	0xbf68c49e	-0.90925014
53	0x3d4edf44	0.05050589
54	0x3ea961f2	0.3308254
55	0xbf2b51bb	-0.66921586
56	0xbfbd2f7b	-1.4780115
57	0xc00ac73a	-2.1684098
58	0xbdae9567	-0.0852459
59	0x3f49a54b	0.7876784
60	0x4029f4d8	2.655569
61	0x4089fdf5	4.3122506
62	0x3eb88675	0.36040083
63	0xbf31ac77	-0.69403785
64	0x3fd89860	1.6921501
65	0xbf362865	-0.7115539
66	0x3ee252d9	0.44203833
67	0xbdb49759	-0.0881793
68	0xbf3f3fe7	-0.7470688
69	0xbfa755c6	-1.3073051
70	0x3f89c33c	1.0762706
71	0xc092e3ac	-4.590292
72	0xc0471693	-3.1107528
73	0xbee3627f	-0.44411084
74	0x3fba4b47	1.4554223
75	0x3eff1e6c	0.49827898
76	0x3f5ed0d8	0.8703742
77	0x402d8d30	2.7117424
78	0xbff6eba1	-1.9290658
79	0xbee15c44	-0.44015706
80	0xbf09c855	-0.5382131
81	0x3fd0f462	1.632458
82	0x3f2c246c	0.67243075
83	0x40b577c0	5.670868
84	0xbdac0821	-0.08399988
85	0x3eade470	0.33963346
86	0x3fc0a919	1.5051605
87	0xbf556bdb	-0.833677
88	0x3fd90f30	1.695776
89	0x3f4bff6b	0.7968661
90	0x3f97d197	1.1860837
91	0xbed6e81f	-0.4197397
92	0x401748be	2.3638148
93	0xbf8cfafa	-1.1014092
94	0xbeb01ee9	-0.34398583
95	0xc03f311d	-2.9873726
96	0xbed394d0	-0.41324472
97	0xbf666dfb	-0.90011567
98	0x3fcf55d4	1.6198068
99	0xbfc2c19c	-1.5215335
100	0x404947e8	3.1450138
101	0xbe0320bb	-0.12805454
102	0xbfcb4704	-1.5881047
103	0x3ee83d3f	0.45359227
104	0x3fc42f36	1.5326908
105	0xbd0535b8	-0.032521933
106	0x3f15423b	0.58304185
107	0xbe632771	-0.22183014
108	0x3f981672	1.188185
109	0x3fcbabc6	1.5911796
110	0xbe93496e	-0.2876696
111	0xbe498356	-0.19679007
112	0xbfe9cc78	-1.8265524
113	0x3f6c8145	0.9238475
114	0xbe863abc	-0.26216686
115	0x3f9fbd52	1.2479651
116	0x3f0e0f86	0.55492437
117	0x3f4a9eba	0.7914845
118	0xbf5b9441	-0.8577309
119	0x3e15ba8e	0.14621946
120	0x40ac496a	5.3839617
121	0xbdf7faa4	-0.12108353
122	0xbf26143b	-0.6487462
123	0xc04cbf05	-3.199159
124	0x400e480b	2.2231472
125	0xc09a8229	-4.8283887
126	0x402756cd	2.614673
127	0x3f533169	0.8249727
128	0x3f9b7665	1.2145506
129	0xbf4ed849	-0.80798775
130	0xbff06f4e	-1.8783967
131	0x3fa66eb0	1.3002529
132	0x3e494c6b	0.19658057
133	0x40816a44	4.044222
134	0xbfc76466	-1.5577514
135	0xbee2a852	-0.44269043
136	0xbfa813cc	-1.3131042
137	0x3fda955a	1.7076828
138	0x3fa93af0	1.3221111
139	0xbfc38c79	-1.5277244
140	0x407af8aa	3.9214272
141	0xc09dbcb2	-4.929284
142	0x3ffc741f	1.9722937
143	0xc00165b1	-2.0218318
144	0xbf890f2e	-1.0707757
145	0xbf858723	-1.0431865
146	0x3f58166e	0.84409225
147	0xbf18b078	-0.5964427
148	0x409296e4	4.5809193
149	0xc0a03f8e	-5.007758
150	0x400a9677	2.1654336
151	0x4017156c	2.3606825
152	0xbf2966d5	-0.66172534
153	0xbeed24fa	-0.46317273
154	0x3f81192c	1.0085807
155	0xc0b03c8c	-5.507391
156	0x403b568b	2.9271572
157	0x3f430c2b	0.7619044
158	0x3e73e206	0.2381669
159	0x3f454b58	0.7706809
160	0x401032ed	2.2531083
161	0x3ec3cbd1	0.38241437
162	0x3f3854f8	0.7200465
163	0x404f2a25	3.2369473
164	0x3c7e2704	0.015512232
165	0x3fba9a2e	1.4578302
166	0x3fa25d9d	1.2684819
167	0x4077901d	3.868171
168	0x3f89f5f7	1.0778188
169	0x3e98bf68	0.2983353
170	0xbd47484c	-0.048652932
171	0x401cc498	2.4494991
172	0x3f745c1d	0.95453054
173	0x3d3e144b	0.04640607
174	0x400aed51	2.1707346
175	0x3ff1779e	1.8864629
176	0x3f52b02c	0.82300067
177	0x3fd8b953	1.6931556
178	0x3e6da8e6	0.23208961
179	0x3d604093	0.054749083
180	0xbf435ef1	-0.76316744
181	0xc0013862	-2.0190663
182	0xbef7ad62	-0.48374468
183	0x403e8633	2.9769409
184	0x4013b1cc	2.3077269
185	0xbf98532c	-1.1900382
186	0x3ed08040	0.40722847
187	0x3fed7505	1.8551337
188	0x3fe1bdf6	1.7636096
189	0x3fcdf1d0	1.608942
190	0x3f38e711	0.7222758
191	0xbf9a15dd	-1.2037922
192	0x3eaff5f6	0.3436734
193	0xc006ad53	-2.1043289
194	0x3e860e4a	0.26182777
195	0x3fee24e1	1.8605005
196	0x3f7c3f84	0.9853442
197	0xbe7075b6	-0.23482403
198	0x3f551b6d	0.83244973
199	0x3fb8e34f	1.4444369
200	0x3f54b831	0.83093554
201	0x400826d0	2.127369
202	0x3f097694	0.5369656
203	0x3f93596a	1.1511662
204	0x3ff9fc64	1.9530149
205	0xc000985d	-2.0092995
206	0xbfc59709	-1.5436717
207	0x3f7f919f	0.99831575
208	0xbf05bdce	-0.52242744
209	0xbfd1c674	-1.6388688
210	0x3f085bb2	0.53264916
211	0x3f27d5de	0.6556071
212	0xbcbaed86	-0.022818338
213	0xbf39f135	-0.7263368
214	0xbe827c4a	-0.2548545
215	0x404b49ea	3.1763864
216	0x3fe567eb	1.7922338
217	0xc0832e92	-4.099435
218	0xc04a2741	-3.1586459
219	0x3ec801e1	0.39063933
220	0xc019b013	-2.4013717
221	0xbf885d6c	-1.065351
222	0x3f964e4b	1.1742643
223	0xbfce7209	-1.6128551
224	0xc056521b	-3.3487613
225	0x3eddf139	0.433481
226	0xbfaec9a7	-1.365529
227	0xc0b4f863	-5.6553206
228	0x3fed471d	1.8537327
229	0x3c0f6445	0.008751933
230	0xbfa4f30d	-1.2886673
231	0xc07c01b9	-3.9376051
232	0xbfd679ef	-1.6755961
233	0xbf486174	-0.782737
234	0xc01c9f74	-2.4472322
235	0xbff6a1c8	-1.9268122
236	0xc07cd779	-3.9506514
237	0xbfd55699	-1.6667053
238	0xc0369e61	-2.8534167
239	0xbe96a30e	-0.29421276
240	0x401b5fd5	2.4277241
241	0xc0b6ab7e	-5.708434
242	0xbf166e92	-0.58762467
243	0xbfa97eee	-1.3241861
244	0xc0242ee2	-2.5653615
245	0xbfe98035	-1.8242251
246	0x3e91dd91	0.28489354
247	0xc0a47215	-5.138926
248	0xc007c527	-2.1214082
249	0x3f756fc9	0.95873696
250	0xc01d4e4e	-2.4579043
251	0x3ddd93d2	0.1081921
252	0xbfb4e874	-1.4133439
253	0x3f30be13	0.6904003
254	0xbfa143dc	-1.2598834
255	0xbe7c1911	-0.24618937

fc.bias f4 [7]
0	0x3ee1de49	0.44114903
1	0xc088f8b1	-4.280358
2	0x3c835ca8	0.016035393
3	0x3e1de9ac	0.1542117
4	0x3ed7817f	0.42090985
5	0x3fa043dd	1.252071
6	0xc0062fab	-2.0966594
