FaceExpressions_CNN/savemodel/model_62.pth (torch_old, 185408 bytes, 14 tensors)

layer1.0.weight f4 [16, 1, 5, 5]
0	0x3f4d3efa	0.8017422
1	0x400af390	2.1711159
2	0x404ea4ed	3.2288163
3	0x405638e6	3.3472228
4	0x404f5573	3.2395904
5	0x407300f6	3.7969337
6	0xbe6731c3	-0.22577576
7	0xbf3ca5bf	-0.7369041
8	0xbedf5b05	-0.4362413
9	0xbe16f5be	-0.1474218
10	0x3f6116fa	0.87925684
11	0xc01381db	-2.3048007
12	0xbf8c25e2	-1.0949061
13	0xc0a8bfaf	-5.273399
14	0xc0e7bb16	-7.2415876
15	0x3fe2f766	1.773175
16	0xbfa0f32d	-1.2574211
17	0xbd38a0fa	-0.045075394
18	0xc0553308	-3.3312397
19	0xc00c2692	-2.1898541
20	0x3fb67dcf	1.4257144
21	0xc0423efc	-3.0350943
22	0x400c1e84	2.1893625
23	0x3e9c37a1	0.3051119
24	0x3ffa2f14	1.9545617
25	0xbe2bb46d	-0.16768046
26	0xc03d7fd1	-2.9609263
27	0xbf8b4d9d	-1.0883061
28	0x403e4c55	2.973409
29	0x40702ce2	3.7527394
30	0xbea24799	-0.3169525
31	0xbfcdd690	-1.6081104
32	0x3f812fe7	1.0092744
33	0x3fc8866c	1.5666022
34	0xbfb263a0	-1.3936653
35	0xbebb0cd3	-0.36533222
36	0xc00f598d	-2.2398407
37	0xbfad1ffc	-1.3525386
38	0xc005bbf6	-2.0895972
39	0xc022fbd7	-2.546621
40	0xc0eb150d	-7.3463197
41	0xc014bfda	-2.3242097
42	0xc028cf67	-2.6376588
43	0xc0c0cfa5	-6.025347
44	0x3fb3c288	1.4043741
45	0x3fa3bbfd	1.2791744
46	0x3e9a2668	0.30107427
47	0xbf7db975	-0.9911111
48	0x3f1bcbe3	0.6085798
49	0x3ff64b99	1.924182
50	0xc02e17ff	-2.7202146
51	0xc0026fde	-2.0380778
52	0x4009a287	2.150545
53	0x3e13e20f	0.14441703
54	0xc078cb5d	-3.8874123
55	0x3fead2f1	1.8345624
56	0x402b852d	2.6800034
57	0x3fdc3674	1.7204118
58	0x40a55900	5.1671143
59	0xbda6b0e1	-0.08139206
60	0x3dc77615	0.09739319
61	0x4079a665	3.900781
62	0xc0029af0	-2.0407066
63	0x40bcd864	5.901415
64	0x3f1a1133	0.60182494
65	0xc083c28d	-4.117499
66	0x4040f9d1	3.0152476
67	0xbe51604c	-0.2044689
68	0x40b4c5d9	5.6491513
69	0x3f3af1e3	0.7302534
70	0xbfdf6732	-1.7453368
71	0x3eb62b48	0.35579896
72	0x3d83cef4	0.064359576
73	0xbe9c774e	-0.30559772
74	0xc031772c	-2.7728987
75	0x406b54b8	3.6770458
76	0x3fb00ba1	1.3753549
77	0xc0286be1	-2.6315844
78	0xbeba0bfe	-0.36337274
79	0x3e95cc59	0.29257467
80	0x403575f6	2.8353248
81	0xc09d6f4b	-4.9198356
82	0xc0554646	-3.3324142
83	0x3f27b442	0.65509427
84	0xbd261513	-0.04054744
85	0xc02a48c6	-2.6606917
86	0xc0d83f16	-6.757701
87	0x3e2d6856	0.16934332
88	0xbe3ee2d6	-0.18641219
89	0xc038e192	-2.8887677
90	0xc001960c	-2.0247831
91	0x401f2377	2.4865396
92	0x403ad227	2.9190767
93	0x403d1780	2.9545593
94	0x4016cf0a	2.3563867
95	0x3f1012b9	0.5627857
96	0x3fbe4acb	1.4866575
97	0x3f0b18a9	0.54334503
98	0x3eba9523	0.36441907
99	0x3ffba45b	1.9659532
100	0x400b2c43	2.1745765
101	0xbfb12aaf	-1.3841151
102	0xc007a01a	-2.1191468
103	0xc043f898	-3.062048
104	0x3fd2e360	1.6475639
105	0x3fc04157	1.501994
106	0xbfdd3d79	-1.7284385
107	0x3ec7da35	0.39033666
108	0xbfdc1121	-1.7192727
109	0xbfdadca3	-1.7098583
110	0xc03b618c	-2.9278288
111	0xbf0be3e5	-0.54644614
112	0x3fe27a52	1.7693579
113	0xc08a95b4	-4.3307743
114	0xc0c157a3	-6.041948
115	0x3f81555f	1.0104178
116	0x3f84347f	1.032852
117	0xbfe92097	-1.8213071
118	0xc03c6680	-2.943756
119	0xc00445e0	-2.0667648
120	0x408c1a5d	4.378218
121	0x40a3a8b4	5.1143436
122	0x3fcd4744	1.6037374
123	0x3feba36a	1.8409245
124	0x3f3bcf2c	0.73362994
125	0xbf6bfd37	-0.9218325
126	0xc0b093ee	-5.518058
127	0xc0cf1b21	-6.4720616
128	0xc00af1d2	-2.1710095
129	0xbfa6e3cd	-1.3038269
130	0x3d00218a	0.031281985
131	0xbf772ea3	-0.96555537
132	0xc0279752	-2.6186109
133	0xc0049d02	-2.072083
134	0xc0270500	-2.6096802
135	0x3f833767	1.0251282
136	0x3ea5511e	0.3228845
137	0x3fe45c21	1.7840616
138	0x406b9754	3.6811113
139	0xbf5da56a	-0.86580527
140	0xbf734ea6	-0.95041883
141	0x3ee9494d	0.45563737
142	0x402c9f57	2.6972253
143	0x3f93ae1a	1.1537507
144	0x3faf973f	1.3718032
145	0x4088a36f	4.2699504
146	0x3fc9b9bb	1.5759805
147	0x3fdfc933	1.7483276
148	0x3d59ba69	0.05315629
149	0x408ef779	4.467709
150	0x3f2291d8	0.6350379
151	0xbfe104f6	-1.7579639
152	0xbf365e44	-0.7123759
153	0x40277d0e	2.6170077
154	0x3e9abc73	0.302219
155	0x3fa18cce	1.2621095
156	0xbf208ccd	-0.62714845
157	0xc089dc5b	-4.308149
158	0x3ecc6808	0.3992312
159	0x4092e4e3	4.5904403
160	0x3f80b8b7	1.005637
161	0x4013a23c	2.306777
162	0xc0a2eec7	-5.0916476
163	0xc0a1c05d	-5.054732
164	0x40584da0	3.3797379
165	0xbeacbb26	-0.33736533
166	0x403b37fe	2.9252925
167	0x3ff5391a	1.9158051
168	0xc088132d	-4.252341
169	0xbfbb367c	-1.4626002
170	0xbeda95eb	-0.42692503
171	0x3f0610fc	0.52369666
172	0x40245645	2.5677655
173	0x3e4fc39f	0.20289467
174	0xbe2991b7	-0.16559492
175	0xbde0ec02	-0.10982515
176	0xbde6af3a	-0.112638906
177	0xc049069b	-3.1410282
178	0xc030b370	-2.760952
179	0xbf7a3ab8	-0.9774585
180	0xc005c973	-2.0904205
181	0x3ef53ceb	0.4789804
182	0xbf9763ad	-1.1827294
183	0x3f176241	0.591343
184	0x3f17e7b6	0.5933794
185	0xc01423ac	-2.3146772
186	0x40e3667f	7.1062617
187	0x40d0dc89	6.526921
188	0x40b2e148	5.59
189	0x4051295c	3.2681494
190	0xbec02461	-0.37527755
191	0x4035b9b3	2.8394592
192	0xbf0cdd99	-0.5502563
193	0x40610fde	3.5165935
194	0xc03d6b58	-2.9596767
195	0x4011215b	2.2676609
196	0x3f452ca8	0.77021265
197	0xbe967179	-0.29383448
198	0x3fca8d3b	1.582435
199	0xc0774165	-3.8633664
200	0xc00ecbf9	-2.2311995
201	0xbb03fb6e	-0.0020138877
202	0xbea55803	-0.3229371
203	0xc05db76c	-3.4643202
204	0xc008ef58	-2.1396084
205	0x3ff3cafa	1.9046319
206	0xbf27b9f6	-0.6551813
207	0xbf1c4ede	-0.6105784
208	0xbf9f6935	-1.2453982
209	0x40640554	3.5628252
210	0x3e67fee2	0.22655824
211	0x3fd63322	1.6734354
212	0x3fc5318c	1.5405746
213	0x407e7488	3.9758625
214	0xbef87807	-0.48529074
215	0x3f600e87	0.87522167
216	0x4031665e	2.771873
217	0x40599308	3.399599
218	0x404c7f06	3.195253
219	0xc09bc1a0	-4.867386
220	0x3e2e9070	0.17047286
221	0x3edffbac	0.43746698
222	0x403c8f34	2.9462404
223	0x3fde7e5a	1.738231
224	0xc0b0ee45	-5.5290856
225	0x3f79b8f3	0.97547835
226	0xbfed6dd0	-1.8549137
227	0xbef87645	-0.48527732
228	0x3f0537b1	0.52038103
229	0x3cd3f024	0.025871344
230	0xbfc72422	-1.5557902
231	0xbfc8a2f7	-1.5674733
232	0x4081d890	4.057686
233	0x4020c75b	2.5121677
234	0x4001010a	2.0156884
235	0x3e97d9dd	0.29658404
236	0x3edee442	0.43533522
237	0x40d6dc81	6.714417
238	0x3e9a89dc	0.30183303
239	0xc08bc683	-4.3679824
240	0xbfc810e3	-1.5630153
241	0x4038611e	2.8809276
242	0x40c0a487	6.020084
243	0xc01641d2	-2.3477674
244	0xc09a9b18	-4.8314323
245	0xc017fef1	-2.3749354
246	0x3ea02693	0.3127943
247	0xbf4e7a85	-0.806557
248	0xbf2422ba	-0.6411549
249	0xbfaa9955	-1.3328043
250	0x4060422b	3.5040386
251	0x3ef19626	0.47184867
252	0xc04b4346	-3.175981
253	0xbfb39408	-1.402955
254	0x4002302a	2.0341897
255	0xbee67555	-0.45011392

layer1.0.bias f4 [16]
0	0x3ea51cd1	0.32248548
1	0x40e0e2d1	7.0276875
2	0x3ebb8d93	0.3663145
3	0xc00cc4ee	-2.1995196
4	0x4043aa00	3.057251
5	0xc038b7da	-2.8862214
6	0xbe954dac	-0.2916082
7	0x3fa4cc71	1.287489
8	0x3f564991	0.83706003
9	0xbef5bce8	-0.47995687
10	0x3e4bc110	0.19897866
11	0x3dc1d01d	0.094635226
12	0x40853f9a	4.164014
13	0x3f29620d	0.6616524
14	0x401a5b78	2.4118328
15	0x3e4adab2	0.19809988

layer1.1.weight f4 [16]
0	0x40595b9c	3.3962164
1	0x40373ff1	2.8632777
2	0x406183a3	3.5236595
3	0x40335d97	2.8025873
4	0x40336b89	2.8034384
5	0x4066fef1	3.6093104
6	0x4041d1a0	3.0284195
7	0x4041eccc	3.030078
8	0x3fc50014	1.5390649
9	0x400b3cb0	2.175579
10	0x40395af7	2.896177
11	0x40423ec0	3.03508
12	0x4069a267	3.6505373
13	0x402e279d	2.7211678
14	0x4009a5bd	2.1507409
15	0x3ebbd677	0.3668706

layer1.1.bias f4 [16]
0	0xc066eb01	-3.6080935
1	0xc0270763	-2.6098258
2	0xc0885a3e	-4.261016
3	0xbdcdc4f8	-0.100473344
4	0xc004e80f	-2.0766637
5	0xc013bb13	-2.308293
6	0xbf82f4df	-1.0230979
7	0xc0249bb1	-2.5720026
8	0x3f6099cf	0.87734693
9	0xbf8ecf4d	-1.1157013
10	0xc085c768	-4.1805916
11	0xc0132b9e	-2.2995372
12	0xc087556b	-4.229177
13	0xbee8eaaa	-0.45491534
14	0xbf997b1a	-1.1990693
15	0xbfaf32bc	-1.3687358

layer1.1.running_mean f4 [16]
0	0xbf80a04e	-1.0048921
1	0xc04e924d	-3.2276795
2	0x40f33568	7.6002693
3	0xc03c0e56	-2.938375
4	0xbfd562ee	-1.6670816
5	0xc078c5fb	-3.8870838
6	0xbec7556d	-0.38932362
7	0x41099268	8.598244
8	0x408d9d45	4.425448
9	0x3fcedb82	1.6160738
10	0xbe32dcdf	-0.17467068
11	0x3e4c0e0c	0.19927233
12	0xc0c50af9	-6.1575894
13	0x3e90afb1	0.28259042
14	0x405e5daf	3.474468
15	0xc0676f66	-3.6161742

layer1.1.running_var f4 [16]
0	0x4104cef4	8.300526
1	0x41e0f178	28.117905
2	0x4183a3bd	16.45495
3	0x408175ed	4.045645
4	0x41700b4e	15.00276
5	0x416e9edf	14.913787
6	0x400792a9	2.1183264
7	0x41870703	16.878424
8	0x40f572b0	7.67025
9	0x40b27bfd	5.5776353
10	0x408fa77c	4.489195
11	0x41515ea7	13.0856085
12	0x422395e2	40.89637
13	0x41086dc6	8.5268
14	0x40752c16	3.8308158
15	0x4051a3d5	3.2756245

layer2.0.weight f4 [32, 16, 5, 5]
0	0xc081414a	-4.03922
1	0xc073d86d	-3.8100846
2	0xc02d601f	-2.7089918
3	0xc0c9370b	-6.287969
4	0xbfdf040c	-1.742311
5	0xc0b142e7	-5.539417
6	0xc0463e39	-3.0975478
7	0xc016b5e4	-2.3548517
8	0xc09163e6	-4.5434446
9	0x3f9ffe7e	1.249954
10	0x3ff8ccf9	1.9437553
11	0x3ea33d85	0.31882873
12	0xc08eb281	-4.45929
13	0x3f09cc63	0.53827494
14	0x400cb7bd	2.1987145
15	0xbf613e18	-0.8798537
16	0xc003bac6	-2.0582747
17	0x3df2ac35	0.11849252
18	0x40054022	2.0820394
19	0xbfb56ecb	-1.4174436
20	0xc01853ab	-2.3801067
21	0xbff8014a	-1.9375393
22	0x3ef358ce	0.4752869
23	0xbfa6e53a	-1.3038704
24	0x4003bf4d	2.058551
25	0xc08a2a8a	-4.3176928
26	0xbff6340f	-1.9234637
27	0xc04eca6e	-3.2311053
28	0xc028688a	-2.6313806
29	0x3f4c50b0	0.7981062
30	0xbfa9b26b	-1.3257574
31	0x3f8339f4	1.0252061
32	0xbf615112	-0.8801433
33	0x3fa921ab	1.32134
34	0x40f47bc2	7.640107
35	0x3f3036b9	0.688335
36	0x401ee74e	2.4828677
37	0xbe869345	-0.26284233
38	0xc0afa869	-5.489308
39	0x3f2ad247	0.6672711
40	0xbfa1732e	-1.2613275
41	0x402a8b36	2.6647468
42	0x40684646	3.6292892
43	0xbf912192	-1.133837
44	0x3f946e63	1.1596187
45	0x4010ef4c	2.2646055
46	0x3f9b706d	1.2143685
47	0xbfb18543	-1.3868793
48	0xc0a8c3b8	-5.2738914
49	0x3fc30acd	1.5237671
50	0x3e9e9759	0.30974844
51	0x40cb9cf5	6.36291
52	0xc0147502	-2.3196416
53	0xbfc23c81	-1.5174714
54	0xc007be1d	-2.1209786
55	0xbe8f65bb	-0.28007302
56	0xbed756de	-0.42058462
57	0xc0b40e81	-5.6267705
58	0xbf88ecbc	-1.0697246
59	0x3f3a1f88	0.7270436
60	0xc08b8a59	-4.360638
61	0x400eea68	2.233057
62	0xbe74febc	-0.23925298
63	0x3efe4e8d	0.49669304
64	0xbf555203	-0.83328265
65	0xbf11db26	-0.5697502
66	0x405d0ba2	3.453835
67	0x401f86f7	2.4926126
68	0x407637f9	3.8471663
69	0xbb82b3a7	-0.0039887014
70	0xc01c65a9	-2.4437048
71	0xbfe6246a	-1.7979863
72	0xbf5fb5b9	-0.8738666
73	0xc08a5d5c	-4.3238964
74	0xc06677c2	-3.6010594
75	0x3fc7adf1	1.5599958
76	0xbf984084	-1.1894689
77	0xbfd0152c	-1.6256461
78	0xbf4ece21	-0.8078328
79	0xc0670cab	-3.6101482
80	0xc00594ac	-2.0871992
81	0xc0766edd	-3.8505166
82	0xc0c27cbd	-6.077727
83	0xbf1c8887	-0.61145824
84	0x3c2fce0a	0.010730276
85	0x408cfb15	4.4056497
86	0x4017659c	2.3655767
87	0xc1033d58	-8.2024765
88	0xc0c5a185	-6.1759667
89	0x3f2aa83b	0.6666295
90	0x3e520f3f	0.20513628
91	0x3fad217c	1.3525844
92	0xc01bb4d6	-2.4329123
93	0x3f95fb8e	1.1717393
94	0xbf7d0250	-0.98831654
95	0xbd827618	-0.06370181
96	0x4019d5a4	2.4036646
97	0xc0045219	-2.0675108
98	0xbc251291	-0.010075227
99	0x40148a71	2.3209498
100	0x3e25a196	0.16174921
101	0x406decae	3.7175708
102	0xc00c9216	-2.1964164
103	0x3f5144cd	0.81745607
104	0xbf4b6a5c	-0.79459167
105	0xc054bf09	-3.3241599
106	0xc0d18099	-6.546948
107	0xc026fa71	-2.6090357
108	0xc0257d55	-2.5857747
109	0xc00f7fff	-2.2421873
110	0xc0212119	-2.5176451
111	0xbfd0a5ec	-1.6300635
112	0x3f9849c5	1.1897513
113	0x3de727a1	0.112868555
114	0xc0214b43	-2.5202186
115	0xbdf360a7	-0.11883669
116	0x409d98be	4.9248953
117	0xbf22b99d	-0.63564473
118	0xc06df15d	-3.7178566
119	0xbf4503bb	-0.7695882
120	0x40789516	3.8840995
121	0xbdef8ca4	-0.11696747
122	0xc01bf6af	-2.4369314
123	0x3fd4fd10	1.6639729
124	0x3ffc6cad	1.9720665
125	0x3dfa5083	0.12222388
126	0xc02cc407	-2.6994646
127	0xc022152c	-2.5325422
128	0x3f998c85	1.1996008
129	0x3ff2a9b0	1.8958035
130	0x3fa418c6	1.282006
131	0x3ea184a2	0.31546503
132	0xbfe7aaa4	-1.809895
133	0xbf089562	-0.5335294
134	0x3f0ef337	0.55839866
135	0xc02a9f84	-2.665986
136	0xbe1b3bcb	-0.15159528
137	0xc020031a	-2.5001893
138	0xbfb2a328	-1.3956041
139	0xc013bf74	-2.3085604
140	0xbcd7d9ff	-0.026349066
141	0x4036ede1	2.858269
142	0xc0968991	-4.704293
143	0xbfcf2027	-1.6181687
144	0x403a1b85	2.9079297
145	0xbfe5bbe4	-1.7947965
146	0x3fb39f76	1.4033039
147	0xbf67d753	-0.90562934
148	0xc06d992b	-3.7124736
149	0xbe577f48	-0.21044648
150	0xc0570a58	-3.3600063
151	0x40c5cb49	6.181065
152	0xbe8f0e0d	-0.27940407
153	0x3f1f59ee	0.62246597
154	0x3fcdffbe	1.6093671
155	0xbf06ef6f	-0.52709097
156	0xc11f9155	-9.972981
157	0xbfa90a57	-1.320628
158	0x3eaedc73	0.34152564
159	0xc0f59d86	-7.675479
160	0x40864ff0	4.197258
161	0x3f686e72	0.90793526
162	0xbfd32ee3	-1.6498684
163	0xc0de3859	-6.9443784
164	0x40089980	2.134369
165	0x3fc1163a	1.5084908
166	0x400648e3	2.0981987
167	0x3e1d2d3f	0.15349291
168	0x401595b0	2.3372612
169	0xbf533d42	-0.82515347
170	0x3fc8f17f	1.5698699
171	0x3ef2f47c	0.47452152
172	0xc0306cc1	-2.7566378
173	0x3e75e896	0.24014506
174	0xbfa9165f	-1.3209952
175	0x3fbae988	1.4602518
176	0xbfe74247	-1.8067101
177	0xc0127118	-2.2881527
178	0x3fe88ede	1.81686
179	0x3fb6044c	1.4220061
180	0x408d7fd7	4.4218554
181	0x3f722677	0.9458994
182	0xbf529d35	-0.8227113
183	0xbeec77e2	-0.46185213
184	0xbff265f2	-1.8937361
185	0xc107f192	-8.496477
186	0xc07a5333	-3.911328
187	0xbfb85c6a	-1.4403203
188	0xc05ab405	-3.4172375
189	0xbe9a9517	-0.30191872
190	0xc0375277	-2.8644083
191	0xbf268dcb	-0.6506011
192	0xbf516e8d	-0.8180931
193	0xbf7aa4d4	-0.9790776
194	0x404c9c12	3.1970258
195	0xbea94e41	-0.33067515
196	0x3eaaa6e0	0.3333044
197	0x3fb0dc3d	1.3817211
198	0x3f867b64	1.0506406
199	0x40644fd4	3.5673723
200	0xbf8c2455	-1.0948588
201	0xbdd6dfb8	-0.1049189
202	0x3c5a9be3	0.01334283
203	0x3f913b1b	1.1346163
204	0xbf88e911	-1.0696126
205	0xbfd2c939	-1.6467658
206	0xc0543e8c	-3.3163176
207	0x4026b1b6	2.6045966
208	0x3f47c51f	0.7803516
209	0xbf96cb83	-1.1780857
210	0xc0673667	-3.6126955
211	0xc053d0ad	-3.3096116
212	0x3c11167b	0.008855457
213	0x4013d6ee	2.3099933
214	0x4009f6e2	2.1556935
215	0xbfa76259	-1.3076888
216	0xbf43ff51	-0.76561457
217	0xc00fc70f	-2.2465246
218	0xc05cc38a	-3.4494348
219	0x3fe4aeae	1.7865808
220	0xc03972b1	-2.8976252
221	0x3eb09012	0.34484917
222	0x3ff37459	1.9019881
223	0x3ed82b07	0.42220327
224	0x3f28391a	0.6571213
225	0xbfaacca2	-1.3343699
226	0xbec764de	-0.38944143
227	0xc0344c83	-2.81717
228	0x4063c0f1	3.5586512
229	0xbfe949dd	-1.8225666
230	0x3e81468c	0.25249135
231	0xc0d124ad	-6.535727
232	0x3f9aa10b	1.2080396
233	0xbf2cd611	-0.6751414
234	0xbec212f5	-0.37905088
235	0xbf991e61	-1.1962396
236	0xc046750d	-3.1008942
237	0x3e9953d6	0.29946774
238	0x401443f3	2.3166473
239	0x3f99468f	1.1974658
240	0xc0abeae7	-5.3724246
241	0xc08384b1	-4.1099477
242	0xc017ef0f	-2.373966
243	0xbf369be6	-0.7133163
244	0x3fd598f3	1.6687301
245	0xc041f339	-3.0304701
246	0x3fc1d9df	1.5144614
247	0x4002f458	2.0461636
248	0x3f8c1322	1.0943339
249	0x3f0c90ca	0.5490843
250	0x408d1b17	4.409557
251	0xc085c62b	-4.1804404
252	0x3fc3578f	1.5261096
253	0xc02d47d4	-2.707509
254	0x3c112725	0.00885943
255	0x3f254f95	0.6457456

layer2.0.bias f4 [32]
0	0x402f0b97	2.7350824
1	0x3f8efa9d	1.1170231
2	0x3ffd3089	1.9780437
3	0x3e4589c8	0.1929084
4	0x3ee31869	0.4435456
5	0x3f9af922	1.2107279
6	0x401c6e35	2.4442265
7	0x3e9a44a9	0.3013051
8	0x3fe3fdbd	1.781181
9	0x3e82a424	0.25515854
10	0x3f94c71b	1.1623262
11	0x3da63c46	0.08116965
12	0x3e4841a4	0.1955629
13	0x3f5c668e	0.86093986
14	0x4018e807	2.3891618
15	0x3f9875d1	1.1910955
16	0x3e41b3c7	0.18916236
17	0x3e49ae07	0.19695292
18	0x3f9df551	1.234049
19	0x3fdf1a41	1.7429887
20	0x3e077756	0.13229117
21	0x400e9667	2.2279298
22	0x4005c04c	2.0898619
23	0x3ffdd91d	1.9831883
24	0x3fe96998	1.823535
25	0x3d02ff7c	0.03198193
26	0x3f8e548d	1.1119553
27	0x3fcde455	1.6085306
28	0x3e2cf512	0.16890362
29	0x402e164b	2.7201107
30	0x3f883d70	1.0643749
31	0x3e3090a3	0.17242675

layer2.1.weight f4 [32]
0	0x3f0be930	0.5465269
1	0x3f2650a2	0.64966786
2	0x3f299462	0.6624204
3	0x3e898bea	0.26864558
4	0x3e65964c	0.22420615
5	0x3f34ab12	0.7057353
6	0x3f31af9d	0.6940859
7	0x3e11afbc	0.14227194
8	0x3ee2b565	0.44279018
9	0x3e67ea8b	0.22648065
10	0x3f12e2bf	0.5737724
11	0x3f87b4d2	1.0602057
12	0x3e349fb1	0.17639042
13	0x3f6b55d0	0.91927814
14	0x3f43831f	0.7637195
15	0x3f90c7f1	1.1311017
16	0x3e57a591	0.21059252
17	0x3e92c09f	0.28662583
18	0x3f566229	0.8374353
19	0x3f15ead5	0.5856145
20	0x3e2c4bc6	0.1682578
21	0x3f569bac	0.83831286
22	0x3f1fadab	0.6237437
23	0x3eedd113	0.46448573
24	0x3f3973f1	0.7244254
25	0x3e8b3ee2	0.27196413
26	0x3f489546	0.78352773
27	0x3f3660a8	0.71241236
28	0x3e8abb8e	0.27096218
29	0x3f1b6746	0.6070446
30	0x3f19d2e4	0.6008742
31	0x3e81d3cf	0.2535691

layer2.1.bias f4 [32]
0	0xbf1622a2	-0.58646595
1	0xbf1bdd41	-0.6088448
2	0xbf50bd2b	-0.8153865
3	0xbf3b77c2	-0.7322961
4	0xbf2fdf18	-0.6869979
5	0xbf62c39f	-0.88579744
6	0xbf4fda43	-0.81192416
7	0xbf530b90	-0.8243952
8	0xbf0224a3	-0.50837153
9	0xbf43ed8e	-0.76534355
10	0xbf045b0c	-0.51701427
11	0xc004d6ee	-2.0756183
12	0xbf68960b	-0.9085395
13	0xbfb12057	-1.3837994
14	0xbf6581b6	-0.8965105
15	0xbfdd8ad2	-1.730799
16	0xbf443094	-0.76636624
17	0xbf203ab7	-0.6258959
18	0xbf8e8a4d	-1.1135956
19	0xbf3a51c2	-0.72781
20	0xbf12cf92	-0.5734798
21	0xbf75cd89	-0.96016747
22	0xbf40831a	-0.75200045
23	0xbeef8fd8	-0.46789432
24	0xbf8d7cf3	-1.1053756
25	0xbf269fa7	-0.6508736
26	0xbf8fa835	-1.1223208
27	0xbf72803c	-0.9472692
28	0xbf3042a4	-0.68851686
29	0xbf1bd11c	-0.6086595
30	0xbf2a80fc	-0.66603065
31	0xbf52d3dc	-0.8235452

layer2.1.running_mean f4 [32]
0	0xc30b5dea	-139.36685
1	0xc2d26c9b	-105.21212
2	0xc2c99255	-100.785805
3	0xc25cc8f9	-55.196262
4	0xc1e81c97	-29.01396
5	0xc2b41763	-90.04568
6	0xc2bee85c	-95.45383
7	0xc21c793d	-39.118397
8	0xc28da7d8	-70.82782
9	0xc21d4e10	-39.326233
10	0xc2a7ed86	-83.96391
11	0xc295d298	-74.911316
12	0xc24836ad	-50.053394
13	0xc2be9933	-95.29922
14	0xc2f96d5e	-124.71361
15	0xc2d9a3e3	-108.82009
16	0xc1d297d4	-26.324135
17	0xc1aed6f4	-21.854958
18	0xc2a92141	-84.56495
19	0xc325fe7d	-165.9941
20	0xc243312c	-48.79802
21	0xc2eda5e7	-118.82403
22	0xc2bf4562	-95.63551
23	0xc2d3bc0b	-105.86727
24	0xc2877fda	-67.74971
25	0xc1e63ef5	-28.78074
26	0xc28d71c8	-70.72223
27	0xc2cdff89	-102.99909
28	0xc2056d9e	-33.357048
29	0xc303dc0a	-131.85953
30	0xc2cca078	-102.313416
31	0xc2420456	-48.504234

layer2.1.running_var f4 [32]
0	0x46853b79	17053.736
1	0x46a1f9a8	20732.828
2	0x462e56dd	11157.716
3	0x449da321	1261.0978
4	0x43c6f018	397.87573
5	0x4637faaa	11774.666
6	0x463a7324	11932.785
7	0x443063fd	705.5623
8	0x4602f400	8381.0
9	0x4437978b	734.36786
10	0x4657eefa	13819.744
11	0x46777c1a	15839.025
12	0x44b5f816	1455.7527
13	0x4654e817	13626.022
14	0x46825605	16683.01
15	0x465a4078	13968.117
16	0x43f7f0e7	495.88205
17	0x436a13de	234.0776
18	0x4636b610	11693.516
19	0x4684bb85	16989.76
20	0x44a0818a	1284.0481
21	0x465a7129	13980.29
22	0x460eee4e	9147.576
23	0x46464763	12689.847
24	0x45ea086d	7489.053
25	0x43adea04	347.82825
26	0x464506a7	12609.663
27	0x464db377	13164.866
28	0x43efe325	479.77457
29	0x466968de	14938.217
30	0x465fe763	14329.847
31	0x4489033e	1096.1013

fc.weight f4 [7, 4608]
0	0xc03a61d9	-2.9122221
1	0xbf14d08c	-0.5813072
2	0x3fbb7a76	1.4646747
3	0xbf39b56a	-0.7254244
4	0x3f9455fa	1.1588738
5	0xc0481a75	-3.1266148
6	0xc0263080	-2.5967102
7	0x3fe69b0c	1.8016067
8	0xbfc847cf	-1.5646914
9	0xbfbe9ba5	-1.4891249
10	0x3f067de0	0.5253582
11	0xc00ad84e	-2.1694522
12	0xbf0bda2d	-0.54629785
13	0x3c417bc9	0.011809298
14	0xc030120b	-2.7511013
15	0x3f21998e	0.6312493
16	0xbebbef4f	-0.36706015
17	0xbfbff742	-1.4997332
18	0x3fcdce70	1.6078625
19	0xbf7759e4	-0.9662154
20	0x3cce5345	0.02518619
21	0x3f0b016f	0.5429906
22	0xbfabd02a	-1.3422902
23	0xc02d668e	-2.7093844
24	0xbfb645fc	-1.4240108
25	0xbead083f	-0.33795354
26	0xbefbfb41	-0.4921513
27	0x3fe28d4f	1.7699374
28	0xc00daa6e	-2.2135272
29	0x3f8b25bd	1.0870892
30	0xbfb4f6c0	-1.4137802
31	0x3e27a20c	0.1637041
32	0xbf8340e5	-1.0254179
33	0xc02b90ea	-2.6807199
34	0xbf80532e	-1.0025384
35	0x3f5cb720	0.86216927
36	0x3e3cc709	0.18435301
37	0x3f873a93	1.056475
38	0xbfdbfb15	-1.7185999
39	0xbfa7212f	-1.3057002
40	0x3e9aa8d6	0.30206937
41	0xbfefc830	-1.8732967
42	0xbe8995e2	-0.26872164
43	0x3fd4257c	1.6573939
44	0xbf0fee14	-0.56222653
45	0xbf9bc191	-1.2168447
46	0xbdb9119a	-0.0903656
47	0xc01a8f30	-2.4149895
48	0xbfd4f085	-1.6635901
49	0xbf4566fe	-0.7711028
50	0xbfdf2ed3	-1.7436165
51	0xbff428bb	-1.907493
52	0xbf31a6bc	-0.6939504
53	0xbe5dc332	-0.21656492
54	0x3ea8199c	0.32832038
55	0xbf8604a3	-1.0470165
56	0xbf87cd95	-1.0609614
57	0xbff3412e	-1.9004266
58	0x3da8c4c7	0.08240657
59	0x3eabbac9	0.33540943
60	0x4045b92f	3.0894277
61	0x405e284d	3.4712098
62	0x3f012aa1	0.5045567
63	0xbedab42a	-0.4271558
64	0x3f842068	1.032239
65	0xbf660254	-0.898473
66	0x3eb97e40	0.36229134
67	0xbd13eb3d	-0.036113013
68	0xbf1e9b1d	-0.61955434
69	0xbf7b6f0e	-0.9821633
70	0x3fa0db50	1.2566929
71	0xc03d7241	-2.9600985
72	0xc04b8f7c	-3.1806326
73	0xbfad2f65	-1.3530089
74	0x3f857381	1.0425874
75	0x3f485d99	0.7826782
76	0xbe2bd3cb	-0.16780011
77	0x40165a59	2.3492644
78	0xbf792509	-0.97322136
79	0xbeef41ae	-0.46729797
80	0xbe56ee15	-0.20989259
81	0x3fb954d8	1.4479017
82	0x3eb777f5	0.35833707
83	0x40aa04be	5.313079
84	0xbd010b5a	-0.031504966
85	0x3f09a33e	0.5376471
86	0x3f9f5edc	1.2450824
87	0xbed5bf09	-0.4174731
88	0x3f837405	1.0269781
89	0x3e82e4c3	0.25565156
90	0x3f520ade	0.8204783
91	0xbe51168a	-0.20418754
92	0x401ce6c5	2.451585
93	0xbf8cd993	-1.1003898
94	0x3ddba841	0.10725451
95	0xc0018738	-2.023878
96	0xbf3f7b70	-0.74797726
97	0xbf8baa20	-1.0911293
98	0x3fc29fdf	1.5205039
99	0xbf8bc60c	-1.0919814
100	0x401c7964	2.444909
101	0xbe594ebe	-0.21221444
102	0xbf9e11ae	-1.2349145
103	0x3e7ac66c	0.24489754
104	0x3fc16154	1.5107827
105	0xbe16054a	-0.14650455
106	0xbe16c7ca	-0.14724651
107	0xbf565007	-0.8371586
108	0x3f7523c4	0.957577
109	0x3fd1c120	1.6387062
110	0x3e1b3f78	0.1516093
111	0x3e9e84f1	0.309608
112	0xbfcc9b98	-1.5984983
113	0x3f982316	1.1885707
114	0xbe7eacee	-0.24870655
115	0x3f84d744	1.0378194
116	0x3f4ea328	0.80717707
117	0x3f59e71e	0.8511828
118	0xbf329466	-0.6975769
119	0x3ef7a4ef	0.48368022
120	0x3f9f1761	1.242901
121	0x3eb84a3d	0.3599414
122	0xbf0caeeb	-0.54954404
123	0xc02c7602	-2.6947026
124	0x3ff6a483	1.9268955
125	0xc050a4dd	-3.2600625
126	0x40162b96	2.3464103
127	0x3f196981	0.5992661
128	0x3fb41931	1.4070188
129	0xbe113025	-0.14178522
130	0xbfa5864c	-1.2931609
131	0x3fbe2139	1.4853889
132	0x3fb1c239	1.3887397
133	0x406af6f2	3.6713223
134	0xbf9d9ecd	-1.2314087
135	0xbeb72ae2	-0.35774904
136	0xbf32c77a	-0.6983563
137	0x3fa836cc	1.3141723
138	0x3f8fecc6	1.1244133
139	0xbf8208a9	-1.0158893
140	0x400a5098	2.161169
141	0xc091a31f	-4.5511622
142	0x3fb1527d	1.3853298
143	0xbfce3460	-1.6109734
144	0xbfcf9322	-1.6216776
145	0xbf989add	-1.192226
146	0x3f4179b4	0.7557633
147	0xbf0a7a9a	-0.54093325
148	0x408fcfae	4.4941015
149	0xc084f18d	-4.154486
150	0x3fddf5ca	1.7340634
151	0x401ceaae	2.4518237
152	0xbd60d862	-0.05489386
153	0x3ef9fd51	0.48826078
154	0x3f8c78ab	1.0974325
155	0xc069af0b	-3.6513088
156	0x40161bc7	2.3454454
157	0x3f9a559b	1.2057375
158	0x3f3ccc45	0.7374919
159	0x3f72b2df	0.94804186
160	0x3ffba690	1.9660206
161	0x3eb5225b	0.35377774
162	0x3eaeac37	0.34115764
163	0x4049507e	3.1455379
164	0xbea561d5	-0.32301202
165	0x3fd6aa49	1.6770717
166	0x3fa9a016	1.3251979
167	0x404805b9	3.1253493
168	0x3f17e1c9	0.59328896
169	0xbe060e7a	-0.1309146
170	0x3ddd1fdc	0.10797092
171	0x3febbc83	1.8416904
172	0x3f336a18	0.7008376
173	0xbf05562c	-0.5208461
174	0x4008eab7	2.1393259
175	0x3fb51b22	1.4148905
176	0x3f617bd7	0.8807959
177	0x3fae4e58	1.3617659
178	0x3d6d98ce	0.058007054
179	0xbd8c0393	-0.06836619
180	0xbf038ae7	-0.51383823
181	0xbffff10d	-1.9995438
182	0xbd3a8908	-0.04554084
183	0x4028403a	2.62892
184	0x3ff89f76	1.9423664
185	0xbf91a6b7	-1.1379002
186	0x3f009a43	0.50235385
187	0x3fbe8505	1.4884344
188	0x3fa375b8	1.27703
189	0x3f7b2489	0.98102623
190	0x3f3db0a8	0.7409768
191	0xbf183425	-0.59454566
192	0x3ca8441f	0.020540295
193	0xbfcfb22e	-1.6226251
194	0x3f18fa5e	0.5975703
195	0x3face316	1.3506801
196	0x3fc84458	1.5645857
197	0xbe49f740	-0.19723225
198	0x3f51c5d2	0.81942475
199	0x3f418ea9	0.7560831
200	0x3f41890d	0.7559975
201	0x401041a2	2.254006
202	0x3b117231	0.0022193308
203	0x3fa658d2	1.2995856
204	0x3fe0b3e1	1.7554895
205	0xbfade2c8	-1.3584833
206	0xbf977405	-1.1832281
207	0x3f17dccb	0.5932128
208	0xbe37b1cb	-0.17938916
209	0xbfa1a9c3	-1.2629932
210	0x3ee990c0	0.45618248
211	0x3e927fb6	0.2861306
212	0x3eb41fa3	0.35180387
213	0xbf8bf161	-1.0933038
214	0xbf22c798	-0.63585806
215	0x4045758d	3.0852997
216	0x4010f8ba	2.265181
217	0xc086bc3a	-4.210477
218	0xc03331d2	-2.7999158
219	0x3f32b6b2	0.6981002
220	0xc01cc334	-2.4494143
221	0xbf533742	-0.8250619
222	0x3f721633	0.94565123
223	0xbf96da7d	-1.1785427
224	0xc04acb87	-3.1686723
225	0x3eb5a601	0.35478213
226	0xbf924300	-1.1426697
227	0xc09680fd	-4.7032456
228	0x3fded4c5	1.7408682
229	0xbd99e6bb	-0.075147115
230	0xbfaa8191	-1.332079
231	0xc04f4092	-3.238316
232	0xbfd3f868	-1.6560183
233	0xbee11807	-0.43963644
234	0xc0048c2b	-2.0710552
235	0xc007774d	-2.1166565
236	0xc05c84f4	-3.4456148
237	0xbf8cf09f	-1.1010932
238	0xc00e8cf9	-2.2273543
239	0xbd6810bf	-0.056656595
240	0x3fa07289	1.2534953
241	0xc099cf51	-4.806557
242	0xbe795281	-0.24347879
243	0xbf87d378	-1.061141
244	0xc0113399	-2.2687743
245	0xbfbe2b19	-1.4856902
246	0xbe1c64f9	-0.15272893
247	0xc09b2921	-4.8487706
248	0xbfd864b2	-1.690573
249	0x3f5b73d5	0.8572362
250	0xbfd739ca	-1.6814511
251	0xbe6a6523	-0.22890143
252	0xbf95334c	-1.165628
253	0x3ed81b8a	0.4220851
254	0xbf494074	-0.7861397
255	0xbeab4af1	-0.33455613

fc.bias f4 [7]
0	0x3e8c13f4	0.27358973
1	0xc0572c2a	-3.3620706
2	0x3ddb6a68	0.10713655
3	0x3e4d00b0	0.20019794
4	0x3ea361cb	0.31910548
5	0x3f84450a	1.0333569
6	0xbfd32aab	-1.6497396
