FaceExpressions_CNN/savemodel/model_44.pth (torch_old, 185408 bytes, 14 tensors)

layer1.0.weight f4 [16, 1, 5, 5]
0.8503072 1.8578479 3.1521149 2.7474806 2.7259417 3.4116454 -0.022628872 -0.39840624
-0.21787578 0.121015474 0.87233275 -1.9517541 -1.4796215 -4.5615826 -6.3094215 1.3695514
-1.0304433 0.002321895 -2.8155398 -2.1211805 1.041426 -2.3069735 1.740729 0.17505558
1.5634491 -0.5100601 -2.4380212 -0.6880224 2.421126 3.0674367 -0.65447456 -1.4904952
0.42190102 1.0743008 -1.0539899 -0.6339072 -1.4703921 -0.86833847 -2.3435845 -2.3893554
-6.1664186 -2.198523 -2.721425 -5.037097 1.2901411 0.6295557 0.32447976 -0.8002617
0.56880975 1.5846213 -2.3610804 -1.3025936 2.0565567 0.33294028 -3.212088 1.1231308
2.2649014 1.6882619 4.1009197 0.14561127 0.15913893 3.4752245 -0.99571234 5.0201273
0.9622555 -3.4598713 2.2827346 0.15286824 5.208777 0.5307357 -1.5497626 0.27829054
0.18886879 -0.2244874 -2.728638 3.2104933 1.1067162 -2.240941 -0.20022127 0.18485276
2.641185 -4.202125 -2.90579 0.42156565 0.08876848 -2.226056 -5.667457 0.1511594
-0.2495457 -2.501847 -1.8338604 2.0902486 2.716748 2.4767475 2.0867891 0.5165836
1.4279201 0.38276675 0.44265237 1.789591 1.9986938 -0.91382736 -1.9177984 -2.4071305
1.5153995 1.4327502 -1.4596037 0.4315898 -1.7636707 -2.152173 -2.4318147 -0.32848135
1.3685783 -3.5675106 -5.0669985 0.959716 0.74902135 -1.7992525 -2.5828202 -1.9758384
3.7821565 4.2288537 1.383692 1.6934637 0.7549976 -1.0950943 -4.863322 -5.512074
-2.0394907 -1.2053344 0.024158895 -0.9682789 -2.1104789 -1.6051649 -2.2228425 0.56935173
0.59610623 1.6536111 2.7687724 -0.9147787 -0.7352359 0.3327293 2.4184606 1.0509764
1.3239629 3.7704916 1.4414337 1.7251095 0.09324611 3.799155 0.5831448 -1.4323852
-0.69312984 2.1802495 0.29453805 1.0825434 -0.63033456 -3.6482348 0.34941122 3.8623416
0.94617945 2.0840876 -4.4855704 -4.369913 2.8905466 -0.3085501 2.6660519 1.5139321
-3.6665053 -1.2195879 -0.41954017 0.40734583 2.147983 0.1700975 -0.08965016 0.16924676
-0.05748086 -2.6911318 -2.037723 -1.1773226 -1.7812482 0.55591327 -0.87400234 0.6604964
0.49557313 -1.7624813 6.150433 5.635791 4.897071 2.6824882 -0.32350832 2.520612
-0.41319436 3.2733588 -2.7487137 1.934239 0.63114786 -0.3107709 1.5863976 -3.2840083
-1.8189421 -0.15186028 -0.40718725 -3.0878694 -1.7756679 1.65136 -0.33255947 -0.6441824
-1.0182596 2.8373523 0.36237228 1.8062284 1.2373046 3.2568996 -0.6400861 0.470344
2.7879496 2.764998 2.659359 -4.390233 0.38247257 0.719513 2.2707472 1.742835
-4.7412257 0.8153543 -1.7538776 -0.46067318 -0.055057857 0.2458872 -1.3117392 -1.4780442
3.686902 2.2896369 1.4237018 0.095942564 0.63706696 6.096658 0.18728758 -3.5106664
-1.3100379 2.6761916 5.2352796 -1.958497 -4.009804 -2.1254072 0.044625446 -0.1409907
-0.47611964 -1.1309667 2.8272676 0.8859603 -2.821209 -1.2670103 1.8837836 -0.4231402
00000000: bcad 593f f6cd ed3f 40bc 4940 b9d6 2f40
00000010: d475 2e40 6658 5a40 2f60 b9bc e7fb cbbe
00000020: d41a 5fbe f6d6 f73d 3351 5f3f 14d3 f9bf
00000030: 3d64 bdbf 7cf8 91c0 c8e6 c9c0 764d af3f
00000040: 91e5 83bf ef2a 183b ce31 34c0 6cc1 07c0
00000050: 724d 853f 74a5 13c0 35d0 de3f c541 333e
00000060: 1a1f c83f 4c93 02bf 8a08 1cc0 3c22 30bf
00000070: baf3 1a40 e250 4440 a58b 27bf 8cc8 bebf
00000080: 6903 d83e b082 893f 24e9 86bf be47 22bf
00000090: cf35 bcbf 6e4b 5ebf 4afd 15c0 33eb 18c0
000000a0: 4d53 c5c0 9ab4 0cc0 d42b 2ec0 e62f a1c0
000000b0: 5823 a53f 902a 213f 3622 a63e f3dd 4cbf
000000c0: 849d 113f dfd4 ca3f f11b 17c0 63bb a6bf
000000d0: a09e 0340 2677 aa3e da92 4dc0 c0c2 8f3f
000000e0: 25f4 1040 f718 d83f bc3a 8340 1f1b 153e
000000f0: 51f5 223e 146a 5e40 01e7 7ebf e2a4 a040
00000100: 6056 763f 886e 5dc0 5318 1240 7e89 1c3e
00000110: 4dae a640 4bde 073f 9f5e c6bf 197c 8e3e
00000120: d266 413e 06e0 65be 01a2 2ec0 b978 4d40
00000130: e0a8 8d3f 946b 0fc0 ce06 4dbe 0b4a 3d3e
00000140: 2d09 2940 cf77 86c0 77f8 39c0 74d7 d73e
00000150: 40cc b53d b477 0ec0 cf5b b5c0 88c9 1a3e
00000160: e888 7fbe 431e 20c0 f0bb eabf a2c6 0540
00000170: 33df 2d40 0883 1e40 f48d 0540 d33e 043f
00000180: 16c6 b63f 01fa c33e 55a3 e23e 5111 e53f
00000190: 33d5 ff3f 97f0 69bf 6b7a f5bf 6d0e 1ac0
000001a0: 9cf8 c13f 5c64 b73f 4bd4 babf 57f9 dc3e
000001b0: f6bf e1bf 34bd 09c0 daa2 1bc0 b52e a8be
000001c0: 932d af3f 1852 64c0 da24 a2c0 f3af 753f
000001d0: ddbf 3f3f e84d e6bf ed4c 25c0 46e8 fcbf
000001e0: da0e 7240 c552 8740 d21c b13f 6bc3 d83f
000001f0: 8647 413f 0d2c 8cbf 55a0 9bc0 e962 b0c0
00000200: 0487 02c0 6648 9abf e0e8 c53c 20e1 77bf
00000210: 1612 07c0 0b76 cdbf 0d43 0ec0 09c1 113f
00000220: 6b9a 183f 87a9 d33f 9133 3140 f02e 6abf
00000230: 6c38 3cbf 7f5b aa3e 0fc8 1a40 6586 863f
00000240: 9e77 a93f bc4f 7140 e680 b83f 63d0 dc3f
00000250: d1f7 be3d 5b25 7340 fa48 153f 6658 b7bf
00000260: f570 31bf 3589 0b40 b1cd 963e c890 8a3f
00000270: 9b5d 21bf ae7c 69c0 07e6 b23e 9b30 7740
00000280: d138 723f b161 0540 cb89 8fc0 54d6 8bc0
00000290: b7fe 3840 47fa 9dbe 98a0 2a40 87c8 c13f
000002a0: 06a8 6ac0 751b 9cbf f8cd d6be a28f d03e
000002b0: 8e78 0940 0a2e 2e3e 819a b7bd 064f 2d3e
000002c0: 0d71 6bbd 813b 2cc0 0e6a 02c0 82b2 96bf
000002d0: f1ff e3bf 5550 0e3f 9ebe 5fbf 4b16 293f
000002e0: c3bb fd3e fd98 e1bf 59d0 c440 6658 b440
000002f0: ceb4 9c40 e3ad 2b40 e2a2 a5be b551 2140
00000300: 368e d3be b67e 5140 edea 2fc0 2595 f73f
00000310: e892 213f 5d1d 9fbe 140f cb3f 312d 52c0
00000320: 18d3 e8bf 4381 1bbe d97a d0be a79f 45c0
00000330: 1649 e3bf c45f d33f 3c45 aabe 23e9 24bf
00000340: 5556 82bf 2e97 3540 dc88 b93e 7e32 e73f
00000350: ff5f 9e3f 0b71 5040 afdc 23bf eed0 f03e
00000360: c46d 3240 baf5 3040 f032 2a40 ca7c 8cc0
00000370: 72d3 c33e 0132 383f ec53 1140 3815 df3f
00000380: 1fb8 97c0 0fbb 503f 107f e0bf 5bdd ebbe
00000390: 5984 61bd dbc9 7b3e 12e7 a7bf 8d30 bdbf
000003a0: 34f6 6b40 6989 1240 dc3b b63f 897d c43d
000003b0: d216 233f d317 c340 51c8 3f3e c2ae 60c0
000003c0: 52af a7bf b946 2b40 6987 a740 08b0 fabf
000003d0: 5050 80c0 ac06 08c0 2cc9 363d de5f 10be
000003e0: f4c5 f3be 84c3 90bf f4f1 3440 4bce 623f
000003f0: b08e 34c0 652d a2bf d21f f13f d5a5 d8be

layer1.0.bias f4 [16]
-0.43577164 4.3136506 0.3657257 -1.123978 1.52029 -2.6965544 -0.3803374 1.2683533
1.4091356 0.40365633 0.01934324 -0.7786299 2.8025274 0.33478746 2.2895632 0.19809988
00000000: 761d dfbe 6d09 8a40 6640 bb3e 83de 8fbf
00000010: dd98 c23f 5994 2cc0 95bb c2be 6759 a23f
00000020: 8e5e b43f 0bac ce3e b775 9e3c 4a54 47bf
00000030: 9c5c 3340 4369 ab3e 3488 1240 b2da 4a3e

layer1.1.weight f4 [16]
2.8998046 2.5447311 3.0403624 2.4271514 2.4103885 3.0723586 2.800172 2.5713356
1.3928105 1.877761 2.4112186 2.7516751 3.057272 2.5443087 1.9943264 0.3668706
00000000: 6696 3940 e0dc 2240 4c95 4240 7356 1b40
00000010: ce43 1a40 86a1 4440 0536 3340 c390 2440
00000020: 9d47 b23f 795a f03f 6851 1a40 721b 3040
00000030: 58aa 4340 f4d5 2240 1646 ff3f 77d6 bb3e

layer1.1.bias f4 [16]
-3.2954247 -2.3891277 -3.787351 -0.0025860334 -1.8899173 -2.1941168 -1.0798148 -2.2142727
0.6886263 -0.8995184 -3.6367054 -1.9046222 -3.6092434 -0.42833063 -0.91618377 -1.3687358
00000000: 3de8 52c0 78e7 18c0 f563 72c0 717a 29bb
00000010: cfe8 f1bf 696c 0cc0 5f37 8abf a5b6 0dc0
00000020: d049 303f d646 66bf c8bf 68c0 a9ca f3bf
00000030: d8fd 66c0 274e dbbe 058b 6abf bc32 afbf

layer1.1.running_mean f4 [16]
-1.6650002 -5.7952414 7.8023777 -1.5589842 -2.7502172 -3.2758336 -0.3843989 8.337867
4.607732 2.5228038 0.16260926 -0.35541025 -6.2654157 0.029357664 3.4301417 -3.748522
00000000: ba1e d5bf 9e72 b9c0 14ad f940 cb8c c7bf
00000010: 8f03 30c0 42a7 51c0 efcf c4be e767 0541
00000020: 8a72 9340 9e75 2140 0b83 263e 55f8 b5be
00000030: 497e c8c0 7c7f f03c 7187 5b40 c9e7 6fc0

layer1.1.running_var f4 [16]
7.0515494 25.99018 16.143549 3.0072017 11.97405 12.107329 1.5750939 14.711325
6.2724957 4.3661532 3.0446017 9.84458 31.71885 6.772798 3.0906374 3.4746404
00000000: 4ba6 e140 e3eb cf41 fd25 8141 fe75 4040
00000010: b595 3f41 9fb7 4141 ad9c c93f 9661 6b41
00000020: 49b8 c840 87b7 8b40 c1da 4240 6683 1d41
00000030: 34c0 fd41 c3ba d840 01cd 4540 8260 5e40

layer2.0.weight f4 [32, 16, 5, 5]
-3.7869778 -4.1376305 -2.509502 -4.3219423 -1.448749 -5.2015147 -2.7171876 -2.4027746
-4.12704 0.83412004 1.8196342 0.2052019 -3.2419004 0.26947352 2.2561257 -0.580876
-1.1845487 -0.08304316 1.1275415 -1.3267292 -2.103456 -2.0990908 0.33611125 -1.7680489
1.5506008 -3.6038086 -0.9097885 -2.614145 -2.1377037 0.54127014 -0.8022432 1.1969581
-0.8395495 1.2168275 6.277858 0.3331453 2.2127757 -0.27556688 -4.524191 0.1402509
-0.5140422 3.0046866 3.2100995 -1.4323157 -0.15327685 2.0687983 1.0357186 -1.5823897
-4.3236547 1.1634316 -0.27577436 6.2481894 -1.6076697 0.058229234 -1.4301028 -0.13767624
-0.106360406 -4.6209154 -0.3812361 0.21396935 -3.2823198 1.4584483 -0.5724473 0.41198236
-1.2730172 -1.0067065 3.9541523 1.6031737 2.5881445 0.075614505 -2.6359403 -1.3189654
-0.22718659 -2.7631044 -3.0783083 1.5507972 -1.1576957 -1.0068438 -0.39269707 -2.4939125
-1.710218 -3.7553759 -5.216087 -1.0083889 0.30939135 3.4830024 1.5860394 -7.4409413
-5.970669 0.6092667 0.41719168 1.3421975 -2.2820868 0.99986535 -0.65929085 -0.05024669
1.903683 -1.7757143 -0.27718 1.9987671 -0.37246448 3.059466 -2.0338018 0.4473949
-0.94706583 -3.4571688 -4.571409 -2.8362432 -1.7645667 -1.5861933 -2.7080266 -1.9286098
-0.12747753 -0.23915875 -2.2920163 0.45927942 4.2532244 -0.7840615 -1.9636134 -0.46838057
3.002651 -0.6349216 -1.4776306 1.9505296 1.405147 -0.093121655 -2.0857933 -2.212929
0.83123976 1.5220225 1.2495655 0.32827252 -1.4090086 -0.7673948 0.3925458 -2.186154
0.79855806 -1.0481341 -0.14388655 -1.8983656 0.4085542 1.7292039 -4.570238 -1.809571
1.8580642 -1.2370028 0.85384136 -0.54507345 -3.4378638 -0.13325721 -2.8152275 5.2280154
0.01217763 0.83835185 1.8355142 -0.1453813 -8.365487 -1.1995046 -0.073902674 -6.1295805
3.3746965 1.1302944 -1.6044812 -5.946557 1.2629819 1.2885331 1.8406017 0.08284132
1.9550935 -0.86225134 1.5968983 0.31279486 -2.2934854 0.21023348 -1.5005046 0.7807127
-0.48828 -2.5942714 1.3748618 1.0937341 3.7693737 0.9243562 -0.46056026 -0.778132
-2.345299 -6.5517793 -2.9373302 -1.744544 -2.4914064 -1.2614971 -3.08186 -0.45450088
-0.9364034 -0.9574568 2.5508494 -0.52130187 -0.07923578 0.64740294 0.9505754 3.0154457
-0.86786765 -0.4144139 -0.24872284 1.0041512 -0.97828406 -1.3124942 -2.7072856 2.0359244
1.1205114 -0.47129804 -2.7860334 -2.7910323 -0.13084587 1.5905616 1.4510322 -1.594485
-0.76219535 -1.9776753 -2.1160665 1.0641662 -2.6795886 0.19882289 1.7022904 0.5738661
0.3427138 -1.3811578 -1.2965534 -2.7682219 3.1418285 -1.6054585 0.40741268 -5.5566826
0.3370059 -0.2037608 -0.17355447 -0.38929537 -1.601378 -0.6292959 2.0728765 0.95243806
-4.3365784 -3.9211082 -2.5356357 -0.21293905 1.1898623 -2.2340775 1.1063703 1.5751469
0.23623575 0.4876995 4.302024 -4.50863 0.64344364 -3.0092928 0.68319434 -0.91103846
00000000: d85d 72c0 7867 84c0 ae9b 20c0 5a4d 8ac0
00000010: 9b70 b9bf cf72 a6c0 67e6 2dc0 0fc7 19c0
00000020: b610 84c0 e488 553f c6e9 e83f 7220 523e
00000030: 4c7b 4fc0 6ff8 893e 5d64 1040 4ab4 14bf
00000040: 4b9f 97bf 8812 aabd 4853 903f 43d2 a9bf
00000050: 069f 06c0 8157 06c0 c616 ac3e 6d4f e2bf
00000060: 167a c63f cda4 66c0 e6e7 68bf 274e 27c0
00000070: 23d0 08c0 ae90 0a3f cf5f 4dbf ec35 993f
00000080: b7ec 56bf 01c1 9b3f 36e4 c840 0592 aa3e
00000090: 1e9e 0d40 1a17 8dbe 2cc6 90c0 ef9d 0f3e
000000a0: 4598 03bf c94c 4040 4572 4d40 1f56 b7bf
000000b0: 9bf4 1cbe 3167 0440 6d92 843f bf8b cabf
000000c0: 615b 8ac0 54eb 943f 4c32 8dbe 2bf1 c740
000000d0: 1fc8 cdbf c781 6e3d 9c0d b7bf 00fb 0cbe
000000e0: 7cd3 d9bd 8ade 93c0 6131 c3be c81a 5b3e
000000f0: 8711 52c0 6fae ba3f e88b 12bf 5aef d23e
00000100: 3af2 a2bf c2db 80bf d510 7d40 cc34 cd3f
00000110: 29a4 2540 c7db 9a3d 3fb3 28c0 dcd3 a8bf
00000120: 9aa3 68be b4d6 30c0 0103 45c0 8680 c63f
00000130: 5f2f 94bf 42e0 80bf 970f c9be 439c 1fc0
00000140: 6ce8 dabf 1458 70c0 2fea a6c0 e312 81bf
00000150: 8b68 9e3e 83e9 5e40 5703 cb3f 311c eec0
00000160: b80f bfc0 e7f8 1b3f 269a d53e 21cd ab3f
00000170: b60d 12c0 2df7 7f3f 49c7 28bf 79cf 4dbd
00000180: e2ab f33f 9b4a e3bf 89ea 8dbe 9ad7 ff3f
00000190: aab3 bebe 4ace 4340 cf29 02c0 f210 e53e
000001a0: e872 72bf 4142 5dc0 fc48 92c0 0285 35c0
000001b0: 52dd e1bf 6208 cbbf 4f50 2dc0 b0dc f6bf
000001c0: 7889 02be 08e6 74be 65b0 12c0 ac26 eb3e
000001d0: 6a1a 8840 41b8 48bf af57 fbbf 94cf efbe
000001e0: 6f2b 4040 398a 22bf 0023 bdbf f4aa f93f
000001f0: dbdb b33f 91b6 bebd a37d 05c0 a1a0 0dc0
00000200: 21cc 543f a2d1 c23f c3f1 9f3f 5613 a83e
00000210: 655a b4bf fc73 44bf c3fb c83e f2e9 0bc0
00000220: 4d6e 4c3f 4229 86bf ff56 13be a5fd f2bf
00000230: 042e d13e 8e56 dd3f 643f 92c0 06a0 e7bf
00000240: 0cd5 ed3f 1c56 9ebf 5995 5a3f ef89 0bbf
00000250: f605 5cc0 9474 08be b02c 34c0 e74b a740
00000260: af84 473c 3a9e 563f 21f2 ea3f d6de 14be
00000270: 09d9 05c1 5e89 99bf 495a 97bd 8625 c4c0
00000280: 07fb 5740 7dad 903f a45f cdbf 324a bec0
00000290: 64a9 a13f a7ee a43f d698 eb3f b6a8 a93d
000002a0: 8140 fa3f 81bc 5cbf 2a67 cc3f a626 a03e
000002b0: 77c8 12c0 7247 573e 8910 c0bf cadc 473f
000002c0: d6ff f9be 8b08 26c0 79fb af3f 7bff 8b3f
000002d0: 6b3d 7140 9ca2 6c3f 8ece ebbe a933 47bf
000002e0: 6119 16c0 2da8 d1c0 38fd 3bc0 384d dfbf
000002f0: 3473 1fc0 bd78 a1bf 323d 45c0 57b4 e8be
00000300: 22b8 6fbf e41b 75bf 1e41 2340 0a74 05bf
00000310: 5e46 a2bd 33bc 253f e958 733f 10fd 4040
00000320: 932c 5ebf 0f2e d4be 33b1 7ebe 0788 803f
00000330: d370 7abf cfff a7bf 2b44 2dc0 964c 0240
00000340: eb6c 8f3f fa4d f1be 5f4e 32c0 46a0 32c0
00000350: 76fc 05be 8697 cb3f 6cbb b93f 1618 ccbf
00000360: 3c1f 43bf 7724 fdbf a26d 07c0 9936 883f
00000370: 617e 2bc0 3a98 4b3e a7e4 d93f e4e8 123f
00000380: 2f78 af3e c7c9 b0bf 76f5 a5bf 8c2a 31c0
00000390: b813 4940 aa7f cdbf 6598 d03e 58d0 b1c0
000003a0: 0a8c ac3e aca6 50be 43b8 31be b951 c7be
000003b0: f4f9 ccbf 8919 21bf 02aa 0440 fbd2 733f
000003c0: 40c5 8ac0 70f3 7ac0 db47 22c0 b20c 5abe
000003d0: 684d 983f 20fb 0ec0 8b9d 8d3f 6a9e c93f
000003e0: c9e7 713e c0b3 f93e 2eaa 8940 b246 90c0
000003f0: b9b8 243f 4198 40c0 d3e5 2e3f d139 69bf

layer2.0.bias f4 [32]
2.2113798 0.92137367 1.6022818 0.1929084 0.4435456 1.0011638 2.0193496 0.3013051
1.4997143 0.25515854 1.0395195 0.025002686 0.1955629 0.73840797 2.0248888 0.8994935
0.18916236 0.19695292 1.0943435 1.2877501 0.13229117 1.9663872 1.6892769 1.7200258
1.6284466 0.03198193 0.95239025 1.3337677 0.16890362 2.3416035 0.93850416 0.17242675
00000000: 3f87 0d40 25df 6b3f 9217 cd3f c889 453e
00000010: 6918 e33e 2326 803f 063d 0140 a944 9a3e
00000020: a3f6 bf3f 24a4 823e fa0e 853f 6fd2 cc3c
00000030: a441 483e 4e08 3d3f c797 0140 3545 663f
00000040: c7b3 413e 07ae 493e 7313 8c3f ffd4 a43f
00000050: 5677 073e 93b2 fb3f 3a3a d83f ce29 dc3f
00000060: f070 d03f 7cff 023d d9cf 733f e6b8 aa3f
00000070: 12f5 2c3e d5dc 1540 cf41 703f a390 303e

layer2.1.weight f4 [32]
0.5075418 0.56696105 0.5972679 0.26864558 0.22420615 0.61458486 0.6584123 0.14227194
0.40256852 0.22648065 0.49404866 0.9829397 0.17639042 0.7793831 0.7341275 1.1075184
0.21059252 0.28662583 0.782916 0.545749 0.1682578 0.75697213 0.5490539 0.47464982
0.6976268 0.27196413 0.72737914 0.6993037 0.27096218 0.5772786 0.5245796 0.2535691
00000000: 42ee 013f 5c24 113f 8de6 183f ea8b 893e
00000010: 4c96 653e 6f55 1d3f b58d 283f bcaf 113e
00000020: 761d ce3e 8bea 673e f2f3 fc3e f0a1 7b3f
00000030: b19f 343e a785 473f c8ef 3b3f 2ac3 8d3f
00000040: 91a5 573e 9fc0 923e 2f6d 483f 35b6 0b3f
00000050: c64b 2c3e edc8 413f cc8e 0c3f 4d05 f33e
00000060: ac97 323f e23e 8b3e 8535 3a3f 9105 333f
00000070: 8ebb 8a3e 88c8 133f d94a 063f cfd3 813e

layer2.1.bias f4 [32]
-0.5105214 -0.5184548 -0.7895996 -0.7322961 -0.6869979 -0.8538848 -0.73872465 -0.8243952
-0.5310266 -0.76534355 -0.48384032 -2.146228 -0.9085395 -1.3055074 -0.7585972 -1.6463916
-0.76636624 -0.6258959 -1.0984924 -0.6833694 -0.5734798 -0.84998155 -0.73945004 -0.4518149
-1.00788 -0.6508736 -1.0947669 -0.7865237 -0.68851686 -0.5748011 -0.6374491 -0.8235452
00000000: 88b1 02bf 74b9 04bf 3323 4abf c277 3bbf
00000010: 18df 2fbf 3298 5abf 0f1d 3dbf 900b 53bf
00000020: 5cf1 07bf 8eed 43bf ebb9 f7be cd5b 09c0
00000030: 0b96 68bf de1a a7bf 6d33 42bf f6bc d2bf
00000040: 9430 44bf b73a 20bf 669b 8cbf 4cf1 2ebf
00000050: 92cf 12bf 6498 59bf 994c 3dbf 4854 e7be
00000060: 3602 81bf a79f 26bf 5221 8cbf 9e59 49bf
00000070: a442 30bf 2a26 13bf dd2f 23bf dcd3 52bf

layer2.1.running_mean f4 [32]
-108.60115 -78.54436 -83.437256 -47.96351 -24.608562 -61.05278 -73.5843 -33.602467
-63.739544 -33.926144 -58.327118 -65.198 -42.920834 -71.12568 -104.37886 -80.66676
-22.273579 -19.034452 -62.477486 -127.84322 -41.961277 -89.898705 -72.86149 -81.4897
-53.463657 -24.80533 -52.588932 -77.95424 -29.081057 -102.17591 -70.282486 -41.86806
00000000: ca33 d9c2 b616 9dc2 e0df a6c2 a2da 3fc2
00000010: 56de c4c1 0c36 74c2 292b 93c2 ed68 06c2
00000020: 4bf5 7ec2 5fb4 07c2 f84e 69c2 6065 82c2
00000030: efae 2bc2 5940 8ec2 fac1 d0c2 6255 a1c2
00000040: 4a30 b2c1 8f46 98c1 f2e8 79c2 bbaf ffc2
00000050: 59d8 27c2 23cc b3c2 15b9 91c2 bafa a2c2
00000060: c9da 55c2 5171 c6c1 115b 52c2 92e8 9bc2
00000070: 01a6 e8c1 115a ccc2 a290 8cc2 e578 27c2

layer2.1.running_var f4 [32]
9994.785 11003.905 7007.569 914.94196 283.71667 6074.237 7467.2935 512.56726
5312.5015 525.3782 7913.6606 10678.848 1058.5282 8027.8955 9967.227 8527.639
353.44934 171.1051 7028.9487 9923.488 931.5885 8195.814 5724.5547 7556.1978
4583.5757 244.68095 7668.9604 7202.0776 347.28165 8748.894 8029.658 795.18335
00000000: 242b 1c46 9fef 2b46 8dfc da45 49bc 6444
00000010: bcdb 8d43 e5d1 bd45 595a e945 4e24 0044
00000020: 0304 a645 3458 0344 494d f745 64db 2646
00000030: e750 8444 2adf fa45 e8bc 1b46 8e3e 0546
00000040: 84b9 b043 e81a 2b43 97a7 db45 f40d 1b46
00000050: aae5 6844 420f 0046 70e4 b245 9521 ec45
00000060: 9b3c 8f45 53ae 7443 afa7 ef45 9f10 e145
00000070: 0da4 ad43 93b3 0846 44ed fa45 bccb 4644

fc.weight f4 [7, 4608]
-2.4073238 0.35138106 0.85664135 -0.44810864 0.67965907 -2.601768 -3.2738209 1.3950305
-1.8408802 -1.4878609 0.6847508 -1.8574022 0.1767282 -0.21204486 -1.909047 0.3449545
-0.17882685 -0.998321 1.2669256 -0.4893137 0.221198 0.7783856 -1.4462713 -2.585175
-0.6793756 -0.0526659 0.12108515 1.1793075 -1.5627539 0.85755134 -1.0129099 0.37576512
-0.9625129 -2.3709915 -1.1372012 0.10847928 0.28688613 0.20497246 -1.3969808 -0.97674406
0.2802493 -1.7407533 -0.5458775 1.3781056 -0.49508646 -1.3022393 0.024817584 -2.525622
-1.0765262 -0.24253033 -1.2993556 -1.2975216 -0.37243736 -0.18599255 0.52019346 -1.1052382
-0.73593134 -1.6056714 0.18023887 0.4378275 2.8730674 3.8833172 0.7119514 -0.07824402
1.7971566 -0.6780067 0.5613868 0.18439768 -0.65173036 -1.0683534 1.2553108 -2.3361843
-1.9249752 -0.8338511 0.8799628 1.0310439 0.109411046 2.2303443 -1.2904792 -0.3399706
-0.14794463 1.9800266 -0.21646269 4.163606 0.3448693 0.38340196 1.1672956 -0.61420286
0.8095066 -0.21652977 0.8424789 -0.37687567 2.0317948 -0.951693 0.46554658 -1.8316882
-0.35846582 -0.41894475 1.3815742 -1.0794119 2.242882 0.31142277 -0.9060147 0.49998024
1.2876635 -0.35507223 -0.03393152 -0.7355711 0.928056 1.6696934 0.08754823 0.1316061
-1.0597177 0.6615817 -0.20663512 0.896285 0.70526415 0.90522635 -0.13261409 0.63881725
-0.23250407 0.09123925 -0.37912548 -2.6535401 1.509163 -2.7028613 1.5270283 0.87916183
1.3191603 -0.24459103 -0.53349835 0.7170189 1.0567935 3.3333225 -1.6886915 -0.4297684
-0.2952015 1.1411471 0.6099024 -1.0745275 2.0358977 -4.3806405 0.65093166 -1.4226744
-1.039053 -0.50692815 0.6986758 -0.37905774 3.3928795 -3.6777673 1.7032444 1.4203413
0.41631427 0.64323646 0.5041842 -2.5833614 2.277815 1.1604356 1.1859336 1.0742346
1.4650997 0.1898587 0.46498865 2.547452 -0.18181548 1.2433137 0.44895047 2.9374669
0.4896419 0.40776017 0.21674764 1.4962603 1.0319759 -0.47793335 2.225171 1.3101075
0.61239785 1.3215995 -0.27105457 -0.23549114 -0.4403211 -2.2202952 -0.08969268 2.2896986
2.0356495 -0.9910104 0.2767265 1.6454251 0.9598978 1.4454699 1.1915079 -0.32172948
-0.05470991 -0.88418365 0.6791639 1.5039536 1.3212821 -0.34558 1.2753472 0.5289825
0.6582509 2.777782 -1.0612966 0.65837264 2.1187956 -0.45313066 -0.6619686 0.62129563
-0.1413701 -1.2663198 0.30668586 0.24105905 0.48720628 -0.27578163 -0.89670986 2.9950402
2.241699 -4.0440416 -1.964259 0.5268832 -2.0160823 -0.72387975 0.86745816 -0.88127273
-2.9306135 0.5899717 -1.3302734 -4.0423064 2.2170446 0.18176445 -1.0461501 -3.0624776
-1.385993 -0.2518899 -1.8171966 -1.8453553 -3.078794 -0.53431845 -1.8998041 -0.0679017
0.9550558 -4.4036827 -0.379676 -0.9511436 -1.975802 -1.8720489 -0.48366094 -4.3943357
-1.3599511 0.7437014 -1.2146084 -0.44963905 -0.9299849 0.44660702 -0.72608113 -0.01895579
00000000: 9811 1ac0 38e8 b33e d94c 5b3f 7f6e e5be
00000010: 23fe 2d3f 5e83 26c0 4886 51c0 5c90 b23f
00000020: f6a1 ebbf 3a72 bebf d44b 2f3f 5bbf edbf
00000030: 3df8 343e 4a22 59be a75b f4bf e09d b03e
00000040: 631e 37be f791 7fbf 9e2a a23f 5387 fabe
00000050: ba81 623e 4744 473f 6b1f b9bf 8273 25c0
00000060: 8feb 2dbf 33b8 57bd 7efb f73d 8cf3 963f
00000070: 5208 c8bf 7c88 5b3f 08a7 81bf 4964 c03e
00000080: 3f67 76bf 53be 17c0 cf8f 91bf 622a de3d
00000090: bde2 923e 4de4 513e 44d0 b2bf e60b 7abf
000000a0: d67c 8f3e 01d1 debf a1be 0bbf c465 b03f
000000b0: f97b fdbe c7af a6bf 3f4e cb3c caa3 21c0
000000c0: 9ccb 89bf df59 78be 4951 a6bf 3015 a6bf
000000d0: 1cb0 bebe d574 3ebe 662b 053f 7278 8dbf
000000e0: ff65 3cbf a486 cdbf 8a90 383e ed2a e03e
000000f0: 56e0 3740 4588 7840 7242 363f 673e a0bd
00000100: 3a09 e63f d991 2dbf 0cb7 0f3f bfd2 3c3e
00000110: cdd7 26bf cebf 88bf 06ae a03f 0b84 15c0
00000120: 9665 f6bf 4477 55bf 3e45 613f 3ff9 833f
00000130: e612 e03d f6bd 0e40 6c2e a5bf a010 aebe
00000140: cc7e 17be 8371 fd3f 65a8 5dbe 433c 8540
00000150: b592 b03e 434d c43e f169 953f 663c 1dbf
00000160: d33b 4f3f fbb9 5dbe b2ac 573f d9f5 c0be
00000170: ed08 0240 27a2 73bf 1f5c ee3e c274 eabf
00000180: d588 b7be ed7f d6be 6cd7 b03f 2b2a 8abf
00000190: 618b 0f40 ce72 9f3e 94f0 67bf 69fd ff3e
000001a0: 28d2 a43f 07cc b5be c7fb 0abd 634e 3cbf
000001b0: 1495 6d3f 83b8 d53f 7d4c b33d c0c3 063e
000001c0: d4a4 87bf 6b5d 293f 2898 53be ef72 653f
000001d0: 318c 343f eabc 673f fdcb 07be 8789 233f
000001e0: 8c15 6ebe a5db ba3d bc1c c2be 9ad3 29c0
000001f0: 412c c13f aefb 2cc0 aa75 c33f c010 613f
00000200: 3fda a83f 1276 7abe 5993 08bf 8d8e 373f
00000210: 0245 873f 2855 5540 0b27 d8bf 9b0a dcbe
00000220: a724 97be 1c11 923f 9022 1c3f 1e8a 89bf
00000230: 264c 0240 352e 8cc0 75a3 263f 321a b6bf
00000240: b0ff 84bf 0bc6 01bf 6bdc 323f db13 c2be
00000250: f024 5940 8a60 6bc0 ea03 da3f becd b53f
00000260: 2527 d53e 25ab 243f 3712 013f cb55 25c0
00000270: b9c7 1140 2789 943f accc 973f 8580 893f
00000280: 6388 bb3f 526a 423e fe12 ee3e 7409 2340
00000290: d62d 3abe e724 9f3f d6dc e53e 75ff 3b40
000002a0: 58b2 fa3e f1c5 d03e 18f3 5d3e 7585 bf3f
000002b0: c917 843f aeb3 f4be 3469 0e40 9ab1 a73f
000002c0: 1bc6 1c3f 2c2a a93f aac7 8abe 9724 71be
000002d0: c471 e1be 5119 0ec0 ccb0 b7bd 6c8a 1240
000002e0: 1548 0240 dcb2 7dbf 19af 8d3e 4a9d d23f
000002f0: ddbb 753f 2805 b93f 5583 983f bab9 a4be
00000300: 8017 60bd dc59 62bf afdd 2d3f 8d81 c03f
00000310: c61f a93f ddef b0be 943e a33f 666b 073f
00000320: 2283 283f 2ec7 3140 91d8 87bf 1c8b 283f
00000330: 599a 0740 be00 e8be c676 29bf 3b0d 1f3f
00000340: 53c3 10be c416 a2bf ee05 9d3e 2fd8 763e
00000350: 1a73 f93e 4033 8dbe c78e 65bf bdae 3f40
00000360: ff77 0f40 ca68 81c0 d76c fbbf d1e1 063f
00000370: 7e07 01c0 2f50 39bf bd11 5e3f 179b 61bf
00000380: 2c8f 3bc0 6308 173f 6646 aabf 935a 81c0
00000390: 0fe4 0d40 7620 3a3e 3fe8 85bf a2ff 43c0
000003a0: 3868 b1bf b7f7 80be e699 e8bf 9a34 ecbf
000003b0: f60a 45c0 18c9 08bf c82c f3bf 0c10 8bbd
000003c0: 897e 743f f8ea 8cc0 e564 c2be 267e 73bf
000003d0: 14e7 fcbf 4c9f efbf 68a2 f7be 669e 8cc0
000003e0: e112 aebf 3763 3e3f 4a78 9bbf 1737 e6be
000003f0: 7e13 6ebf ada9 e43e 74e0 39bf 2c49 9bbc

fc.bias f4 [7]
0.19417296 -2.783598 0.13256368 0.16359653 0.23536004 1.0155897 -1.5226489
00000000: 47d5 463e 7826 32c0 c6be 073e d985 273e
00000010: 3902 713e d8fe 813f 29e6 c2bf
