FaceExpressions_CNN/savemodel/model_80.pth (torch_old, 185408 bytes, 14 tensors)

layer1.0.weight f4 [16, 1, 5, 5]
0	0x3f8246c6	1.0177848
1	0x401fae7d	2.495025
2	0x4066313f	3.5967557
3	0x406aaeee	3.6669269
4	0x40680aa3	3.6256492
5	0x4089b751	4.3036275
6	0xbe706a4a	-0.23478046
7	0xbf130363	-0.5742704
8	0xbf10f3a4	-0.56621766
9	0xbe43d1eb	-0.19123046
10	0x3f80ad4c	1.0052886
11	0xc0330a30	-2.7974968
12	0xbfad1bb6	-1.3524082
13	0xc0c215f5	-6.0651803
14	0xc0fd54c2	-7.9165964
15	0x3fe66110	1.7998371
16	0xbfb36ab6	-1.401694
17	0x3e1d4100	0.15356827
18	0xc0727097	-3.788122
19	0xc01f1940	-2.4859161
20	0x3fc6976c	1.551496
21	0xc06006d6	-3.5004172
22	0x4012cea9	2.2938635
23	0x3e71739c	0.23579258
24	0x400322f7	2.049009
25	0x3de2f05e	0.11081003
26	0xc0759067	-3.8369386
27	0xbfe1626c	-1.7608161
28	0x404b6476	3.1780066
29	0x408cc023	4.398454
30	0xbf21270c	-0.62950206
31	0xbfc6cc93	-1.5531181
32	0x3fa7acf2	1.3099654
33	0x3f871dd8	1.0555983
34	0xbfe28eec	-1.7699866
35	0xbe974f0a	-0.2955249
36	0xc0005bba	-2.0055985
37	0xbff5e231	-1.9209653
38	0xc0130b5e	-2.2975688
39	0xc02aa3c5	-2.6662457
40	0xc1047c58	-8.280357
41	0xc016a538	-2.3538342
42	0xc029619c	-2.6465826
43	0xc0dbcfab	-6.8691
44	0x3fdb1cc9	1.711816
45	0x3fa61939	1.2976447
46	0x3f6187f7	0.8809809
47	0xbf98abf6	-1.1927478
48	0x3f5c7d55	0.8612874
49	0x3ffa0e9c	1.9535708
50	0xc0329fa1	-2.790993
51	0xc0186823	-2.381356
52	0x4024323f	2.5655668
53	0x3e9f3857	0.3109767
54	0xc08f2991	-4.473824
55	0x40039262	2.0558095
56	0x40436b95	3.0534413
57	0x3ffe3c18	1.9862089
58	0x40b0d6ef	5.526237
59	0xbea11df4	-0.31468165
60	0xbd89934b	-0.06717547
61	0x409435e9	4.631581
62	0xc02d0279	-2.703276
63	0x40d3e559	6.6217465
64	0x3f2dd98a	0.67910063
65	0xc08eb6bc	-4.4598064
66	0x40628cf4	3.539853
67	0xbe165411	-0.14680506
68	0x40c8fcf6	6.280879
69	0x3f83ee34	1.0307069
70	0xbfe8a1f4	-1.8174424
71	0x3edf439c	0.4360627
72	0xbd02d1cb	-0.031938355
73	0xbf0a0b1b	-0.53923196
74	0xc0488f0b	-3.1337306
75	0x4084f87c	4.1553326
76	0x3fdc5316	1.7212856
77	0xc03e64be	-2.9748988
78	0xbec6c780	-0.3882408
79	0x3ea5bbc7	0.32369825
80	0x4043d281	3.0597231
81	0xc0ad7a67	-5.4211917
82	0xc0745f0f	-3.818302
83	0x3f572344	0.84038186
84	0xbe064221	-0.13111164
85	0xc03e40df	-2.9727094
86	0xc0ef10fc	-7.4708233
87	0x3e768179	0.24072827
88	0xbe97dfa2	-0.29662806
89	0xc04c16d5	-3.1888936
90	0xc00df349	-2.217974
91	0x403aa25b	2.9161594
92	0x404b5e01	3.1776125
93	0x404f88ae	3.2427173
94	0x4024ba9b	2.5738895
95	0x3f3af544	0.73030496
96	0x3fd2579a	1.6432984
97	0x3f38a6e4	0.72129655
98	0x3ecd3fba	0.40087682
99	0x400d6748	2.2094288
100	0x401ee20d	2.482547
101	0xbfd1cadb	-1.6390032
102	0xc0123f71	-2.2851222
103	0xc0546a3a	-3.3189836
104	0x3fe75fd0	1.8076115
105	0x3fd18648	1.6369104
106	0xbfefaeda	-1.8725235
107	0x3eef0200	0.46681213
108	0xbfd980e4	-1.6992459
109	0xbfd972dd	-1.6988178
110	0xc047ebce	-3.1237674
111	0xbf6fb30a	-0.93632567
112	0x40099b87	2.1501176
113	0xc09a470b	-4.821172
114	0xc0e57460	-7.170456
115	0x3f57fb94	0.8436825
116	0x3f6df0a2	0.929453
117	0xc00076e6	-2.007257
118	0xc039466e	-2.8949237
119	0xbffd3be7	-1.9783906
120	0x40a217a0	5.065384
121	0x40ba998b	5.831243
122	0x3feb270d	1.8371292
123	0x3ff69151	1.9263097
124	0x3f16da34	0.589267
125	0xbfa54081	-1.291031
126	0xc0c6d70c	-6.213751
127	0xc0dd78dc	-6.9210033
128	0xc0115f37	-2.2714365
129	0xbfc9cdd0	-1.5765934
130	0xbe5a6a96	-0.21329722
131	0xbf6c8154	-0.9238484
132	0xc03ae796	-2.920385
133	0xc0278698	-2.61759
134	0xc02b051f	-2.6721876
135	0x3f8b5b93	1.0887321
136	0x3ebb99ff	0.36640927
137	0x400327e5	2.04931
138	0x408af39a	4.3422365
139	0xbf819122	-1.0122416
140	0xbf8bb1b3	-1.0913604
141	0x3e83cf42	0.25744063
142	0x404b100f	3.1728551
143	0x3f81886d	1.0119759
144	0x3fa5e4bd	1.296043
145	0x409f242b	4.973165
146	0x3fe51424	1.7896771
147	0x3ffc5365	1.971295
148	0xbe84639a	-0.2585724
149	0x40a09ace	5.018897
150	0x3f13c65a	0.57724535
151	0xc0037afc	-2.0543814
152	0xbf6eb6ce	-0.9324769
153	0x403ed469	2.9817145
154	0x3e28617a	0.16443434
155	0x3fa057ab	1.2526754
156	0xbf4389ca	-0.76382124
157	0xc09c4c5a	-4.8843203
158	0x3ed21676	0.4103276
159	0x40a37df2	5.109124
160	0x3f9a0efc	1.2035823
161	0x401ee770	2.4828758
162	0xc0b469dc	-5.6379223
163	0xc0b8e313	-5.777719
164	0x4075e33d	3.8419945
165	0xbeccd57a	-0.4000662
166	0x404e1f2b	3.2206523
167	0x400ba622	2.182015
168	0xc0989cb4	-4.769129
169	0xbfd08bb2	-1.6292632
170	0xbf08d82a	-0.5345484
171	0x3f10e491	0.56598765
172	0x402da42f	2.713146
173	0x3e3fd224	0.18732506
174	0xbe3f5bdc	-0.18687385
175	0x3e8c52e8	0.27407002
176	0x3ec90cc1	0.39267543
177	0xc05e0a11	-3.4693644
178	0xc04b06ce	-3.1722903
179	0xbf5743ba	-0.8408772
180	0xc00657d7	-2.0991113
181	0x3f4bb4ed	0.79572946
182	0xbfb158b8	-1.38552
183	0x3f42cd46	0.7609447
184	0x3f5e3d46	0.86812246
185	0xc02aa9bd	-2.66661
186	0x40fa9213	7.8303313
187	0x40e91cae	7.284751
188	0x40c7cec4	6.24399
189	0x4074daff	3.8258665
190	0xbea9030c	-0.33010137
191	0x403ad108	2.9190083
192	0xbf3513a8	-0.7073312
193	0x4078d9aa	3.8882852
194	0xc057fb80	-3.3747253
195	0x40222b9d	2.533912
196	0x3f424928	0.7589288
197	0xbe58623d	-0.21131225
198	0x3fe257c4	1.7683034
199	0xc08ca784	-4.3954487
200	0xc02454e6	-2.5676818
201	0xbe2b485c	-0.16726822
202	0xbe91c562	-0.28470904
203	0xc074514a	-3.8174615
204	0xc0261f06	-2.5956435
205	0x400ac2af	2.1681325
206	0xbf76de8b	-0.96433324
207	0xbf25efb4	-0.6481888
208	0xbfe1f1fc	-1.7651973
209	0x407dc6a2	3.9652486
210	0x3cfdca3e	0.030980226
211	0x3fb8085c	1.4377551
212	0x3ff2cc9a	1.896869
213	0x408aa5de	4.3327475
214	0xbedf5470	-0.43619108
215	0x3f7736a1	0.9656773
216	0x4041cf74	3.028287
217	0x4066b692	3.6048932
218	0x405c0b16	3.4381766
219	0xc0b1e9d4	-5.5597935
220	0x3ee17ae7	0.4403908
221	0x3dc46bf7	0.09590905
222	0x405c1c92	3.4392438
223	0x3ff9a00c	1.9501967
224	0xc0c86409	-6.2622113
225	0x3f879d82	1.0594943
226	0xc0055d15	-2.0838063
227	0xbf1fa27d	-0.6235731
228	0x3f04b0bd	0.5183218
229	0xbdfb325f	-0.12265467
230	0xbff4953d	-1.9108044
231	0xbfb07edf	-1.3788718
232	0x408bb9d6	4.366435
233	0x40200fa5	2.5009549
234	0x401563e8	2.3342228
235	0x3e64817d	0.22315021
236	0x3ed17bc2	0.40914732
237	0x40ee4076	7.445369
238	0x3e06d164	0.13165814
239	0xc09a5812	-4.823251
240	0xc0003093	-2.0029647
241	0x4041ab7c	3.0260916
242	0x40e4b2b8	7.1468163
243	0xc01840bc	-2.378951
244	0xc0a7cfb2	-5.2441034
245	0xc03b685c	-2.9282446
246	0x3ec044e1	0.3755255
247	0xbf8cf146	-1.1011131
248	0xbf51d4cc	-0.8196533
249	0xbfa4c595	-1.2872797
250	0x40843082	4.1309214
251	0x3ef783b0	0.48342657
252	0xc053b864	-3.3081293
253	0xbfd56dfc	-1.667419
254	0x401e4d06	2.4734511
255	0xbf2b06ff	-0.6680755

layer1.0.bias f4 [16]
0	0x3efb326c	0.49061906
1	0x411b604e	9.711012
2	0x3e706118	0.23474538
3	0xc068ae44	-3.6356363
4	0x4071e015	3.779302
5	0xc031d847	-2.7788255
6	0x3eda8191	0.42676976
7	0x3ff42e43	1.9076618
8	0x3ffacb0c	1.9593215
9	0xbf674b20	-0.90349007
10	0x3eb05504	0.34439862
11	0x3f4e6431	0.8062163
12	0x40c93bc9	6.288548
13	0xbfd33de8	-1.6503267
14	0x4033a1c0	2.8067474
15	0x3e4adab2	0.19809988

layer1.1.weight f4 [16]
0	0x406ed075	3.7314732
1	0x404befef	3.1865194
2	0x407129ae	3.768169
3	0x403d6fc4	2.9599466
4	0x404774b8	3.116499
5	0x407b665c	3.9281225
6	0x40482a25	3.1275723
7	0x4056070a	3.3441796
8	0x3feddcde	1.8583028
9	0x401a619b	2.4122074
10	0x4050c77b	3.2621753
11	0x405941cf	3.3946416
12	0x408435af	4.131553
13	0x4042f6a6	3.0463042
14	0x40221d85	2.5330517
15	0x3ebbd677	0.3668706

layer1.1.bias f4 [16]
0	0xc080ddc7	-4.0270724
1	0xc0391007	-2.8916032
2	0xc09bdf5f	-4.871017
3	0xbdf7bcbf	-0.12096547
4	0xc01dac20	-2.4636307
5	0xc02a67de	-2.6625896
6	0xbf8c2697	-1.0949277
7	0xc038cfff	-2.887695
8	0x3f83096d	1.0237252
9	0xbfa5492f	-1.2912959
10	0xc094e0aa	-4.652425
11	0xc01b6907	-2.4282854
12	0xc097db88	-4.7455482
13	0xbf0396dd	-0.51402074
14	0xbfa62a1c	-1.2981601
15	0xbfaf32bc	-1.3687358

layer1.1.running_mean f4 [16]
0	0xbfc243a9	-1.5176898
1	0xbfeab740	-1.8337173
2	0x4107bcbf	8.483581
3	0xc08b4cc1	-4.3531194
4	0xbfab19d3	-1.3367256
5	0xc0790282	-3.890778
6	0x3d522312	0.051302977
7	0x412e397f	10.889037
8	0x40aa1b0b	5.315801
9	0x3f7aa5f8	0.979095
10	0x3dfa6f16	0.12228219
11	0x3f276ef0	0.6540365
12	0xc0bd18ca	-5.909276
13	0xc0261f3d	-2.5956566
14	0x4082563b	4.073026
15	0xc06e68b0	-3.7251396

layer1.1.running_var f4 [16]
0	0x413625e9	11.384255
1	0x420857c2	34.0857
2	0x41a49dbe	20.577023
3	0x40a0f719	5.0301633
4	0x418f1dfc	17.88964
5	0x41965b31	18.794527
6	0x4026fcb1	2.609173
7	0x41b79945	22.949839
8	0x410748c0	8.455261
9	0x40caf773	6.342706
10	0x40ab5285	5.353823
11	0x41830e5a	16.382008
12	0x4253eaa7	52.979153
13	0x412e312c	10.887005
14	0x4098883c	4.76663
15	0x405861b9	3.3809645

layer2.0.weight f4 [32, 16, 5, 5]
0	0xc05b5d26	-3.4275603
1	0xc038d76a	-2.8881478
2	0xc073fdce	-3.812366
3	0xc1043fb8	-8.265556
4	0xbfb8a8f5	-1.4426562
5	0xc0b282da	-5.578473
6	0xc076de62	-3.8573232
7	0xc02861ec	-2.6309767
8	0xc097a63b	-4.739042
9	0x3fd55cda	1.6668961
10	0x4009f615	2.1556447
11	0x3f0f1397	0.55889267
12	0xc0ac2045	-5.378939
13	0x3f14fb0b	0.5819556
14	0x3feff29e	1.8745916
15	0xbf831073	-1.0239395
16	0xc049ec80	-3.1550598
17	0x3ec63c8f	0.38718078
18	0x404f1956	3.2359214
19	0xbff474a2	-1.9098094
20	0xc025f659	-2.5931609
21	0xc0373c9b	-2.863074
22	0x3f9936a1	1.1969796
23	0xbf4cfeb0	-0.8007612
24	0x4015dc57	2.3415735
25	0xc08b573a	-4.354398
26	0xc0168318	-2.3517513
27	0xc0573c39	-3.3630507
28	0xc00fab57	-2.2448328
29	0x3f6898ec	0.9085834
30	0xbfdf61d1	-1.7451726
31	0x3f521f0e	0.82078636
32	0xbf28c330	-0.6592283
33	0x3fced45b	1.6158556
34	0x41020bbc	8.127865
35	0x3fb922eb	1.4463781
36	0x401f52a8	2.48942
37	0xbd71f644	-0.059072748
38	0xc0b3167d	-5.596495
39	0x3faef053	1.3667091
40	0xbf98c8cc	-1.1936278
41	0x402d7877	2.7104776
42	0x408bf93e	4.374175
43	0xbfa2494d	-1.267862
44	0x3fa60d8d	1.2972885
45	0x3fd6f13d	1.679237
46	0x3f930920	1.148716
47	0xbf763786	-0.9617847
48	0xc0bf5ba4	-5.9799366
49	0x3fc32520	1.5245705
50	0x3f1c1125	0.6096366
51	0x40dabf31	6.835839
52	0xc013aa2e	-2.307262
53	0xc005bf11	-2.0897868
54	0xc02be841	-2.6860507
55	0xbf2e52db	-0.6809518
56	0xbf4d5642	-0.80209744
57	0xc0d9fe25	-6.8122735
58	0xbd9155a2	-0.07096411
59	0x3f9b6cda	1.2142594
60	0xc0b5d920	-5.6827545
61	0x4040e964	3.014245
62	0xbec5922d	-0.38588086
63	0x3f89103e	1.0708082
64	0xbf33ea19	-0.7027908
65	0xbf2898eb	-0.65858334
66	0x403d279a	2.955542
67	0x402aae25	2.666879
68	0x407ea74f	3.9789617
69	0x3f514280	0.81742096
70	0xc02dec3f	-2.7175443
71	0xbfc67a29	-1.550603
72	0xbeeb3065	-0.4593536
73	0xc0b9f97d	-5.811705
74	0xc06c7cf6	-3.695127
75	0x3f8c065d	1.0939442
76	0xbf7afd95	-0.98043185
77	0xbfc932a1	-1.5718576
78	0xbf8d589d	-1.1042668
79	0xc0847cdf	-4.140243
80	0xc013cc2e	-2.3093371
81	0xc07ca118	-3.9473324
82	0xc0e0218e	-7.004096
83	0xbdfee84f	-0.12446653
84	0x3e9bdeff	0.3044357
85	0x409f74a6	4.9829893
86	0x4023a4fe	2.5569453
87	0xc1157878	-9.341911
88	0xc0ec32e4	-7.381212
89	0x3f7026f0	0.93809414
90	0xbdfffdd1	-0.124995835
91	0x3f9cd5c0	1.2252731
92	0xc0181459	-2.376242
93	0x3fb1f0d4	1.390162
94	0xbfd0078d	-1.6252304
95	0x3e64a6b2	0.22329214
96	0x40362b29	2.8463843
97	0xc02a867f	-2.664459
98	0x3da0a3c7	0.07843738
99	0x403c8ba7	2.9460237
100	0xbe2fd710	-0.17171884
101	0x4099a2e1	4.8011327
102	0xc047f5ca	-3.1243768
103	0x3f871cbe	1.0555646
104	0xbf0dbd0a	-0.55366576
105	0xc0352cbd	-2.8308556
106	0xc0d4c66e	-6.6492224
107	0xc01dda37	-2.4664438
108	0xc03d40a3	-2.95707
109	0xc01a94a7	-2.415323
110	0xc02ed645	-2.731828
111	0xc003d204	-2.0596933
112	0x40104228	2.2540379
113	0xbe971e47	-0.29515287
114	0xc004eaec	-2.0768385
115	0x3e2f3790	0.17111039
116	0x40b39abf	5.61264
117	0xbe96e775	-0.29473463
118	0xc09cd21d	-4.9006486
119	0xbf885509	-1.0650951
120	0x4094e0e1	4.652451
121	0x3d35dd2a	0.04440037
122	0xc03ff7f7	-2.9995096
123	0x40080482	2.1252751
124	0x3fecffba	1.8515542
125	0xbd52b084	-0.05143787
126	0xc051194a	-3.2671685
127	0xc01b23e3	-2.4240654
128	0x3fe4bd95	1.7870356
129	0x40169863	2.353051
130	0x3ff01942	1.8757708
131	0x3eb6c2be	0.35695451
132	0xbffeb444	-1.9898763
133	0xbe7172e9	-0.23578991
134	0x3f3d2acc	0.7389343
135	0xc03441c6	-2.8165145
136	0xbf1680a2	-0.5879003
137	0xc06cd281	-3.7003481
138	0xc02e7c58	-2.7263393
139	0xc0607c6c	-3.507594
140	0xbc4da43c	-0.012551364
141	0x4059f5be	3.405624
142	0xc0ac7097	-5.388744
143	0xc0207b19	-2.5075133
144	0x4067a65f	3.6195295
145	0xc00b1326	-2.1730437
146	0x3fd11367	1.6334046
147	0xbf5c2795	-0.859979
148	0xc082fbbe	-4.0932302
149	0xbf2b8954	-0.6700642
150	0xc07451e4	-3.8174982
151	0x40d14df6	6.5407667
152	0xbec9188a	-0.39276534
153	0x3fb3c0db	1.404323
154	0x3fd9b1fb	1.700744
155	0xbe99acb8	-0.30014586
156	0xc12ebc4f	-10.920974
157	0xbfc8a597	-1.5675534
158	0x3f3ecadd	0.74528295
159	0xc11bb974	-9.732777
160	0x40a0c73d	5.024321
161	0x3f46bd2f	0.7763242
162	0xbfdd0cb5	-1.7269503
163	0xc0ec612c	-7.386862
164	0x4020c627	2.5120943
165	0x3ff4c231	1.9121763
166	0x4021aa39	2.5260146
167	0xbb48d572	-0.0030644801
168	0x403e8669	2.9769537
169	0xbfc202d3	-1.5157112
170	0x3fc947a4	1.5724988
171	0x3f25ce28	0.64767694
172	0xc02c9344	-2.6964884
173	0xbd3e82ff	-0.046511646
174	0xbfe3210f	-1.7744464
175	0x3fbb278b	1.4621443
176	0xc0335a04	-2.802369
177	0xc02292b6	-2.5402045
178	0x4023dd6d	2.5603898
179	0x3fdd7dba	1.7303994
180	0x40b7fcfb	5.7496314
181	0x3f942f5e	1.1576955
182	0xbf880fea	-1.0629857
183	0xbe995b46	-0.2995245
184	0xc00bb5fe	-2.182983
185	0xc12d696f	-10.838241
186	0xc086a126	-4.2071714
187	0xbfab9624	-1.3405194
188	0xc085f048	-4.185581
189	0x3d34f217	0.044176187
190	0xc0078962	-2.1177602
191	0xbeb0a82b	-0.34503302
192	0xbfac00cc	-1.3437743
193	0xbe8b52a1	-0.27211478
194	0x4070527b	3.7550342
195	0xbf264ba3	-0.6495916
196	0x3f4a19fd	0.78945905
197	0x3f6fbb48	0.93645144
198	0x3f7ab03b	0.97925156
199	0x4089c470	4.305229
200	0xbf80efc2	-1.0073168
201	0x3e7b7cab	0.24559276
202	0x3f0cefcf	0.5505342
203	0x3fceecc8	1.616601
204	0xbf99548c	-1.1978927
205	0xbfb18e9c	-1.3871646
206	0xc061cfa0	-3.5282974
207	0x403b9fa3	2.9316185
208	0x3ec33aad	0.38130704
209	0xc004e9e7	-2.0767763
210	0xc07a815f	-3.9141462
211	0xc03cca69	-2.9498541
212	0xbc17c735	-0.009263803
213	0x403fdf56	2.9980063
214	0x400bf781	2.1869814
215	0xbe764957	-0.24051414
216	0xbf503d7d	-0.81343824
217	0xc020cb78	-2.5124187
218	0xc084f18a	-4.1544847
219	0x40026f6c	2.0380507
220	0xc05b0683	-3.4222724
221	0x3e80b555	0.25138345
222	0x4000ca57	2.0123498
223	0xbe2cfa86	-0.16892442
224	0x3f7fdf25	0.99949867
225	0xc02552d5	-2.5831807
226	0x3f32f358	0.69902563
227	0xc04d98c3	-3.2124488
228	0x4089a839	4.301785
229	0xbfd2d414	-1.6470971
230	0x3d9ab41d	0.07553885
231	0xc0e9e66d	-7.309378
232	0x3ff1d8ce	1.8894289
233	0xbf747bf4	-0.9550164
234	0xbda23be6	-0.07921581
235	0xbfa75854	-1.3073831
236	0xc06d7ddb	-3.7108066
237	0x3ed5db7d	0.4176902
238	0x4035db66	2.841516
239	0x3fdd4191	1.7285634
240	0xc0a9a7a1	-5.3017125
241	0xc059fe43	-3.406144
242	0xc03f32d8	-2.9874783
243	0xbf6586d1	-0.8965884
244	0x3f9901d1	1.1953679
245	0xc0666a68	-3.6002445
246	0x3ffc8198	1.9727049
247	0x401eeac3	2.4830787
248	0x3faec481	1.3653718
249	0x3f196bcc	0.5993011
250	0x408d6aa2	4.4192667
251	0xc088753d	-4.2643113
252	0x40344790	2.8168678
253	0xc011422e	-2.2696643
254	0xbbf97017	-0.007612239
255	0x3f96d657	1.1784161

layer2.0.bias f4 [32]
0	0x40444189	3.0665
1	0x3f9e35ed	1.2360207
2	0x40143773	2.3158844
3	0x3e4589c8	0.1929084
4	0x3ee31869	0.4435456
5	0x3fb247d8	1.3928175
6	0x4032e240	2.7950592
7	0x3e9a44a9	0.3013051
8	0x3ff32f44	1.8998799
9	0x3e82a424	0.25515854
10	0x3fb47b76	1.4100177
11	0x3e00aa16	0.12564883
12	0x3e4841a4	0.1955629
13	0x3f8016fa	1.0007012
14	0x402aa260	2.6661606
15	0x3fb9f580	1.4528046
16	0x3e41b3c7	0.18916236
17	0x3e49ae07	0.19695292
18	0x3fb9aafa	1.4505303
19	0x400616d6	2.0951438
20	0x3e077756	0.13229117
21	0x40244090	2.5664406
22	0x4012928a	2.290194
23	0x40115196	2.2706046
24	0x40088342	2.1330113
25	0x3d02ff7c	0.03198193
26	0x3fa1498e	1.2600572
27	0x3fe8064e	1.8126924
28	0x3e2cf512	0.16890362
29	0x4041b8bc	3.0269003
30	0x3f9c3b52	1.2205603
31	0x3e3090a3	0.17242675

layer2.1.weight f4 [32]
0	0x3f187fa2	0.5956975
1	0x3f2aceee	0.66722
2	0x3f2cb1e9	0.6745897
3	0x3e898bea	0.26864558
4	0x3e65964c	0.22420615
5	0x3f3b7cf1	0.7323752
6	0x3f37f862	0.7186338
7	0x3e11afbc	0.14227194
8	0x3ee2107e	0.44153208
9	0x3e67ea8b	0.22648065
10	0x3f0f5868	0.5599427
11	0x3f9279f5	1.1443468
12	0x3e349fb1	0.17639042
13	0x3f718785	0.9434741
14	0x3f4c5591	0.79818064
15	0x3f9ba02c	1.2158256
16	0x3e57a591	0.21059252
17	0x3e92c09f	0.28662583
18	0x3f669dec	0.9008472
19	0x3f229c4f	0.6351976
20	0x3e2c4bc6	0.1682578
21	0x3f619d95	0.88131076
22	0x3f210fe2	0.6291486
23	0x3ef19897	0.4718673
24	0x3f46c3e7	0.77642673
25	0x3e8b3ee2	0.27196413
26	0x3f54c718	0.8311629
27	0x3f48a8a0	0.783823
28	0x3e8abb8e	0.27096218
29	0x3f2171e2	0.63064396
30	0x3f253928	0.6454034
31	0x3e81d3cf	0.2535691

layer2.1.bias f4 [32]
0	0xbf1f4e66	-0.62229
1	0xbf21d6d8	-0.6321845
2	0xbf59ecb6	-0.8512682
3	0xbf3b77c2	-0.7322961
4	0xbf2fdf18	-0.6869979
5	0xbf707407	-0.93927044
6	0xbf5a3e20	-0.85251045
7	0xbf530b90	-0.8243952
8	0xbf03958d	-0.5140007
9	0xbf43ed8e	-0.76534355
10	0xbf15e3fd	-0.5855101
11	0xc005f5ac	-2.0931196
12	0xbf68960b	-0.9085395
13	0xbfbd0831	-1.4768125
14	0xbf6907a3	-0.9102728
15	0xbfe16676	-1.7609394
16	0xbf443094	-0.76636624
17	0xbf203ab7	-0.6258959
18	0xbf93c0c9	-1.1543208
19	0xbf3aed14	-0.73018
20	0xbf12cf92	-0.5734798
21	0xbf858ebd	-1.0434185
22	0xbf467f5e	-0.77538097
23	0xbf01099f	-0.50405306
24	0xbf958e66	-1.1684082
25	0xbf269fa7	-0.6508736
26	0xbf937a0b	-1.152162
27	0xbf75cd96	-0.96016824
28	0xbf3042a4	-0.68851686
29	0xbf1fdea4	-0.624491
30	0xbf39354e	-0.7234696
31	0xbf52d3dc	-0.8235452

layer2.1.running_mean f4 [32]
0	0xc317135e	-151.07565
1	0xc2f238d0	-121.11096
2	0xc2eb3bf8	-117.61713
3	0xc271eda8	-60.482086
4	0xc1fb9adc	-31.450615
5	0xc2c8f06c	-100.469574
6	0xc2f5cf0e	-122.9044
7	0xc22ae980	-42.728027
8	0xc2b148fc	-88.64255
9	0xc22ab682	-42.67823
10	0xc2b694e3	-91.290794
11	0xc2a3b609	-81.85554
12	0xc25edf78	-55.71823
13	0xc2e9c4d6	-116.884445
14	0xc317399d	-151.22505
15	0xc3006030	-128.37573
16	0xc1ebce1d	-29.475641
17	0xc1b9c190	-23.219513
18	0xc2d719e8	-107.5506
19	0xc33f81ae	-191.50656
20	0xc259046e	-54.254326
21	0xc30670a2	-134.43997
22	0xc2e9437a	-116.63179
23	0xc2f7c686	-123.88774
24	0xc2a03731	-80.107796
25	0xc1f6abaf	-30.83383
26	0xc2a977ac	-84.733734
27	0xc2fc6a66	-126.20781
28	0xc2117f78	-36.37448
29	0xc313a3a7	-147.63927
30	0xc2e32076	-113.5634
31	0xc253b906	-52.930687

layer2.1.running_var f4 [32]
0	0x46b5beb8	23263.36
1	0x46e3a710	29139.531
2	0x467c725b	16156.589
3	0x44b70bae	1464.365
4	0x43f35a68	486.7063
5	0x467436aa	15629.666
6	0x468dd432	18154.098
7	0x4448e892	803.6339
8	0x4640c39c	12336.902
9	0x445acbc3	875.1838
10	0x46946091	18992.283
11	0x46a71a5c	21389.18
12	0x44d083d7	1668.12
13	0x469fe263	20465.193
14	0x46be8b43	24389.63
15	0x469b89dc	19908.93
16	0x4414fc12	595.9386
17	0x438e5c48	284.72095
18	0x468da998	18132.797
19	0x46b8f717	23675.545
20	0x44b7ebf6	1471.3738
21	0x469de05a	20208.176
22	0x465199b7	13414.429
23	0x4689d72a	17643.582
24	0x462b963f	10981.562
25	0x43ccf25d	409.89346
26	0x468e65f0	18226.969
27	0x469379db	18876.928
28	0x440a1429	552.315
29	0x469ca5e3	20050.943
30	0x46a40328	20993.578
31	0x449bbd78	1245.9209

fc.weight f4 [7, 4608]
0	0xc02e0a52	-2.71938
1	0xbf0a4abc	-0.54020286
2	0x3fad569a	1.3542054
3	0xbf925d52	-1.1434729
4	0x3f0d489d	0.55188924
5	0xc062fc70	-3.5466576
6	0xc018b1a2	-2.3858418
7	0x4018a0fa	2.3848252
8	0xbfff9246	-1.9966514
9	0xbfa4a463	-1.2862667
10	0x3e0ed942	0.13950065
11	0xc030f5c5	-2.7650006
12	0xbf685982	-0.9076158
13	0xbf08e124	-0.5346854
14	0xc05d56c5	-3.458421
15	0x3f3db957	0.7411093
16	0x3c4f4485	0.012650614
17	0xbfe10322	-1.7579081
18	0x3fbb8b7e	1.4651945
19	0xbffaf987	-1.96074
20	0x3efe8f03	0.49718484
21	0x3f4bbd2f	0.79585546
22	0xbfc2d02a	-1.5219777
23	0xc064135e	-3.563682
24	0xbfa8abcc	-1.3177428
25	0xbe1acea6	-0.15117893
26	0xbf858b11	-1.0433065
27	0x3fea1837	1.828864
28	0xc004bafb	-2.0739124
29	0x3f9753d4	1.1822457
30	0xbfb33832	-1.4001524
31	0x3f025dfa	0.50924647
32	0xbf7031a6	-0.9382576
33	0xc032cccd	-2.79375
34	0xbf8a8efe	-1.0824888
35	0x3ea5151c	0.32242668
36	0x3f9206c5	1.1408316
37	0x3f8d07ec	1.1018043
38	0xbfeefc08	-1.8670664
39	0xbf8a39f3	-1.0798935
40	0x3e971736	0.29509896
41	0xc000cd46	-2.012529
42	0xbeb8e148	-0.36109376
43	0x3fcface4	1.6224637
44	0xbf064500	-0.52449036
45	0xbfa06583	-1.2530979
46	0x3e0a6d8b	0.1351835
47	0xc0280769	-2.6254523
48	0xbf7f6040	-0.9975624
49	0xbee5c79c	-0.44878852
50	0xbfd1be1d	-1.6386143
51	0xc01ae302	-2.4201055
52	0xbf932daf	-1.1498317
53	0x3e938a5b	0.28816494
54	0x3eb07a65	0.3446838
55	0xbf823d75	-1.0175005
56	0xbfbd35aa	-1.4782002
57	0xbfe736f6	-1.8063648
58	0x3cb549a3	0.02212984
59	0x3ee53781	0.4476891
60	0x405e9e3e	3.4784083
61	0x40823e06	4.070071
62	0x3e8014a2	0.25015742
63	0xbf0e6935	-0.55629283
64	0x3f7d17b2	0.9886428
65	0xbf810f3d	-1.0082775
66	0x3e858155	0.26075235
67	0xbeea297b	-0.45734772
68	0xbefcc6ab	-0.49370322
69	0xbf8e871f	-1.1134986
70	0x3f75adf7	0.95968574
71	0xc070a332	-3.7599607
72	0xc03ad964	-2.9195185
73	0xbf83f825	-1.0310103
74	0x3fd20a93	1.6409477
75	0x3f388dc5	0.72091323
76	0x3df9d07f	0.121979706
77	0x4028ba29	2.6363623
78	0xbfb8301e	-1.4389684
79	0xbeeec3ac	-0.4663366
80	0xbe34aed1	-0.17644812
81	0x3ff08d4e	1.8793123
82	0x3eae1a10	0.3400426
83	0x40aefc5d	5.468306
84	0x3fb21d1e	1.3915136
85	0x3f2f83cb	0.68560475
86	0x3f9b2fcf	1.2123965
87	0xbf7a1757	-0.97691864
88	0x3f9ea224	1.2393231
89	0x3e4d07c6	0.20022497
90	0x3f84fa45	1.0388876
91	0xbec1bbd1	-0.37838605
92	0x401cd1fb	2.4503162
93	0xbf7df37c	-0.9919965
94	0x3dc25c54	0.094902664
95	0xc02c8767	-2.6957643
96	0xbf7e5975	-0.9935525
97	0xbf84a64e	-1.0363252
98	0x3fbab722	1.4587138
99	0xbfcb691d	-1.5891453
100	0x403704df	2.8596723
101	0xbe229107	-0.15875636
102	0xbfbd4bc2	-1.4788744
103	0x3f2a4d74	0.66524434
104	0x3fb11b33	1.3836426
105	0xbea0a3d3	-0.31374988
106	0xbca2df8b	-0.019881984
107	0xbe6d5160	-0.23175573
108	0x3f71b488	0.94416094
109	0x3ffa9d3f	1.9579238
110	0xbe9df8f9	-0.30854014
111	0x3e2e6179	0.1702937
112	0xbfb7f03c	-1.4370189
113	0x3f4c19fa	0.7972714
114	0xbe5ae961	-0.2137809
115	0x3fa35bba	1.2762368
116	0x3f81e727	1.0148667
117	0x3f67ac63	0.90497416
118	0xbf54aa69	-0.83072525
119	0x3ecfddf9	0.4059904
120	0x4061b07e	3.5263972
121	0x3c8cd01e	0.017189082
122	0xbf2d327b	-0.6765515
123	0xc03bb0fd	-2.9326775
124	0x40007096	2.0068717
125	0xc089b723	-4.3036056
126	0x40254b25	2.5827115
127	0x3f2e750d	0.68147355
128	0x3fb9e9a4	1.4524426
129	0xbf2c3837	-0.6727328
130	0xbfc34c9d	-1.5257756
131	0x3fb56fa2	1.4174693
132	0x3eb06079	0.34448603
133	0x4074aa03	3.8228767
134	0xbf927682	-1.1442416
135	0xbe7dbccb	-0.2477905
136	0xbf7d4df3	-0.98947066
137	0x3fc71549	1.5553371
138	0x3f910e26	1.1332443
139	0xbf6ddc0b	-0.92913884
140	0x403a71e2	2.9132009
141	0xc0958f66	-4.6737547
142	0x3ffd0119	1.976596
143	0xbfaca67e	-1.3488309
144	0xbfd5b9d4	-1.6697335
145	0xbf4f31ae	-0.8093518
146	0x3f6cd0e7	0.9250626
147	0xbf35a000	-0.70947266
148	0x409b9dc2	4.8630075
149	0xc0945f0e	-4.6366034
150	0x3fc82c1b	1.563846
151	0x400b80cc	2.1797361
152	0xbf3b18df	-0.73084825
153	0xbeeb696b	-0.45978865
154	0x3fbb174d	1.4616486
155	0xc07d2ccf	-3.95586
156	0x40412161	3.0176623
157	0x3f8d8812	1.105715
158	0x3ea09bb0	0.3136878
159	0x3f33a1f4	0.70168996
160	0x3fcb7e8b	1.5897993
161	0x3e8bcca2	0.2730456
162	0x3f68a305	0.9087375
163	0x404e57ce	3.2241092
164	0xbd1427b1	-0.036170665
165	0x3fbc6249	1.4717494
166	0x3f9c0ed2	1.2192023
167	0x404b0270	3.1720238
168	0x3ebb9bde	0.36642355
169	0xbcc11d53	-0.023573553
170	0xbd1fb503	-0.038990986
171	0x3ff5aa3b	1.9192575
172	0x3f6a2cfb	0.91474885
173	0xbe281aa8	-0.16416419
174	0x40043b3e	2.0661159
175	0x3fc5db30	1.5457516
176	0x3f22052e	0.63289154
177	0x3faac62f	1.3341731
178	0xbd8e8998	-0.06959838
179	0xbddf6136	-0.109072134
180	0xbf32b256	-0.6980337
181	0xc006f6fb	-2.1088245
182	0xbe90cfea	-0.28283626
183	0x4042f1b6	3.0460029
184	0x4012d894	2.2944689
185	0xbf7279b7	-0.9471697
186	0x3f0bad12	0.5456096
187	0x3ff2716a	1.8940861
188	0x3fe87210	1.8159809
189	0x3f9e75eb	1.2379736
190	0x3fa85db1	1.3153592
191	0xbf825444	-1.0181966
192	0x3e3400db	0.17578451
193	0xbfee35c0	-1.8610153
194	0x3ee9e54a	0.45682746
195	0x3fe9dddf	1.8270835
196	0x3f80ec13	1.0072044
197	0xbebe02c1	-0.37111476
198	0x3f835ded	1.0263039
199	0x3f801e9b	1.000934
200	0x3f732daf	0.9499158
201	0x401bddf7	2.4354227
202	0x3e4e568c	0.20150203
203	0x3f636d8e	0.8883904
204	0x3fc218ba	1.5163796
205	0xbfd9b369	-1.7007877
206	0xbf748644	-0.95517373
207	0x3f2df62d	0.6795376
208	0xbeaed9c1	-0.34150508
209	0xbfcb4e1c	-1.5883212
210	0x3dc5ddcb	0.09661444
211	0x3f47c254	0.78030896
212	0x3e898774	0.26861155
213	0xbf7ebb45	-0.995045
214	0x3d1e3303	0.038622867
215	0x403462ba	2.8185258
216	0x40022411	2.0334513
217	0xc0858acc	-4.173193
218	0xc0431ca0	-3.0486221
219	0x3ea22700	0.3167038
220	0xc00b23ad	-2.1740525
221	0xbf8eef91	-1.116686
222	0x3f875a8b	1.0574507
223	0xbfb47c04	-1.4100347
224	0xc035a4d6	-2.8381858
225	0x3f15e018	0.58545065
226	0xbf9cc1f3	-1.2246689
227	0xc0b34db1	-5.603234
228	0x3fd472c1	1.659752
229	0xbf16ffdf	-0.5898418
230	0xbfd9d3bf	-1.7017745
231	0xc06b13fa	-3.6730943
232	0xbfe1c3d4	-1.7637887
233	0xbf41814f	-0.75587934
234	0xc0171816	-2.360845
235	0xc0218c86	-2.5242019
236	0xc061d0b5	-3.5283635
237	0xbf978fa7	-1.1840714
238	0xc0145ce9	-2.3181708
239	0xbdff5b12	-0.12468542
240	0x4007696f	2.1158102
241	0xc0b5b90c	-5.6788387
242	0xbeca0d74	-0.3946339
243	0xbf9fcbff	-1.248413
244	0xc0237c04	-2.5544443
245	0xc0030792	-2.047337
246	0x3e1d1b3b	0.15342419
247	0xc095cfb6	-4.6816053
248	0xbffd3c46	-1.9784019
249	0x3fb1911c	1.3872409
250	0xbfd15eb7	-1.635703
251	0xbf1de554	-0.6167805
252	0xbf92313e	-1.1421278
253	0x3eab4325	0.33449665
254	0xbf66e4de	-0.90192974
255	0xbeffcef5	-0.49962583

fc.bias f4 [7]
0	0x3ef162e5	0.47145763
1	0xc080d8bb	-4.0264564
2	0xb9711c23	-0.00022994033
3	0x3e498325	0.19678934
4	0x3ef2f5d2	0.4745317
5	0x3f8b77bf	1.0895919
6	0xc001f550	-2.0305977
