FaceExpressions_CNN/savemodel/model_52.pth (torch_old, 185408 bytes, 14 tensors)

layer1.0.weight f4 [16, 1, 5, 5]
000000 99 7b 50 3f c7 a5 07 40 22 bd 4c 40 84 29 49 40
       0.81438595 2.1194932 3.1990438 3.143159
000010 82 51 4f 40 07 f9 69 40 95 d9 12 3e 86 3f 15 bf
       3.2393498 3.6558244 0.14340813 -0.58300054
000020 43 ea ab be 7f fb bd 3d 52 c4 57 3f fc f0 fc bf
       -0.33577165 0.09276485 0.84283936 -1.9761043
000030 5e d3 93 bf c6 2d 96 c0 a6 50 d5 c0 80 f9 cb 3f
       -1.1548879 -4.6930876 -6.666095 1.5935516
000040 6b ce 93 bf c3 40 03 3d 83 61 41 c0 fd c0 03 c0
       -1.1547369 0.032044183 -3.0215766 -2.058654
000050 02 d5 99 3f 1a ac 27 c0 ca a3 f8 3f 97 13 6f 3e
       1.201813 -2.6198792 1.9424984 0.23347317
000060 e9 81 e0 3f c3 33 19 bf f8 10 26 c0 ba 58 5a bf
       1.7539645 -0.5984461 -2.5947857 -0.85291636
000070 55 0a 20 40 17 64 57 40 d7 d9 15 bf 46 89 cd bf
       2.5006306 3.365484 -0.5853552 -1.6057518
000080 a6 b2 bd 3e 8a d6 91 3f 2c ad 9f bf d0 4e 88 be
       0.3705036 1.1393597 -1.2474723 -0.2662263
000090 0c b8 e3 bf a6 fd 95 bf 77 22 1d c0 4a 19 2f c0
       -1.7790542 -1.1718032 -2.4552286 -2.7359185
0000a0 eb fb ce c0 72 7e 0b c0 4d 2c 3a c0 55 f6 b4 c0
       -6.4682517 -2.1795926 -2.908954 -5.65507
0000b0 aa 8f 98 3f af bd 36 3f 2c ed 93 3e 43 0b 59 bf
       1.1918843 0.71383184 0.28891885 -0.8478281
0000c0 e3 95 13 3f 50 f4 da 3f ea 69 1a c0 26 97 d1 bf
       0.57650584 1.7105808 -2.4127145 -1.6374252
0000d0 d5 e1 12 40 c6 2e ac 3d de 0b 5d c0 44 16 be 3f
       2.2950337 0.08407359 -3.4538493 1.4850545
0000e0 05 a0 1a 40 c6 45 c7 3f 31 ae 90 40 0c e7 ad 3d
       2.4160168 1.5568168 4.5212636 0.08491334
0000f0 11 39 6a 3e cb b6 73 40 12 06 9e bf 04 f1 b7 40
       0.22873332 3.8080318 -1.2345603 5.748171
000100 8d af 6b 3f c6 78 64 c0 4a d2 2c 40 26 96 79 3d
       0.92064744 -3.5698714 2.700335 0.06093421
000110 b9 e6 ae 40 26 84 47 3f 36 47 ce bf 2f 4b 97 3e
       5.4656644 0.7793602 -1.6115482 0.29549548
000120 30 8e d4 3d 0a 41 be be 4d 4c 34 c0 ee d0 5e 40
       0.103786826 -0.37158996 -2.817157 3.481502
000130 49 b4 b8 3f 9f a3 15 c0 74 fc 7b be df 0e 56 3e
       1.4430019 -2.3381116 -0.24608022 0.2090411
000140 99 b4 30 40 56 0f 90 c0 37 d9 44 c0 4a b3 1a 3f
       2.7610228 -4.501872 -3.0757577 0.60429823
000150 35 39 e2 3c 60 75 1b c0 d0 2d c6 c0 ad c4 1a 3d
       0.027615169 -2.429039 -6.1930923 0.03778522
000160 97 dc 6d be cb ff 29 c0 98 7e f6 bf 3d 55 12 40
       -0.2322868 -2.6562374 -1.9257383 2.2864525
000170 4c 82 35 40 5f 21 2b 40 38 73 08 40 57 fb 1e 3f
       2.8360777 2.6739118 2.1320324 0.62102264
000180 a4 11 bb 3f be 37 e8 3e 62 2a cf 3e 0e e0 e1 3f
       1.4614758 0.45355028 0.40462023 1.7646501
000190 8e 9d 0b 40 e5 b2 8d bf 1f cc fb bf 96 75 2e c0
       2.1814914 -1.1070219 -1.9671668 -2.7259269
0001a0 3d 64 d2 3f 9f 86 a6 3f e8 e9 d7 bf 69 65 ff 3e
       1.643684 1.3009833 -1.6868258 0.49882057
0001b0 c7 21 f5 bf 3a 40 fe bf b3 b3 30 c0 92 76 d6 be
       -1.9150933 -1.986335 -2.760968 -0.41887337
0001c0 a6 05 d0 3f 51 6c 77 c0 9f 36 aa c0 5b 99 3d 3f
       1.6251724 -3.865986 -5.3191676 0.74062127
0001d0 f5 65 3d 3f 48 b6 dc bf 6b 84 31 c0 69 22 0a c0
       0.739837 -1.7243128 -2.7737072 -2.1583502
0001e0 e2 34 7f 40 ac 2c 97 40 bc e6 d3 3f 14 1f cf 3f
       3.9876027 4.724203 1.655479 1.6181359
0001f0 d3 bc e8 3e 91 5e 96 bf 91 9c a4 c0 fe 09 be c0
       0.4545656 -1.1747609 -5.144112 -5.9387197
000200 73 a6 06 c0 43 4f a7 bf f7 3a 09 3e 64 7e 5c bf
       -2.1039093 -1.3071064 0.134014 -0.86130357
000210 3e 34 17 c0 e7 17 e5 bf 12 47 20 c0 58 f2 3b 3f
       -2.3625636 -1.789792 -2.5043378 0.7341666
000220 a2 00 e0 3e b9 fb db 3f 46 1b 48 40 dc 55 5c bf
       0.43750483 1.7186195 3.1266646 -0.8606851
000230 6d 73 6a bf da cc ec 3e ab 0b 1f 40 f5 f6 94 3f
       -0.91582376 0.4625004 2.4850872 1.1637865
000240 f3 30 b7 3f db 5e 82 40 70 83 cf 3f b1 69 cc 3f
       1.4311813 4.074079 1.6211987 1.5969754
000250 bc 19 b9 3d 7e 02 80 40 5c 24 0a 3f 12 c2 d3 bf
       0.090381116 4.000304 0.5396173 -1.65436
000260 54 cb 4c bf f5 3c 11 40 3a 58 41 3e 38 a6 8d 3f
       -0.79997754 2.2693455 0.18881312 1.1066351
000270 b4 db 1a bf 66 76 7b c0 00 1b 8a 3e ef f9 85 40
       -0.6049149 -3.9291015 0.26973724 4.1867595
000280 64 63 8b 3f e3 1f 10 40 21 1f 98 c0 b8 8a 95 c0
       1.0889707 2.2519462 -4.7538 -4.6731834
000290 25 c9 4d 40 fa 0c 87 be ad 90 30 40 9f 24 da 3f
       3.215402 -0.26377088 2.7588303 1.7042426
0002a0 39 2b 81 c0 71 65 b0 bf de 21 03 bf ba c5 d9 3e
       -4.036526 -1.3780957 -0.5122355 0.42533666
0002b0 53 a0 0e 40 e9 9d a0 3d c6 23 40 be 70 e6 7c 3d
       2.2285354 0.07842619 -0.18763646 0.0617432
0002c0 a1 f0 55 3d 0f c9 35 c0 04 ad 1f c0 9d ce 93 bf
       0.052231435 -2.8403966 -2.494935 -1.1547428
0002d0 85 54 f2 bf 8d 5c 03 3f c3 6a 97 bf cf 98 16 3f
       -1.8932043 0.51313096 -1.1829456 0.5882692
0002e0 48 23 2d 3f c6 d8 f7 bf c9 8b d1 40 ef 7e c3 40
       0.6763196 -1.9363029 6.5483136 6.109245
0002f0 f7 96 a4 40 55 25 36 40 f6 45 02 bf 84 71 1e 40
       5.1434283 2.8460286 -0.50888 2.4756784
000300 f7 4c 24 bf bb 36 54 40 0c 52 3f c0 ab 12 0c 40
       -0.6417994 3.3158405 -2.9893827 2.1886394
000310 be 60 6e 3f 18 7b ab be 04 8e e7 3f a5 7b 5b c0
       0.93116367 -0.3349235 1.8090215 -3.4294217
000320 5e 7c 00 c0 7f dd d4 bc f1 9d e7 be 8d fe 50 c0
       -2.0075908 -0.025984524 -0.45237687 -3.2655365
000330 a1 80 fa bf c1 46 f7 3f 91 b9 cf be 04 6f 5f bf
       -1.9570504 1.9318467 -0.40571263 -0.8727877
000340 a1 7a 8a bf 90 e2 49 40 0d dc d3 3e 71 fa e7 3f
       -1.0818673 3.1544533 0.41378823 1.8123304
000350 68 dd a9 3f 22 26 6b 40 3e 03 fc be e6 ec 14 3f
       1.3270693 3.6742024 -0.49221224 0.5817398
000360 7a 56 36 40 dc d0 45 40 43 79 3b 40 3e 10 93 c0
       2.849028 3.0908728 2.9292762 -4.5957327
000370 5b a8 c8 3e 87 0e 23 3f 2a b3 1f 40 5d 03 c7 3f
       0.39190945 0.6369404 2.4953103 1.5547901
000380 9a 7b a1 c0 c8 32 81 3f 60 14 e0 bf d6 67 dc be
       -5.046338 1.0093622 -1.7506218 -0.4304797
000390 b7 f2 60 3e 14 c3 48 3e 93 60 d2 bf ed 7e cf bf
       0.21967588 0.19605666 -1.6435722 -1.621061
0003a0 f8 25 71 40 ac cb 0e 40 85 79 cb 3f 50 3f 4e 3e
       3.7679424 2.2311811 1.589646 0.2014134
0003b0 75 f7 15 3f f3 7e cd 40 52 86 1b 3e 25 23 76 c0
       0.58580714 6.4217467 0.15187958 -3.845895
0003c0 c2 be ba bf 0a 92 2e 40 12 20 b2 40 4a f9 09 c0
       -1.4589465 2.7276635 5.566415 -2.1558404
0003d0 93 18 8c c0 f0 a9 17 c0 45 61 1e 3e bd 69 03 bf
       -4.378 -2.3697472 0.15466793 -0.5133322
0003e0 da 7f 38 bf 77 13 aa bf f8 30 53 40 8a c9 67 3f
       -0.72070086 -1.328719 3.2998638 0.905419
0003f0 13 c1 37 c0 56 a1 c6 bf 2d 75 f5 3f 1f 9a b9 be
       -2.8711593 -1.5517986 1.9176384 -0.36250398

layer1.0.bias f4 [16]
000000 f7 04 19 bf fa 5a aa 40 cf b8 65 3e 53 76 12 c0
       -0.597732 5.3236055 0.2243378 -2.288472
000010 50 39 00 40 ff 1d 2f c0 ea a0 06 3e 35 17 67 3f
       2.003498 -2.7362058 0.13147321 0.90269786
000020 7d d1 c3 3f 4d 64 de be 18 96 36 be 6a b9 dd be
       1.5298306 -0.43435898 -0.17830694 -0.43305522
000030 f6 54 52 40 b6 9c a7 3e bd 21 0d 40 b2 da 4a 3e
       3.2864356 0.32736748 2.2051842 0.19809988

layer1.1.weight f4 [16]
000000 1e 6e 4f 40 df 89 2a 40 ca 10 4d 40 3f 68 27 40
       3.241096 2.664665 3.2041497 2.6157377
000010 39 01 25 40 da cb 57 40 dc 2a 3b 40 f8 76 30 40
       2.5781996 3.371817 2.924491 2.7572613
000020 ef 43 b7 3f fc 85 05 40 01 40 2b 40 73 ee 38 40
       1.4317607 2.0863028 2.6757815 2.8895538
000030 21 23 57 40 e1 a0 26 40 b3 07 fe 3f 77 d6 bb 3e
       3.361519 2.6035693 1.98461 0.3668706

layer1.1.bias f4 [16]
000000 d3 4b 54 c0 db 74 1a c0 e6 11 83 c0 a8 9f 39 bd
       -3.317128 -2.4133823 -4.095935 -0.045318276
000010 e3 bb 00 c0 db 1b 0b c0 0d 7b 80 bf 32 00 14 c0
       -2.0114677 -2.1735752 -1.0037552 -2.312512
000020 8b bc 52 3f 9b c0 75 bf 68 15 7d c0 d3 5e 04 c0
       0.82318944 -0.9599702 -3.9544315 -2.0682876
000030 ce e9 77 c0 5e 21 cb be c4 ef 89 bf bc 32 af bf
       -3.8736453 -0.39673895 -1.0776296 -1.3687358

layer1.1.running_mean f4 [16]
000000 ac 8a bf bf c4 01 ad c0 a4 da fc 40 75 2f 30 c0
       -1.4964194 -5.4064655 7.9016895 -2.7528965
000010 18 9e 24 c0 64 e8 68 c0 1f 7f 83 be cd 25 fa 40
       -2.5721493 -3.639184 -0.25682923 7.8171144
000020 6c 78 a0 40 4d dc 99 3f ff 1c 07 be 5d b2 13 bf
       5.0147 1.2020355 -0.13194655 -0.57694036
000030 53 5b ce c0 d2 05 1c be 70 fd 72 40 ee ab 67 c0
       -6.448648 -0.15236595 3.7967186 -3.6198688

layer1.1.running_var f4 [16]
000000 42 2f ec 40 ab 16 eb 41 a6 56 8c 41 08 05 50 40
       7.380769 29.386068 17.542309 3.250307
000010 11 83 52 41 77 29 52 41 bf 2b e9 3f c9 1e 6f 41
       13.156999 13.135123 1.8216475 14.945016
000020 a6 d1 e3 40 95 a5 91 40 bc b9 6c 40 28 bf 37 41
       7.119342 4.5514627 3.6988363 11.484169
000030 03 1b 0f 42 80 ea ef 40 29 ac 63 40 82 85 53 40
       35.77638 7.4973755 3.5573828 3.3050237

layer2.0.weight f4 [32, 16, 5, 5]
000000 35 1c 4b c0 51 83 5d c0 b2 db 27 c0 83 64 ab c0
       -3.1735966 -3.46114 -2.6227841 -5.3560195
000010 d6 de fb bf 80 83 ad c0 e4 45 32 c0 7d 5c 10 c0
       -1.9677379 -5.4223022 -2.7855158 -2.255645
000020 a5 fd 8c c0 c2 83 94 3f b5 1c ea 3f 2b 24 97 bd
       -4.4059625 1.1602709 1.8290011 -0.07379945
000030 5d 28 78 c0 e4 c0 9d 3e 1e 4c 11 40 5f b7 3e bf
       -3.8774636 0.30811226 2.2702708 -0.7449855
000040 00 ad ab bf e5 91 0e 3d 3d f6 aa 3f 69 34 92 bf
       -1.341217 0.034807105 1.3356396 -1.1422244
000050 3f a1 0b c0 25 d4 06 c0 88 f7 9c 3e 41 14 98 bf
       -2.1817167 -2.1066983 0.306576 -1.1881181
000060 2a bc db 3f 8f 3a 84 c0 83 b7 cf bf 53 86 4a c0
       1.7166798 -4.1321483 -1.6227878 -3.1644485
000070 8b 80 2d c0 5b b5 0b 3f 4a ea 85 bf de 59 93 3f
       -2.7109706 0.545736 -1.0462124 1.15118
000080 5e 50 4a bf 15 54 ae 3f d9 84 e9 40 e3 31 22 3f
       -0.7902888 1.361941 7.2974668 0.6335737
000090 17 5f 17 40 f7 2b 9a be f7 d1 9e c0 c4 33 ce 3e
       2.3651788 -0.30111668 -4.9631305 0.4027387
0000a0 48 c0 31 bf 9f ab 35 40 94 41 6a 40 44 02 7e bf
       -0.6943402 2.8386 3.6602526 -0.9922221
0000b0 c8 58 65 3f 10 82 e4 3f 1a e9 2a 3f 1e cd ec bf
       0.89588594 1.7852192 0.66761935 -1.8500097
0000c0 f5 8d 98 c0 4d e6 a5 3f 8f 03 cb be 29 97 ca 40
       -4.7673287 1.2960907 -0.39651152 6.330952
0000d0 52 60 e3 bf d7 4a 1a bf 84 1c 96 bf 94 37 90 bd
       -1.776377 -0.60270447 -1.1727452 -0.07041851
0000e0 4f d7 79 be a7 32 9c c0 f3 12 2d bf c2 48 70 3f
       -0.2439854 -4.881183 -0.6760704 0.9386102
0000f0 f6 11 80 c0 5d 47 f0 3f e8 00 3a be 5b 32 71 3e
       -4.0021925 1.8771778 -0.18164408 0.23554365
000100 c9 44 83 bf 46 4d ad bf a4 40 73 40 93 48 17 40
       -1.0255367 -1.3539207 3.8008204 2.3638046
000110 c4 81 38 40 59 24 57 3e 9d be 1d c0 a4 5b cd bf
       2.8829203 0.2100996 -2.464759 -1.6043591
000120 8c 1f 4a bf 5a d7 75 c0 e6 cb 50 c0 37 63 e0 3f
       -0.78954387 -3.841269 -3.262445 1.7530278
000130 95 73 a3 bf 82 c5 b0 bf c1 1e 58 bf d3 20 51 c0
       -1.2769648 -1.3810275 -0.84421927 -3.2676284
000140 f3 cf e7 bf d1 3a 84 c0 8c cb b5 c0 bf 1d 5a bf
       -1.8110336 -4.1321797 -5.681097 -0.8520164
000150 d7 3c 67 3e a3 ba 7d 40 e3 08 f7 3f 87 43 f7 c0
       0.22581802 3.9645164 1.9299587 -7.726993
000160 dd ea c0 c0 4c d1 16 3f c1 d4 b9 3e dd 9b ba 3f
       -6.02867 0.5891311 0.3629513 1.4578816
000170 e4 0d 13 c0 2f 0b 9a 3f 60 43 3e bf f7 6b 0d bd
       -2.2977228 1.2034663 -0.74321556 -0.03452679
000180 60 ce 0b 40 5b 25 01 c0 f6 58 0f be db 24 ff 3f
       2.1844711 -2.017905 -0.1399878 1.9933122
000190 ba 46 ba be 1f 25 3a 40 9e 7e 19 c0 8d 72 d7 3e
       -0.36382085 2.9085157 -2.398353 0.42079583
0001a0 5e 26 43 bf 0f e6 57 c0 52 f3 a8 c0 09 4b 39 c0
       -0.7623042 -3.3734167 -5.279702 -2.8952048
0001b0 32 3a 09 c0 79 93 dd bf 07 09 1d c0 4f c5 cb bf
       -2.144177 -1.731063 -2.453676 -1.5919589
0001c0 00 cb b9 3d 9c e0 2f 3c 6a 27 0e c0 d8 f5 2c 3e
       0.09071922 0.010734703 -2.2211556 0.16890657
0001d0 e0 46 92 40 52 67 42 bf 0d 59 1e c0 09 e2 dd be
       4.5711517 -0.75938904 -2.4741852 -0.43336514
0001e0 7d b9 55 40 8f ac b7 be d6 fd 05 c0 58 24 f8 3f
       3.3394463 -0.3587384 -2.093618 1.9386091
0001f0 a9 5f e2 3f c8 e2 54 be 8a 0b 24 c0 bb 65 0e c0
       1.7685443 -0.20789635 -2.5632043 -2.2249591
000200 b2 5b 90 3f 9a 85 d9 3f 2d 42 9c 3f 56 11 bb 3e
       1.1277983 1.6993897 1.2207695 0.36536664
000210 44 7d c0 bf 4f 10 15 bf c3 1f ce 3e 5f 9a 27 c0
       -1.5038228 -0.5822801 0.40258607 -2.618797
000220 63 33 49 3f 21 17 b8 bf 5d 3f 96 be a8 ea b9 bf
       0.78594035 -1.4382058 -0.29345217 -1.4524736
000230 cf 49 bf 3e 4f 2a 10 40 97 1a 91 c0 b8 3b c0 bf
       0.37361 2.2525823 -4.534496 -1.5018225
000240 25 ae 18 40 4b 02 ae bf 38 0f 80 3f b5 1f 26 bf
       2.385629 -1.359445 1.0004644 -0.6489213
000250 8d 00 6c c0 17 c5 25 be f7 ea 44 c0 e9 a6 b0 40
       -3.6875336 -0.16188465 -3.076841 5.520375
000260 fd 5e c7 3c 72 09 81 3f 5e fe ee 3f 39 ec 13 be
       0.024337286 1.0081007 1.8671377 -0.1444558
000270 ef 89 0d c1 b2 20 86 bf 16 a0 fc 3e aa d8 da c0
       -8.846175 -1.0478728 0.49340886 -6.8389482
000280 17 cb 81 40 e9 d9 85 3f c6 de dc bf dc 3f c7 c0
       4.0560412 1.0457126 -1.7255485 -6.2265453
000290 fa 1d ca 3f 1e 5c b4 3f 9a f9 04 40 7e f6 97 3d
       1.5790398 1.4090612 2.0777345 0.074200615
0002a0 a2 40 00 40 b2 c8 72 bf 9c 2a bc 3f bc 61 f9 3e
       2.0039449 -0.94837487 1.4700503 0.48707378
0002b0 b4 80 1d c0 e4 43 cd 3d 84 ab 9d bf f1 00 95 3f
       -2.4609804 0.10022715 -1.2317967 1.1640912
0002c0 5d 93 a4 bf 64 bf 1c c0 fe d7 e1 3f 58 53 b2 3f
       -1.2857472 -2.4491816 1.764404 1.3931684
0002d0 5e aa 7f 40 c9 cf 73 3f 3d f0 9e be 1e 9e df bd
       3.9947734 0.9523893 -0.31042662 -0.1091883
0002e0 31 d5 01 c0 be 53 f7 c0 fc 72 71 c0 23 14 b5 bf
       -2.0286372 -7.7289724 -3.772643 -1.414677
0002f0 b8 9d 28 c0 66 06 37 bf 10 55 34 c0 7a ca 51 bf
       -2.6346264 -0.7149414 -2.8176918 -0.8194958
000300 cd 1a e7 be 2b 3a 76 bf 00 09 21 40 ae 78 54 bf
       -0.45137635 -0.9618251 2.5161743 -0.8299664
000310 36 3c a4 3e 9f ef 28 3f 23 53 6a 3f c3 83 44 40
       0.32077187 0.6599063 0.91533107 3.070542
000320 4c 0a 85 bf dd 84 87 be 6f cc bc bd 74 f7 81 3f
       -1.0393767 -0.26468554 -0.0921868 1.0153642
000330 3e ee 84 bf a6 72 e6 bf f0 b8 46 c0 74 b6 10 40
       -1.0385206 -1.8003738 -3.1050377 2.261136
000340 56 b3 67 3f bb 80 58 bf b2 35 4e c0 c9 1e 5d c0
       0.9050802 -0.8457143 -3.2220273 -3.455004
000350 9e e5 9c bd 4a 0b e6 3f 93 7f d7 3f 56 a6 b3 bf
       -0.076609835 1.7972195 1.6835808 -1.4035137
000360 dd 5c 61 bf 44 60 04 c0 4b ef 31 c0 a0 35 a0 3f
       -0.88032323 -2.0683756 -2.7802303 1.2516365
000370 cb 54 2a c0 68 7d fa 3e e5 a0 e5 3f 32 bd 04 3f
       -2.6614254 0.48923802 1.7939726 0.5185119
000380 60 11 f5 3e d7 6c 8a bf c5 a2 99 bf 6a 83 2e c0
       0.4786482 -1.0814465 -1.2002798 -2.7267709
000390 fc 31 53 40 73 70 d2 bf c3 9c 13 3e 57 6c c8 c0
       3.2999258 -1.6440567 0.14415269 -6.263225
0003a0 3c 9a 2c 3f 86 f6 a1 be 75 83 cf be 55 30 77 bf
       0.6742284 -0.31633395 -0.4052998 -0.96558124
0003b0 ee 03 17 c0 81 5b 30 be e0 fe 0f 40 17 93 8d 3f
       -2.3596148 -0.17222406 2.2499313 1.1060513
0003c0 76 57 8a c0 41 56 78 c0 e1 8d 27 c0 c7 0d de be
       -4.3231764 -3.8802645 -2.6180346 -0.43369886
0003d0 84 cb be 3f 99 c1 36 c0 56 c2 b3 3f 37 91 f3 3f
       1.4905858 -2.8555663 1.4043682 1.9028691
0003e0 47 9e 29 3f 47 df 05 3f f8 97 8f 40 1a 76 9d c0
       0.6625714 0.5229382 4.487301 -4.9206667
0003f0 2e 53 c6 3f 67 0a 3d c0 19 f8 29 3e 8e 1e 34 be
       1.5494134 -2.95376 0.16598548 -0.1758978

layer2.0.bias f4 [32]
000000 9f b3 16 40 23 0a 84 3f 80 70 e3 3f c8 89 45 3e
       2.3547132 1.0315593 1.7768707 0.1929084
000010 69 18 e3 3e 47 8f 8a 3f fb 7a 0e 40 a9 44 9a 3e
       0.4435456 1.0824975 2.2262561 0.3013051
000020 d3 de d4 3f 24 a4 82 3e 66 41 8a 3f 46 a2 9d 3c
       1.66305 0.25515854 1.0801208 0.019242417
000030 a4 41 48 3e 16 97 53 3f 4b 14 0e 40 a7 c4 87 3f
       0.1955629 0.82652414 2.2199886 1.0606889
000040 c7 b3 41 3e 07 ae 49 3e 21 20 8e 3f 2a 9c c3 3f
       0.18916236 0.19695292 1.1103555 1.5282032
000050 56 77 07 3e 82 7f 08 40 f8 cb eb 3f 06 c6 e8 3f
       0.13229117 2.1327825 1.8421621 1.8185432
000060 7b ce d8 3f 7c ff 02 3d 47 d0 81 3f b8 0e b4 3f
       1.6938013 0.03198193 1.0141686 1.4066992
000070 12 f5 2c 3e cf 44 1e 40 f5 88 81 3f a3 90 30 3e
       0.16890362 2.4729497 1.0119921 0.17242675

layer2.1.weight f4 [32]
000000 19 0c 08 3f 24 0a 11 3f 9c d5 20 3f ea 8b 89 3e
       0.5314346 0.566561 0.6282594 0.26864558
000010 4c 96 65 3e a8 2a 2d 3f 43 3d 27 3f bc af 11 3e
       0.22420615 0.67643213 0.6532785 0.14227194
000020 d3 2b d9 3e 8b ea 67 3e 27 e0 04 3f be fa 80 3f
       0.42416248 0.22648065 0.5190453 1.007652
000030 b1 9f 34 3e db 5d 4c 3f fa 8f 39 3f 27 c5 8d 3f
       0.17639042 0.7983071 0.72485316 1.1075791
000040 91 a5 57 3e 9f c0 92 3e 55 85 5a 3f 73 26 11 3f
       0.21059252 0.28662583 0.853597 0.56699294
000050 c6 4b 2c 3e 29 4e 4c 3f a5 2e 0c 3f 34 50 e8 3e
       0.1682578 0.7980676 0.54758674 0.4537369
000060 98 b7 3d 3f e2 3e 8b 3e 74 14 43 3f 8f 84 32 3f
       0.74108267 0.27196413 0.76203084 0.6973352
000070 8e bb 8a 3e 91 7d 15 3f 05 2b 0c 3f cf d3 81 3e
       0.27096218 0.58394724 0.5475314 0.2535691

layer2.1.bias f4 [32]
000000 a4 56 06 bf 74 7b 19 bf 1c f1 43 bf c2 77 3b bf
       -0.52475953 -0.59954 -0.7653978 -0.7322961
000010 18 df 2f bf d8 06 64 bf a6 84 47 bf 90 0b 53 bf
       -0.6869979 -0.8907294 -0.7793678 -0.8243952
000020 ed e2 04 bf 8e ed 43 bf 07 57 01 bf 4f dd 06 c0
       -0.5190876 -0.76534355 -0.5052342 -2.1072576
000030 0b 96 68 bf 22 45 ab bf 94 5e 55 bf 32 82 d5 bf
       -0.9085395 -1.3380473 -0.8334744 -1.6680357
000040 94 30 44 bf b7 3a 20 bf 30 fc 8a bf bf be 2f bf
       -0.76636624 -0.6258959 -1.0858212 -0.6865043
000050 92 cf 12 bf b6 ce 62 bf 2f a6 3d bf 75 c9 f6 be
       -0.5734798 -0.88596666 -0.740817 -0.48200575
000060 31 12 88 bf a7 9f 26 bf 15 71 8b bf ed 4d 5a bf
       -1.0630552 -0.6508736 -1.0893885 -0.85275155
000070 a4 42 30 bf df 76 0f bf 80 82 2f bf dc d3 52 bf
       -0.68851686 -0.5604076 -0.685585 -0.8235452

layer2.1.running_mean f4 [32]
000000 90 18 f5 c2 ad d8 b5 c2 da 7b b6 c2 67 f0 4f c2
       -122.54797 -90.923195 -91.2419 -51.984768
000010 31 13 d7 c1 69 dc 99 c2 45 8b b6 c2 43 5f 12 c2
       -26.88437 -76.93049 -91.27201 -36.59303
000020 61 de 90 c2 4b 71 13 c2 e8 05 97 c2 f4 3b 8d c2
       -72.43433 -36.860638 -75.511536 -70.617096
000030 0a 03 3b c2 be c2 ac c2 9a e4 e7 c2 12 37 c0 c2
       -46.752968 -86.380356 -115.94649 -96.10756
000040 7e 81 c1 c1 a8 94 a4 c1 a8 2d a0 c2 3d 62 12 c3
       -24.188229 -20.572586 -80.08917 -146.38374
000050 1e c1 36 c2 13 7f cd c2 ae df b0 c2 65 5e b4 c2
       -45.68859 -102.74819 -88.436874 -90.184364
000060 32 11 77 c2 53 ff d7 c1 98 88 81 c2 db 06 b1 c2
       -61.766792 -26.99967 -64.766785 -88.51339
000070 4f dd fa c1 60 2b ee c2 e6 2c a6 c2 e0 0e 36 c2
       -31.35806 -119.08472 -83.08769 -45.514526

layer2.1.running_var f4 [32]
000000 e9 5c 47 46 00 4c 6d 46 51 74 0d 46 6e 0d 89 44
       12759.228 15187.0 9053.079 1096.4197
000010 e9 8d ab 43 5f 78 09 46 8b f2 1e 46 f6 86 19 44
       343.10867 8798.093 10172.636 614.10876
000020 3d fc e5 45 27 f2 1f 44 5a 55 2d 46 3e 74 54 46
       7359.53 639.7836 11093.338 13597.061
000030 bc 92 a0 44 8d da 26 46 5a 87 43 46 ff 94 2e 46
       1284.5854 10678.638 12513.838 11173.249
000040 b3 3c d8 43 26 ee 4b 43 a0 84 1a 46 9e 1e 50 46
       432.4742 203.93027 9889.156 13319.654
000050 87 be 8d 44 62 95 2c 46 1d cd ee 45 39 85 15 46
       1133.954 11045.346 7641.639 9569.306
000060 df b4 b8 45 2c ec 94 43 78 df 22 46 56 a7 14 46
       5910.609 297.8451 10423.867 9513.834
000070 83 92 cf 43 d3 c6 34 46 93 25 30 46 88 68 70 44
       415.14462 11569.706 11273.394 961.6333

fc.weight f4 [7, 4608]
000000 92 ce 51 c0 10 e1 76 be ad 4a b0 3f de 02 37 bf
       -3.278233 -0.24109292 1.3772789 -0.7148875
000010 85 36 8b 3f 3f ed 1c c0 c1 3b 4a c0 80 1c f0 3f
       1.0876013 -2.4519804 -3.159897 1.8758698
000020 9a 6c ba bf a0 81 89 bf 40 9d 65 3f 02 c2 00 c0
       -1.4564393 -1.0742683 0.8969307 -2.0118413
000030 a2 93 c0 be 47 d6 28 3c c0 cd f1 bf 00 7e 2e 3f
       -0.37612635 0.010304994 -1.8890915 0.6816101
000040 b1 f0 b8 be aa 23 bf bf 20 81 be 3f e9 7d 56 bf
       -0.36121133 -1.4932759 1.4883156 -0.83785874
000050 f2 43 45 3e a2 ff 45 3f 8f 84 a7 bf 56 bd 51 c0
       0.192642 0.7734319 -1.3087329 -3.2771811
000060 a4 15 53 bf cf a2 fd bc ac 21 d9 3d 82 3e d5 3f
       -0.82454896 -0.030961422 0.106021255 1.6659701
000070 1b 91 02 c0 aa 5e 29 3f d1 76 8b bf 5c 62 c9 3d
       -2.0401065 0.6616007 -1.0895635 0.09833214
000080 ea 2e 47 bf 4b 3b 27 c0 89 56 67 bf d0 d0 d7 3e
       -0.7780596 -2.612994 -0.9036642 0.421515
000090 d1 3e 99 3d 99 0c 48 3f 01 7c c3 bf 6f af 60 bf
       0.074826844 0.7814422 -1.5272218 -0.8776769
0000a0 18 02 cb 3e bb bf e3 bf 95 78 bb 3d f5 eb b9 3f
       0.39650035 -1.7792886 0.091538586 1.4525133
0000b0 7f 7f 9f be 51 4b 9a bf 94 ca a8 3e 17 e2 35 c0
       -0.3115196 -1.2054235 0.32967055 -2.8419244
0000c0 1c 22 67 bf b1 6b 08 bf c3 b1 be be 09 28 bc bf
       -0.9028642 -0.53289324 -0.37244996 -1.4699718
0000d0 2d 98 e4 be f7 ce d1 3d b7 45 e7 3e 3d ca 8f bf
       -0.4464735 0.102445535 0.45170376 -1.1233593
0000e0 8d 2e 3b bf be f8 de bf 96 d4 00 3d c6 d6 23 3f
       -0.73117906 -1.741966 0.031452738 0.63999593
0000f0 5b 00 4c 40 cf 2f 68 40 3f a6 87 3e c9 bf d5 be
       3.1875217 3.627918 0.26494023 -0.41747883
000100 ea 25 92 3f 24 c4 b3 bf 60 a1 8d 3e 72 6d 79 be
       1.141782 -1.4044232 0.27662182 -0.24358156
000110 15 17 26 bf e3 fe 75 bf 65 c2 b1 3f 60 b5 16 c0
       -0.6487897 -0.9609205 1.388745 -2.3548203
000120 1e e9 2b c0 b3 1b 6c bf 2c eb 5f 3f e3 60 40 3f
       -2.6861033 -0.92229766 0.8746822 0.7514784
000130 9d 03 ac 3e f7 59 0a 40 3e 64 72 bf f6 43 07 bf
       0.33596507 2.161741 -0.9468421 -0.52838075
000140 fd 10 0b be 14 04 e7 3f e9 1a a4 3d fa 4d 95 40
       -0.135807 1.804812 0.08012945 4.6657686
000150 cb a3 0d be 2c bb 26 3f 3f 08 ae 3f 6d 3b 31 bf
       -0.13832013 0.6512935 1.3596267 -0.692313
000160 0d c8 a8 3f 00 60 84 be 28 8f 63 3f 09 10 54 be
       1.3186051 -0.25854492 0.88890314 -0.20709242
000170 69 a4 08 40 51 0a 82 bf 81 60 03 3f 1e 5b d6 bf
       2.1350348 -1.0159398 0.5131913 -1.6746557
000180 7b 1f 50 bf 9f 3d 13 bf 31 d2 c4 3f c3 77 69 bf
       -0.81298035 -0.575159 1.5376645 -0.91198367
000190 71 46 08 40 a0 5b 20 3e dd a1 81 bf ee 84 2e 3f
       2.1292994 0.15659952 -1.0127522 0.68171585
0001a0 bd b7 b2 3f 93 49 ed bc 1f 95 9b 3d a3 5c b5 bf
       1.3962322 -0.028965747 0.07596802 -1.4168895
0001b0 b4 2c 3d 3f 52 2a ee 3f e4 68 a7 be d1 5f 25 3e
       0.73896337 1.8606665 -0.32697213 0.16149832
0001c0 59 c8 79 bf 87 f8 68 3f bc ae 68 bd a1 95 72 3f
       -0.9757133 0.9100422 -0.056807265 0.94759566
0001d0 66 df 54 3f c8 60 75 3f 4f 8d 1e bf 07 7e 4a 3e
       0.8315338 0.958508 -0.6193437 0.19774638
0001e0 04 8c 03 3f bf f8 74 3e 3f d8 6e be 1d aa 36 c0
       0.5138552 0.23923014 -0.23324679 -2.854133
0001f0 a4 4d da 3f 31 89 30 c0 0e 8b ea 3f 8a 11 90 3f
       1.7054944 -2.7583735 1.8323686 1.1255352
000200 6d 79 b6 3f 69 50 3f be 6a 2a 78 bf 8f 7e 88 3f
       1.4255806 -0.18683018 -0.9693972 1.0663623
000210 c0 cc ce 3f b1 02 6a 40 2c cd cd bf 54 d9 e5 be
       1.6156235 3.6564143 -1.6078238 -0.4489237
000220 53 9e 36 bf 2d 27 96 3f 3a fc 3d 3f 57 01 38 bf
       -0.71335334 1.1730705 0.7421299 -0.71877044
000230 1d bf 16 40 5c 5b 8b c0 27 06 c0 3f 56 1b b6 bf
       2.3554146 -4.3549023 1.5001878 -1.4227092
000240 53 a9 96 bf 9a df 24 bf 4b 99 41 3f 90 32 c0 be
       -1.1770424 -0.6440369 0.7562453 -0.37538576
000250 1e 58 85 40 5f 4c 5f c0 9e c7 dd 3f 1c 02 f1 3f
       4.1670065 -3.4890363 1.7326543 1.8828769
000260 3f b9 0c bb f3 07 2a 3f 33 79 68 3f c5 3d 4d c0
       -0.002147272 0.6641838 0.90809935 -3.206895
000270 45 34 27 40 8e f0 71 3f a8 35 99 3f db ca 64 3f
       2.6125653 0.9450768 1.19695 0.8937203
000280 04 07 d3 3f 3e 28 c8 3e e8 ec 0e 3f a1 bb 39 40
       1.6486516 0.39093202 0.5583024 2.902077
000290 62 7d 0a be 21 8a c9 3f 61 1c 64 3f e1 99 23 40
       -0.13524392 1.5745279 0.891058 2.556267
0002a0 90 73 04 3c f7 87 87 3e 11 8c 7b 3e 81 22 bf 3f
       0.008084193 0.2647092 0.2456515 1.4932405
0002b0 96 61 4b 3f 3e 3e c8 be 36 be 0a 40 23 83 b3 3f
       0.7944578 -0.39109987 2.1678596 1.4024395
0002c0 14 af 0f 3f 97 af b5 3f 1a dc 9f 3d 11 9e e2 bc
       0.56126523 1.4194211 0.07805653 -0.027663263
0002d0 e5 54 19 bf 14 b2 16 c0 20 ab 93 be 98 ef 2f 40
       -0.59895164 -2.354619 -0.28841496 2.7489986
0002e0 ec 44 fa 3f 98 78 71 bf 83 39 8e 3e 58 e5 de 3f
       1.9552283 -0.94324636 0.27778253 1.741374
0002f0 52 4f 93 3f 80 36 a9 3f 40 75 6c 3f 1e 89 20 be
       1.1508582 1.3219757 0.9236641 -0.15677306
000300 18 10 d8 3d 43 ce 2d bf 49 a8 33 3f 16 45 a3 3f
       0.10549945 -0.67892855 0.7017866 1.2755458
000310 f7 69 ca 3f 76 1a a7 be 81 10 b4 3f 75 d5 26 3f
       1.5813588 -0.32637376 1.4067537 0.6516946
000320 88 c8 75 3f a9 90 24 40 68 96 d3 be 32 22 ae 3f
       0.9600911 2.5713294 -0.41325688 1.3604186
000330 1a 5c 00 40 03 fb 7a bf a8 c2 95 bf 50 6c 26 3f
       2.0056214 -0.98039263 -1.1700029 0.6500902
000340 2e cf f9 be 28 8f 8a bf 06 d4 7b 3e 41 ab 1b 3f
       -0.48790878 -1.0824938 0.245926 0.6080819
000350 f2 e0 8a 3d f0 b4 f9 be 7e e0 56 bf 39 95 56 40
       0.06781186 -0.48770857 -0.839363 3.3528578
000360 ef 25 13 40 64 bc 72 c0 52 8a 05 c0 f9 88 e6 3e
       2.2991903 -3.7927485 -2.0865674 0.45026377
000370 35 eb 08 c0 1f b1 80 bf 5e f1 91 3f 87 21 86 bf
       -2.139356 -1.0054053 1.1401784 -1.0478982
000380 58 04 49 c0 4a 84 3f 3f f6 f0 b9 bf ea 34 90 c0
       -3.1408901 0.7481123 -1.452666 -4.506459
000390 10 40 cf 3f 39 59 83 3e eb b9 53 bf 7e c5 4b c0
       1.6191425 0.2565401 -0.82705563 -3.183929
0003a0 a7 e4 ba bf 50 9a 93 be ee 1b 01 c0 f8 86 fa bf
       -1.4601029 -0.2882867 -2.0173297 -1.9572439
0003b0 89 21 4f c0 72 bf 23 bf be 4c fb bf 5e 86 05 3d
       -3.2364218 -0.63964 -1.9632795 0.032598846
0003c0 38 d3 ae 3f cf c8 97 c0 ae 26 4a 3d df 11 45 bf
       1.3658209 -4.743263 0.049353294 -0.76980394
0003d0 e2 7d fe bf f2 9e bf bf 07 72 50 be 2b a5 87 c0
       -1.9882166 -1.4970381 -0.20355998 -4.238912
0003e0 ab a8 95 bf 85 39 02 3f f9 82 86 bf e2 20 f7 be
       -1.1692098 0.5086902 -1.050872 -0.48267275
0003f0 4c 43 63 bf 77 c5 ad 3e 24 58 42 bf 8c 5d 39 be
       -0.8877456 0.33939716 -0.7591574 -0.18102092

fc.bias f4 [7]
000000 8c a2 a9 3e 00 5b 41 c0 04 5f 92 3d af d0 1b 3e
       0.33131826 -3.0211792 0.07147029 0.15216325
000010 d2 3a a0 3e e4 1f 77 3f f2 11 ca bf
       0.31294876 0.96533036 -1.5786726
