FaceExpressions_CNN/savemodel/model_6.pth (torch_old, 185408 bytes, 14 tensors)

layer1.0.weight f4 [16, 1, 5, 5]
0.77730805 0.75922865 1.7290082 1.2571646 1.621255 1.5972285 0.13503677 0.32607093
-0.109763995 0.09515443 0.5174306 -0.9531116 -1.562577 -2.6214468 -3.1471941 0.8413321
-0.55356705 -0.049141265 -1.2494208 -1.6800407 -0.09650018 -0.9070534 0.9530691 0.24405795
0.47749415 -0.9965549 -0.8124189 0.017942525 0.8076494 1.2618531 -0.04545784 -0.42356333
0.048211884 0.2203 0.20992666 -1.5150887 -0.6801323 -0.61173683 -1.0102792 -0.9916706
-1.8074415 -2.365239 -1.599258 -1.8853178 -0.17815939 0.28133273 -0.598536 -0.16271967
0.14445925 0.049663473 -1.0993068 -0.29545033 0.33597946 -0.17368269 -1.3328816 0.08840829
1.6544915 1.5006863 2.261764 0.45271483 0.12094407 1.3718723 1.0408711 2.3597236
0.42936423 -0.7462518 0.51679695 0.77270085 2.0870676 0.28108305 -0.54708564 -0.0109288655
0.5667922 0.17835581 -1.0704876 1.7942111 0.44740063 -1.121181 -0.24285315 0.08582338
1.4802378 -2.144114 -1.5517386 0.0667052 0.13145384 -1.4196966 -3.2243855 0.17919257
-0.33025706 -1.2109225 -1.027943 0.8469054 1.660453 1.2246972 1.235458 0.043926068
1.2711538 0.04666493 0.42354187 0.82697755 0.6891906 0.026456174 -0.871423 -2.166008
-0.038732067 0.20110339 -0.38825792 0.12994497 -1.4824284 -1.7232168 -0.47056016 -0.08704666
0.20349318 -2.3776662 -2.1340837 1.0168653 0.5742707 -0.31999126 -1.6001049 -1.7863857
1.659063 1.5716395 0.9121737 0.47160444 0.7247124 -0.7429473 -2.6390035 -3.4338322
-1.8049251 -0.6679194 0.35711452 -0.5530787 -0.717996 -0.9757204 -1.0606428 0.14217362
0.18258543 0.8722866 0.93073714 -0.43713698 0.011357216 0.7778389 1.0619937 0.7986523
1.0135477 1.5443535 0.9030835 1.0338606 0.7240297 1.7579927 0.30976787 -0.8492462
-0.39562762 1.1880693 0.2992933 0.53094596 -0.48767075 -2.0540433 -0.06661557 2.3635228
0.60602754 0.99344933 -2.1991153 -2.3746696 1.5708324 -0.10516745 1.5406419 0.5983764
-2.0667834 -0.7856712 -0.3468262 0.41293275 1.2553734 0.20186764 -0.1145999 -0.65976214
-0.4059071 -1.6300077 -0.910741 -1.0940279 -0.3622794 0.6707832 -0.33415526 0.034210607
0.31820962 -0.6462681 3.058242 3.0981014 3.1669307 1.0501384 -0.66531557 1.260615
0.87263894 1.7515544 -0.83354664 0.510251 0.5140294 0.32702082 0.33861423 -1.3993884
-0.6595721 -0.53818756 -0.7206165 -1.1093186 -1.1079947 0.6372647 0.13728066 -0.3807021
0.14641915 1.2056836 0.62199754 1.5924312 1.0531998 1.6776671 -0.23585156 -0.11959021
2.1561732 1.752794 1.405714 -2.2904155 -0.13513963 0.7566769 1.2977476 0.81666636
-2.371725 0.07049241 -0.63274246 -0.30708602 -0.13855144 0.7817654 -0.53128934 -0.7752303
1.9583493 1.0207354 0.14272301 -0.18249515 0.70402443 3.5876672 0.25505078 -1.5923688
-0.5765849 1.5332644 2.597892 -0.9911213 -2.3836234 -0.95784533 -0.30206627 0.625102
-0.35879812 -0.81518734 1.1869286 0.5986875 -1.423767 -0.5820966 1.107983 0.5356807
00000000: a9fd 463f cf5c 423f 2450 dd3f c5ea a03f
00000010: 4985 cf3f fc71 cc3f 1447 0a3e c5f2 a63e
00000020: f2cb e0bd 53e0 c23d 5576 043f 1fff 73bf
00000030: 8602 c8bf c9c5 27c0 a16b 49c0 8a61 573f
00000040: 92b6 0dbf 5a48 49bd 05ed 9fbf 930b d7bf
00000050: e3a1 c5bd a734 68bf 56fc 733f 54ea 793e
00000060: 1d7a f43e 391e 7fbf affa 4fbf 34fc 923c
00000070: 1cc2 4e3f 6784 a13f 0032 3abd 4bdd d8be
00000080: d379 453d 5396 613e 04f7 563e 6dee c1bf
00000090: 271d 2ebf c99a 1cbf d450 81bf 20de 7dbf
000000a0: 3e5a e7bf 1360 17c0 7cb4 ccbf 1852 f1bf
000000b0: 6a6f 36be d80a 903e a839 19bf fc9f 26be
000000c0: 20ed 133e ed6b 4b3d 16b6 8cbf 4445 97be
000000d0: 8005 ac3e e0d9 31be dd9b aabf 680f b53d
000000e0: 61c6 d33f 7d16 c03f bec0 1040 3dca e73e
000000f0: 86b1 f73d 8399 af3f 443b 853f b605 1740
00000100: a1d5 db3e 5c0a 3fbf ce4c 043f b9cf 453f
00000110: 8492 0540 1eea 8f3e ce0d 0cbf fc0e 33bc
00000120: 4b19 113f e8a2 363e bd05 89bf b6a8 e53f
00000130: b211 e53e dc82 8fbf 7fae 78be 2bc4 af3d
00000140: 6f78 bd3f 2a39 09c0 5f9f c6bf bc9c 883d
00000150: d69b 063e 9eb8 b5bf 555c 4ec0 427e 373e
00000160: 7417 a9be 82ff 9abf a393 83bf cbce 583f
00000170: b989 d43f e1c2 9c3f 7d23 9e3f d2eb 333d
00000180: 2bb5 a23f ba23 3f3d 7bda d83e cdb4 533f
00000190: cc6e 303f 9eba d83c 9415 5fbf e09f 0ac0
000001a0: 84a5 1ebd 0cee 4d3e bec9 c6be 4b10 053e
000001b0: 37c0 bdbf 5e92 dcbf 43ed f0be 8545 b2bd
000001c0: 8460 503e af2b 18c0 d494 08c0 a428 823f
000001d0: 6803 133f e5d5 a3be 3dd0 ccbf 49a8 e4bf
000001e0: 2d5c d43f 7c2b c93f 3784 693f 2376 f13e
000001f0: c086 393f cb31 3ebf 6fe5 28c0 e8c3 5bc0
00000200: c907 e7bf c4fc 2abf b7d7 b63e 9196 0dbf
00000210: 96ce 37bf d0c8 79bf 25c3 87bf f695 113e
00000220: adf7 3a3e 2d4e 5f3f ca44 6e3f 6bd0 dfbe
00000230: 9e13 3a3c 7320 473f 69ef 873f 7a74 4c3f
00000240: eebb 813f 60ad c53f 7b30 673f 8b55 843f
00000250: 035a 393f e805 e13f e599 9e3e 3368 59bf
00000260: b48f cabe a812 983f f93c 993e 13ec 073f
00000270: fbaf f9be 7275 03c0 be6d 88bd f543 1740
00000280: 9f24 1b3f b252 7e3f 4ebe 0cc0 96fa 17c0
00000290: 0911 c93f 0862 d7bd c133 c53f 322f 193f
000002a0: 2e46 04c0 bf21 49bf 3493 b1be ec6b d33e
000002b0: 13b0 a03f 64b6 4e3e 5ab3 eabd 2ce6 28bf
000002c0: 0ed3 cfbe 18a4 d0bf 5226 69bf 1b09 8cbf
000002d0: af7c b9be 73b8 2b3f 6616 abbe 6c20 0c3d
000002e0: 5fec a23e d471 25bf 3dba 4340 4b47 4640
000002f0: feae 4a40 ef6a 863f 1f52 2abf d55b a13f
00000300: 4465 5f3f ef32 e03f 5063 55bf cf9f 023f
00000310: 6e97 033f 466f a73e d85e ad3e 291f b3bf
00000320: b8d9 28bf a9c6 09bf 537a 38bf 27fe 8dbf
00000330: c5d2 8dbf c823 233f 4d93 0c3e 63eb c2be
00000340: e7ee 153e d753 9a3f 3b3b 1f3f c9d4 cb3f
00000350: 40cf 863f ccbd d63f 1283 71be b6eb f4bd
00000360: befe 0940 8e5b e03f 70ee b33f 2b96 12c0
00000370: 0b62 0abe 94b5 413f 981c a63f 0c11 513f
00000380: 58ca 17c0 535e 903d 69fb 21bf 613a 9dbe
00000390: 6ee0 0dbe c721 483f 9402 08bf 7e75 46bf
000003a0: 31ab fa3f 75a7 823f fb25 123e 02e0 3abe
000003b0: f23a 343f 579c 6540 0496 823e bed2 cbbf
000003c0: 119b 13bf 0242 c43f dd43 2640 20ba 7dbf
000003d0: 498d 18c0 5a35 75bf 6ea8 9abe af06 203f
000003e0: 63b4 b7be 1eb0 50bf 47ed 973f 9643 193f
000003f0: ff3d b6bf 4804 15bf 63d2 8d3f 5f22 093f

layer1.0.bias f4 [16]
-0.8805894 0.8484728 -0.06449526 -1.2308809 0.31877458 -0.18290085 -1.131337 0.13119005
0.91733074 0.053890858 0.60652405 -0.7880362 0.50605416 0.42458102 0.8195821 0.18969226
00000000: 4f6e 61bf 8335 593f 1716 84bd 818d 9dbf
00000010: 6c36 a33e 5c4a 3bbe a7cf 90bf af56 063e
00000020: 30d6 6a3f a9bc 5c3d 2945 1b3f bebc 49bf
00000030: c48c 013f af62 d93e 22d0 513f b03e 423e

layer1.1.weight f4 [16]
1.7864237 1.4226134 1.2195331 2.0833838 1.366675 1.9656703 2.3584418 1.3274523
0.88778687 1.1826624 1.1467835 1.6422052 1.3244648 1.8459852 1.1241995 0.47768486
00000000: 88a9 e43f 3218 b63f a919 9c3f 2956 0540
00000010: 35ef ae3f 169b fb3f b6f0 1640 f5e9 a93f
00000020: 0046 633f 7b61 973f cdc9 923f c833 d23f
00000030: 1088 a93f 3e49 ec3f c5e5 8f3f 1c93 f43e

layer1.1.bias f4 [16]
-1.9285121 -1.2779367 -1.6288526 0.060819842 -1.27708 -1.3177096 -0.8826864 -1.2503254
0.5445614 -0.62250197 -1.8705068 -1.297422 -1.4938005 -0.33924952 -0.5741939 -1.2257848
00000000: 7cd9 f6bf 6e93 a3bf 3e7e d0bf 3a1e 793d
00000010: 5c77 a3bf b5aa a8bf bcf7 61bf aa0a a0bf
00000020: 6068 0b3f 4a5c 1fbf c46c efbf ed11 a6bf
00000030: db34 bfbf 1db2 adbe 5ffe 12bf 84e6 9cbf

layer1.1.running_mean f4 [16]
-1.8301172 -5.4376307 5.199366 -1.650069 -3.2396498 -0.5879428 -1.1794745 4.321993
3.761564 1.4666988 0.04611763 -0.48994398 -5.06834 0.30315292 2.739807 -2.7031338
00000000: 4841 eabf 1201 aec0 3561 a640 7635 d3bf
00000010: 6c56 4fc0 6b83 16bf 05f9 96bf c44d 8a40
00000020: 77bd 7040 c9bc bb3f d7e5 3c3d f0d9 fabe
00000030: d72f a2c0 dc36 9b3e ff58 2f40 2500 2dc0

layer1.1.running_var f4 [16]
2.3182476 9.830562 7.231334 0.9807687 6.2378645 4.2632914 0.52977306 5.4302
3.3294718 1.6009057 1.1754601 2.9887671 10.877314 2.1219678 1.9787955 1.9185771
00000000: 2b5e 1440 fb49 1d41 1767 e740 a813 7b3f
00000010: 969c c740 e26c 8840 359f 073f 33c4 ad40
00000020: 1116 5540 7aea cc3f 7a75 963f f647 3f40
00000030: 7a09 2e41 52ce 0740 2c49 fd3f ef93 f53f

layer2.0.weight f4 [32, 16, 5, 5]
-3.1210456 -1.7559086 -1.0625695 -1.2114339 -0.6761836 -1.5909051 -1.7919743 -1.5385653
-1.9464729 -0.74535215 0.8631839 -0.6798856 -2.2004616 -1.5856243 1.2362986 1.4085107
-0.43116358 -1.7784735 -0.907971 0.54679847 -0.9361284 -1.7894517 -0.69503593 -0.050946176
0.87832856 -0.9400392 -0.85255575 -1.5628065 -0.73702604 0.10515908 0.6738609 -0.08721974
-1.5612888 -0.1815891 1.087315 0.48082113 0.19144678 -1.1339536 -1.5813732 -1.1431292
1.3930732 1.8091171 -0.28506514 -0.4977951 -0.85665 1.9103881 0.72062784 -1.263558
-1.2526782 -0.05386641 -0.47271737 2.3823516 -0.35906503 -0.25580904 -0.9089672 -1.3077651
0.1804159 -0.7473661 -0.4352209 -1.1660473 -0.61192185 0.11902802 -0.0037350778 -0.07240774
-1.3026149 -0.67924064 1.5490104 -0.809632 -0.111534834 -0.7268404 -0.48111102 0.23899215
-0.7776098 -1.276085 0.0495698 0.41942623 -0.26568925 -0.34157184 -0.5380809 -1.3045069
-1.1126838 -2.5698893 -2.8373003 -1.8433698 -0.29955631 1.1199884 0.62316966 -3.8339665
-3.2683046 0.63759726 0.6355493 0.8993001 -0.44995728 -0.10649888 0.7441011 0.12567858
1.1035388 -0.4054116 -0.7099731 1.3952535 -0.9598173 0.9924809 -0.7864752 -1.0202689
-1.2883779 -1.9686885 -0.1185945 -0.7864808 -1.1197889 -0.9902021 0.069929235 -0.36922735
-1.1771128 -1.5131848 -1.2115602 1.4791561 1.0685519 -0.7518147 -0.85175323 0.2553119
1.8755863 -0.74915195 -1.1194549 0.6564759 1.2656391 0.077977195 -1.0154425 -0.59568846
1.10564 0.5299964 0.44141605 0.0102928765 -0.9746019 -0.8014889 -0.087418124 -1.1818951
-0.09681365 -0.82270414 -0.37195164 -1.2366172 0.8752045 1.2131891 -1.6086698 -1.0712982
0.44837758 -0.45613864 0.6311375 0.35867748 -1.5753595 -0.446829 -1.0979215 2.5038233
0.3249042 0.80517805 0.9028863 -0.44666418 -3.140474 -0.93808913 -2.2746136 -2.3659253
1.2925268 1.0372719 -0.25427365 -3.603533 -0.63282394 0.39199167 1.2481318 -0.06525074
0.20766357 -0.29894593 0.27180558 -0.04428977 -1.080384 0.24556784 -0.1509807 0.854869
1.1872786 -0.94223475 0.5420287 0.027652698 -0.025106518 0.07882226 -0.4888253 -0.7580235
-1.3043365 -0.5110443 -0.39487055 -1.1561965 -0.22809687 -0.76284915 -1.5263988 -0.19548917
-0.56829137 0.13892514 0.46051076 -0.24158917 -0.37913615 -0.69994897 0.0642646 1.0032393
-0.9121315 -0.7862678 -0.82658744 -0.17870066 -0.47207394 -1.3073957 -1.1062402 0.6730527
0.39146492 0.29128963 -1.676091 -1.4341468 -0.16247375 0.036775853 0.65557957 -0.6408815
-0.7586669 -0.64252084 -0.61405593 0.018215515 -1.4546081 -0.21308577 0.28721032 0.11094627
-0.5470626 -1.7692819 -0.99156743 -0.6449076 1.0957628 0.30430925 0.028372012 -2.5474398
-0.8651403 0.5443084 -0.37292352 0.4920451 -0.07928927 -0.6210323 0.53697467 0.1556239
-1.0612806 -0.95031387 -1.3997179 0.2272099 0.36757296 -1.02453 -0.082092054 0.81986344
0.97393554 1.256919 0.50240093 -1.1779511 -0.12917817 -0.86590564 0.5374313 -0.88343954
00000000: 36bf 47c0 9dc1 e0bf 4702 88bf 4410 9bbf
00000010: 5e1a 2dbf c7a2 cbbf 6a5f e5bf b5ef c4bf
00000020: 0626 f9bf 66cf 3ebf 9ff9 5c3f fc0c 2ebf
00000030: 5dd4 0cc0 bdf5 cabf 083f 9e3f 144a b43f
00000040: 79c1 dcbe 05a5 e3bf ca70 68bf fcfa 0b3f
00000050: 1ca6 6fbf c10c e5bf e0ed 31bf f0ac 50bd
00000060: 24da 603f 69a6 70bf 1841 5abf 0b0a c8bf
00000070: bdad 3cbf a55d d73d 2682 2c3f 43a0 b2bd
00000080: 50d8 c7bf 7ef2 39be 232d 8b3f 302e f63e
00000090: a00a 443e 6425 91bf 706a cabf 0f52 92bf
000000a0: 3950 b23f 2691 e73f 0ff4 91be 00df febe
000000b0: 6a4d 5bbf 9987 f43f 117b 383f 45bc a1bf
000000c0: c257 a0bf 06a3 5cbd 0308 f2be 7378 1840
000000d0: 5fd7 b7be 67f9 82be 13b2 68bf d964 a7bf
000000e0: f2be 383e 6253 3fbf 46d5 debe 0a41 95bf
000000f0: e9a6 1cbf f6c4 f33d 35c8 74bb 824a 94bd
00000100: 16bc a6bf b7e2 2dbf f945 c63f 0b44 4fbf
00000110: 606c e4bd 3612 3abf 2f54 f6be 5cba 743e
00000120: 7011 47bf c156 a3bf b409 4b3d 09bf d63e
00000130: 6c08 88be 81e2 aebe abbf 09bf 15fa a6bf
00000140: 6c6c 8ebf 1179 24c0 5496 35c0 8bf3 ebbf
00000150: 725f 99be c85b 8f3f 0c88 1f3f b55f 75c0
00000160: e72b 51c0 9339 233f 5cb3 223f 8838 663f
00000170: cd60 e6be 161c dabd 697d 3e3f e3b1 003e
00000180: c240 8d3f 1c92 cfbe ccc0 35bf ab97 b23f
00000190: 96b6 75bf 3a13 7e3f 7056 49bf 2c98 82bf
000001a0: 91e9 a4bf fcfd fbbf ace1 f2bd ce56 49bf
000001b0: 3e55 8fbf e37d 7dbf 0f37 8f3d 5e0b bdbe
000001c0: a2ab 96bf 0ab0 c1bf 6814 9bbf fd54 bd3f
000001d0: 4fc6 883f ee76 40bf 800c 5abf 3eb8 823e
000001e0: 3613 f03f 6cc8 3fbf 4c4a 8fbf ce0e 283f
000001f0: 7600 a23f 82b2 9f3d 05fa 81bf 0a7f 18bf
00000200: 9d85 8d3f d8ad 073f 4901 e23e 74a3 283c
00000210: 837f 79bf 602e 4dbf 4608 b3bd 5748 97bf
00000220: 3c46 c6bd bd9c 52bf 7270 bebe 7949 9ebf
00000230: 670d 603f c849 9b3f e4e8 cdbf 4d20 89bf
00000240: bf91 e53e 018b e9be 3a92 213f 93a4 b73e
00000250: 61a5 c9bf c5c6 e4be b188 8cbf a43e 2040
00000260: d859 a63e 2620 4e3f 8e23 673f 2bb1 e4be
00000270: 87fd 48c0 9c26 70bf 4593 11c0 526b 17c0
00000280: 8571 a53f 53c5 843f 2830 82be 49a0 66c0
00000290: c000 22bf 22b3 c83e c8c2 9f3f 2ea2 85bd
000002a0: c2a5 543e 710f 99be 1a2a 8b3e 3169 35bd
000002b0: 064a 8abf 2376 7b3e af9a 1abe b2d8 5a3f
000002c0: bff8 973f 4c36 71bf 65c2 0a3f e987 e23c
000002d0: 2fac cdbc 916d a13d 4f47 fabe d40d 42bf
000002e0: 80f4 a6bf cdd3 02bf 792c cabe 3ffe 93bf
000002f0: 3a92 69be 154a 43bf 0961 c3bf 502e 48be
00000300: 8b7b 11bf 6442 0e3e 11c8 eb3e 2763 77be
00000310: 221e c2be db2f 33bf 299d 833d 256a 803f
00000320: 7381 69bf d948 49bf 3c9b 53bf 4efd 36be
00000330: adb3 f1be be58 a7bf 4799 8dbf 2f4d 2c3f
00000340: 176e c83e ea23 953e 268a d6bf 1f92 b7bf
00000350: 855f 26be 47a2 163d 10d4 273f cf10 24bf
00000360: fe37 42bf 3f7c 24bf c532 1dbf b438 953c
00000370: 9930 babf 2833 5abe 3b0d 933e cc37 e33d
00000380: 4b0c 0cbf d477 e2bf 5dd7 7dbf aa18 25bf
00000390: f541 8c3f 6cce 9b3e 6c6c e83c 4109 23c0
000003a0: d679 5dbf cc57 0b3f d5ef bebe 56ed fb3e
000003b0: 6a62 a2bd f9fb 1ebf 2c77 093f df5b 1f3e
000003c0: 0bd8 87bf c547 73bf f529 b3bf b6a9 683e
000003d0: 8632 bc3e cd23 83bf e11f a8bd 92e2 513f
000003e0: d753 793f b9e2 a03f 599d 003f 1ac7 96bf
000003f0: 4847 04be feab 5dbf 1995 093f 1829 62bf

layer2.0.bias f4 [32]
0.87116057 0.4319388 0.7072876 0.1929084 0.4435456 0.47873494 0.96388245 0.3013051
0.43062893 0.25515854 0.536023 -0.03354463 0.1955629 0.40354818 1.0519217 0.25443956
0.18916236 0.19695292 0.34290618 0.3485279 0.13229117 1.0764253 0.93312204 0.7518732
0.79063225 0.03198193 0.58962667 0.69023114 0.16890362 0.8655373 0.4611106 0.17242675
00000000: 6104 5f3f 1527 dd3e cd10 353f c889 453e
00000010: 6918 e33e bf1c f53e 00c1 763f a944 9a3e
00000020: 657b dc3e 24a4 823e ce38 093f 1866 09bd
00000030: a441 483e de9d ce3e 5fa5 863f e745 823e
00000040: c7b3 413e 07ae 493e 6691 af3e 4072 b23e
00000050: 5677 073e 4ec8 893f 16e1 6e3f c37a 403f
00000060: e066 4a3f 7cff 023d c6f1 163f fdb2 303f
00000070: 12f5 2c3e da93 5d3f b016 ec3e a390 303e

layer2.1.weight f4 [32]
0.43968332 0.38209233 0.47011304 0.26864558 0.22420615 0.4383505 0.5367915 0.14227194
0.34544447 0.22648065 0.39605916 0.56672746 0.17639042 0.5548751 0.5251079 0.7235966
0.21059252 0.28662583 0.61701936 0.43926308 0.1682578 0.5471711 0.44776317 0.36751646
0.59741795 0.27196413 0.5288067 0.4909798 0.27096218 0.4379528 0.38162628 0.2535691
00000000: 2c1e e13e 9ba1 c33e a8b2 f03e ea8b 893e
00000010: 4c96 653e 7a6f e03e 2b6b 093f bcaf 113e
00000020: 19de b03e 8bea 673e 44c8 ca3e 0d15 113f
00000030: b19f 343e 4b0c 0e3f 796d 063f a03d 393f
00000040: 91a5 573e 9fc0 923e fbf4 1d3f 17e7 e03e
00000050: c64b 2c3e 6813 0c3f 3741 e53e 1e2b bc3e
00000060: 62f0 183f e23e 8b3e e05f 073f b461 fb3e
00000070: 8ebb 8a3e 593b e03e 8564 c33e cfd3 813e

layer2.1.bias f4 [32]
-0.4381952 -0.35434222 -0.53089976 -0.7322961 -0.6869979 -0.6044946 -0.58959603 -0.8243952
-0.4917391 -0.76534355 -0.41872525 -1.4882199 -0.9085395 -0.97055197 -0.58942336 -1.2365524
-0.76636624 -0.6258959 -0.8501546 -0.5388845 -0.5734798 -0.7073017 -0.5634346 -0.4226811
-0.88430226 -0.6508736 -0.8370046 -0.62206876 -0.68851686 -0.44134128 -0.43131658 -0.8235452
00000000: 1f5b e0be 586c b5be 0ce9 07bf c277 3bbf
00000010: 18df 2fbf 28c0 1abf c4ef 16bf 900b 53bf
00000020: 3ac5 fbbe 8eed 43bf 2863 d6be fd7d bebf
00000030: 0b96 68bf 1876 78bf 73e4 16bf 5947 9ebf
00000040: 9430 44bf b73a 20bf bba3 59bf 56f4 09bf
00000050: 92cf 12bf b911 35bf 403d 10bf a869 d8be
00000060: a261 62bf a79f 26bf ef45 56bf e63f 1fbf
00000070: a442 30bf 7cf7 e1be 87d5 dcbe dcd3 52bf

layer2.1.running_mean f4 [32]
-53.86544 -31.844286 -36.76138 -32.67008 -15.427102 -30.914097 -39.610348 -21.855127
-30.025846 -21.85641 -26.736912 -30.31978 -27.060455 -35.18223 -44.694866 -44.748398
-12.338476 -13.281758 -37.016205 -56.76034 -27.438217 -33.251087 -27.481415 -34.27046
-26.8777 -16.983524 -33.53195 -39.815216 -19.143139 -56.9748 -40.383953 -26.876087
00000000: 3676 57c2 19c1 fec1 a70b 13c2 29ae 02c2
00000010: 69d5 76c1 1250 f7c1 ff70 1ec2 4dd7 aec1
00000020: ef34 f0c1 edd9 aec1 32e5 d5c1 e98e f2c1
00000030: d07b d8c1 9bba 0cc2 8bc7 32c2 5cfe 32c2
00000040: 666a 45c1 1582 54c1 9810 14c2 970a 63c2
00000050: 7881 dbc1 1d01 05c2 f0d9 dbc1 f314 09c2
00000060: 8805 d7c1 42de 87c1 b820 06c2 c842 1fc2
00000070: 2625 99c1 32e6 63c2 2b89 21c2 3a02 d7c1

layer2.1.running_var f4 [32]
1760.3995 1597.1089 1260.426 404.97763 120.820076 1025.707 1473.775 221.55463
956.9636 225.75311 1091.2405 1790.7649 464.92346 1328.0162 1435.8854 1683.8121
134.23131 83.08544 1680.8232 1803.0636 409.90292 1175.1606 952.8137 1265.4752
833.13385 114.70182 1422.4066 1157.0984 145.71295 2009.4214 1568.0493 342.83563
00000000: c90c dc44 7ca3 c744 a28d 9d44 237d ca43
00000010: e1a3 f142 a036 8044 cd38 b844 fc8d 5d43
00000020: ac3d 6f44 ccc0 6143 b267 8844 7ad8 df44
00000030: 3476 e843 8500 a644 557c b344 fd79 d244
00000040: 373b 0643 bf2b a642 581a d244 0962 e144
00000050: 93f3 cc43 24e5 9244 1434 6e44 352f 9e44
00000060: 9148 5044 5567 e542 03cd b144 26a3 9044
00000070: 84b6 1143 7c2d fb44 9401 c444 f66a ab43

fc.weight f4 [7, 4608]
-0.73447883 0.14851376 0.6692188 1.1425425 1.4961451 -1.0506895 -1.3688451 0.81357735
-1.0698348 -0.11172125 0.052501865 -0.23953788 0.741205 -0.17676902 -0.6477633 0.005379143
-0.10288797 0.02405557 0.81773907 0.29474398 0.4579831 0.1326005 -1.0561917 -0.4585343
0.7569407 0.3019058 0.7753102 0.22084789 -0.42791235 0.117738806 -0.36635378 -0.44871384
-0.6380245 -1.1914701 -0.14803115 0.10802441 0.17344077 0.16103208 -1.0553211 0.5171663
0.5084706 -0.90621316 -0.6702796 1.2081883 -0.6489557 -0.6782228 0.32757795 -1.3990418
-0.07406681 0.077691354 -0.48803827 -0.6434494 -0.09997048 -0.06873936 0.9595895 -0.9149109
-0.4255122 -0.6900046 0.19962355 0.046752013 0.19639635 1.2047433 0.56821674 0.16829504
1.0190892 0.46295992 0.08163085 -0.7416715 0.022219317 -0.36984447 0.46729165 0.4133045
-0.15518066 0.032300636 -0.5683373 0.42331016 -0.0958582 1.3556325 -0.4576602 -0.019276386
0.5633196 0.91563964 -0.19843245 1.5792394 -0.42143473 0.27544504 0.72821724 -0.1574218
1.3135895 -1.0592424 0.55373436 0.015874656 1.319933 -0.52405065 0.12305746 0.014259489
1.5682968 -0.04110765 0.36504698 0.1342358 1.5532548 -0.06056126 -0.72086334 0.36572933
0.9085622 0.42549118 -0.0015647761 -0.7771941 -0.26081282 1.0038867 -0.57358336 0.3194746
-0.5029308 0.17411071 0.18881886 0.51610684 1.3164916 0.9691148 0.61383176 0.92933977
-0.999451 -0.34646505 -0.4371705 -1.1710829 0.60533166 -1.1318034 0.8591019 0.52837086
0.43161988 -0.37505403 -0.13094544 0.043592364 -0.78234494 0.59118056 -0.6668893 0.115831316
-0.46727574 0.14348744 -0.32544145 -1.0544338 0.53876126 -0.4686212 -0.8245996 -0.24332492
0.028043311 -0.073808916 0.276462 0.21848758 1.4996682 -1.2388101 0.81161916 1.4523501
0.5567242 1.385314 -0.83697665 -1.7051308 0.812948 -0.021471916 1.5971023 -0.004249955
1.3150896 0.504497 0.5472105 1.9359647 0.21229964 0.57005435 0.31066456 2.0756366
-0.107243866 0.23581389 0.44412386 0.5874547 0.85985994 0.02748904 0.9525439 0.65506107
0.6861785 0.88763946 0.8487744 -0.35312167 0.027566047 -1.2786845 -0.03476863 1.7477034
1.1454617 -0.22684792 0.14139305 0.9057347 0.3528141 1.0482434 0.47719762 -0.8881184
1.401054 0.029531065 0.14538012 1.0215224 0.98711 -0.39205858 1.2139916 0.40330872
0.025476096 2.0191762 -1.3702971 0.23191097 1.3074923 0.01950152 0.015854262 0.37610605
0.08287471 -0.83034366 0.5204422 0.036393628 -0.05101793 0.091184646 -0.8331993 1.9211642
0.85172105 -2.0909731 -0.7675695 -0.22738816 -1.1832576 -0.6160048 0.663976 -0.5607188
-1.2844753 0.010648202 -0.9612611 -1.5796076 1.2884573 0.16567664 -0.5043562 -1.8798685
-0.8580352 0.080470316 -0.83157575 -1.3319961 -1.6686776 -0.09601199 -1.0667582 0.8783211
0.5349136 -1.887443 -0.86047745 -1.1418931 -1.0981507 -1.1940138 -0.4974329 -2.609939
-0.9743901 -0.0038190281 0.088724285 0.44540828 -0.5603065 0.1888485 -0.29764354 0.29785332
00000000: ce06 3cbf fe13 183e ec51 2b3f d53e 923f
00000010: af81 bf3f fe7c 86bf 5136 afbf 9b46 503f
00000020: 59f0 88bf 1cce e4bd 320c 573d 6b49 75be
00000030: 9cbf 3d3f f002 35be d1d3 25bf 8643 b03b
00000040: eeb6 d2bd 3010 c53c 5957 513f afe8 963e
00000050: c37c ea3e 6dc8 073e 4a31 87bf 02c5 eabe
00000060: dec6 413f 6693 9a3e bb7a 463f f325 623e
00000070: 5417 dbbe 0b21 f13d b992 bbbe d2bd e5be
00000080: 9355 23bf 1882 98bf 7a95 17be e73b dd3d
00000090: 759a 313e 98e5 243e c314 87bf 0365 043f
000000a0: 212b 023f 96fd 67bf 7297 2bbf eaa5 9a3f
000000b0: f621 26bf 02a0 2dbf 4cb8 a73e cd13 b3bf
000000c0: 57b0 97bd a51c 9f3d 27e0 f9be 1ab9 24bf
000000d0: 53bd ccbd 39c7 8cbd a8a7 753f 9a37 6abf
000000e0: bcdc d9be 24a4 30bf 1e6a 4c3e 0a7f 3f3d
000000f0: 201c 493e 0735 9a3f a776 113f 8955 2c3e
00000100: 8471 823f 1509 ed3e 132e a73d 2fde 3dbf
00000110: 4905 b63c 415c bdbe da40 ef3e a69c d33e
00000120: aee7 1ebe ac4d 043d 8e7e 11bf 1cbc d83e
00000130: 4e51 c4bd 5e85 ad3f 7052 eabe 83e9 9dbc
00000140: b735 103f 5c67 6a3f e031 4bbe 8424 ca3f
00000150: 4bc6 d7be 2207 8d3e 726c 3a3f 2e33 21be
00000160: b323 a83f 4195 87bf 89c1 0d3f 910b 823c
00000170: 91f3 a83f 2f28 06bf 8d05 fc3d a2a0 693c
00000180: f3bd c83f 7f60 28bd 70e7 ba3e 1c75 093e
00000190: 0ed1 c63f 150f 78bd 808a 38bf e040 bb3e
000001a0: 8897 683f fbd9 d93e 2c19 cdba 31f6 46bf
000001b0: 4289 85be 5c7f 803f 5cd6 12bf 2d92 a33e
000001c0: 13c0 00bf 144a 323e bb59 413e 941f 043f
000001d0: cc82 a83f e817 783f 1424 1d3f 36e9 6d3f
000001e0: 05dc 7fbf de63 b1be d0d4 dfbe 0be6 95bf
000001f0: 04f7 1a3f efde 90bf 1aee 5b3f 5043 073f
00000200: 48fd dc3e 1507 c0be 9016 06be e88d 323d
00000210: c247 48bf 9c57 173f 42b9 2abf f838 ed3d
00000220: c43e efbe 5fee 123e 43a0 a6be b0f7 86bf
00000230: 42ec 093f 1eef efbe f618 53bf 2b2a 79be
00000240: 16bb e53c 2129 97bd 6d8c 8d3e 35bb 5f3e
00000250: 21f5 bf3f 5491 9ebf 46c6 4f3f 9ce6 b93f
00000260: 7a85 0e3f f851 b13f 1a44 56bf ba41 dabf
00000270: 5c1d 503f dfe5 afbc d96d cc3f 3543 8bbb
00000280: db54 a83f b726 013f fd15 0c3f b1cd f73f
00000290: 1465 593e 15ef 113f 6d0f 9f3e 3bd7 0440
000002a0: aca2 dbbd 3279 713e 3464 e33e 6e63 163f
000002b0: c81f 5c3f b230 e13c ebd9 733f 15b2 273f
000002c0: 65a9 2f3f 573c 633f 4749 593f 5dcc b4be
000002d0: 31d2 e13c efab a3bf 8d69 0ebd bfb4 df3f
000002e0: 7d9e 923f d24a 68be 57c9 103e 3bde 673f
000002f0: 0da4 b43e d72c 863f 3f53 f43e ba5b 63bf
00000300: bd55 b33f 22eb f13c 87de 143e 3fc1 823f
00000310: 3eb3 7c3f e7bb c8be 1464 9b3f 7b7e ce3e
00000320: 3fb3 d03c 2f3a 0140 e565 afbf 127a 6d3e
00000330: e85b a73f a7c1 9f3c cce0 813c f990 c03e
00000340: 37ba a93d 6791 54bf b33b 053f 7c11 153d
00000350: 2df8 50bd 04bf ba3d 8d4c 55bf b5e8 f53f
00000360: 640a 5a3f 81d2 05c0 6f7f 44bf 71d8 68be
00000370: fc74 97bf 7eb2 1dbf 55fa 293f 448b 0fbf
00000380: b069 a4bf cc75 2e3c 3515 76bf 9530 cabf
00000390: 2bec a43f 23a7 293e 7d1d 01bf 889f f0bf
000003a0: 32a8 5bbf 9fcd a43d 26e2 54bf d97e aabf
000003b0: 3a97 d5bf efa1 c4bd 888b 88bf a7d9 603f
000003c0: 19f0 083f bb97 f1bf 4048 5cbf 8e29 92bf
000003d0: 3490 8cbf 72d5 98bf 86af febe 3e09 27c0
000003e0: a171 79bf a948 7abb 14b5 b53d 8e0c e43e
000003f0: 3f70 0fbf 8061 413e bc64 98be 3b80 983e

fc.bias f4 [7]
-0.052125465 -1.7313443 0.12739384 0.14221266 0.21395989 0.78137624 -0.990389
00000000: 8381 55bd b19c ddbf 8873 023e 32a0 113e
00000010: 4d18 5b3e 4608 483f 228a 7dbf
