FaceExpressions_CNN/savemodel/model_24.pth (torch_old, 185408 bytes, 14 tensors)

layer1.0.weight f4 [16, 1, 5, 5]
0.8305911 1.2430284 2.7968152 1.9262286 2.0322976 2.4425151 -0.17429426 -0.17653012
-0.08321913 -0.032601338 0.8637352 -1.4580402 -1.8088263 -3.7614996 -4.935525 1.1606461
-0.85588926 -0.2535023 -2.0896254 -1.8046024 0.36713135 -1.6826073 1.4539113 0.2090752
1.181803 -0.8948983 -1.5348324 -0.17216617 1.9103223 2.3856988 -0.42782274 -0.99845606
0.036636367 0.61401665 -0.08356618 -1.2443093 -1.0464473 -0.6707847 -2.1403127 -1.7262989
-4.378353 -2.405419 -2.339337 -3.805337 0.6977721 0.87113374 -0.007512444 -0.12057743
0.2669184 0.73416376 -1.9075919 -0.8625058 1.1146528 0.10732273 -2.2829003 0.48335844
2.3770347 1.4886844 3.5704255 0.46383265 0.24907817 2.7855396 0.73697066 4.021644
0.75213766 -2.590754 1.0597838 0.4472419 4.0098596 0.27754337 -1.1620079 0.098912925
0.437007 -0.14934456 -1.9233974 2.649403 0.7852806 -1.713587 -0.21466841 0.09643122
2.1191502 -3.3287473 -2.2582672 0.21807359 0.102366745 -1.9230177 -4.5840106 0.18060052
-0.39910728 -1.9223439 -1.553234 1.4125205 2.2482176 1.8089097 1.5968057 0.32252035
1.466685 0.18353906 0.34647715 1.2702565 1.1986828 -0.41640794 -1.543499 -2.4406548
0.9417624 0.7765968 -1.0325875 0.27991617 -1.4859129 -2.2732325 -1.8491743 -0.20936246
0.7872711 -2.8438632 -3.8420732 0.8372058 0.733428 -0.9713607 -2.264833 -2.0388372
2.8536534 3.1757007 0.88051474 1.2259309 1.002308 -0.99326456 -3.8261893 -4.2563653
-1.7908789 -0.8959516 0.35949743 -0.8371764 -1.4025681 -1.3644236 -1.8632555 0.12820864
0.5293917 1.4340545 1.8448498 -0.85819197 -0.54352367 0.34329367 1.7869586 0.9940517
1.227586 3.0132995 1.3110827 1.5946898 0.594087 3.0111022 0.44170344 -1.2662768
-0.6209629 1.66738 0.43285242 0.88035804 -0.53178066 -2.9807198 0.102932274 3.1236205
0.7651643 1.6439192 -3.500072 -3.339444 2.3096771 -0.29762727 2.222744 0.99370015
-3.036437 -1.0805323 -0.33893275 0.4524249 1.7699155 0.17046726 -0.16686007 -0.3002976
-0.30387416 -2.3902977 -1.2966564 -1.217213 -1.2295946 0.24880724 -0.5798135 0.54507744
0.39116314 -1.4579597 4.5603824 4.566365 4.50816 2.1102898 -0.593709 1.8755323
0.165126 2.2836556 -2.0742013 1.5462162 0.6456546 -0.006741328 1.039291 -2.1741602
-1.0336719 -0.388754 -0.47008276 -2.3037786 -1.613933 1.0285242 -0.060781095 -0.5703659
-0.6062401 1.9865171 0.613675 1.7704103 1.0212972 2.51459 -0.6990667 0.009670216
2.5229945 2.2870255 2.2117422 -3.519381 0.4213586 1.0285004 1.8323691 1.4141824
-3.6514218 0.44592404 -1.5199003 -0.33635566 -0.16988948 0.5450183 -1.0440763 -1.2726324
3.0519288 1.6454102 0.63243526 0.22387783 0.83665997 4.8398566 0.15495458 -2.6217358
-0.9693436 2.1610556 4.099234 -1.5775443 -3.343221 -1.4754246 -0.30683145 0.47626686
-0.48901656 -1.1563096 2.0502121 0.70832217 -2.1779175 -0.97520834 1.5904219 -0.04460357
00000000: 9ea1 543f 8e1b 9f3f 05ff 3240 a98e f63f
00000010: 2a11 0240 2b52 1c40 327a 32be 50c4 34be
00000020: cb6e aabd fb88 05bd c01d 5d3f 10a1 babf
00000030: 9f87 e7bf 69bc 70c0 d2ef 9dc0 0d90 943f
00000040: 8f1b 5bbf 0ecb 81be 6cbc 05c0 36fd e6bf
00000050: a4f8 bb3e ad5f d7bf c419 ba3f cf17 563e
00000060: 5245 973f 0e18 65bf 6375 c4bf 544c 30be
00000070: 7185 f43f 4aaf 1840 950b dbbe d19a 7fbf
00000080: 0410 163d 3230 1d3f bf24 abbd 8745 9fbf
00000090: fcf1 85bf 8cb8 2bbf e2fa 08c0 5df7 dcbf
000000a0: 781b 8cc0 63f2 19c0 b3b7 15c0 a48a 73c0
000000b0: 31a1 323f 9f02 5f3f f32a f6bb 4df1 f6bd
000000c0: 87a9 883e 28f2 3b3f f92b f4bf 2ecd 5cbf
000000d0: f1ac 8e3f 05cc db3d 0a1b 12c0 c27a f73e
000000e0: 5621 1840 368d be3f da81 6440 797b ed3e
000000f0: 590e 7f3e 4846 3240 1caa 3c3f 4fb1 8040
00000100: 188c 403f eace 25c0 ffa6 873f e4fc e43e
00000110: c550 8040 2a1a 8e3e adbc 94bf dc92 ca3d
00000120: 62bf df3e c8ed 18be e331 f6bf d28f 2940
00000130: 2608 493f d256 dbbf 09d2 5bbe bb7d c53d
00000140: 28a0 0740 320a 55c0 7387 10c0 af4e 5f3e
00000150: a8a5 d13d 7225 f6bf 37b0 92c0 58ef 383e
00000160: ca57 ccbe 5d0f f6bf 5fd0 c6bf 79cd b43f
00000170: cce2 0f40 5a8a e73f 2164 cc3f 6321 a53e
00000180: 56bc bb3f aaf1 3b3e 7465 b13e c497 a23f
00000190: 706e 993f 6c33 d5be 6091 c5bf b033 1cc0
000001a0: 5717 713f 0ccf 463f d42b 84bf 2c51 8f3e
000001b0: 6532 bebf a47c 11c0 beb1 ecbf 1d63 56be
000001c0: 998a 493f db01 36c0 87e4 75c0 1f53 563f
000001d0: f0c1 3b3f 18ab 78bf 06f3 10c0 4f7c 02c0
000001e0: 42a2 3640 ae3e 4b40 6a69 613f 4eeb 9c3f
000001f0: a14b 803f 9646 7ebf 49e0 74c0 2534 88c0
00000200: 853b e5bf 165d 65bf 0c10 b83e 3151 56bf
00000210: 5a87 b3bf 6fa5 aebf 287f eebf 2049 033e
00000220: 3786 073f 198f b73f 0a24 ec3f 78b2 5bbf
00000230: 5e24 0bbf 30c4 af3e 0fbb e43f 2c7a 7e3f
00000240: 8a21 9d3f e6d9 4040 8fd1 a73f cc1e cc3f
00000250: 1616 183f e6b5 4040 f426 e23e 5c15 a2bf
00000260: 6df7 1ebf b56c d53f d59e dd3e 255f 613f
00000270: c722 08bf 1dc4 3ec0 28ce d23d 66e9 4740
00000280: cfe1 433f f26b d23f 2e01 60c0 73b9 55c0
00000290: c0d1 1340 9a62 98be 7041 0e40 2263 7e3f
000002a0: fc54 42c0 e24e 8abf 9888 adbe 3da4 e73e
000002b0: 978c e23f f88e 2e3e 5edd 2abe 9bc0 99be
000002c0: 6595 9bbe a3fa 18c0 d6f8 a5bf a3cd 9bbf
000002d0: 5b63 9dbf 53c7 7e3e a86e 14bf 328a 0b3f
000002e0: 8946 c83e 6c9e babf a7ee 9140 a91f 9240
000002f0: d942 9040 fd0e 0740 50fd 17bf 7111 f03f
00000300: ca16 293e 6a27 1240 b7bf 04c0 6aea c53f
00000310: 9f49 253f 5ce6 dcbb 7d07 853f 7125 0bc0
00000320: 5c4f 84bf c40a c7be b0ae f0be 1c71 13c0
00000330: 5b95 cebf aea6 833f 99f5 78bd 8003 12bf
00000340: 8d32 1bbf 3146 fe3f ce19 1d3f ce9c e23f
00000350: deb9 823f 0bef 2040 09f6 32bf d36f 1e3c
00000360: be78 2140 a05e 1240 2f8d 0d40 8a3d 61c0
00000370: 50bc d73e e7a5 833f 128b ea3f ee03 b53f
00000380: e5b0 69c0 2850 e43e 188c c2bf cf36 acbe
00000390: 82f7 2dbe 5286 0b3f 4ba4 85bf 9ee5 a2bf
000003a0: cd52 4340 cd9c d23f 47e7 213f 3b40 653e
000003b0: 592f 563f 1be0 9a40 6aac 1e3e 85ca 27c0
000003c0: e726 78bf bc4e 0a40 ed2c 8340 f9ec c9bf
000003d0: 55f7 55c0 b7da bcbf 0319 9dbe 40d9 f33e
000003e0: 6160 fabe f401 94bf ad36 0340 9a54 353f
000003f0: 0063 0bc0 41a7 79bf f292 cb3f 3cb2 36bd

layer1.0.bias f4 [16]
-1.2547965 2.547185 -0.14209488 -0.020312645 1.551933 -1.7083621 -0.15897895 0.5232722
0.29597598 0.4993577 0.14752747 -0.39442265 1.0052993 0.20344959 1.6873528 0.19809988
00000000: 2c9d a0bf 1405 2340 5281 11be b466 a6bc
00000010: bea5 c63f 9cab dabf 61cb 22be 2bf5 053f
00000020: 2a8a 973e d0ab ff3e 7111 173e c4f1 c9be
00000030: a6ad 803f 1755 503e 2dfb d73f b2da 4a3e

layer1.1.weight f4 [16]
2.46582 2.0362117 2.2135818 2.2770889 1.8979448 2.604444 2.5142941 2.0979605
1.1211447 1.6165847 1.9504248 2.255835 2.3335946 2.2722158 1.5876088 0.3668706
00000000: ffcf 1d40 4b51 0240 53ab 0d40 d3bb 1140
00000010: dbef f23f 36af 2640 32ea 2040 fc44 0640
00000020: ab81 8f3f 3fec ce3f 85a7 f93f 9a5f 1040
00000030: 9d59 1540 fc6b 1140 c436 cb3f 77d6 bb3e

layer1.1.bias f4 [16]
-2.6448822 -1.7291481 -2.7054813 -0.030351892 -1.5244104 -1.7938608 -0.9172504 -1.7184905
0.59018844 -0.71957356 -2.9243698 -1.5536226 -2.7364354 -0.31280214 -0.7909638 -1.3687358
00000000: c045 29c0 ba54 ddbf 9b26 2dc0 88a4 f8bc
00000010: e11f c3bf 3b9d e5bf ecd0 6abf 7ff7 dbbf
00000020: 9716 173f f935 38bf e028 3bc0 1bdd c6bf
00000030: c221 2fc0 9a27 a0be 9b7c 4abf bc32 afbf

layer1.1.running_mean f4 [16]
-2.5377831 -5.637282 6.739221 -0.6329755 -2.5744152 -2.1476517 -0.3200957 6.042744
3.5033867 2.072453 0.2878042 -0.46053535 -6.59849 -0.026438983 2.4461594 -3.6903937
00000000: 0a6b 22c0 9d64 b4c0 b3a7 d740 af0a 22bf
00000010: 38c3 24c0 2073 09c0 95e3 a3be 295e c140
00000020: 7d37 6040 12a3 0440 125b 933e 4acb ebbe
00000030: d526 d3c0 9196 d8bc e08d 1c40 692f 6cc0

layer1.1.running_var f4 [16]
4.303145 16.180851 12.471347 1.8438202 8.75357 7.5967784 1.009936 8.803068
5.0770483 2.7444541 1.9650245 6.1537433 20.191809 4.0973325 1.9222163 3.1929028
00000000: 5db3 8940 6272 8141 a38a 4741 4d02 ec3f
00000010: 9f0e 0c41 cf18 f340 9545 813f 5ed9 0c41
00000020: 2e77 a240 23a5 2f40 ec85 fb3f 77eb c440
00000030: d388 a141 591d 8340 2f0b f63f 8558 4c40

layer2.0.weight f4 [32, 16, 5, 5]
-4.0178046 -2.9100819 -0.9241185 -2.8872755 -1.3451726 -3.8351479 -2.13218 -1.2174225
-3.6271021 0.34202617 1.3885254 -0.33238187 -1.7373192 -0.7452535 2.495481 0.72985065
-0.9329663 -0.5650384 -0.21566729 -0.24844056 -1.8232313 -2.2354505 0.25398678 -0.86630195
1.3477575 -2.6911073 -0.65678394 -2.8493237 -1.6168447 0.30828947 -0.2154289 0.42636183
-1.6503898 0.67446524 4.112643 0.20586602 1.1303958 -0.8037816 -2.8965628 -0.298227
0.84039694 2.6823072 1.5592514 -1.1228352 -0.84183663 2.4273913 0.7175231 -2.1210315
-2.7679875 0.63295585 -0.13433729 4.906298 -1.0554162 -0.5034038 -1.5336415 -0.76707613
0.30755812 -2.8499827 -0.49573883 -0.55936974 -1.7909315 0.91658574 -0.0012802287 -0.35415268
-1.2004725 -0.8415273 2.3504374 -0.18449241 0.7615278 -0.34748372 -1.1692387 -0.94555694
-0.7244084 -2.2339087 -1.9920549 0.99690664 -0.63703674 -0.93689126 -0.1749471 -2.0289693
-1.3701178 -3.568751 -4.2521296 -1.5777498 -0.16801648 2.4608855 0.86309385 -5.921416
-4.5355616 0.09967623 0.7628481 1.3365406 -1.3635131 0.19719088 0.30753067 0.4135145
1.5172867 -1.0695691 -0.67077976 1.196629 -0.45869353 1.701826 -1.3145401 -0.53272384
-1.4102383 -2.1426737 -1.8094904 -1.7591197 -1.4288706 -1.4030054 -1.159204 -0.8729181
-1.1965004 -1.0167135 -1.9577503 1.2261922 2.636886 -0.89400357 -1.0521184 -0.22692442
2.6309865 -0.9960255 -1.1952245 1.6508536 1.2615063 0.09491313 -1.7081752 -1.6530154
1.0794514 1.1631719 1.0313619 -0.2829831 -1.434145 -0.8813378 0.51890886 -1.7109205
1.2721676 -0.07785764 0.7683975 -1.0085722 0.8007054 1.0626367 -3.8767438 -1.5077794
1.5043048 -0.848271 0.85098755 0.1621271 -2.8113048 -0.33759066 -2.106929 4.0323186
-0.21001552 0.6734323 1.2517073 -0.10278273 -5.7459164 -1.3159736 -0.94768375 -4.7327013
2.4012349 1.2405311 -1.8238003 -4.758559 0.46480364 1.0410794 1.7424428 0.0024536266
1.0546428 -0.6223659 0.9771156 0.25418466 -1.6699244 0.46103904 -0.4163117 0.9817306
0.7809519 -2.1055555 1.3589423 0.62445253 1.6451534 0.8998471 -0.2299541 -0.8493132
-2.2629402 -3.4134152 -1.8299286 -1.1101118 -0.7851873 -1.2316636 -1.9531212 -0.41706207
-0.82805014 0.27415907 1.637334 0.15988381 0.037383817 -0.30481055 1.0951128 2.7499685
-0.8893782 -1.0471493 -0.62068915 0.6123314 -0.5250643 -1.1494817 -2.1833978 1.4155102
0.9793866 0.21289338 -2.664869 -2.4249053 -0.4198084 0.61258054 0.8904683 -1.3687098
-0.7717916 -1.3974732 -1.3344188 0.38132805 -2.1572564 0.094890386 1.051122 0.27738076
-0.6281694 -1.4444749 -1.4386704 -0.7895621 2.4232154 -0.6231741 0.52418125 -4.212304
-0.08583439 0.4344933 -0.32523558 -0.2169198 -0.5176826 -0.5404425 1.354539 0.60178
-3.3308473 -3.0130026 -1.7988443 0.0430573 1.701322 -1.988513 0.5696934 1.5161995
0.12687814 1.1685688 3.2815566 -3.1113484 0.45719087 -1.826343 0.04647116 -1.020514
00000000: db91 80c0 c83e 3ac0 0893 6cbf 1fc9 38c0
00000010: 9e2e acbf 1073 75c0 a375 08c0 80d4 9bbf
00000020: 7122 68c0 0e1e af3e 33bb b13f f52d aabe
00000030: 7a60 debf efc8 3ebf f6b5 1f40 7ed7 3a3f
00000040: e1d6 6ebf 5ba6 10bf e3d7 5cbe 3467 7ebe
00000050: a55f e9bf 9f11 0fc0 8e0a 823e f7c5 5dbf
00000060: 5183 ac3f 1a3b 2cc0 fe22 28bf 525b 36c0
00000070: c4f4 cebf 1ed8 9d3e 6599 5cbe 194c da3e
00000080: f93f d3bf c1a9 2c3f c59a 8340 8bce 523e
00000090: cfb0 903f a2c4 4dbf 4961 39c0 36b1 98be
000000a0: 4124 573f ecaa 2b40 8d95 c73f 10b9 8fbf
000000b0: 9b82 57bf 615a 1b40 98af 373f fbbe 07c0
000000c0: b526 31c0 6509 223f b78f 09be 6500 9d40
000000d0: e117 87bf 12df 00bf 5d4e c4bf 1a5f 44bf
000000e0: 4278 9d3e 1e66 36c0 7bd1 fdbe db32 0fbf
000000f0: 3e3d e5bf 5da5 6a3f 59cd a7ba 8053 b5be
00000100: 15a9 99bf 556e 57bf 916d 1640 94eb 3cbe
00000110: 7cf3 423f 63e9 b1be 9da9 95bf 0510 72bf
00000120: d472 39bf 5cf8 0ec0 a8fb febf 4635 7f3f
00000130: d714 23bf 1bd8 6fbf 5525 33be a2da 01c0
00000140: 0560 afbf 6b66 64c0 7211 88c0 b5f3 c9bf
00000150: 830c 2cbe 267f 1d40 b8f3 5c3f 3d7c bdc0
00000160: 5223 91c0 0d23 cc3d 034a 433f c313 ab3f
00000170: 9987 aebf 68ec 493e a974 9d3e 2cb8 d33e
00000180: 7336 c23f a4e7 88bf 39b8 2bbf 242b 993f
00000190: e1d9 eabe 6fd5 d93f da42 a8bf 9760 08bf
000001a0: b082 b4bf 9121 09c0 629d e7bf d62a e1bf
000001b0: 3be5 b6bf ae95 b3bf cc60 94bf 9077 5fbf
000001c0: ed26 99bf ab23 82bf 9097 fabf def3 9c3f
000001d0: bdc2 2840 6bdd 64bf d1ab 86bf e05e 68be
000001e0: 1562 2840 87fb 7ebf 1efd 98bf 2c4f d33f
000001f0: 0a79 a13f d161 c23d 7ca5 dabf 0296 d3bf
00000200: 772b 8a3f d1e2 943f ab03 843f 29e3 90be
00000210: 1092 b7bf 5b9f 61bf 36d7 043f 71ff dabf
00000220: 63d6 a23f d473 9fbd b3b5 443f e518 81bf
00000230: 07fb 4c3f 7b04 883f 921c 78c0 eafe c0bf
00000240: 0f8d c03f 4a28 59bf 52da 593f a604 263e
00000250: 6bec 33c0 afd8 acbe edd7 06c0 c108 8140
00000260: 4f0e 57be 0f66 2c3f f237 a03f c07f d2bd
00000270: 8cde b7c0 d371 a8bf 679b 72bf 4a72 97c0
00000280: d5ad 1940 b9c9 9e3f 4a72 e9bf 1e46 98c0
00000290: befa ed3e 1742 853f 5e08 df3f 06cd 203b
000002a0: 89fe 863f 5f53 1fbf 3f24 7a3f 7e24 823e
000002b0: 15c0 d5bf 4f0d ec3e cf26 d5be b252 7b3f
000002c0: 77ec 473f 6cc1 06c0 d2f1 ad3f 1fdc 1f3f
000002d0: 6394 d23f 615c 663f 1679 6bbe 976c 59bf
000002e0: 03d4 10c0 6575 5ac0 1a3b eabf 2518 8ebf
000002f0: 0902 49bf 27a7 9dbf e0ff f9bf 2989 d5be
00000300: 18fb 53bf 945e 8c3e 2994 d13f 95b8 233e
00000310: c61f 193d 2110 9cbe a82c 8c3f 7cff 2f40
00000320: 4aae 63bf fd08 86bf 7ce5 1ebf c0c1 1c3f
00000330: 9d6a 06bf 3722 93bf cabc 0bc0 702f b53f
00000340: 15b9 7a3f b900 5a3e 378d 2ac0 a631 1bc0
00000350: 20f1 d6be 14d2 1c3f bbf5 633f e231 afbf
00000360: 2294 45bf 67e0 b2bf 3cce aabf 6e3d c33e
00000370: 7d10 0ac0 e455 c23d 2a8b 863f da04 8e3e
00000380: b6cf 20bf 8ee4 b8bf 5a26 b8bf be20 4abf
00000390: f615 1b40 5688 1fbf be30 063f 32cb 86c0
000003a0: f1c9 afbd e875 de3e 4785 a6be 3920 5ebe
000003b0: d986 04bf 715a 0abf 8961 ad3f 410e 1a3f
000003c0: 9a2c 55c0 09d5 40c0 8840 e6bf da5c 303d
000003d0: ebc4 d93f 9887 febf 6dd7 113f d312 c23f
000003e0: 58ec 013e aa93 953f 0605 5240 5520 47c0
000003f0: ec14 ea3e 9cc5 e9bf 8b58 3e3d 34a0 82bf

layer2.0.bias f4 [32]
1.5905064 0.71074843 1.2675904 0.1929084 0.4435456 0.7513682 1.5150124 0.3013051
1.0850894 0.25515854 0.8912754 -0.018793011 0.1955629 0.6260477 1.4774171 0.6082801
0.18916236 0.19695292 0.8210931 0.7610692 0.13229117 1.5598818 1.3215284 1.3605032
1.2819419 0.03198193 0.851824 1.0009146 0.16890362 1.5101044 0.78798115 0.17242675
00000000: b795 cb3f 9cf3 353f 6740 a23f c889 453e
00000010: 6918 e33e ab59 403f edeb c13f a944 9a3e
00000020: 36e4 8a3f 24a4 823e a02a 643f cdf3 99bc
00000030: a441 483e a944 203f 011c bd3f 3fb8 1b3f
00000040: c7b3 413e 07ae 493e 2833 523f 6ed5 423f
00000050: 5677 073e 35aa c73f d827 a93f f824 ae3f
00000060: ac16 a43f 7cff 023d 2311 5a3f f81d 803f
00000070: 12f5 2c3e 1a4b c13f 22b9 493f a390 303e

layer2.1.weight f4 [32]
0.46282926 0.4519615 0.5717718 0.26864558 0.22420615 0.5639231 0.60060024 0.14227194
0.40157884 0.22648065 0.4867421 0.86818254 0.17639042 0.65479624 0.58272964 0.9111599
0.21059252 0.28662583 0.74026227 0.49402067 0.1682578 0.6623765 0.49282986 0.44451433
0.6779981 0.27196413 0.6751161 0.61160725 0.27096218 0.5331695 0.48381898 0.2535691
00000000: f5f7 ec3e 7f67 e73e a35f 123f ea8b 893e
00000010: 4c96 653e 445d 103f f0c0 193f bcaf 113e
00000020: be9b cd3e 8bea 673e 4336 f93e 3641 5e3f
00000030: b19f 343e baa0 273f c52d 153f c641 693f
00000040: 91a5 573e 9fc0 923e d481 3d3f 47f0 fc3e
00000050: c64b 2c3e 8291 293f 3254 fc3e 6297 e33e
00000060: 4991 2d3f e23e 8b3e 69d4 2c3f 4b92 1c3f
00000070: 8ebb 8a3e cc7d 083f 1fb7 f73e cfd3 813e

layer2.1.bias f4 [32]
-0.48798946 -0.46637666 -0.6746859 -0.7322961 -0.6869979 -0.70840824 -0.68921214 -0.8243952
-0.45987082 -0.76534355 -0.4510903 -1.8564669 -0.9085395 -1.2240261 -0.7364286 -1.5647715
-0.76636624 -0.6258959 -0.9741166 -0.58976114 -0.5734798 -0.7499277 -0.62643194 -0.4404375
-1.03109 -0.6508736 -0.99986255 -0.67764616 -0.68851686 -0.51407826 -0.5696878 -0.8235452
00000000: c1d9 f9be ecc8 eebe 37b8 2cbf c277 3bbf
00000010: 18df 2fbf 3e5a 35bf 3570 30bf 900b 53bf
00000020: 3074 ebbe 8eed 43bf 4ff5 e6be b5a0 edbf
00000030: 0b96 68bf e3ac 9cbf 9686 3cbf 6f4a c8bf
00000040: 9430 44bf b73a 20bf b55f 79bf 96fa 16bf
00000050: 92cf 12bf 43fb 3fbf d85d 20bf 0681 e1be
00000060: c2fa 83bf a79f 26bf fef6 7fbf 387a 2dbf
00000070: a442 30bf a29a 03bf 0fd7 11bf dcd3 52bf

layer2.1.running_mean f4 [32]
-77.4593 -56.80324 -63.85464 -41.632942 -21.25207 -49.19839 -62.925465 -28.76117
-50.358288 -29.556597 -49.542805 -43.19109 -36.201447 -54.059967 -77.93994 -65.785515
-17.84993 -16.946064 -49.071938 -99.576355 -34.871517 -63.10092 -53.686134 -63.752495
-44.402935 -21.654192 -50.27173 -66.602036 -24.998934 -84.489334 -53.049583 -36.085026
00000000: 29eb 9ac2 8536 63c2 276b 7fc2 2288 26c2
00000010: 3d04 aac1 27cb 44c2 adb3 7bc2 e016 e6c1
00000020: e36e 49c2 e973 ecc1 d52b 46c2 adc3 2cc2
00000030: 48ce 10c2 683d 58c2 40e1 9bc2 2f92 83c2
00000040: a8cc 8ec1 8a91 87c1 aa49 44c2 1827 c7c2
00000050: 6f7c 0bc2 5867 7cc2 9abe 56c2 8e02 7fc2
00000060: 9b9c 31c2 c93b adc1 4016 49c2 3e34 85c2
00000070: d1fd c7c1 8afa a8c2 c632 54c2 1157 10c2

layer2.1.running_var f4 [32]
4523.1494 5093.5576 3876.8147 670.59875 208.1237 3428.3047 4308.7427 372.38095
3056.692 389.6252 4451.0713 5672.7275 780.6885 4058.869 4920.0625 4631.4614
249.52771 129.26123 4262.769 5597.47 665.0364 3878.9954 2949.7512 4115.702
2671.361 183.57922 4370.348 4109.2134 252.87769 5378.261 4055.7559 589.6992
00000000: 3259 8d45 762c 9f45 094d 7245 52a6 2744
00000010: ab1f 5043 e044 5645 f1a5 8645 c330 ba43
00000020: 120b 3f45 07d0 c243 9218 8b45 d245 b145
00000030: 102c 4344 e7ad 7d45 80c0 9945 b1bb 9045
00000040: 1887 7943 e042 0143 2736 8545 c3eb ae45
00000050: 5442 2644 ed6f 7245 055c 3845 9e9d 8045
00000060: c7f5 2645 4894 3743 c992 8845 b569 8045
00000070: b0e0 7c43 1712 a845 187c 7d45 c06c 1344

fc.weight f4 [7, 4608]
-1.4472122 0.28388402 0.8721329 0.30312276 1.765518 -2.319489 -3.1365397 1.1055766
-2.2250407 -1.0592964 0.49334222 -1.2650203 0.27749723 -0.41189772 -2.0340755 0.2411157
0.5048039 -1.0645195 1.019202 -0.14461248 0.44324303 0.33956045 -1.3947408 -1.742363
0.6824096 0.5392347 1.0527471 0.6460202 -1.4448216 0.22688024 -0.89259094 0.19927837
-0.98397434 -2.4315119 -0.7401439 0.13796331 0.13941929 -0.16991436 -1.2418885 -0.15925388
0.42126673 -1.4157528 -0.64556086 1.6574019 -0.26907298 -0.8731866 0.21341349 -2.2037654
-0.42212433 0.2585355 -0.9833917 -0.72297764 -0.091645494 -0.23473361 0.7466608 -0.98087394
-0.7593786 -1.2200176 0.14477226 0.32910898 1.8053402 2.4097636 0.6728809 -0.4315243
1.4893154 -0.25439432 0.9512569 -0.03341347 -0.6802845 -1.2960771 1.3121985 -1.2557079
-1.3591994 -0.3935056 -0.09602713 0.24419646 0.13625813 1.7629598 -0.9475324 -0.23765469
0.27994144 1.7852787 0.0011514383 3.5174809 -0.42587155 0.46579567 0.8535955 -0.37640774
0.75633687 -0.7914816 0.4583903 -0.28264996 2.0885627 -0.51796085 0.26451352 -0.8795385
0.4582338 -0.40719247 1.1443552 -0.046186164 2.0657547 0.22059509 -0.56785893 0.3450519
1.299356 0.011022858 -0.0029592302 -0.7907455 0.79384136 1.5242932 0.14209764 0.86997384
-0.74151504 0.28321552 -0.17311676 0.80371517 1.2079301 1.0512807 -0.17275035 0.95292485
-0.061330814 0.15069816 -0.24979484 -1.947068 0.951917 -1.919872 1.3342166 1.0062233
1.0677369 -0.026992237 -0.4946697 0.2418873 0.07660721 2.2365115 -1.1816752 -0.06336565
-0.7369581 0.3185566 0.22242062 -1.1631286 1.3087773 -1.8597062 -0.21981171 -0.66676795
-0.77193224 -0.53670675 0.00077036687 -0.28305355 3.2411757 -2.5808756 1.2162262 1.236707
0.71678096 0.50222784 -0.64366096 -2.3320663 1.6830692 0.7055238 1.2473879 0.6491489
1.0645199 0.69674236 0.070003726 2.2095556 -0.6171275 0.7782269 0.6967621 1.9124553
0.10079364 0.41176477 0.68690115 0.846074 1.1330793 -0.30312473 1.8373114 1.0783758
0.8016129 1.366741 0.21275613 -0.061399132 -0.18641646 -1.9637809 0.06389111 2.2266388
1.4663248 -0.77035147 -0.00028219493 1.3433684 0.79092395 1.651057 0.9251989 -0.39602047
0.7187819 -0.4833492 0.3581122 1.2798771 1.6226829 -0.35986456 1.1138885 0.4975804
0.18168393 2.5457604 -1.4391664 0.44514573 2.2294474 0.108817376 -0.56748325 0.36185935
-0.29807365 -1.1151682 0.05805301 -0.16525653 0.16842113 -0.31003165 -0.70860684 3.1450322
1.4262948 -3.5390384 -1.5908376 -0.113631755 -1.3162433 -0.9323008 0.8884872 -0.715788
-2.347022 0.17009075 -1.0473894 -3.0165634 1.9090688 0.378451 -1.3510897 -2.321225
-1.1834598 -0.038052835 -1.3105345 -1.855194 -1.952863 0.19374087 -1.7433453 0.5562334
0.79256237 -3.150948 -0.8408498 -1.0500532 -1.5788361 -1.2137198 -0.89341414 -3.3504486
-1.4531859 0.47560742 -0.6861053 -0.46655244 -0.82601416 0.71297085 -0.6322074 0.22338577
00000000: 403e b9bf 3f59 913e 1a44 5f3f e832 9b3e
00000010: 7efc e13f 8272 14c0 11bd 48c0 8983 8d3f
00000020: 1167 0ec0 0697 87bf 5a97 fc3e 2fec a1bf
00000030: 1e14 8e3e 42e4 d2be 4b2e 02c0 09e7 763e
00000040: d43a 013f 2d42 88bf 3675 823f 4b15 14be
00000050: c0f0 e23e deda ad3e de86 b2bf c005 dfbf
00000060: 65b2 2e3f 490b 0a3f 6bc0 863f 9461 253f
00000070: eaef b8bf 4b53 683e d780 64bf a10f 4c3e
00000080: bee5 7bbf e49d 1bc0 127a 3dbf 4146 0d3e
00000090: eec3 0e3e 08fe 2dbe 34f6 9ebf 7313 23be
000000a0: 46b0 d73e 6337 b5bf 7a43 25bf bf25 d43f
000000b0: efc3 89be 2889 5fbf 1189 5a3e 7e0a 0dc0
000000c0: ae20 d8be c45e 843e 8fbf 7bbf 1015 39bf
000000d0: a2b0 bbbd 025e 70be 2a25 3f3f 8e1a 7bbf
000000e0: a366 42bf 8929 9cbf 2e3f 143e f980 a83e
000000f0: 6315 e73f 9139 1a40 ec41 2c3f c1f0 dcbe
00000100: e3a1 be3f f93f 82be 9285 733f 90dc 08bd
00000110: 2027 2ebf dbe5 a5bf 1ff6 a73f 09bb a0bf
00000120: 3ffa adbf 9179 c9be dfa9 c4bd a30e 7a3e
00000130: 4087 0b3e aba8 e13f 7c91 72bf c05b 73be
00000140: 7c54 8f3e 0384 e43f dceb 963a 681e 6140
00000150: d60b dabe c57c ee3e 3c85 5a3f 84b8 c0be
00000160: 4b9f 413f 8a9e 4abf 22b2 ea3e 7fb7 90be
00000170: 03ab 0540 1599 04bf 516e 873e 6f29 61bf
00000180: 9f9d ea3e 887b d0be 3b7a 923f b42d 3dbd
00000190: 5335 0440 aee3 613e 345f 11bf a5aa b03e
000001a0: 4c51 a63f 3899 343c a5ef 41bb 4c6e 4abf
000001b0: 3039 4b3f 0a1c c33f 0b82 113e 9bb6 5e3f
000001c0: eed3 3dbf a001 913e 8545 31be 47c0 4d3f
000001d0: 749d 9a3f 5e90 863f 78e5 30be e2f2 733f
000001e0: 0536 7bbd 9e50 1a3e 38ca 7fbe 8639 f9bf
000001f0: d5b0 733f 5ebe f5bf 9cc7 aa3f edcb 803f
00000200: 9aab 883f d31e ddbc 5945 fdbe 4eb1 773e
00000210: 3ee4 9c3d 0123 0f40 2241 97bf dac5 81bd
00000220: 49a9 3cbf da19 a33e 3bc2 633e 66e1 94bf
00000230: 0486 a73f da0a eebf 5216 61be 4eb1 2abf
00000240: 5a9d 45bf 9d65 09bf 72f2 493a 65ec 90be
00000250: 6c6f 4f40 112d 25c0 4dad 9b3f 6a4c 9e3f
00000260: f57e 373f 0192 003f f7c6 24bf 9340 15c0
00000270: d06e d73f 359d 343f 68aa 9f3f 9f2e 263f
00000280: 3042 883f b55d 323f 1d5e 8f3d 5c69 0d40
00000290: 11fc 1dbf e139 473f 005f 323f 56cb f43f
000002a0: e56c ce3d d5d2 d23e c1d8 2f3f 4e98 583f
000002b0: be08 913f 2a33 9bbe 052d eb3f 3808 8a3f
000002c0: 8136 4d3f 5ef1 ae3f bedc 593e a87d 7bbd
000002d0: f5e3 3ebe 2c5d fbbf 58d9 823d 4081 0e40
000002e0: 88b0 bb3f c135 45bf 90f3 93b9 7ff3 ab3f
000002f0: fe79 4a3f d655 d33f d6d9 6c3f 32c3 cabe
00000300: 1702 383f 8c79 f7be 7b5a b73e 03d3 a33f
00000310: 13b4 cf3f 2b40 b8be e693 8e3f dcc2 fe3e
00000320: 5a0b 3a3e bded 2240 9b36 b8bf 24ea e33e
00000330: 44af 0e40 a5db de3d 9546 11bf a145 b93e
00000340: 1c9d 98be d5bd 8ebf fec8 6d3d 0239 29be
00000350: 9776 2c3e 78bc 9ebe 4267 35bf 3548 4940
00000360: d490 b63f 9b7f 62c0 91a0 cbbf c4b7 e8bd
00000370: a97a a8bf 44ab 6ebf e673 633f e23d 37bf
00000380: 9c35 16c0 452c 2e3e db10 86bf 600f 41c0
00000390: 5e5c f43f 54c4 c13e 82f0 acbf f38e 14c0
000003a0: 9c7b 97bf 4add 1bbd 98bf a7bf ff76 edbf
000003b0: 6af7 f9bf 0264 463e f025 dfbf 5065 0e3f
000003c0: 5ee5 4a3f 22a9 49c0 ef41 57bf 2568 86bf
000003d0: 4d17 cabf 2c5b 9bbf cab6 64bf c06d 56c0
000003e0: ff01 babf d182 f33e 99a4 2fbf f6df eebe
000003f0: aa75 53bf 4285 363f 58d8 21bf 3dbf 643e

fc.bias f4 [7]
0.104371555 -2.6688128 0.07084729 0.19088626 0.2217214 0.9289325 -1.155108
00000000: c1c0 d53d d4cd 2ac0 6218 913d b077 433e
00000010: ef0a 633e 85ce 6d3f 94da 93bf
