FaceExpressions_CNN/savemodel/model_14.pth (torch_old, 185408 bytes, 14 tensors)

layer1.0.weight f4 [16, 1, 5, 5]
0.82633084 1.1931328 2.2494028 1.6887357 1.957354 1.9927932 0.08960982 0.23426256
0.044691212 0.06586318 0.7876773 -1.1398207 -1.8796748 -3.1248028 -3.8379123 1.1892445
-0.61630696 -0.08629855 -1.6968733 -1.623527 0.06696328 -1.3500676 1.2569437 0.32850882
0.8356656 -1.1521547 -1.5155195 -0.14601384 1.3133339 1.8684348 -0.16876835 -0.89504945
-0.053893495 0.40389425 0.41491848 -1.6398579 -0.77061355 -0.700801 -1.7467879 -1.5506254
-2.769171 -2.0923445 -1.879096 -2.6010091 0.30502385 1.0503126 -0.10302746 0.33547023
0.66020846 0.5821486 -1.7278805 -0.7952839 0.503701 -0.21341883 -2.0794566 0.23393574
2.0572777 1.2358954 2.9011176 0.40712097 0.028442869 1.816818 0.9293772 2.865357
0.3983453 -1.6874707 0.6522059 0.41316935 2.9012892 0.03536762 -0.90703696 -0.0019691095
0.3382769 -0.10524426 -1.8348871 2.2070386 0.69753635 -1.3529308 -0.09401327 0.09324499
1.8046868 -2.6367776 -1.7754588 0.1293739 0.18799809 -1.6576626 -3.9178848 0.24830103
-0.29865977 -1.4586039 -1.2354002 1.1049783 1.9320998 1.5462348 1.5043534 0.10199025
1.4966087 0.16748706 0.388737 1.0872443 0.75437444 -0.2651429 -1.3155587 -2.4718595
0.40538818 0.4352692 -0.7692143 0.063905045 -1.6500804 -1.8287154 -1.0792739 -0.17297494
0.24821824 -2.911153 -2.8380919 0.9629865 0.62390685 -0.6476666 -1.9306284 -1.8734131
2.2064748 2.3644097 1.0958377 0.87081635 1.0771148 -0.9491546 -3.3604121 -3.696132
-1.8604145 -0.7061246 0.4161969 -0.7808529 -1.0852528 -1.2281791 -1.5134841 -0.011822883
0.25890115 1.3549536 1.4569407 -0.6817145 -0.38695034 0.49433467 1.4165953 0.8593323
1.2127539 2.1362207 0.99721164 1.3346463 0.61291647 2.4520023 0.39419398 -1.0653389
-0.58404595 1.31977 0.23862906 0.69465774 -0.41565004 -2.5170798 0.00040866184 2.7427275
0.702016 1.3452841 -2.8838909 -2.9093623 1.946919 -0.32344946 1.8640853 0.75443083
-2.6393042 -0.91757417 -0.37760353 0.36585605 1.4525902 0.20304027 -0.16904995 -0.31250963
-0.22323307 -1.9032598 -1.0010341 -1.3467082 -0.7980776 0.46732137 -0.5139956 0.36053595
0.41788483 -1.0847486 3.9102263 3.6874022 4.032861 1.4933112 -0.5110079 1.7272214
0.47742647 2.0501688 -1.4068229 1.0682796 0.6212343 -0.024854954 0.566249 -1.833743
-0.88295686 -0.4886467 -0.64895713 -1.8704783 -1.3395668 0.5720333 -0.13653724 -0.5759067
-0.2879583 1.5032194 0.5747921 1.6607299 1.1871845 2.1048803 -0.4744969 -0.17281637
2.35898 1.9149473 1.7781317 -2.9024172 0.2219526 0.8826145 1.473913 1.2575284
-3.0737166 0.21203859 -0.9756003 -0.40043464 -0.36434156 0.6517365 -0.7226817 -1.0206058
2.6459231 1.454934 0.32513717 0.099787086 0.7110136 4.125416 0.21549162 -2.1564405
-0.785164 1.8372734 3.3194416 -1.2455612 -2.9291766 -1.1771312 -0.51057404 0.5742633
-0.4374737 -0.96295 1.8438369 0.8778475 -1.7930349 -0.8771206 1.4301964 0.36858094
00000000: 6b8a 533f 93b8 983f 37f6 0f40 7e28 d83f
00000010: 938a fa3f d913 ff3f 5a85 b73d 86e2 6f3e
00000020: 220e 373d 46e3 863d 38a5 493f a5e5 91bf
00000030: 2f99 f0bf c5fc 47c0 5ba0 75c0 2a39 983f
00000040: 4bc6 1dbf 4bbd b0bd 2533 d9bf bccf cfbf
00000050: 0b24 893d 04cf acbf 88e3 a03f 4f32 a83e
00000060: 2eee 553f ce79 93bf 8bfc c1bf a784 15be
00000070: 531b a83f df28 ef3f 9cd1 2cbe f621 65bf
00000080: 6dbf 5cbd 3acb ce3e 3270 d43e dde6 d1bf
00000090: ee46 45bf b267 33bf bf96 dfbf e57a c6bf
000000a0: 193a 31c0 f9e8 05c0 3886 f0bf ef76 26c0
000000b0: 162c 9c3e a570 863f 1000 d3bd c1c2 ab3e
000000c0: 6c03 293f b107 153f 302b ddbf ba97 4bbf
000000d0: 8cf2 003f 778a 5abe d115 05c0 da8c 6f3e
000000e0: 70aa 0340 d231 9e3f e9ab 3940 2972 d03e
000000f0: 0501 e93c 7e8d e83f aaeb 6d3f 0262 3740
00000100: eaf3 cb3e 0aff d7bf f7f6 263f ef8a d33e
00000110: b9ae 3940 a3dd 103d 9333 68bf 2d0c 01bb
00000120: a132 ad3e 4d8a d7bd 95dd eabf 1f40 0d40
00000130: be91 323f d62c adbf 088a c0bd 3bf7 be3d
00000140: faff e63f f7c0 28c0 3c42 e3bf 977a 043e
00000150: 9282 403e 4a2e d4bf a0be 7ac0 a042 7e3e
00000160: efe9 98be 88b3 babf 9821 9ebf ee6f 8d3f
00000170: 0c4f f73f 06eb c53f a78e c03f 44e0 d03d
00000180: e090 bf3f ba81 2b3e 8908 c73e d22a 8b3f
00000190: af1e 413f cfc0 87be 3a64 a8bf f232 1ec0
000001a0: 0a8f cf3e 9bdb de3e 3aeb 44bf a6e0 823d
000001b0: d635 d3bf 5913 eabf a625 8abf 5820 31be
000001c0: ec2c 7e3e 5550 3ac0 4ca3 35c0 4986 763f
000001d0: 5cb8 1f3f 7acd 25bf d51e f7bf 00cc efbf
000001e0: e236 0d40 7d52 1740 6944 8c3f d2ed 5e3f
000001f0: e6de 893f ccfb 72bf fe10 57c0 6d8d 6cc0
00000200: 1022 eebf 95c4 34bf c317 d53e fae5 47bf
00000210: 90e9 8abf f934 9dbf d9b9 c1bf c4b4 41bc
00000220: b18e 843e 1f6f ad3f 087d ba3f d784 2ebf
00000230: 5b1e c6be 6f19 fd3e ff52 b53f 34fd 5b3f
00000240: 853b 9b3f d7b7 0840 4349 7f3f b1d5 aa3f
00000250: 18e8 1c3f 9bed 1c40 cbd3 c93e 065d 88bf
00000260: 0984 15bf 39ee a83f 2d5b 743e 17d5 313f
00000270: 15d0 d4be d617 21c0 aa41 d639 d988 2f40
00000280: 52b7 333f 4532 ac3f ab91 38c0 fe32 3ac0
00000290: a434 f93f 2b9b a5be 599a ee3f 6122 413f
000002a0: 5cea 28c0 24e6 6abf 4055 c1be 7c51 bb3e
000002b0: 7aee b93f cae9 4f3e 6e1b 2dbe 4301 a0be
000002c0: 3697 64be 049e f3bf e321 80bf ef60 acbf
000002d0: d04e 4cbf bf44 ef3e 3795 03bf 2b98 b83e
000002e0: 00f5 d53e 0bd9 8abf 2641 7a40 66fe 6b40
000002f0: 330d 8140 d224 bf3f 6ad1 02bf 9715 dd3f
00000300: 3e71 f43e f735 0340 c612 b4bf 63bd 883f
00000310: 3609 1f3f 9e9c cbbc b2f5 103f 17b8 eabf
00000320: 7609 62bf e62f fabe 0e22 26bf d56b efbf
00000330: ed76 abbf c670 123f 6bd0 0bbe 9f6e 13bf
00000340: 456f 93be 7e69 c03f 9325 133f cc92 d43f
00000350: a9f5 973f 5cb6 0640 42f1 f2be c6f6 30be
00000360: 87f9 1640 fe1c f53f d299 e33f 34c1 39c0
00000370: 8b47 633e 06f3 613f 2ea9 bc3f b1f6 a03f
00000380: c6b7 44c0 a520 593e f1c0 79bf c505 cdbe
00000390: fa8a babe 34d8 263f ab01 39bf 36a3 82bf
000003a0: ce56 2940 473b ba3f 6178 a63e 2c5d cc3d
000003b0: fd04 363f 6803 8440 d6a9 5c3e 1f03 0ac0
000003c0: 8200 49bf c62b eb3f bb71 5440 8d6e 9fbf
000003d0: a177 3bc0 3cac 96bf fbb4 02bf eb02 133f
000003e0: 8efc dfbe e483 76bf d902 ec3f 9dba 603f
000003f0: 2b82 e5bf fa8a 60bf ad10 b73f a4b6 bc3e

layer1.0.bias f4 [16]
-1.4178991 1.3491575 -0.10810644 -0.24414435 0.81256515 -0.58524245 -0.46031064 0.27629107
0.40130925 -0.13357086 0.62908906 -0.76173687 0.48801148 0.14057681 0.9048566 0.19809425
00000000: b87d b5bf 31b1 ac3f e966 ddbd fa00 7abe
00000010: 4504 503f 73d2 15bf d6ad ebbe 0676 8d3e
00000020: 6878 cd3e cdc6 08be fb0b 213f 3001 43bf
00000030: a4dc f93e 5ef3 0f3e afa4 673f 38d9 4a3e

layer1.1.weight f4 [16]
2.111139 1.7464974 1.7575991 2.1096594 1.6329473 2.3089614 2.527943 1.7485077
0.978051 1.370009 1.583327 1.9517606 1.8088785 2.0674682 1.303914 0.4014955
00000000: e71c 0740 3a8d df3f 02f9 e03f a904 0740
00000010: 6b04 d13f 06c6 1340 d1c9 2140 1acf df3f
00000020: 8d61 7a3f 745c af3f 76aa ca3f 4bd3 f93f
00000030: 5589 e73f 6651 0440 a7e6 a63f d190 cd3e

layer1.1.bias f4 [16]
-2.29262 -1.4759837 -2.0749617 -0.0013997311 -1.2795035 -1.5134416 -0.8557721 -1.4600271
0.5759912 -0.7668083 -2.302702 -1.5403438 -2.169865 -0.3042518 -0.6826233 -1.3494763
00000000: 49ba 12c0 09ed bcbf 2ccc 04c0 2f77 b7ba
00000010: c5c6 a3bf 74b8 c1bf e113 5bbf 2be2 babf
00000020: 2974 133f 8c4d 44bf 785f 13c0 fc29 c5bf
00000030: 11df 0ac0 e4c6 9bbe 67c0 2ebf a4bb acbf

layer1.1.running_mean f4 [16]
-1.9338886 -5.202772 4.44453 -0.32865554 -3.2295127 -1.3182759 -0.6513051 5.54678
2.6066616 1.3394369 0.7486481 -1.0969675 -6.014385 -0.2539322 2.2890112 -2.8471363
00000000: a989 f7bf 1c7d a6c0 9739 8e40 8a45 a8be
00000010: 56b0 4ec0 44bd a8bf eebb 26bf 397f b140
00000020: 8bd3 2640 ab72 ab3f 67a7 3f3f 6e69 8cbf
00000030: d875 c0c0 6703 82be 297f 1240 7b37 36c0

layer1.1.running_var f4 [16]
3.1311245 10.955128 6.402352 1.2993068 8.074716 5.9494643 0.7661054 8.173815
3.320833 2.1347742 1.4389291 4.5763426 15.51017 3.1728308 1.8970854 2.182519
00000000: 5864 4840 3448 2f41 11e0 cc40 af4f a63f
00000010: 0932 0141 0362 be40 7c1f 443f f2c7 0241
00000020: 8788 5440 24a0 0840 d42e b83f 6671 9240
00000030: a829 7841 a90f 4b40 b2d3 f23f 64ae 0b40

layer2.0.weight f4 [32, 16, 5, 5]
-3.2804284 -2.396897 -0.9465582 -2.0045784 -1.40233 -3.1263936 -2.1409748 -1.4514045
-2.6445315 -0.38404137 1.2289292 -0.88528186 -2.1693733 -1.4476553 2.1365826 1.057179
-0.9031265 -1.2668536 -1.2497479 0.28265595 -1.1501904 -2.4427974 -0.26718152 -0.58375037
1.1081003 -1.2092326 -0.783037 -2.0944655 -1.1953286 -0.068563454 0.56158966 0.115499906
-1.7665887 -0.079820365 2.164653 0.5503754 0.6471611 -0.7713106 -1.9577159 -0.71969044
1.5099777 2.3687332 0.6314168 -0.76944107 -1.1727147 2.4013746 0.69539446 -1.7929881
-1.7083999 0.18377708 -0.35510978 4.172159 -0.676971 -0.123526536 -1.5504534 -1.3070803
0.5190839 -1.5031104 -0.19660039 -1.2499062 -0.9677781 0.6688436 0.2577054 0.096368246
-1.408129 -0.83665305 2.1593795 -0.8149418 0.2127307 -0.8453081 -0.94573224 -0.15033591
-0.6267641 -1.2780823 -0.66980004 0.77359146 -0.6756229 -0.48195994 0.026402736 -1.5415537
-1.3372428 -3.232497 -3.5434747 -1.8506782 0.21768096 1.6596508 0.8626245 -4.8373246
-3.6699874 0.66290736 0.84649336 1.0239689 -0.87204224 -0.0824433 0.5643741 0.24211822
1.1199838 -0.7769131 -0.8235033 1.3679363 -0.5841581 0.843469 -1.1115507 -0.8526417
-1.232121 -2.0269725 -0.60348743 -1.3024688 -1.4256806 -1.0674242 -0.1962745 -0.12449036
-1.2798085 -1.4099581 -1.4274153 1.6209499 1.6003782 -1.0100083 -1.191582 0.04387299
2.1914628 -1.0142614 -1.1604222 1.1506426 0.9038104 0.14523709 -1.4466984 -1.2460798
1.0330746 0.91277677 0.96426237 -0.24673873 -1.342849 -0.75549704 0.5649144 -1.54405
0.4462169 -0.49156263 0.34646097 -1.0335023 0.8782038 0.9127896 -2.8902576 -1.64544
1.1712934 -0.8265352 0.4462176 0.27387804 -2.6587234 -0.28404725 -1.4483476 3.0846393
-0.038776632 0.86704874 1.1134516 -0.08438273 -4.0436 -1.2699462 -1.7615253 -3.1815913
1.9449748 1.1692187 -1.0113459 -4.8113 -0.14591777 0.5663601 1.434216 -0.38361856
0.6384775 -0.35766122 0.6265228 0.3351332 -1.5716345 0.586911 -0.3361291 0.99503475
1.4819268 -1.7133112 1.0922724 0.37483457 0.9125666 0.72156966 -0.22101048 -0.7928143
-2.0723615 -1.8190781 -1.236647 -1.4398341 -0.22612172 -1.1524997 -1.9172337 -0.5335889
-0.97608495 0.6864199 0.9130828 -0.08720125 -0.38879636 -0.3981804 0.7833194 2.0170016
-0.77606386 -1.0620943 -0.92119217 0.42061952 -0.5097174 -0.99683416 -1.6318679 1.0810755
0.83381796 0.282588 -2.2346416 -1.9003011 -0.23992817 0.5094531 0.8181781 -1.0614672
-0.9429357 -0.7497205 -0.88815165 0.039901715 -1.990621 0.031985573 0.6218599 0.02420617
-1.0637817 -1.8485473 -1.2508049 -0.7416942 2.0176845 0.039257195 0.5668866 -3.501794
-0.5913691 0.87232167 -0.48486182 0.43283588 -0.264629 -0.043588422 1.2017652 0.061973404
-2.0561256 -1.7955645 -1.6460384 0.20466797 0.9169272 -1.5063863 0.30141073 1.0436764
0.51727915 0.8143246 2.0956554 -2.8081536 0.21021761 -1.2281965 0.24068454 -1.1426796
00000000: 8af2 51c0 c366 19c0 a351 72bf 034b 00c0
00000010: 8d7f b3bf d516 48c0 bb05 09c0 9fc7 b9bf
00000020: 0140 29c0 12a1 c4be 8d4d 9d3f d5a1 62bf
00000030: 03d7 0ac0 c54c b9bf c5bd 0840 a451 873f
00000040: 4c33 67bf 4228 a2bf bdf7 9fbf 48b8 903e
00000050: 7039 93bf cb56 1cc0 04cc 88be aa70 15bf
00000060: 3bd6 8d3f 22c8 9abf 1d75 48bf b90b 06c0
00000070: 8700 99bf ff6a 8cbd 57c4 0f3f 378b ec3d
00000080: 941f e2bf dc78 a3bd ad89 0a40 67e5 0c3f
00000090: 5aac 253f 9d74 45bf 6f96 fabf a23d 38bf
000000a0: f346 c13f 5399 1740 88a4 213f 17fa 44bf
000000b0: 841b 96bf 1fb0 1940 5f05 323f a280 e5bf
000000c0: d9ac dabf 0f30 3c3e f3d0 b5be 5482 8540
000000d0: f94d 2dbf 7bfb fcbd 4275 c6bf 684e a7bf
000000e0: afe2 043f ec65 c0bf 9d51 49be edfc 9fbf
000000f0: 4ec0 77bf 5639 2b3f f6f1 833e b75c c53d
00000100: 923d b4bf e52e 56bf 4633 0a40 07a0 50bf
00000110: 14d6 593e 1d66 58bf 821b 72bf a8f1 19be
00000120: 9d73 20bf 3398 a3bf 0478 2bbf 170a 463f
00000130: 9ff5 2cbf 74c3 f6be 8d4a d83c a251 c5bf
00000140: c62a abbf 3be1 4ec0 4ac8 62c0 06e3 ecbf
00000150: c2e7 5e3e 706f d43f f6d4 5c3f 5dcb 9ac0
00000160: 13e1 6ac0 4cb4 293f cab3 583f 6a11 833f
00000170: 293e 5fbf 08d8 a8bd d27a 103f d7ed 773e
00000180: a15b 8f3f c7e3 46bf 1dd1 52bf 8918 af3f
00000190: 638b 15bf 96ed 573f 4b47 8ebf ba46 5abf
000001a0: 24b6 9dbf ebb9 01c0 277e 1abf 4cb7 a6bf
000001b0: b47c b6bf 5ba1 88bf 2ffc 48be cdf4 febd
000001c0: c4d0 a3bf 8279 b4bf 8bb5 b6bf 497b cf3f
000001d0: 31d9 cc3f f447 81bf c285 98bf 2ab4 333d
000001e0: ed40 0c40 51d3 81bf b788 94bf 4248 933f
000001f0: 1e60 673f 08b9 143e 6a2d b9bf 8b7f 9fbf
00000200: ca3b 843f bdab 693f e6d9 763f 14a9 7cbe
00000210: 7ae2 abbf 4168 41bf 3b9e 103f 6ea3 c5bf
00000220: 8b76 e43e 19ae fbbe 5563 b13e ce49 84bf
00000230: f7d1 603f 94ac 693f fbf9 38c0 c79d d2bf
00000240: f1ec 953f d097 53bf a276 e43e be39 8c3e
00000250: 8628 2ac0 a46e 91be 7463 b9bf bb6a 4540
00000260: 3fd4 1ebd e8f6 5d3f 9585 8e3f dad0 acbd
00000270: 2c65 81c0 998d a2bf a979 e1bf 319f 4bc0
00000280: eff4 f83f f5a8 953f c873 81bf 2bf6 99c0
00000290: 786b 15be fafc 103f 6494 b73f a769 c4be
000002a0: 4373 233f 5f1f b7be cc63 203f 9496 ab3e
000002b0: 522b c9bf cd3f 163f 1d19 acbe 99ba 7e3f
000002c0: c7af bd3f c84d dbbf 95cf 8b3f 51ea bf3e
000002d0: f79d 693f cab8 383f 9250 62be e1f5 4abf
000002e0: 92a1 04c0 8dd7 e8bf 734a 9ebf 7c4c b8bf
000002f0: 748c 67be 1c85 93bf ea67 f5bf 4899 08bf
00000300: b4e0 79bf 37b9 2f3f cbbf 693f 9296 b2bd
00000310: 5110 c7be 4dde cbbe 9f87 483f 8e16 0140
00000320: 1fac 46bf b5f2 87bf 40d3 6bbf 715b d73e
00000330: d77c 02bf 8630 7fbf 0ce1 d0bf af60 8a3f
00000340: 1875 553f 60af 903e 5e04 0fc0 113d f3bf
00000350: bbaf 75be 856b 023f 1f74 513f 28de 87bf
00000360: 3c64 71bf afed 3fbf e85d 63bf fb6f 233d
00000370: abcc febf 4e03 033d 3632 1f3f 054c c63c
00000380: 002a 88bf 339d ecbf 601a a0bf acdf 3dbf
00000390: be21 0140 27cc 203d 7b1f 113f 651d 60c0
000003a0: f763 17bf 7950 5f3f cf3f f8be aa9c dd3e
000003b0: 747d 87be c689 32bd 71d3 993f d3d7 7d3d
000003c0: 9097 03c0 0fd5 e5bf 63b1 d2bf 7b94 513e
000003d0: bebb 6a3f 44d1 c0bf 8252 9a3e 3097 853f
000003e0: 686c 043f 9477 503f 381f 0640 cab8 33c0
000003f0: 4943 573e 8b35 9dbf 0276 763e 5343 92bf

layer2.0.bias f4 [32]
1.1617352 0.6039036 0.85165393 0.1929084 0.4435456 0.6320341 1.3140332 0.3013051
0.83122486 0.25515854 0.72131914 -0.036319967 0.1955629 0.4931845 1.2420583 0.39954555
0.18916236 0.19695292 0.5887427 0.5169548 0.13229117 1.3575366 1.1022797 1.030971
1.0170475 0.03198193 0.75948787 0.8189251 0.16890362 1.1909533 0.6207801 0.17242675
00000000: bdb3 943f 6d99 1a3f fe05 5a3f c889 453e
00000010: 6918 e33e fdcc 213f 3d32 a83f a944 9a3e
00000020: 27cb 543f 24a4 823e 5fa8 383f 3fc4 14bd
00000030: a441 483e ae82 fc3e c4fb 9e3f 3c91 cc3e
00000040: c7b3 413e 07ae 493e d7b7 163f 2657 043f
00000050: 5677 073e c2c3 ad3f 8017 8d3f dcf6 833f
00000060: 9d2e 823f 7cff 023d cc6d 423f 13a5 513f
00000070: 12f5 2c3e 2871 983f 72eb 1e3f a390 303e

layer2.1.weight f4 [32]
0.44172066 0.36550793 0.495158 0.26864558 0.22420615 0.51733804 0.5571638 0.14227194
0.39432102 0.22648065 0.4133758 0.72007936 0.17639042 0.58875775 0.5539577 0.8199925
0.21059252 0.28662583 0.60879195 0.4871632 0.1682578 0.56261367 0.4631832 0.41786122
0.60362446 0.27196413 0.5863549 0.5660969 0.27096218 0.4439105 0.40426302 0.2535691
00000000: 3629 e23e db23 bb3e 5985 fd3e ea8b 893e
00000010: 4c96 653e 4470 043f 49a2 0e3f bcaf 113e
00000020: 72e4 c93e 8bea 673e fea5 d33e 1f57 383f
00000030: b19f 343e d4b8 163f 2cd0 0d3f 07eb 513f
00000040: 91a5 573e 9fc0 923e cad9 1b3f 746d f93e
00000050: c64b 2c3e 7307 103f 5926 ed3e e8f1 d53e
00000060: 2287 1a3f e23e 8b3e 5b1b 163f baeb 103f
00000070: 8ebb 8a3e 3d48 e33e 90fb ce3e cfd3 813e

layer2.1.bias f4 [32]
-0.48047122 -0.42216706 -0.65033615 -0.7322961 -0.6869979 -0.6507714 -0.66013354 -0.8243952
-0.42627817 -0.76534355 -0.44790727 -1.719778 -0.9085395 -1.1480862 -0.6701107 -1.3789644
-0.76636624 -0.6258959 -0.8732607 -0.52554387 -0.5734798 -0.7042882 -0.5978505 -0.4214003
-0.92498153 -0.6508736 -0.9381084 -0.72170734 -0.68851686 -0.4829278 -0.57104176 -0.8235452
00000000: 5300 f6be 4826 d8be 6e7c 26bf c277 3bbf
00000010: 18df 2fbf f498 26bf 83fe 28bf 900b 53bf
00000020: 2241 dabe 8eed 43bf 1a54 e5be af21 dcbf
00000030: 0b96 68bf 7df4 92bf 608c 2bbf e881 b0bf
00000040: 9430 44bf b73a 20bf 038e 5fbf 0b8a 06bf
00000050: 92cf 12bf 3b4c 34bf bb0c 19bf c8c1 d7be
00000060: 97cb 6cbf a79f 26bf df27 70bf d0c1 38bf
00000070: a442 30bf 5042 f7be cb2f 12bf dcd3 52bf

layer2.1.running_mean f4 [32]
-66.073555 -44.344185 -51.57996 -37.13589 -18.996626 -35.69863 -48.849663 -25.690477
-37.928978 -26.109245 -34.635468 -41.656403 -31.649408 -42.56454 -60.815674 -54.93945
-15.225336 -15.406446 -39.677185 -76.38533 -31.377867 -52.43894 -39.900963 -47.923893
-35.73361 -19.73281 -45.067238 -51.270767 -22.20227 -71.89838 -52.78631 -31.934517
00000000: a925 84c2 7260 31c2 e151 4ec2 278b 14c2
00000010: 17f9 97c1 66cb 0ec2 0e66 43c2 1986 cdc1
00000020: 46b7 17c2 bcdf d0c1 b88a 0ac2 28a0 26c2
00000030: fd31 fdc1 1742 2ac2 4043 73c2 ffc1 5bc2
00000040: fa9a 73c1 ce80 76c1 70b5 1ec2 4ac5 98c2
00000050: df05 fbc1 79c1 51c2 969a 1fc2 11b2 3fc2
00000060: 37ef 0ec2 cbdc 9dc1 da44 34c2 4415 4dc2
00000070: 409e b1c1 f8cb 8fc2 2e25 53c2 e479 ffc1

layer2.1.running_var f4 [32]
2840.4614 2905.2268 2229.9548 514.99146 164.99947 1864.2577 2415.0059 281.1149
1681.3843 294.4086 2232.3567 3397.7668 537.78516 2112.977 2696.3433 2773.4836
176.79745 103.53189 2470.1663 3360.9038 504.08517 2472.2825 1732.3784 2274.8145
1534.3784 143.52579 2729.278 2229.5059 187.99951 3470.614 2824.253 434.22543
00000000: 6287 3145 a193 3545 475f 0b45 74bf 0044
00000010: ddff 2443 3f08 e944 18f0 1645 b58e 8c43
00000020: 4c2c d244 4d34 9343 b585 0b45 455c 5445
00000030: 4072 0644 a20f 0445 7e85 2845 bd57 2d45
00000040: 26cc 3043 5410 cf42 a962 1a45 760e 5245
00000050: e70a fc43 8584 1a45 1c8c d844 082d 0e45
00000060: 1ccc bf44 9a86 0f43 7394 2a45 1858 0b45
00000070: e0ff 3b43 d3e9 5845 0c84 3045 db1c d943

fc.weight f4 [7, 4608]
-1.2914248 -0.21401177 0.7166 0.6091616 1.6764075 -1.9355491 -2.5296607 1.0129261
-1.4068897 -0.8946597 -0.13434643 -0.5230938 -0.021746688 -0.1483719 -0.89579445 0.07316318
0.4308431 -0.7437667 0.63840014 0.031139906 0.35871634 0.12024403 -1.086788 -0.9873772
0.2625372 0.6436576 1.236035 0.37835374 -0.9257637 0.14551958 -0.5722477 -0.47021347
-0.90044934 -2.1556368 -0.6013769 0.13503616 -0.3604758 -0.246549 -1.21004 0.28654742
0.5706198 -1.0912151 -0.7135078 1.8438545 -0.6190563 -0.7987583 0.22209278 -1.7860115
-0.110280514 0.055577178 -0.6571903 -0.98545605 -0.21650396 -0.32270375 1.0377755 -1.0734887
-0.25126988 -1.2344 0.15251441 0.18418935 0.62017876 1.4708798 0.83509976 0.061691936
1.8728321 0.1837447 0.3322813 -0.4815701 -0.37528315 -0.82607627 1.1385908 -0.2585718
-0.4452569 -0.39995053 -0.6618246 0.21121669 0.17005357 1.7659107 -0.33652908 -0.14607978
0.33193097 1.473321 -0.075194344 2.3677032 -0.5242337 0.2694423 0.7221952 -0.6505674
0.662348 -0.8987793 0.6628079 -0.22091907 1.4581782 -0.6161445 -0.26447 -0.13927975
1.2915365 -0.39631495 0.55611855 -0.05314428 1.8069857 0.29498336 -0.6892982 0.48991153
1.0837537 -0.1814513 0.102701545 -0.6509689 -0.16272841 1.2382244 0.015467168 0.7623226
-0.85500073 0.08740583 -0.052422576 0.523788 1.1068065 1.0031481 0.33869052 1.0115857
-1.3357956 -0.49922344 -0.3278179 -1.5743266 0.8181541 -1.5767208 1.1410424 0.61279035
0.42527676 -0.08319201 -0.40330076 0.010781732 -0.7213522 1.5049161 -0.34790483 0.0702946
-0.8532471 0.5413235 0.42972365 -1.0513148 0.8017294 -1.5413115 -0.68476343 -0.42919773
-0.17252994 -0.6373231 0.1128973 -0.06794138 1.814534 -2.1013894 1.2441686 1.3524619
0.91930175 0.88806677 -0.912189 -1.4387758 1.3217541 -0.046217144 1.5309534 0.3319819
1.1040715 0.8222008 0.15764424 2.1284158 -0.421247 0.46178946 0.16537905 1.8078064
-0.3193469 -0.029860431 0.40175286 0.6839323 1.114304 -0.21047129 1.5201797 0.705763
0.49295914 1.032415 0.49559134 -0.96182805 0.031062102 -1.600261 0.045836475 2.0022705
1.4653406 -0.45174003 0.13073108 1.1954933 0.6013747 1.2765836 0.69531417 -0.8749134
0.958717 0.14813915 0.5811748 1.2393123 1.3684171 -0.28294596 1.2152493 0.3684733
0.25845566 2.4326465 -1.180275 0.610035 1.9445068 -0.1307758 -0.06976253 0.3133431
-0.37229237 -0.94104487 0.5544797 -0.16817082 0.27498573 -0.030259497 -0.76518106 2.8368351
0.89404565 -2.7385747 -1.1657897 -0.4840275 -1.4277854 -0.8230984 0.95850354 -0.5956307
-2.0038965 -0.023321433 -0.6747211 -2.175313 1.5101525 0.5619436 -0.7939944 -2.017121
-1.1708069 -0.22773522 -1.2725511 -1.6880294 -1.9274807 0.031185888 -1.4854362 0.40569338
0.82278 -2.5847468 -0.92906487 -1.2051817 -1.1819524 -1.2520794 -0.58937275 -2.7881005
-0.81019 0.5597287 -0.31513944 -0.15996255 -0.92612416 0.4396563 -0.3944067 0.35861996
00000000: 684d a5bf e725 5bbe 1973 373f 04f2 1b3f
00000010: 8594 d63f 13c0 f7bf f6e5 21c0 90a7 813f
00000020: f614 b4bf 6b08 65bf 1c92 09be 7ae9 05bf
00000030: 1c26 b2bc ceee 17be c952 65bf 94d6 953d
00000040: 7897 dc3e 7f67 3ebf 316e 233f 1e19 ff3c
00000050: aba9 b73e 8142 f63d df1b 8bbf c1c4 7cbf
00000060: 476b 863e bfc6 243f 6536 9e3f 95b7 c13e
00000070: dafe 6cbf 1603 153e d37e 12bf d2bf f0be
00000080: d983 66bf f4f5 09c0 d6f3 19bf eb46 0a3e
00000090: 4990 b8be 5777 7cbe 97e2 9abf 58b6 923e
000000a0: 2414 123f f0ac 8bbf 72a8 36bf 6d03 ec3f
000000b0: 797a 1ebf 6d7b 4cbf 4a6c 633e 069c e4bf
000000c0: c0da e1bd e5a4 633d a03d 28bf d946 7cbf
000000d0: 37b3 5dbe 6d39 a5be d4d5 843f 1468 89bf
000000e0: 72a6 80be d200 9ebf bd2c 1c3e 229c 3c3e
000000f0: 09c4 1e3f ca45 bc3f 19c9 553f afb0 7c3d
00000100: f6b8 ef3f 9227 3c3e c620 aa3e 5b90 f6be
00000110: 1d25 c0be bc79 53bf 58bd 913f 8663 84be
00000120: b6f8 e3be 51c6 ccbe 566d 29bf 3049 583e
00000130: 8622 2e3e 5d09 e23f 8a4d acbe f095 15be
00000140: dbf2 a93e c895 bc3f 7eff 99bd 7388 1740
00000150: 2e34 06bf 57f4 893e c9e1 383f 968b 26bf
00000160: a38f 293f 6616 66bf c7ad 293f 9c38 62be
00000170: 95a5 ba3f a5bb 1dbf 9d68 87be 5a9f 0ebe
00000180: 1151 a53f cbe9 cabe c95d 0e3f d1ad 59bd
00000190: 4f4b e73f 0f08 973e d975 30bf afd5 fa3e
000001a0: 71b8 8a3f 5fce 39be 3055 d23d e6a5 26bf
000001b0: 47a2 26be 237e 9e3f 016a 7d3c 9327 433f
000001c0: 54e1 5abf d401 b33d 0eb9 56bd f816 063f
000001d0: d6ab 8d3f 2867 803f d868 ad3e a47b 813f
000001e0: 5afb aabf 379a ffbe bfd7 a7be 8983 c9bf
000001f0: 8c72 513f fdd1 c9bf ad0d 923f d4df 1c3f
00000200: e0bd d93e 9360 aabd 707d cebe dda5 303c
00000210: 8aaa 38bf 17a1 c03f 9520 b2be 9ef6 8f3d
00000220: 676e 5abf 2d94 0a3f bd04 dc3e 7c91 86bf
00000230: 233e 4d3f b249 c5bf a84c 2fbf cebf dbbe
00000240: b0ab 30be 9b27 23bf b336 e73d da24 8bbd
00000250: a642 e83f 2a7d 06c0 eb40 9f3f 791d ad3f
00000260: 5c57 6b3f 5858 633f 3885 69bf ce29 b8bf
00000270: 3d2f a93f 304e 3dbd 48f6 c33f 88f9 a93e
00000280: 3752 8d3f c07b 523f 7e6d 213e f737 0840
00000290: b0ad d7be ab6f ec3e 2059 293e 3366 e73f
000002a0: 7081 a3be dd9d f4bc 8db2 cd3e 3016 2f3f
000002b0: 83a1 8e3f c985 57be 4095 c23f e2ac 343f
000002c0: 2465 fc3e 2d26 843f 26be fd3e 5d3a 76bf
000002d0: f375 fe3c 5ad5 ccbf 07bf 3b3d 3325 0040
000002e0: 4890 bb3f 784a e7be 5ede 053e ed05 993f
000002f0: b1f3 193f 1767 a33f 1c00 323f 53fa 5fbf
00000300: 7a6e 753f cab1 173e dfc7 143f c9a1 9e3f
00000310: 4b28 af3f 4bde 90be 4a8d 9b3f 88a8 bc3e
00000320: 4d54 843e 7bb0 1b40 4013 97bf 412b 1c3f
00000330: 99e5 f83f 17ea 05be a8df 8ebd 826e a03e
00000340: 1b9d bebe 51e8 70bf 62f2 0d3f f934 2cbe
00000350: eeca 8c3e c4e2 f7bc e8e2 43bf b58e 3540
00000360: 2de0 643f cf44 2fc0 9938 95bf 74d2 f7be
00000370: acc1 b6bf 94b6 52bf 7d60 753f 417b 18bf
00000380: d73f 00c0 970c bfbc 86ba 2cbf 5438 0bc0
00000390: ad4c c13f 89db 0f3f 3843 4bbf 8318 01c0
000003a0: 00dd 95bf 6c33 69be f4e2 a2bf 5911 d8bf
000003b0: b0b7 f6bf 8c79 ff3c c622 bebf 0bb7 cf3e
000003c0: b6a1 523f 7e6c 25c0 32d7 6dbf 6543 9abf
000003d0: 374a 97bf 2344 a0bf 22e1 16bf 3d70 32c0
000003e0: 9d68 4fbf 614a 0f3f f559 a1be 39cd 23be
000003f0: 7916 6dbf a11a e13e adef c9be 099d b73e

fc.bias f4 [7]
0.06594335 -1.9958347 0.085984476 0.10328781 0.24542141 0.79848504 -1.0244553
00000000: 4f0d 873d 8377 ffbf a118 b03d 8f88 d33d
00000010: c04f 7b3e 8469 4c3f 5a21 83bf
