FaceExpressions_CNN/savemodel/model_40.pth (torch_old, 185408 bytes, 14 tensors)

layer1.0.weight f4 [16, 1, 5, 5]
0.57158303 1.7255303 2.962623 2.6343215 2.75294 3.190867 -0.058836035 -0.555862
-0.18197246 0.13550511 0.93750334 -1.809817 -1.5246025 -4.4718523 -6.1405134 1.4442708
-0.9500563 -0.00048173644 -2.5564 -2.023455 0.94727784 -2.127982 1.6256973 0.30736417
1.6258239 -0.52392834 -2.3255947 -0.7155483 2.27502 2.8894935 -0.42494047 -1.4331049
0.18937406 1.0708225 -0.65233326 -0.8111889 -1.3691169 -0.6242029 -2.1839318 -2.35151
-5.689286 -2.4181857 -2.9464064 -4.878591 1.1628869 0.88558215 0.15916115 -0.7219491
0.6170889 1.5344813 -2.325969 -1.4173132 1.7435877 0.27524817 -3.07164 1.0371389
1.9340156 1.5601351 4.280266 0.13817224 0.27496853 3.1761758 -0.92267644 4.7517734
0.7998398 -3.2250144 2.216774 0.30776602 5.0501533 0.40321898 -1.4820719 0.11394477
0.21145312 -0.112820424 -2.7020776 3.2013266 1.0843201 -2.1603756 -0.22744834 0.11663157
2.5396845 -4.014109 -2.7878313 0.40438995 0.1322667 -2.198939 -5.4683886 0.18077403
-0.23180196 -2.346575 -1.8102226 1.9891372 2.6566963 2.3898108 1.9610555 0.44502738
1.5069888 0.2677023 0.30786085 1.6553787 1.6766917 -0.9224042 -2.0679798 -2.4721835
1.3020307 1.1387591 -1.6491988 0.27090192 -1.6830173 -2.1209233 -2.3149822 -0.3701495
1.2421603 -3.5433054 -4.7261324 0.90795606 0.7327974 -1.6013054 -2.637825 -1.8986232
3.7712467 3.8939068 1.3305138 1.7133366 0.8857107 -0.98488474 -4.553092 -5.405132
-2.0824578 -1.0629545 0.008983992 -0.9622322 -2.1211433 -1.6528165 -2.1758919 0.4183729
0.5483847 1.5294071 2.574427 -0.98643196 -0.6458135 0.2933682 2.2066994 0.9787953
1.2671236 3.5906289 1.3797942 1.6811267 0.29134983 3.7131093 0.5685835 -1.483292
-0.7271452 2.0441625 0.229551 1.0907903 -0.60668427 -3.5189688 0.30077142 3.749144
0.9367307 1.9985375 -4.208444 -4.2050443 2.8133652 -0.30827165 2.546421 1.4832823
-3.5597246 -1.2384242 -0.40465164 0.3599432 2.0924394 0.12471997 -0.10725222 0.078863755
-0.14650147 -2.7386453 -1.8451742 -1.0718764 -1.8201289 0.31482846 -1.0000206 0.59752184
0.5156162 -1.6181874 6.051623 5.43113 4.5946417 2.842362 -0.44116828 2.2778692
-0.4185414 3.0076356 -2.5447323 1.9424752 0.5936017 -0.19038951 1.576489 -2.952846
-1.7065356 -0.22412637 -0.51703507 -2.9523818 -1.7239745 1.4516019 -0.20380555 -0.68940073
-0.86496145 2.8693032 0.45206767 1.786374 1.1763995 3.226825 -0.5125058 0.38295949
2.7967575 2.6553807 2.7417343 -4.098151 0.33665282 0.7370927 2.003646 1.5959913
-4.579721 0.6569298 -1.625184 -0.39590266 0.15698086 0.27709404 -1.2765884 -1.5703522
3.4879816 2.238781 1.2353569 0.11266439 0.68631595 5.776912 0.20427112 -3.3247175
-1.2879453 2.5983963 5.0596085 -1.888062 -3.919653 -2.0047264 -0.11610434 -0.13668233
-0.66825235 -1.2068859 2.605426 0.78040576 -2.7883518 -1.2348751 1.741177 -0.22219819
00000000: 4453 123f 2dde dc3f 9d9b 3d40 b998 2840
00000010: 2b30 3040 2a37 4c40 0efe 70bd f94c 0ebf
00000020: fd56 3abe dac1 0a3e 3800 703f 15a8 e7bf
00000030: 2d26 c3bf 6a19 8fc0 167f c4c0 dedd b83f
00000040: e436 73bf 9291 fcb9 0f9c 23c0 4980 01c0
00000050: cd80 723f db30 08c0 d916 d03f d65e 9d3e
00000060: ff1a d03f 2b20 06bf 8bd6 14c0 2c2e 37bf
00000070: ed99 1140 76ed 3840 cc91 d9be fb6f b7bf
00000080: 46eb 413e b610 893f 50ff 26bf 13aa 4fbf
00000090: 393f afbf c3cb 1fbf 8ac5 0bc0 247f 16c0
000000a0: a20e b6c0 8ec3 1ac0 ec91 3cc0 6b1d 9cc0
000000b0: 7ad9 943f 83b5 623f 24fb 223e a8d1 38bf
000000c0: 8af9 1d3f e269 c43f addc 14c0 856a b5bf
000000d0: e22d df3f 54ed 8c3e c095 44c0 f8c0 843f
000000e0: d38d f73f 82b2 c73f f0f7 8840 067d 0d3e
000000f0: adc8 8c3e 7746 4b40 8634 6cbf 870e 9840
00000100: 4dc2 4c3f a366 4ec0 a0df 0d40 8293 9d3e
00000110: db9a a140 b872 ce3e 88b4 bdbf e05b e93d
00000120: 2b87 583e 650e e7bd d7ee 2cc0 89e2 4c40
00000130: 00cb 8a3f 9843 0ac0 38e8 68be 88dc ee3d
00000140: 318a 2240 9573 80c0 d46b 32c0 330c cf3e
00000150: ec70 073e 6bbb 0cc0 0afd aec0 d41c 393e
00000160: 7e5d 6dbe 492e 16c0 60b5 e7bf 0c9c fe3f
00000170: 5007 2a40 a9f2 1840 de03 fb3f a1da e33e
00000180: 02e5 c03f 4710 893e f09f 9d3e 73e3 d33f
00000190: d59d d63f af22 6cbf c859 04c0 4138 1ec0
000001a0: f1a8 a63f dcc2 913f f218 d3bf a8b3 8a3e
000001b0: 1c6d d7bf 35bd 07c0 ab28 14c0 3c84 bdbe
000001c0: 1cff 9e3f 84c5 62c0 7a3c 97c0 cf6f 683f
000001d0: 9c98 3b3f 93f7 ccbf 20d2 28c0 1606 f3bf
000001e0: 1b5c 7140 c535 7940 474e aa3f 9d4e db3f
000001f0: f0bd 623f 6821 7cbf eeb2 91c0 d7f6 acc0
00000200: fd46 05c0 e50e 88bf 9831 133c d954 76bf
00000210: d0c0 07c0 7e8f d3bf d041 0bc0 f934 d63e
00000220: f162 0c3f 9dc3 c33f 69c3 2440 ce86 7cbf
00000230: 0954 25bf 5b34 963e 903a 0d40 5492 7a3f
00000240: 1b31 a23f ddcc 6540 199d b03f 292f d73f
00000250: ce2b 953e 95a3 6d40 b08e 113f 83dc bdbf
00000260: 3026 3abf 8fd3 0240 6b0f 6b3e 049f 8b3f
00000270: a94f 1bbf c936 61c0 b6fe 993e faf1 6f40
00000280: 95cd 6f3f 14d0 ff3f 93ab 86c0 b98f 86c0
00000290: 2d0e 3440 c8d5 9dbe 90f8 2240 32dc bd3f
000002a0: 87d2 63c0 af84 9ebf 802e cfbe 7a4a b83e
000002b0: 87ea 0540 2f6d ff3d 0da7 dbbd 5283 a13d
000002c0: 7b04 16be f745 2fc0 ab2e ecbf 3f33 89bf
000002d0: fcf9 e8bf 3231 a13e ad00 80bf 31f7 183f
000002e0: 6cff 033f c420 cfbf e5a6 c140 d1cb ad40
000002f0: 4e07 9340 42e9 3540 cfe0 e1be 9cc8 1140
00000300: 0f4b d6be 1a7d 4040 e5dc 22c0 07a3 f83f
00000310: 48f6 173f 78f5 42be 64ca c93f 6efb 3cc0
00000320: c26f dabf 6281 65be 695c 04bf d3f3 3cc0
00000330: 32ab dcbf 17ce b93f 67b2 50be 917c 30bf
00000340: 1d6e 5dbf aaa2 3740 6a75 e73e e7a7 e43f
00000350: 4294 963f 4d84 4e40 9533 03bf 4413 c43e
00000360: 13fe 3240 c2f1 2940 9378 2f40 0e24 83c0
00000370: c25d ac3e 1bb2 3c3f bc3b 0040 7149 cc3f
00000380: 138d 92c0 8d2c 283f 0806 d0bf c1b3 cabe
00000390: 97bf 203e 45df 8d3e 4067 a3bf 4d01 c9bf
000003a0: 173b 5f40 3048 0f40 2d20 9e3f 96bc e63d
000003b0: 67b2 2f3f 77dc b840 732c 513e 2cc8 54c0
000003c0: 64db a4bf 204c 2640 50e8 a140 04ac f1bf
000003d0: 98db 7ac0 704d 00c0 1dc8 edbd 74f6 0bbe
000003e0: 9612 2bbf 3d7b 9abf 4dbf 2640 acc8 473f
000003f0: 5b74 32c0 6310 9ebf e3de de3f ec87 63be

layer1.0.bias f4 [16]
-0.9473838 3.4878807 0.37917444 -0.83285147 2.0616274 -2.3723006 -0.15581805 0.9629643
0.50082755 0.60393447 0.29039586 -0.77133924 2.1651359 0.2063573 2.1598182 0.19809988
00000000: bf87 72bf 7039 5f40 2723 c23e c135 55bf
00000010: b4f1 0340 c6d3 17c0 c48e 1fbe d484 763f
00000020: 3c36 003f 739b 1a3f c4ae 943e 7d76 45bf
00000030: 9691 0a40 544f 533e 763a 0a40 b2da 4a3e

layer1.1.weight f4 [16]
2.9124386 2.3666623 2.82504 2.5034444 2.326161 3.0122745 2.7189758 2.5049736
1.3030542 1.7779545 2.4553347 2.5524435 2.9790962 2.5194924 1.8092288 0.3668706
00000000: 6565 3a40 6577 1740 75cd 3440 6f38 2040
00000010: d2df 1440 1bc9 4040 b303 2e40 7d51 2040
00000020: 7bca a63f 0394 e33f 3424 1d40 3c5b 2340
00000030: 83a9 3e40 5d3f 2140 cf94 e73f 77d6 bb3e

layer1.1.bias f4 [16]
-3.0671084 -2.2936423 -3.7334528 -0.076501384 -1.8863744 -2.0136395 -0.96813923 -1.9798058
0.71717966 -0.87408495 -3.5166867 -1.9969294 -3.3433003 -0.33900893 -0.93757474 -1.3687358
00000000: 814b 44c0 09cb 12c0 e4f0 6ec0 c2ac 9cbd
00000010: b774 f1bf 78df 00c0 f9d7 77bf 476a fdbf
00000020: 1699 373f 08c4 5fbf 6511 61c0 629b ffbf
00000030: a2f8 55c0 9492 adbe e604 70bf bc32 afbf

layer1.1.running_mean f4 [16]
-1.8205105 -6.059694 7.0622573 -1.3743958 -2.3646846 -3.3689525 -0.38180372 7.5053377
3.898096 2.336378 0.28079602 -1.2623309 -7.5886936 -0.3414918 2.521695 -3.668635
00000000: 7d06 e9bf 03e9 c1c0 03fe e140 34ec afbf
00000010: fe56 17c0 eb9c 57c0 c77b c3be ba2b f040
00000020: 687a 7940 3887 1540 7fc4 8f3e 0f94 a1bf
00000030: 94d6 f2c0 03d8 aebe 7363 2140 eaca 6ac0

layer1.1.running_var f4 [16]
5.9210644 23.640778 13.702654 2.6730459 11.849473 11.123338 1.5058142 13.012336
6.2817707 4.012804 3.0035174 9.832469 33.638268 6.1127477 2.7148728 3.367431
00000000: 5c79 bd40 5020 bd41 123e 5b41 2f13 2b40
00000010: 7197 3d41 31f9 3141 85be c03f 8732 5041
00000020: 4404 c940 e468 8040 a139 4040 cb51 1d41
00000030: 968d 0642 a19b c340 7ac0 2d40 fd83 5740

layer2.0.weight f4 [32, 16, 5, 5]
-3.8095074 -4.0989604 -2.0665684 -4.3847814 -1.5147334 -5.084845 -2.1723216 -2.0129814
-4.2977486 0.83828837 1.6592788 -0.11667513 -3.0157142 -0.0018586725 1.8763164 -0.32945913
-1.6826736 -0.38980782 0.74510163 -1.1100957 -2.0870204 -2.0823488 0.61991054 -1.6125171
1.5055193 -3.571511 -1.1351367 -2.6628184 -2.048751 0.46089962 -0.40012735 0.9396115
-1.0919688 0.8870792 5.9991975 0.19647548 1.7793354 -0.411939 -4.3161917 -0.15927678
-0.1398662 3.1043777 3.0957341 -1.2734255 -0.107256636 2.0255327 0.9744937 -1.4969156
-3.9647753 1.234537 -0.44312164 6.165507 -1.6479443 -0.3470502 -1.2676666 -0.36060628
0.058287553 -4.1794515 -0.4459115 0.19888291 -2.3565626 1.4917057 -0.18579733 0.15751155
-1.0732613 -1.0123425 3.777441 1.203192 1.9345465 0.024875225 -2.413905 -1.2014887
-0.20833506 -2.6199837 -2.852179 1.459399 -1.3342974 -0.9044344 -0.096979216 -2.7060158
-1.8100358 -3.818926 -4.745891 -1.1488926 0.045492884 3.4495273 1.630409 -7.2488933
-5.5461855 0.58057743 0.48051828 1.318957 -1.9620503 0.945233 -0.5464618 -0.0018818206
1.8044811 -1.657553 -0.3529841 1.804776 -0.6048271 2.7398832 -1.711114 0.083476394
-1.3376646 -3.5790708 -4.388149 -2.5618818 -1.8359559 -1.6031506 -2.8760016 -1.7881161
-0.26064146 -0.55097425 -2.5632293 0.3770415 3.994771 -0.59948915 -1.9190415 -0.7382653
2.6824157 -0.822678 -1.5324532 1.8505908 1.3896484 -0.15601075 -2.0396645 -2.0696535
0.7757239 1.21276 1.1698757 0.036747616 -1.5896461 -0.9097004 0.26743 -2.285192
1.1791863 -0.71297854 0.51010156 -1.090294 0.43818173 1.459826 -4.684756 -1.6170863
2.0044115 -1.158361 0.71550155 -0.41886204 -3.3902283 -0.26045233 -2.643565 4.9699063
-0.19524892 0.9040851 1.2610152 -0.25875622 -7.8439727 -1.1406987 -0.15710713 -6.1728644
3.0887887 1.1062735 -1.7420231 -5.5985284 0.9770744 1.1074048 1.920262 -0.18916792
1.5693529 -0.78046024 1.4211259 0.5312432 -1.991968 0.09938227 -1.543497 0.83928806
-0.23014352 -2.7917898 1.1273764 0.9582695 3.5436625 0.896846 -0.43233386 -0.6840778
-2.1613605 -5.8688264 -2.3785067 -1.6261147 -2.1362846 -1.213482 -2.7780337 -0.45887965
-1.0748072 -0.84014416 2.3487556 -0.31155378 -0.07260473 0.46420655 0.6695518 2.7154508
-0.8936351 -0.68015915 -0.27500746 0.90156 -0.9342925 -1.3044764 -2.7724626 1.7833174
1.0788946 -0.5075922 -2.9678512 -2.581614 -0.13826856 1.4370438 1.2704643 -1.6813532
-0.7207857 -2.0544157 -2.028329 0.766592 -2.6892982 0.165313 1.5039304 0.30780917
0.19267619 -1.2264881 -1.005878 -2.1967933 2.8926222 -1.5461549 0.5955704 -5.2473373
0.4325646 0.09884611 -0.15478498 -0.803443 -1.3362705 -0.53485674 1.9621959 0.77199084
-4.299141 -3.806807 -2.190425 -0.28637785 1.3092933 -1.9597036 1.1695858 1.7985591
-0.0009271133 0.81581914 4.3558 -4.22765 0.5244623 -2.8032784 0.38956833 -0.57601726
00000000: f8ce 73c0 af2a 83c0 a842 04c0 2150 8cc0
00000010: c9e2 c1bf 0db7 a2c0 5107 0bc0 b0d4 00c0
00000020: 2887 89c0 119a 563f 3f63 d43f 5ff3 eebd
00000030: 7601 41c0 b39e f3ba 232b f03f deae a8be
00000040: d961 d7bf e494 c7be fbbe 3e3f 9e17 8ebf
00000050: be91 05c0 3445 05c0 75b2 1e3f f666 cebf
00000060: dbb4 c03f a393 64c0 294c 91bf 9e6b 2ac0
00000070: bd1e 03c0 09fb eb3e 7edd ccbe 618a 703f
00000080: a2c5 8bbf 9f17 633f 6df9 bf40 de30 493e
00000090: 43c1 e33f abe9 d2be 3e1e 8ac0 7419 23be
000000a0: 1639 0fbe 20ae 4640 8220 4640 9bff a2bf
000000b0: 5ea9 dbbd 54a2 0140 6b78 793f ee9a bfbf
000000c0: e1be 7dc0 4f05 9e3f d7e0 e2be d54b c540
000000d0: d7ef d2bf 90b0 b1be e642 a2bf 63a1 b8be
000000e0: eebe 6e3d 11be 85c0 834e e4be f6a7 4b3e
000000f0: ecd1 16c0 36f0 be3f a841 3ebe b54a 213e
00000100: a060 89bf 7094 81bf 98c1 7140 3202 9a3f
00000110: 389f f73f 21c7 cb3c 6b7d 1ac0 62ca 99bf
00000120: c955 55be d0ad 27c0 1a8a 36c0 96cd ba3f
00000130: 42ca aabf 0389 67bf 0a9d c6bd 5d2f 2dc0
00000140: 41af e7bf 4969 74c0 57de 97c0 ea0e 93bf
00000150: bf56 3a3d 0ec5 5c40 3eb1 d03f eff6 e7c0
00000160: 5a7a b1c0 b9a0 143f 7e06 f63e 95d3 a83f
00000170: 7724 fbbf cafa 713f ece4 0bbf 6ca7 f6ba
00000180: 3df9 e63f b22a d4bf 55ba b4be e602 e73f
00000190: f3d5 1abf 3f5a 2f40 c905 dbbf acf5 aa3d
000001a0: 9838 abbf 7f0f 65c0 b76b 8cc0 dff5 23c0
000001b0: 9a00 ebbf 0a34 cdbf 6910 38c0 fde0 e4bf
000001c0: cc72 85be a60c 0dbf f30b 24c0 950b c13e
000001d0: 54aa 7f40 1f78 19bf 27a3 f5bf f4fe 3cbf
000001e0: b3ac 2b40 079b 52bf 6d27 c4bf 29e0 ec3f
000001f0: 00e0 b13f 48c1 1fbe dd89 02c0 3475 04c0
00000200: d795 463f b83b 9b3f 7dbe 953f ab84 163d
00000210: 8679 cbbf 20e2 68bf 96ec 883e 9640 12c0
00000220: 94ef 963f c385 36bf 0496 023f c18e 8bbf
00000230: 5b59 e03e 94db ba3f 85e9 95c0 affc cebf
00000240: 4748 0040 2c45 94bf 1c2b 373f 1675 d6be
00000250: 80f9 58c0 025a 85be 2b30 29c0 7909 9f40
00000260: 55ef 47be 1f72 673f f268 a13f b27b 84be
00000270: d301 fbc0 6a02 92bf b1e0 20be 1b88 c5c0
00000280: b7ae 4540 5f9a 8d3f 9dfa debf 2527 b3c0
00000290: 8c21 7a3f 71bf 8d3f 25cb f53f 3cb5 41be
000002a0: 8ee0 c83f 3ecc 47bf 74e7 b53f 8eff 073f
000002b0: cff8 febf ee88 cb3d 4f91 c5bf 95db 563f
000002c0: beaa 6bbe afac 32c0 df4d 903f 2651 753f
000002d0: 5ecb 6240 b397 653f dd5a ddbe b91f 2fbf
000002e0: bb53 0ac0 6dcd bbc0 7439 18c0 8724 d0bf
000002f0: e3b8 08c0 6153 9bbf 4ecb 31c0 46f2 eabe
00000300: 4893 89bf b013 57bf 0352 1640 fa83 9fbe
00000310: cab1 94bd 7bac ed3e bf67 2b3f f2c9 2d40
00000320: 45c5 64bf e91e 2ebf c7cd 8cbe a3cc 663f
00000330: cb2d 6fbf 15f9 a6bf 0770 31c0 bf43 e43f
00000340: 3819 8a3f 90f1 01bf 46f1 3dc0 2a39 25c0
00000350: 4696 0dbe 0df1 b73f 939e a23f 9536 d7bf
00000360: 6985 38bf 8c7b 03c0 24d0 01c0 603f 443f
00000370: 761d 2cc0 d047 293e cb80 c03f 2a99 9d3e
00000380: e84c 453e 90fd 9cbf 9cc0 80bf 4398 0cc0
00000390: b920 3940 67e8 c5bf 4d77 183f 30ea a7c0
000003a0: 1b79 dd3e d46f ca3d f47f 1ebe 71ae 4dbf
000003b0: e90a abbf 5fec 08bf 3c29 fb3f 31a1 453f
000003c0: 9092 89c0 baa2 73c0 ec2f 0cc0 1ea0 92be
000003d0: ec96 a73f 91d7 fabf fdb4 953f 2f37 e63f
000003e0: 8509 73ba 86d9 503f b762 8b40 e948 87c0
000003f0: 2943 063f ea68 33c0 8075 c73e de75 13bf

layer2.0.bias f4 [32]
2.0494492 0.89101005 1.539577 0.1929084 0.4435456 0.95280915 1.8968592 0.3013051
1.4103531 0.25515854 1.0119147 -0.011835667 0.1955629 0.6913096 1.9624974 0.88557124
0.18916236 0.19695292 1.0519683 1.2007906 0.13229117 1.8806193 1.59502 1.6707436
1.5412434 0.03198193 0.9669636 1.2920703 0.16890362 2.2253003 0.9163814 0.17242675
00000000: 2d2a 0340 3c19 643f dc10 c53f c889 453e
00000010: 6918 e33e 4deb 733f 48cc f23f a944 9a3e
00000020: 7386 b43f 24a4 823e 6c86 813f 63ea 41bc
00000030: a441 483e aaf9 303f 1d33 fb3f ccb4 623f
00000040: c7b3 413e 07ae 493e e6a6 863f 82b3 993f
00000050: 5677 073e 22b8 f03f 9e29 cc3f edda d53f
00000060: 7747 c53f 7cff 023d ed8a 773f 8f62 a53f
00000070: 12f5 2c3e 526b 0e40 f997 6a3f a390 303e

layer2.1.weight f4 [32]
0.4869531 0.5018418 0.6061109 0.26864558 0.22420615 0.58500224 0.62166536 0.14227194
0.39982837 0.22648065 0.48364076 0.9702824 0.17639042 0.7366186 0.7091629 1.0842346
0.21059252 0.28662583 0.8008449 0.56243545 0.1682578 0.71784484 0.4996001 0.40746564
0.6990332 0.27196413 0.71180356 0.66094947 0.27096218 0.54683745 0.5439545 0.2535691
00000000: eb51 f93e b478 003f 152a 1b3f ea8b 893e
00000010: 4c96 653e b5c2 153f 7625 1f3f bcaf 113e
00000020: 4eb6 cc3e 8bea 673e c39f f73e 6d64 783f
00000030: b19f 343e 0993 3c3f b38b 353f 33c8 8a3f
00000040: 91a5 573e 9fc0 923e 2c04 4d3f c5fb 0f3f
00000050: c64b 2c3e aec4 373f 96cb ff3e 569f d03e
00000060: d7f3 323f e23e 8b3e c238 363f fc33 293f
00000070: 8ebb 8a3e 8afd 0b3f 9a40 0b3f cfd3 813e

layer2.1.bias f4 [32]
-0.50662136 -0.5364267 -0.7807602 -0.7322961 -0.6869979 -0.8554411 -0.72284216 -0.8243952
-0.49638674 -0.76534355 -0.481492 -2.0178473 -0.9085395 -1.3062972 -0.80262876 -1.6252592
-0.76636624 -0.6258959 -1.021083 -0.66308814 -0.5734798 -0.84980977 -0.7391526 -0.49494994
-1.0353528 -0.6508736 -1.0383315 -0.7840578 -0.68851686 -0.55961627 -0.6609169 -0.8235452
00000000: f0b1 01bf 4353 09bf e7df 47bf c277 3bbf
00000010: 18df 2fbf 30fe 5abf 2f0c 39bf 900b 53bf
00000020: 6726 febe 8eed 43bf 1f86 f6be 6924 01c0
00000030: 0b96 68bf bf34 a7bf 1479 4dbf 7e08 d0bf
00000040: 9430 44bf b73a 20bf d9b2 82bf 25c0 29bf
00000050: 92cf 12bf 228d 59bf 1b39 3dbf 146a fdbe
00000060: 7186 84bf a79f 26bf 0ce8 84bf 03b8 48bf
00000070: a442 30bf 0343 0fbf da31 29bf dcd3 52bf

layer2.1.running_mean f4 [32]
-107.10657 -73.42835 -76.48342 -47.37602 -23.919958 -62.541725 -74.06603 -32.65493
-61.046856 -33.135544 -58.504543 -57.796764 -41.802223 -68.93159 -98.454796 -75.00303
-21.025486 -18.708855 -62.163376 -125.57564 -40.842316 -77.36711 -77.422485 -73.16977
-49.954 -24.171734 -56.610146 -82.745674 -28.261665 -100.749504 -69.52495 -40.95988
00000000: 9036 d6c2 51db 92c2 83f7 98c2 0b81 3dc2
00000010: 135c bfc1 ba2a 7ac2 cf21 94c2 a69e 02c2
00000020: fb2f 74c2 cc8a 04c2 a704 6ac2 e32f 67c2
00000030: 7a35 27c2 f9dc 89c2 dbe8 c4c2 8d01 96c2
00000040: 3234 a8c1 bcab 95c1 4ca7 78c2 ba26 fbc2
00000050: 885e 23c2 f6bb 9ac2 50d8 9ac2 ec56 92c2
00000060: e5d0 47c2 b65f c1c1 ca70 62c2 c97d a5c2
00000070: e417 e2c1 bf7f c9c2 c60c 8bc2 ebd6 23c2

layer2.1.running_var f4 [32]
8792.5 10080.909 6517.36 866.8351 276.83984 5888.3887 6941.0024 477.51315
4926.359 506.69553 7571.152 9246.777 976.1216 7315.5254 8689.647 7355.2095
327.13696 168.33707 6496.087 9732.013 859.35547 6848.0337 5422.952 6423.584
4140.4824 238.30731 7207.1284 7239.7812 322.2444 8435.863 7322.9136 746.90607
00000000: 0062 0946 a383 1d46 e1aa cb45 72b5 5844
00000010: 806b 8a43 1c03 b845 05e8 d845 afc1 ee43
00000020: dff2 9945 0759 fd43 3799 ec45 1c7b 1046
00000030: c807 7444 349c e445 97c6 0746 add9 e545
00000040: 8891 a343 4a56 2843 b200 cb45 0d10 1846
00000050: c0d6 5644 4500 d645 9e77 a945 acbc c845
00000060: dc63 8145 ac4e 6e43 0739 e145 403e e245
00000070: 481f a143 74cf 0346 4fd7 e445 fdb9 3a44

fc.weight f4 [7, 4608]
-2.2509022 0.2924736 0.9048912 -0.057592448 1.0125207 -2.587066 -3.6316783 1.2819778
-1.8910444 -1.0302523 0.42319214 -1.5496721 0.043194927 -0.26587173 -2.0258558 0.56147593
0.30291498 -0.990589 1.1689352 -0.052391004 0.38708165 0.85914737 -1.422483 -2.5117323
0.037356474 0.2657211 0.2502146 1.0688701 -1.6711521 0.5924875 -1.0764148 -0.12860508
-0.8095272 -2.394316 -0.83098686 0.21228778 0.45189252 0.4538633 -1.5052516 -0.62417513
0.42788985 -1.584694 -0.34023875 1.2595992 -0.36930105 -1.253479 0.15247715 -2.1876771
-0.35129014 0.150368 -1.2320576 -0.9819183 -0.5562306 -0.08331693 0.75663733 -1.3088645
-0.6539744 -1.6160407 0.038888883 0.55157787 3.0635092 3.705535 0.7787779 -0.35060573
1.7473196 -0.57564026 0.32379985 0.005446673 -0.7253097 -1.0972309 1.4566315 -1.8189534
-1.6558467 -0.93618286 0.6524775 0.7538831 -0.28671256 2.2234128 -1.2647073 -0.41128188
-0.2047635 1.7353888 -0.4198139 4.229439 -0.36969483 -0.0023713997 1.1811827 -0.35989842
0.375458 -0.47897747 0.6464286 -0.339042 2.1530914 -0.90693563 0.48165604 -1.1260467
-0.4578396 -0.71869147 1.3344272 -0.54099524 2.6503937 0.25826743 -0.9036517 0.7735881
1.3672649 -0.05159047 0.1468548 -0.77684444 1.0030093 1.8566648 -0.10411045 0.5114174
-0.8807352 0.9331896 -0.18255718 1.100969 0.8328331 0.86816484 -0.3507056 0.9230902
-0.49351597 -0.027335554 -0.43974158 -2.561439 1.2621299 -2.7814074 1.2908117 0.82202905
1.3032479 -0.18776262 -0.98748976 0.5927459 0.93510896 3.2082965 -1.3107783 -0.10870704
-0.45485955 0.82836103 0.5843537 -1.2329429 1.8585879 -3.6549373 0.58864844 -1.096735
-0.77824736 -0.31798962 -0.00020452184 -0.80158937 3.184201 -3.515581 1.7129831 1.526853
0.38271874 0.3106195 0.26755646 -2.5095031 2.239607 0.8811989 1.5435218 1.0902147
1.3916129 0.28377995 0.5014631 2.7222471 -0.07037152 1.4077009 0.26999068 2.8600278
0.33586273 0.03621678 0.23644717 1.28408 1.2879126 -0.09640283 2.110038 1.3283198
0.7983323 0.92877233 -0.41467443 -0.47107524 -0.21021597 -2.120205 -0.029752742 2.408915
1.810732 -0.9590434 0.33170485 1.6141819 0.9620921 1.197346 1.024093 -0.27666113
0.5045206 -0.7432996 0.7734024 1.47759 1.2267777 -0.32095674 1.1470671 0.6844346
0.49960676 2.6688654 -1.345645 0.48119268 1.8681266 -0.096061714 -1.1152704 0.3801704
-0.362059 -1.3053474 0.5717121 0.30825222 0.3523659 -0.22163716 -0.712019 3.0203516
1.8120928 -3.860323 -2.3207302 0.17176522 -1.8923671 -0.99025154 0.9772023 -0.6056067
-3.063657 0.25729063 -1.0639081 -4.3608675 2.0368307 0.5091114 -1.1295363 -2.766307
-1.2268325 -0.12749363 -1.8023416 -1.8393962 -2.8625891 -0.18581595 -1.7096525 0.12845182
1.1754886 -4.279227 0.04307377 -0.77954865 -2.1570365 -1.4684732 -0.4139675 -3.978581
-1.3062866 1.1870298 -1.2000859 -0.49954498 -0.91060394 0.69035876 -0.30225393 -0.094896644
00000000: c80e 10c0 1abf 953e f3a6 673f 0fe6 6bbd
00000010: 479a 813f 7d92 25c0 6b6d 68c0 d917 a43f
00000020: be0d f2bf 4fdf 83bf a4ac d83e a85b c6bf
00000030: 2aed 303d 5720 88be 9fa7 01c0 e3bc 0f3f
00000040: ac17 9b3e 3e97 7dbf ab9f 953f f397 56bd
00000050: 912f c63e 15f1 5b3f ec13 b6bf 39c0 20c0
00000060: 1a03 193d 990c 883e 211c 803e bcd0 883f
00000070: 50e8 d5bf 43ad 173f f6c7 89bf 0db1 03be
00000080: 2d3d 4fbf 793c 19c0 8ebb 54bf f861 593e
00000090: 755e e73e c560 e83e 16ac c0bf f1c9 1fbf
000000a0: 6114 db3e 41d7 cabf c633 aebe 8c3a a13f
000000b0: 0715 bdbe 0072 a0bf f822 1c3e e702 0cc0
000000c0: 4ddc b3be 12fa 193e 10b4 9dbf ff5e 7bbf
000000d0: 2165 0ebf 11a2 aabd fcb2 413f df88 a7bf
000000e0: de6a 27bf 6cda cebf f349 1f3d 3534 0d3f
000000f0: 8910 4440 7c27 6d40 fd5d 473f 9882 b3be
00000100: 2ba8 df3f 295d 13bf 18c9 a53e 017a b23b
00000110: e6ad 39bf 1072 8cbf e772 ba3f 77d3 e8bf
00000120: c9f2 d3bf aea9 6fbf c408 273f 7cfe 403f
00000130: fdcb 92be 654c 0e40 eee1 a1bf 8a93 d2be
00000140: 86ad 51be 3821 de3f d9f1 d6be 9057 8740
00000150: a448 bdbe 7c69 1bbb ff30 973f 9b44 b8be
00000160: 083c c03e 893c f5be 587c 253f ea96 adbe
00000170: 40cc 0940 ef2c 68bf 9f9b f63e 4c22 90bf
00000180: f469 eabe 2afc 37bf 83ce aa3f aa7e 0abf
00000190: 0da0 2940 a13b 843e b855 67bf df09 463f
000001a0: 8902 af3f 8750 53bd 1b61 163e 47df 46bf
000001b0: 9c62 803f 31a7 ed3f dc37 d5bd 40ec 023f
000001c0: dd77 61bf 83e5 6e3f 45f0 3abe 8dec 8c3f
000001d0: 8d34 553f 0d40 5e3f af8f b3be a44f 6c3f
000001e0: 20ae fcbe d0ee dfbc cf25 e1be 9eee 23c0
000001f0: 798d a13f 9402 32c0 5139 a53f 7f70 523f
00000200: d4d0 a63f d844 40be 21cc 7cbf 32be 173f
00000210: 4d63 6f3f bb54 4d40 95c7 a7bf cca1 debd
00000220: 5ae3 e8be 780f 543f 3498 153f 13d1 9dbf
00000230: 35e6 ed3f 7eea 69c0 aab1 163f d061 8cbf
00000240: 383b 47bf 89cf a2be ea74 56b9 f634 4dbf
00000250: f3c9 4b40 47ff 60c0 0843 db3f eb6f c33f
00000260: b6f3 c33e 8509 9f3e 29fd 883e b39b 20c0
00000270: b955 0f40 4096 613f 1f92 c53f 288c 8b3f
00000280: 5f20 b23f 9b4b 913e e35f 003f 4c39 2e40
00000290: f21e 90bd 8b2f b43f 383c 8a3e b20a 3740
000002a0: 33f6 ab3e 0c58 143d 351f 723e bc5c a43f
000002b0: 52da a43f d96e c5bd dd0a 0740 6206 aa3f
000002c0: 815f 4c3f 06c4 6d3f 3550 d4be c630 f1be
000002d0: db42 57be 70b1 07c0 06bc f3bc aa2b 1a40
000002e0: 11c6 e73f de83 75bf 38d5 a93e 839d ce3f
000002f0: ab4b 763f a242 993f 7b15 833f 87a6 8dbe
00000300: 4328 013f e248 3ebf b3fd 453f ab21 bd3f
00000310: 0d07 9d3f 7154 a4be 18d3 923f 1b37 2f3f
00000320: 75cc ff3e b1ce 2a40 183e acbf e35e f63e
00000330: c61e ef3f 01bc c4bd 2ec1 8ebf b2a5 c23e
00000340: cc5f b9be a015 a7bf b95b 123f 3cd3 9d3e
00000350: 4e69 b43e daf4 62be e146 36bf 714d 4140
00000360: a8f2 e73f 880f 77c0 d886 14c0 39e3 2f3e
00000370: 1639 f2bf 2081 7dbf ee29 7a3f 0a09 1bbf
00000380: f512 44c0 99bb 833e 242e 88bf 3a8c 8bc0
00000390: 6f5b 0240 2055 023f a594 90bf 2d0b 31c0
000003a0: d908 9dbf b18d 02be 21b3 e6bf 5671 ebbf
000003b0: a934 37c0 8946 3ebe e5d5 dabf e088 033e
000003c0: 6976 963f 6def 88c0 1f6e 303d 8090 47bf
000003d0: e30c 0ac0 eef6 bbbf 8cf3 d3be 12a1 7ec0
000003e0: 6634 a7bf 98f0 973f 6a9c 99bf 5cc4 ffbe
000003f0: 571d 69bf 5abb 303f 07c1 9abe 2c59 c2bd

fc.bias f4 [7]
0.12589504 -2.4573283 0.03847251 0.15608019 0.32096422 0.99379313 -1.4404534
00000000: a1ea 003e de44 1dc0 5a95 1d3d 7cd3 1f3e
00000010: 6c55 a43e 3a69 7e3f c760 b8bf
